{"format": "graph-model", "generatedBy": "2.11.0", "convertedBy": "TensorFlow.js Converter v3.19.0", "signature": {"outputs": {"Identity:0": {"name": "Identity:0"}}}, "modelTopology": {"node": [{"name": "ConstantFolding/PartitionedCall/model_219/tf.math.divide/truediv_recip", "op": "Const", "attr": {"dtype": {"type": "DT_FLOAT"}, "value": {"tensor": {"dtype": "DT_FLOAT", "tensorShape": {"dim": [{"size": "1"}, {"size": "1"}, {"size": "1"}]}}}}}, {"name": "1102", "op": "Const", "attr": {"value": {"tensor": {"dtype": "DT_FLOAT", "tensorShape": {"dim": [{"size": "1"}, {"size": "2"}, {"size": "4725"}]}}}, "dtype": {"type": "DT_FLOAT"}}}, {"name": "1094", "op": "Const", "attr": {"value": {"tensor": {"dtype": "DT_INT64", "tensorShape": {"dim": [{"size": "3"}]}}}, "dtype": {"type": "DT_INT64"}}}, {"name": "1096", "op": "Const", "attr": {"value": {"tensor": {"dtype": "DT_INT64", "tensorShape": {"dim": [{"size": "3"}]}}}, "dtype": {"type": "DT_INT64"}}}, {"name": "PartitionedCall/model_219/tf.strided_slice_19/ones_like", "op": "Const", "attr": {"dtype": {"type": "DT_INT64"}, "value": {"tensor": {"dtype": "DT_INT64", "tensorShape": {"dim": [{"size": "3"}]}}}}}, {"name": "1104", "op": "Const", "attr": {"dtype": {"type": "DT_FLOAT"}, "value": {"tensor": {"dtype": "DT_FLOAT", "tensorShape": {"dim": [{"size": "1"}, {"size": "2"}, {"size": "4725"}]}}}}}, {"name": "1088", "op": "Const", "attr": {"dtype": {"type": "DT_INT64"}, "value": {"tensor": {"dtype": "DT_INT64", "tensorShape": {"dim": [{"size": "3"}]}}}}}, {"name": "1090", "op": "Const", "attr": {"value": {"tensor": {"dtype": "DT_INT64", "tensorShape": {"dim": [{"size": "3"}]}}}, "dtype": {"type": "DT_INT64"}}}, {"name": "PartitionedCall/model_219/tf.strided_slice_16/StridedSlice/strides", "op": "Const", "attr": {"dtype": {"type": "DT_INT64"}, "value": {"tensor": {"dtype": "DT_INT64", "tensorShape": {"dim": [{"size": "3"}]}}}}}, {"name": "PartitionedCall/model_219/tf.reshape_6/Reshape/shape", "op": "Const", "attr": {"value": {"tensor": {"dtype": "DT_INT32", "tensorShape": {"dim": [{"size": "4"}]}}}, "dtype": {"type": "DT_INT32"}}}, {"name": "PartitionedCall/model_219/tf.compat.v1.transpose_4/transpose/perm", "op": "Const", "attr": {"value": {"tensor": {"dtype": "DT_INT32", "tensorShape": {"dim": [{"size": "4"}]}}}, "dtype": {"type": "DT_INT32"}}}, {"name": "PartitionedCall/model_219/tf.nn.softmax_1/concat", "op": "Const", "attr": {"dtype": {"type": "DT_INT32"}, "value": {"tensor": {"dtype": "DT_INT32", "tensorShape": {"dim": [{"size": "4"}]}}}}}, {"name": "PartitionedCall/model_219/tf.nn.softmax_1/concat_1", "op": "Const", "attr": {"value": {"tensor": {"dtype": "DT_INT32", "tensorShape": {"dim": [{"size": "4"}]}}}, "dtype": {"type": "DT_INT32"}}}, {"name": "PartitionedCall/model_219/tf.compat.v1.transpose_6/transpose/perm", "op": "Const", "attr": {"dtype": {"type": "DT_INT32"}, "value": {"tensor": {"dtype": "DT_INT32", "tensorShape": {"dim": [{"size": "4"}]}}}}}, {"name": "1092", "op": "Const", "attr": {"dtype": {"type": "DT_FLOAT"}, "value": {"tensor": {"dtype": "DT_FLOAT", "tensorShape": {"dim": [{"size": "1"}, {"size": "1"}, {"size": "16"}, {"size": "1"}]}}}}}, {"name": "PartitionedCall/model_219/tf.compat.v1.transpose_7/transpose/perm", "op": "Const", "attr": {"dtype": {"type": "DT_INT32"}, "value": {"tensor": {"dtype": "DT_INT32", "tensorShape": {"dim": [{"size": "4"}]}}}}}, {"name": "PartitionedCall/model_219/tf.reshape_8/Reshape/shape", "op": "Const", "attr": {"value": {"tensor": {"dtype": "DT_INT32", "tensorShape": {"dim": [{"size": "3"}]}}}, "dtype": {"type": "DT_INT32"}}}, {"name": "1098", "op": "Const", "attr": {"value": {"tensor": {"dtype": "DT_INT64", "tensorShape": {"dim": [{"size": "3"}]}}}, "dtype": {"type": "DT_INT64"}}}, {"name": "1100", "op": "Const", "attr": {"dtype": {"type": "DT_INT64"}, "value": {"tensor": {"dtype": "DT_INT64", "tensorShape": {"dim": [{"size": "3"}]}}}}}, {"name": "PartitionedCall/model_219/tf.strided_slice_18/ones_like", "op": "Const", "attr": {"dtype": {"type": "DT_INT64"}, "value": {"tensor": {"dtype": "DT_INT64", "tensorShape": {"dim": [{"size": "3"}]}}}}}, {"name": "PartitionedCall/model_219/tf.concat_34/concat/axis", "op": "Const", "attr": {"value": {"tensor": {"dtype": "DT_INT32", "tensorShape": {}}}, "dtype": {"type": "DT_INT32"}}}, {"name": "PartitionedCall/model_219/tf.math.multiply_179/Mul/y", "op": "Const", "attr": {"dtype": {"type": "DT_FLOAT"}, "value": {"tensor": {"dtype": "DT_FLOAT", "tensorShape": {"dim": [{"size": "1"}, {"size": "1"}, {"size": "4725"}]}}}}}, {"name": "1062", "op": "Const", "attr": {"dtype": {"type": "DT_FLOAT"}, "value": {"tensor": {"dtype": "DT_FLOAT", "tensorShape": {"dim": [{"size": "3"}, {"size": "3"}, {"size": "128"}, {"size": "64"}]}}}}}, {"name": "PartitionedCall/model_219/tf.math.add_84/Add/y", "op": "Const", "attr": {"value": {"tensor": {"dtype": "DT_FLOAT", "tensorShape": {"dim": [{"size": "64"}]}}}, "dtype": {"type": "DT_FLOAT"}}}, {"name": "1074", "op": "Const", "attr": {"dtype": {"type": "DT_FLOAT"}, "value": {"tensor": {"dtype": "DT_FLOAT", "tensorShape": {"dim": [{"size": "3"}, {"size": "3"}, {"size": "64"}, {"size": "64"}]}}}}}, {"name": "PartitionedCall/model_219/tf.math.add_88/Add/y", "op": "Const", "attr": {"value": {"tensor": {"dtype": "DT_FLOAT", "tensorShape": {"dim": [{"size": "64"}]}}}, "dtype": {"type": "DT_FLOAT"}}}, {"name": "1086", "op": "Const", "attr": {"value": {"tensor": {"dtype": "DT_FLOAT", "tensorShape": {"dim": [{"size": "1"}, {"size": "1"}, {"size": "64"}, {"size": "64"}]}}}, "dtype": {"type": "DT_FLOAT"}}}, {"name": "PartitionedCall/model_219/tf.math.add_94/Add/y", "op": "Const", "attr": {"dtype": {"type": "DT_FLOAT"}, "value": {"tensor": {"dtype": "DT_FLOAT", "tensorShape": {"dim": [{"size": "64"}]}}}}}, {"name": "1060", "op": "Const", "attr": {"value": {"tensor": {"dtype": "DT_FLOAT", "tensorShape": {"dim": [{"size": "3"}, {"size": "3"}, {"size": "128"}, {"size": "128"}]}}}, "dtype": {"type": "DT_FLOAT"}}}, {"name": "PartitionedCall/model_219/tf.math.add_86/Add/y", "op": "Const", "attr": {"dtype": {"type": "DT_FLOAT"}, "value": {"tensor": {"dtype": "DT_FLOAT", "tensorShape": {"dim": [{"size": "128"}]}}}}}, {"name": "1072", "op": "Const", "attr": {"dtype": {"type": "DT_FLOAT"}, "value": {"tensor": {"dtype": "DT_FLOAT", "tensorShape": {"dim": [{"size": "3"}, {"size": "3"}, {"size": "128"}, {"size": "128"}]}}}}}, {"name": "PartitionedCall/model_219/tf.math.add_90/Add/y", "op": "Const", "attr": {"value": {"tensor": {"dtype": "DT_FLOAT", "tensorShape": {"dim": [{"size": "128"}]}}}, "dtype": {"type": "DT_FLOAT"}}}, {"name": "1084", "op": "Const", "attr": {"dtype": {"type": "DT_FLOAT"}, "value": {"tensor": {"dtype": "DT_FLOAT", "tensorShape": {"dim": [{"size": "1"}, {"size": "1"}, {"size": "128"}, {"size": "12"}]}}}}}, {"name": "PartitionedCall/model_219/tf.math.add_96/Add/y", "op": "Const", "attr": {"dtype": {"type": "DT_FLOAT"}, "value": {"tensor": {"dtype": "DT_FLOAT", "tensorShape": {"dim": [{"size": "12"}]}}}}}, {"name": "PartitionedCall/model_219/tf.concat_20/concat/axis", "op": "Const", "attr": {"value": {"tensor": {"dtype": "DT_INT32", "tensorShape": {}}}, "dtype": {"type": "DT_INT32"}}}, {"name": "PartitionedCall/model_219/tf.compat.v1.transpose/transpose/perm", "op": "Const", "attr": {"value": {"tensor": {"dtype": "DT_INT32", "tensorShape": {"dim": [{"size": "4"}]}}}, "dtype": {"type": "DT_INT32"}}}, {"name": "PartitionedCall/model_219/tf.reshape/Reshape/shape", "op": "Const", "attr": {"value": {"tensor": {"dtype": "DT_INT32", "tensorShape": {"dim": [{"size": "3"}]}}}, "dtype": {"type": "DT_INT32"}}}, {"name": "1058", "op": "Const", "attr": {"value": {"tensor": {"dtype": "DT_FLOAT", "tensorShape": {"dim": [{"size": "3"}, {"size": "3"}, {"size": "256"}, {"size": "64"}]}}}, "dtype": {"type": "DT_FLOAT"}}}, {"name": "PartitionedCall/model_219/tf.math.add_106/Add/y", "op": "Const", "attr": {"value": {"tensor": {"dtype": "DT_FLOAT", "tensorShape": {"dim": [{"size": "64"}]}}}, "dtype": {"type": "DT_FLOAT"}}}, {"name": "1070", "op": "Const", "attr": {"value": {"tensor": {"dtype": "DT_FLOAT", "tensorShape": {"dim": [{"size": "3"}, {"size": "3"}, {"size": "64"}, {"size": "64"}]}}}, "dtype": {"type": "DT_FLOAT"}}}, {"name": "PartitionedCall/model_219/tf.math.add_110/Add/y", "op": "Const", "attr": {"dtype": {"type": "DT_FLOAT"}, "value": {"tensor": {"dtype": "DT_FLOAT", "tensorShape": {"dim": [{"size": "64"}]}}}}}, {"name": "1082", "op": "Const", "attr": {"dtype": {"type": "DT_FLOAT"}, "value": {"tensor": {"dtype": "DT_FLOAT", "tensorShape": {"dim": [{"size": "1"}, {"size": "1"}, {"size": "64"}, {"size": "64"}]}}}}}, {"name": "PartitionedCall/model_219/tf.math.add_116/Add/y", "op": "Const", "attr": {"value": {"tensor": {"dtype": "DT_FLOAT", "tensorShape": {"dim": [{"size": "64"}]}}}, "dtype": {"type": "DT_FLOAT"}}}, {"name": "1056", "op": "Const", "attr": {"dtype": {"type": "DT_FLOAT"}, "value": {"tensor": {"dtype": "DT_FLOAT", "tensorShape": {"dim": [{"size": "3"}, {"size": "3"}, {"size": "256"}, {"size": "128"}]}}}}}, {"name": "PartitionedCall/model_219/tf.math.add_108/Add/y", "op": "Const", "attr": {"dtype": {"type": "DT_FLOAT"}, "value": {"tensor": {"dtype": "DT_FLOAT", "tensorShape": {"dim": [{"size": "128"}]}}}}}, {"name": "1068", "op": "Const", "attr": {"dtype": {"type": "DT_FLOAT"}, "value": {"tensor": {"dtype": "DT_FLOAT", "tensorShape": {"dim": [{"size": "3"}, {"size": "3"}, {"size": "128"}, {"size": "128"}]}}}}}, {"name": "PartitionedCall/model_219/tf.math.add_112/Add/y", "op": "Const", "attr": {"value": {"tensor": {"dtype": "DT_FLOAT", "tensorShape": {"dim": [{"size": "128"}]}}}, "dtype": {"type": "DT_FLOAT"}}}, {"name": "1080", "op": "Const", "attr": {"value": {"tensor": {"dtype": "DT_FLOAT", "tensorShape": {"dim": [{"size": "1"}, {"size": "1"}, {"size": "128"}, {"size": "12"}]}}}, "dtype": {"type": "DT_FLOAT"}}}, {"name": "PartitionedCall/model_219/tf.math.add_118/Add/y", "op": "Const", "attr": {"value": {"tensor": {"dtype": "DT_FLOAT", "tensorShape": {"dim": [{"size": "12"}]}}}, "dtype": {"type": "DT_FLOAT"}}}, {"name": "PartitionedCall/model_219/tf.concat_26/concat/axis", "op": "Const", "attr": {"dtype": {"type": "DT_INT32"}, "value": {"tensor": {"dtype": "DT_INT32", "tensorShape": {}}}}}, {"name": "PartitionedCall/model_219/tf.compat.v1.transpose_1/transpose/perm", "op": "Const", "attr": {"value": {"tensor": {"dtype": "DT_INT32", "tensorShape": {"dim": [{"size": "4"}]}}}, "dtype": {"type": "DT_INT32"}}}, {"name": "PartitionedCall/model_219/tf.reshape_2/Reshape/shape", "op": "Const", "attr": {"value": {"tensor": {"dtype": "DT_INT32", "tensorShape": {"dim": [{"size": "3"}]}}}, "dtype": {"type": "DT_INT32"}}}, {"name": "1054", "op": "Const", "attr": {"dtype": {"type": "DT_FLOAT"}, "value": {"tensor": {"dtype": "DT_FLOAT", "tensorShape": {"dim": [{"size": "3"}, {"size": "3"}, {"size": "512"}, {"size": "64"}]}}}}}, {"name": "PartitionedCall/model_219/tf.math.add_126/Add/y", "op": "Const", "attr": {"dtype": {"type": "DT_FLOAT"}, "value": {"tensor": {"dtype": "DT_FLOAT", "tensorShape": {"dim": [{"size": "64"}]}}}}}, {"name": "1066", "op": "Const", "attr": {"value": {"tensor": {"dtype": "DT_FLOAT", "tensorShape": {"dim": [{"size": "3"}, {"size": "3"}, {"size": "64"}, {"size": "64"}]}}}, "dtype": {"type": "DT_FLOAT"}}}, {"name": "PartitionedCall/model_219/tf.math.add_130/Add/y", "op": "Const", "attr": {"value": {"tensor": {"dtype": "DT_FLOAT", "tensorShape": {"dim": [{"size": "64"}]}}}, "dtype": {"type": "DT_FLOAT"}}}, {"name": "1078", "op": "Const", "attr": {"value": {"tensor": {"dtype": "DT_FLOAT", "tensorShape": {"dim": [{"size": "1"}, {"size": "1"}, {"size": "64"}, {"size": "64"}]}}}, "dtype": {"type": "DT_FLOAT"}}}, {"name": "PartitionedCall/model_219/tf.math.add_134/Add/y", "op": "Const", "attr": {"dtype": {"type": "DT_FLOAT"}, "value": {"tensor": {"dtype": "DT_FLOAT", "tensorShape": {"dim": [{"size": "64"}]}}}}}, {"name": "1046", "op": "Const", "attr": {"value": {"tensor": {"dtype": "DT_INT64", "tensorShape": {"dim": [{"size": "4"}]}}}, "dtype": {"type": "DT_INT64"}}}, {"name": "1048", "op": "Const", "attr": {"value": {"tensor": {"dtype": "DT_INT64", "tensorShape": {"dim": [{"size": "4"}]}}}, "dtype": {"type": "DT_INT64"}}}, {"name": "PartitionedCall/model_219/tf.strided_slice_14/ones_like", "op": "Const", "attr": {"dtype": {"type": "DT_INT64"}, "value": {"tensor": {"dtype": "DT_INT64", "tensorShape": {"dim": [{"size": "4"}]}}}}}, {"name": "1026", "op": "Const", "attr": {"value": {"tensor": {"dtype": "DT_INT64", "tensorShape": {"dim": [{"size": "4"}]}}}, "dtype": {"type": "DT_INT64"}}}, {"name": "1028", "op": "Const", "attr": {"dtype": {"type": "DT_INT64"}, "value": {"tensor": {"dtype": "DT_INT64", "tensorShape": {"dim": [{"size": "4"}]}}}}}, {"name": "PartitionedCall/model_219/tf.strided_slice_12/ones_like", "op": "Const", "attr": {"dtype": {"type": "DT_INT64"}, "value": {"tensor": {"dtype": "DT_INT64", "tensorShape": {"dim": [{"size": "4"}]}}}}}, {"name": "1006", "op": "Const", "attr": {"dtype": {"type": "DT_INT64"}, "value": {"tensor": {"dtype": "DT_INT64", "tensorShape": {"dim": [{"size": "4"}]}}}}}, {"name": "1008", "op": "Const", "attr": {"dtype": {"type": "DT_INT64"}, "value": {"tensor": {"dtype": "DT_INT64", "tensorShape": {"dim": [{"size": "4"}]}}}}}, {"name": "PartitionedCall/model_219/tf.strided_slice_10/ones_like", "op": "Const", "attr": {"dtype": {"type": "DT_INT64"}, "value": {"tensor": {"dtype": "DT_INT64", "tensorShape": {"dim": [{"size": "4"}]}}}}}, {"name": "PartitionedCall/model_219/lambda_2//model.13/Resize/size", "op": "Const", "attr": {"value": {"tensor": {"dtype": "DT_INT32", "tensorShape": {"dim": [{"size": "2"}]}}}, "dtype": {"type": "DT_INT32"}}}, {"name": "PartitionedCall/model_219/tf.concat_14/concat/axis", "op": "Const", "attr": {"value": {"tensor": {"dtype": "DT_INT32", "tensorShape": {}}}, "dtype": {"type": "DT_INT32"}}}, {"name": "996", "op": "Const", "attr": {"value": {"tensor": {"dtype": "DT_FLOAT", "tensorShape": {"dim": [{"size": "1"}, {"size": "1"}, {"size": "384"}, {"size": "128"}]}}}, "dtype": {"type": "DT_FLOAT"}}}, {"name": "PartitionedCall/model_219/tf.math.add_74/Add/y", "op": "Const", "attr": {"value": {"tensor": {"dtype": "DT_FLOAT", "tensorShape": {"dim": [{"size": "128"}]}}}, "dtype": {"type": "DT_FLOAT"}}}, {"name": "998", "op": "Const", "attr": {"dtype": {"type": "DT_INT64"}, "value": {"tensor": {"dtype": "DT_INT64", "tensorShape": {"dim": [{"size": "4"}]}}}}}, {"name": "1000", "op": "Const", "attr": {"dtype": {"type": "DT_INT64"}, "value": {"tensor": {"dtype": "DT_INT64", "tensorShape": {"dim": [{"size": "4"}]}}}}}, {"name": "PartitionedCall/model_219/tf.strided_slice_11/ones_like", "op": "Const", "attr": {"dtype": {"type": "DT_INT64"}, "value": {"tensor": {"dtype": "DT_INT64", "tensorShape": {"dim": [{"size": "4"}]}}}}}, {"name": "1002", "op": "Const", "attr": {"value": {"tensor": {"dtype": "DT_FLOAT", "tensorShape": {"dim": [{"size": "3"}, {"size": "3"}, {"size": "64"}, {"size": "64"}]}}}, "dtype": {"type": "DT_FLOAT"}}}, {"name": "PartitionedCall/model_219/tf.math.add_76/Add/y", "op": "Const", "attr": {"value": {"tensor": {"dtype": "DT_FLOAT", "tensorShape": {"dim": [{"size": "64"}]}}}, "dtype": {"type": "DT_FLOAT"}}}, {"name": "1004", "op": "Const", "attr": {"value": {"tensor": {"dtype": "DT_FLOAT", "tensorShape": {"dim": [{"size": "3"}, {"size": "3"}, {"size": "64"}, {"size": "64"}]}}}, "dtype": {"type": "DT_FLOAT"}}}, {"name": "PartitionedCall/model_219/tf.math.add_78/Add/y", "op": "Const", "attr": {"value": {"tensor": {"dtype": "DT_FLOAT", "tensorShape": {"dim": [{"size": "64"}]}}}, "dtype": {"type": "DT_FLOAT"}}}, {"name": "PartitionedCall/model_219/tf.concat_16/concat/axis", "op": "Const", "attr": {"value": {"tensor": {"dtype": "DT_INT32", "tensorShape": {}}}, "dtype": {"type": "DT_INT32"}}}, {"name": "1010", "op": "Const", "attr": {"value": {"tensor": {"dtype": "DT_FLOAT", "tensorShape": {"dim": [{"size": "1"}, {"size": "1"}, {"size": "192"}, {"size": "128"}]}}}, "dtype": {"type": "DT_FLOAT"}}}, {"name": "PartitionedCall/model_219/tf.math.add_80/Add/y", "op": "Const", "attr": {"dtype": {"type": "DT_FLOAT"}, "value": {"tensor": {"dtype": "DT_FLOAT", "tensorShape": {"dim": [{"size": "128"}]}}}}}, {"name": "1012", "op": "Const", "attr": {"value": {"tensor": {"dtype": "DT_INT32", "tensorShape": {"dim": [{"size": "4"}, {"size": "2"}]}}}, "dtype": {"type": "DT_INT32"}}}, {"name": "1014", "op": "Const", "attr": {"value": {"tensor": {"dtype": "DT_FLOAT", "tensorShape": {"dim": [{"size": "3"}, {"size": "3"}, {"size": "128"}, {"size": "128"}]}}}, "dtype": {"type": "DT_FLOAT"}}}, {"name": "PartitionedCall/model_219/tf.math.add_82/Add/y", "op": "Const", "attr": {"value": {"tensor": {"dtype": "DT_FLOAT", "tensorShape": {"dim": [{"size": "128"}]}}}, "dtype": {"type": "DT_FLOAT"}}}, {"name": "990", "op": "Const", "attr": {"value": {"tensor": {"dtype": "DT_INT64", "tensorShape": {"dim": [{"size": "4"}]}}}, "dtype": {"type": "DT_INT64"}}}, {"name": "992", "op": "Const", "attr": {"dtype": {"type": "DT_INT64"}, "value": {"tensor": {"dtype": "DT_INT64", "tensorShape": {"dim": [{"size": "4"}]}}}}}, {"name": "PartitionedCall/model_219/tf.strided_slice_8/ones_like", "op": "Const", "attr": {"dtype": {"type": "DT_INT64"}, "value": {"tensor": {"dtype": "DT_INT64", "tensorShape": {"dim": [{"size": "4"}]}}}}}, {"name": "PartitionedCall/model_219/lambda//model.10/Resize/size", "op": "Const", "attr": {"value": {"tensor": {"dtype": "DT_INT32", "tensorShape": {"dim": [{"size": "2"}]}}}, "dtype": {"type": "DT_INT32"}}}, {"name": "PartitionedCall/model_219/tf.concat_10/concat/axis", "op": "Const", "attr": {"value": {"tensor": {"dtype": "DT_INT32", "tensorShape": {}}}, "dtype": {"type": "DT_INT32"}}}, {"name": "980", "op": "Const", "attr": {"value": {"tensor": {"dtype": "DT_FLOAT", "tensorShape": {"dim": [{"size": "1"}, {"size": "1"}, {"size": "768"}, {"size": "256"}]}}}, "dtype": {"type": "DT_FLOAT"}}}, {"name": "PartitionedCall/model_219/tf.math.add_66/Add/y", "op": "Const", "attr": {"value": {"tensor": {"dtype": "DT_FLOAT", "tensorShape": {"dim": [{"size": "256"}]}}}, "dtype": {"type": "DT_FLOAT"}}}, {"name": "982", "op": "Const", "attr": {"value": {"tensor": {"dtype": "DT_INT64", "tensorShape": {"dim": [{"size": "4"}]}}}, "dtype": {"type": "DT_INT64"}}}, {"name": "984", "op": "Const", "attr": {"value": {"tensor": {"dtype": "DT_INT64", "tensorShape": {"dim": [{"size": "4"}]}}}, "dtype": {"type": "DT_INT64"}}}, {"name": "PartitionedCall/model_219/tf.strided_slice_9/ones_like", "op": "Const", "attr": {"value": {"tensor": {"dtype": "DT_INT64", "tensorShape": {"dim": [{"size": "4"}]}}}, "dtype": {"type": "DT_INT64"}}}, {"name": "986", "op": "Const", "attr": {"value": {"tensor": {"dtype": "DT_FLOAT", "tensorShape": {"dim": [{"size": "3"}, {"size": "3"}, {"size": "128"}, {"size": "128"}]}}}, "dtype": {"type": "DT_FLOAT"}}}, {"name": "PartitionedCall/model_219/tf.math.add_68/Add/y", "op": "Const", "attr": {"dtype": {"type": "DT_FLOAT"}, "value": {"tensor": {"dtype": "DT_FLOAT", "tensorShape": {"dim": [{"size": "128"}]}}}}}, {"name": "988", "op": "Const", "attr": {"dtype": {"type": "DT_FLOAT"}, "value": {"tensor": {"dtype": "DT_FLOAT", "tensorShape": {"dim": [{"size": "3"}, {"size": "3"}, {"size": "128"}, {"size": "128"}]}}}}}, {"name": "PartitionedCall/model_219/tf.math.add_70/Add/y", "op": "Const", "attr": {"value": {"tensor": {"dtype": "DT_FLOAT", "tensorShape": {"dim": [{"size": "128"}]}}}, "dtype": {"type": "DT_FLOAT"}}}, {"name": "PartitionedCall/model_219/tf.concat_12/concat/axis", "op": "Const", "attr": {"value": {"tensor": {"dtype": "DT_INT32", "tensorShape": {}}}, "dtype": {"type": "DT_INT32"}}}, {"name": "994", "op": "Const", "attr": {"value": {"tensor": {"dtype": "DT_FLOAT", "tensorShape": {"dim": [{"size": "1"}, {"size": "1"}, {"size": "384"}, {"size": "256"}]}}}, "dtype": {"type": "DT_FLOAT"}}}, {"name": "PartitionedCall/model_219/tf.math.add_72/Add/y", "op": "Const", "attr": {"value": {"tensor": {"dtype": "DT_FLOAT", "tensorShape": {"dim": [{"size": "256"}]}}}, "dtype": {"type": "DT_FLOAT"}}}, {"name": "PartitionedCall/model_219/tf.concat_18/concat/axis", "op": "Const", "attr": {"value": {"tensor": {"dtype": "DT_INT32", "tensorShape": {}}}, "dtype": {"type": "DT_INT32"}}}, {"name": "1016", "op": "Const", "attr": {"value": {"tensor": {"dtype": "DT_FLOAT", "tensorShape": {"dim": [{"size": "1"}, {"size": "1"}, {"size": "384"}, {"size": "256"}]}}}, "dtype": {"type": "DT_FLOAT"}}}, {"name": "PartitionedCall/model_219/tf.math.add_92/Add/y", "op": "Const", "attr": {"value": {"tensor": {"dtype": "DT_FLOAT", "tensorShape": {"dim": [{"size": "256"}]}}}, "dtype": {"type": "DT_FLOAT"}}}, {"name": "1018", "op": "Const", "attr": {"value": {"tensor": {"dtype": "DT_INT64", "tensorShape": {"dim": [{"size": "4"}]}}}, "dtype": {"type": "DT_INT64"}}}, {"name": "1020", "op": "Const", "attr": {"value": {"tensor": {"dtype": "DT_INT64", "tensorShape": {"dim": [{"size": "4"}]}}}, "dtype": {"type": "DT_INT64"}}}, {"name": "PartitionedCall/model_219/tf.strided_slice_13/ones_like", "op": "Const", "attr": {"value": {"tensor": {"dtype": "DT_INT64", "tensorShape": {"dim": [{"size": "4"}]}}}, "dtype": {"type": "DT_INT64"}}}, {"name": "1022", "op": "Const", "attr": {"value": {"tensor": {"dtype": "DT_FLOAT", "tensorShape": {"dim": [{"size": "3"}, {"size": "3"}, {"size": "128"}, {"size": "128"}]}}}, "dtype": {"type": "DT_FLOAT"}}}, {"name": "PartitionedCall/model_219/tf.math.add_98/Add/y", "op": "Const", "attr": {"value": {"tensor": {"dtype": "DT_FLOAT", "tensorShape": {"dim": [{"size": "128"}]}}}, "dtype": {"type": "DT_FLOAT"}}}, {"name": "1024", "op": "Const", "attr": {"value": {"tensor": {"dtype": "DT_FLOAT", "tensorShape": {"dim": [{"size": "3"}, {"size": "3"}, {"size": "128"}, {"size": "128"}]}}}, "dtype": {"type": "DT_FLOAT"}}}, {"name": "PartitionedCall/model_219/tf.math.add_100/Add/y", "op": "Const", "attr": {"value": {"tensor": {"dtype": "DT_FLOAT", "tensorShape": {"dim": [{"size": "128"}]}}}, "dtype": {"type": "DT_FLOAT"}}}, {"name": "PartitionedCall/model_219/tf.concat_22/concat/axis", "op": "Const", "attr": {"value": {"tensor": {"dtype": "DT_INT32", "tensorShape": {}}}, "dtype": {"type": "DT_INT32"}}}, {"name": "1030", "op": "Const", "attr": {"value": {"tensor": {"dtype": "DT_FLOAT", "tensorShape": {"dim": [{"size": "1"}, {"size": "1"}, {"size": "384"}, {"size": "256"}]}}}, "dtype": {"type": "DT_FLOAT"}}}, {"name": "PartitionedCall/model_219/tf.math.add_102/Add/y", "op": "Const", "attr": {"dtype": {"type": "DT_FLOAT"}, "value": {"tensor": {"dtype": "DT_FLOAT", "tensorShape": {"dim": [{"size": "256"}]}}}}}, {"name": "1032", "op": "Const", "attr": {"value": {"tensor": {"dtype": "DT_INT32", "tensorShape": {"dim": [{"size": "4"}, {"size": "2"}]}}}, "dtype": {"type": "DT_INT32"}}}, {"name": "1034", "op": "Const", "attr": {"value": {"tensor": {"dtype": "DT_FLOAT", "tensorShape": {"dim": [{"size": "3"}, {"size": "3"}, {"size": "256"}, {"size": "256"}]}}}, "dtype": {"type": "DT_FLOAT"}}}, {"name": "PartitionedCall/model_219/tf.math.add_104/Add/y", "op": "Const", "attr": {"dtype": {"type": "DT_FLOAT"}, "value": {"tensor": {"dtype": "DT_FLOAT", "tensorShape": {"dim": [{"size": "256"}]}}}}}, {"name": "970", "op": "Const", "attr": {"value": {"tensor": {"dtype": "DT_INT64", "tensorShape": {"dim": [{"size": "4"}]}}}, "dtype": {"type": "DT_INT64"}}}, {"name": "972", "op": "Const", "attr": {"value": {"tensor": {"dtype": "DT_INT64", "tensorShape": {"dim": [{"size": "4"}]}}}, "dtype": {"type": "DT_INT64"}}}, {"name": "PartitionedCall/model_219/tf.strided_slice_6/ones_like", "op": "Const", "attr": {"value": {"tensor": {"dtype": "DT_INT64", "tensorShape": {"dim": [{"size": "4"}]}}}, "dtype": {"type": "DT_INT64"}}}, {"name": "950", "op": "Const", "attr": {"value": {"tensor": {"dtype": "DT_INT64", "tensorShape": {"dim": [{"size": "4"}]}}}, "dtype": {"type": "DT_INT64"}}}, {"name": "952", "op": "Const", "attr": {"dtype": {"type": "DT_INT64"}, "value": {"tensor": {"dtype": "DT_INT64", "tensorShape": {"dim": [{"size": "4"}]}}}}}, {"name": "PartitionedCall/model_219/tf.strided_slice_4/ones_like", "op": "Const", "attr": {"value": {"tensor": {"dtype": "DT_INT64", "tensorShape": {"dim": [{"size": "4"}]}}}, "dtype": {"type": "DT_INT64"}}}, {"name": "926", "op": "Const", "attr": {"value": {"tensor": {"dtype": "DT_INT64", "tensorShape": {"dim": [{"size": "4"}]}}}, "dtype": {"type": "DT_INT64"}}}, {"name": "928", "op": "Const", "attr": {"value": {"tensor": {"dtype": "DT_INT64", "tensorShape": {"dim": [{"size": "4"}]}}}, "dtype": {"type": "DT_INT64"}}}, {"name": "PartitionedCall/model_219/tf.strided_slice_2/ones_like", "op": "Const", "attr": {"dtype": {"type": "DT_INT64"}, "value": {"tensor": {"dtype": "DT_INT64", "tensorShape": {"dim": [{"size": "4"}]}}}}}, {"name": "902", "op": "Const", "attr": {"value": {"tensor": {"dtype": "DT_INT64", "tensorShape": {"dim": [{"size": "4"}]}}}, "dtype": {"type": "DT_INT64"}}}, {"name": "904", "op": "Const", "attr": {"dtype": {"type": "DT_INT64"}, "value": {"tensor": {"dtype": "DT_INT64", "tensorShape": {"dim": [{"size": "4"}]}}}}}, {"name": "PartitionedCall/model_219/tf.strided_slice/ones_like", "op": "Const", "attr": {"value": {"tensor": {"dtype": "DT_INT64", "tensorShape": {"dim": [{"size": "4"}]}}}, "dtype": {"type": "DT_INT64"}}}, {"name": "884", "op": "Const", "attr": {"value": {"tensor": {"dtype": "DT_INT32", "tensorShape": {"dim": [{"size": "4"}, {"size": "2"}]}}}, "dtype": {"type": "DT_INT32"}}}, {"name": "886", "op": "Const", "attr": {"value": {"tensor": {"dtype": "DT_FLOAT", "tensorShape": {"dim": [{"size": "3"}, {"size": "3"}, {"size": "3"}, {"size": "32"}]}}}, "dtype": {"type": "DT_FLOAT"}}}, {"name": "PartitionedCall/model_219/tf.math.add/Add/y", "op": "Const", "attr": {"value": {"tensor": {"dtype": "DT_FLOAT", "tensorShape": {"dim": [{"size": "32"}]}}}, "dtype": {"type": "DT_FLOAT"}}}, {"name": "888", "op": "Const", "attr": {"value": {"tensor": {"dtype": "DT_INT32", "tensorShape": {"dim": [{"size": "4"}, {"size": "2"}]}}}, "dtype": {"type": "DT_INT32"}}}, {"name": "890", "op": "Const", "attr": {"value": {"tensor": {"dtype": "DT_FLOAT", "tensorShape": {"dim": [{"size": "3"}, {"size": "3"}, {"size": "32"}, {"size": "64"}]}}}, "dtype": {"type": "DT_FLOAT"}}}, {"name": "PartitionedCall/model_219/tf.math.add_2/Add/y", "op": "Const", "attr": {"dtype": {"type": "DT_FLOAT"}, "value": {"tensor": {"dtype": "DT_FLOAT", "tensorShape": {"dim": [{"size": "64"}]}}}}}, {"name": "892", "op": "Const", "attr": {"value": {"tensor": {"dtype": "DT_FLOAT", "tensorShape": {"dim": [{"size": "1"}, {"size": "1"}, {"size": "64"}, {"size": "64"}]}}}, "dtype": {"type": "DT_FLOAT"}}}, {"name": "PartitionedCall/model_219/tf.math.add_4/Add/y", "op": "Const", "attr": {"value": {"tensor": {"dtype": "DT_FLOAT", "tensorShape": {"dim": [{"size": "64"}]}}}, "dtype": {"type": "DT_FLOAT"}}}, {"name": "894", "op": "Const", "attr": {"value": {"tensor": {"dtype": "DT_INT64", "tensorShape": {"dim": [{"size": "4"}]}}}, "dtype": {"type": "DT_INT64"}}}, {"name": "896", "op": "Const", "attr": {"dtype": {"type": "DT_INT64"}, "value": {"tensor": {"dtype": "DT_INT64", "tensorShape": {"dim": [{"size": "4"}]}}}}}, {"name": "PartitionedCall/model_219/tf.strided_slice_1/ones_like", "op": "Const", "attr": {"value": {"tensor": {"dtype": "DT_INT64", "tensorShape": {"dim": [{"size": "4"}]}}}, "dtype": {"type": "DT_INT64"}}}, {"name": "898", "op": "Const", "attr": {"value": {"tensor": {"dtype": "DT_FLOAT", "tensorShape": {"dim": [{"size": "3"}, {"size": "3"}, {"size": "32"}, {"size": "32"}]}}}, "dtype": {"type": "DT_FLOAT"}}}, {"name": "PartitionedCall/model_219/tf.math.add_6/Add/y", "op": "Const", "attr": {"value": {"tensor": {"dtype": "DT_FLOAT", "tensorShape": {"dim": [{"size": "32"}]}}}, "dtype": {"type": "DT_FLOAT"}}}, {"name": "900", "op": "Const", "attr": {"value": {"tensor": {"dtype": "DT_FLOAT", "tensorShape": {"dim": [{"size": "3"}, {"size": "3"}, {"size": "32"}, {"size": "32"}]}}}, "dtype": {"type": "DT_FLOAT"}}}, {"name": "PartitionedCall/model_219/tf.math.add_8/Add/y", "op": "Const", "attr": {"value": {"tensor": {"dtype": "DT_FLOAT", "tensorShape": {"dim": [{"size": "32"}]}}}, "dtype": {"type": "DT_FLOAT"}}}, {"name": "PartitionedCall/model_219/tf.concat/concat/axis", "op": "Const", "attr": {"value": {"tensor": {"dtype": "DT_INT32", "tensorShape": {}}}, "dtype": {"type": "DT_INT32"}}}, {"name": "906", "op": "Const", "attr": {"value": {"tensor": {"dtype": "DT_FLOAT", "tensorShape": {"dim": [{"size": "1"}, {"size": "1"}, {"size": "96"}, {"size": "64"}]}}}, "dtype": {"type": "DT_FLOAT"}}}, {"name": "PartitionedCall/model_219/tf.math.add_12/Add/y", "op": "Const", "attr": {"value": {"tensor": {"dtype": "DT_FLOAT", "tensorShape": {"dim": [{"size": "64"}]}}}, "dtype": {"type": "DT_FLOAT"}}}, {"name": "908", "op": "Const", "attr": {"dtype": {"type": "DT_INT32"}, "value": {"tensor": {"dtype": "DT_INT32", "tensorShape": {"dim": [{"size": "4"}, {"size": "2"}]}}}}}, {"name": "910", "op": "Const", "attr": {"dtype": {"type": "DT_FLOAT"}, "value": {"tensor": {"dtype": "DT_FLOAT", "tensorShape": {"dim": [{"size": "3"}, {"size": "3"}, {"size": "64"}, {"size": "128"}]}}}}}, {"name": "PartitionedCall/model_219/tf.math.add_14/Add/y", "op": "Const", "attr": {"value": {"tensor": {"dtype": "DT_FLOAT", "tensorShape": {"dim": [{"size": "128"}]}}}, "dtype": {"type": "DT_FLOAT"}}}, {"name": "912", "op": "Const", "attr": {"value": {"tensor": {"dtype": "DT_FLOAT", "tensorShape": {"dim": [{"size": "1"}, {"size": "1"}, {"size": "128"}, {"size": "128"}]}}}, "dtype": {"type": "DT_FLOAT"}}}, {"name": "PartitionedCall/model_219/tf.math.add_16/Add/y", "op": "Const", "attr": {"value": {"tensor": {"dtype": "DT_FLOAT", "tensorShape": {"dim": [{"size": "128"}]}}}, "dtype": {"type": "DT_FLOAT"}}}, {"name": "914", "op": "Const", "attr": {"value": {"tensor": {"dtype": "DT_INT64", "tensorShape": {"dim": [{"size": "4"}]}}}, "dtype": {"type": "DT_INT64"}}}, {"name": "916", "op": "Const", "attr": {"value": {"tensor": {"dtype": "DT_INT64", "tensorShape": {"dim": [{"size": "4"}]}}}, "dtype": {"type": "DT_INT64"}}}, {"name": "PartitionedCall/model_219/tf.strided_slice_3/ones_like", "op": "Const", "attr": {"value": {"tensor": {"dtype": "DT_INT64", "tensorShape": {"dim": [{"size": "4"}]}}}, "dtype": {"type": "DT_INT64"}}}, {"name": "918", "op": "Const", "attr": {"value": {"tensor": {"dtype": "DT_FLOAT", "tensorShape": {"dim": [{"size": "3"}, {"size": "3"}, {"size": "64"}, {"size": "64"}]}}}, "dtype": {"type": "DT_FLOAT"}}}, {"name": "PartitionedCall/model_219/tf.math.add_18/Add/y", "op": "Const", "attr": {"value": {"tensor": {"dtype": "DT_FLOAT", "tensorShape": {"dim": [{"size": "64"}]}}}, "dtype": {"type": "DT_FLOAT"}}}, {"name": "920", "op": "Const", "attr": {"value": {"tensor": {"dtype": "DT_FLOAT", "tensorShape": {"dim": [{"size": "3"}, {"size": "3"}, {"size": "64"}, {"size": "64"}]}}}, "dtype": {"type": "DT_FLOAT"}}}, {"name": "PartitionedCall/model_219/tf.math.add_20/Add/y", "op": "Const", "attr": {"dtype": {"type": "DT_FLOAT"}, "value": {"tensor": {"dtype": "DT_FLOAT", "tensorShape": {"dim": [{"size": "64"}]}}}}}, {"name": "922", "op": "Const", "attr": {"dtype": {"type": "DT_FLOAT"}, "value": {"tensor": {"dtype": "DT_FLOAT", "tensorShape": {"dim": [{"size": "3"}, {"size": "3"}, {"size": "64"}, {"size": "64"}]}}}}}, {"name": "PartitionedCall/model_219/tf.math.add_24/Add/y", "op": "Const", "attr": {"value": {"tensor": {"dtype": "DT_FLOAT", "tensorShape": {"dim": [{"size": "64"}]}}}, "dtype": {"type": "DT_FLOAT"}}}, {"name": "924", "op": "Const", "attr": {"value": {"tensor": {"dtype": "DT_FLOAT", "tensorShape": {"dim": [{"size": "3"}, {"size": "3"}, {"size": "64"}, {"size": "64"}]}}}, "dtype": {"type": "DT_FLOAT"}}}, {"name": "PartitionedCall/model_219/tf.math.add_26/Add/y", "op": "Const", "attr": {"value": {"tensor": {"dtype": "DT_FLOAT", "tensorShape": {"dim": [{"size": "64"}]}}}, "dtype": {"type": "DT_FLOAT"}}}, {"name": "PartitionedCall/model_219/tf.concat_2/concat/axis", "op": "Const", "attr": {"value": {"tensor": {"dtype": "DT_INT32", "tensorShape": {}}}, "dtype": {"type": "DT_INT32"}}}, {"name": "930", "op": "Const", "attr": {"value": {"tensor": {"dtype": "DT_FLOAT", "tensorShape": {"dim": [{"size": "1"}, {"size": "1"}, {"size": "256"}, {"size": "128"}]}}}, "dtype": {"type": "DT_FLOAT"}}}, {"name": "PartitionedCall/model_219/tf.math.add_30/Add/y", "op": "Const", "attr": {"value": {"tensor": {"dtype": "DT_FLOAT", "tensorShape": {"dim": [{"size": "128"}]}}}, "dtype": {"type": "DT_FLOAT"}}}, {"name": "932", "op": "Const", "attr": {"dtype": {"type": "DT_INT32"}, "value": {"tensor": {"dtype": "DT_INT32", "tensorShape": {"dim": [{"size": "4"}, {"size": "2"}]}}}}}, {"name": "934", "op": "Const", "attr": {"value": {"tensor": {"dtype": "DT_FLOAT", "tensorShape": {"dim": [{"size": "3"}, {"size": "3"}, {"size": "128"}, {"size": "256"}]}}}, "dtype": {"type": "DT_FLOAT"}}}, {"name": "PartitionedCall/model_219/tf.math.add_32/Add/y", "op": "Const", "attr": {"value": {"tensor": {"dtype": "DT_FLOAT", "tensorShape": {"dim": [{"size": "256"}]}}}, "dtype": {"type": "DT_FLOAT"}}}, {"name": "936", "op": "Const", "attr": {"value": {"tensor": {"dtype": "DT_FLOAT", "tensorShape": {"dim": [{"size": "1"}, {"size": "1"}, {"size": "256"}, {"size": "256"}]}}}, "dtype": {"type": "DT_FLOAT"}}}, {"name": "PartitionedCall/model_219/tf.math.add_34/Add/y", "op": "Const", "attr": {"value": {"tensor": {"dtype": "DT_FLOAT", "tensorShape": {"dim": [{"size": "256"}]}}}, "dtype": {"type": "DT_FLOAT"}}}, {"name": "938", "op": "Const", "attr": {"value": {"tensor": {"dtype": "DT_INT64", "tensorShape": {"dim": [{"size": "4"}]}}}, "dtype": {"type": "DT_INT64"}}}, {"name": "940", "op": "Const", "attr": {"value": {"tensor": {"dtype": "DT_INT64", "tensorShape": {"dim": [{"size": "4"}]}}}, "dtype": {"type": "DT_INT64"}}}, {"name": "PartitionedCall/model_219/tf.strided_slice_5/ones_like", "op": "Const", "attr": {"dtype": {"type": "DT_INT64"}, "value": {"tensor": {"dtype": "DT_INT64", "tensorShape": {"dim": [{"size": "4"}]}}}}}, {"name": "942", "op": "Const", "attr": {"dtype": {"type": "DT_FLOAT"}, "value": {"tensor": {"dtype": "DT_FLOAT", "tensorShape": {"dim": [{"size": "3"}, {"size": "3"}, {"size": "128"}, {"size": "128"}]}}}}}, {"name": "PartitionedCall/model_219/tf.math.add_36/Add/y", "op": "Const", "attr": {"dtype": {"type": "DT_FLOAT"}, "value": {"tensor": {"dtype": "DT_FLOAT", "tensorShape": {"dim": [{"size": "128"}]}}}}}, {"name": "944", "op": "Const", "attr": {"value": {"tensor": {"dtype": "DT_FLOAT", "tensorShape": {"dim": [{"size": "3"}, {"size": "3"}, {"size": "128"}, {"size": "128"}]}}}, "dtype": {"type": "DT_FLOAT"}}}, {"name": "PartitionedCall/model_219/tf.math.add_38/Add/y", "op": "Const", "attr": {"dtype": {"type": "DT_FLOAT"}, "value": {"tensor": {"dtype": "DT_FLOAT", "tensorShape": {"dim": [{"size": "128"}]}}}}}, {"name": "946", "op": "Const", "attr": {"value": {"tensor": {"dtype": "DT_FLOAT", "tensorShape": {"dim": [{"size": "3"}, {"size": "3"}, {"size": "128"}, {"size": "128"}]}}}, "dtype": {"type": "DT_FLOAT"}}}, {"name": "PartitionedCall/model_219/tf.math.add_42/Add/y", "op": "Const", "attr": {"value": {"tensor": {"dtype": "DT_FLOAT", "tensorShape": {"dim": [{"size": "128"}]}}}, "dtype": {"type": "DT_FLOAT"}}}, {"name": "948", "op": "Const", "attr": {"dtype": {"type": "DT_FLOAT"}, "value": {"tensor": {"dtype": "DT_FLOAT", "tensorShape": {"dim": [{"size": "3"}, {"size": "3"}, {"size": "128"}, {"size": "128"}]}}}}}, {"name": "PartitionedCall/model_219/tf.math.add_44/Add/y", "op": "Const", "attr": {"value": {"tensor": {"dtype": "DT_FLOAT", "tensorShape": {"dim": [{"size": "128"}]}}}, "dtype": {"type": "DT_FLOAT"}}}, {"name": "PartitionedCall/model_219/tf.concat_4/concat/axis", "op": "Const", "attr": {"dtype": {"type": "DT_INT32"}, "value": {"tensor": {"dtype": "DT_INT32", "tensorShape": {}}}}}, {"name": "954", "op": "Const", "attr": {"value": {"tensor": {"dtype": "DT_FLOAT", "tensorShape": {"dim": [{"size": "1"}, {"size": "1"}, {"size": "512"}, {"size": "256"}]}}}, "dtype": {"type": "DT_FLOAT"}}}, {"name": "PartitionedCall/model_219/tf.math.add_48/Add/y", "op": "Const", "attr": {"dtype": {"type": "DT_FLOAT"}, "value": {"tensor": {"dtype": "DT_FLOAT", "tensorShape": {"dim": [{"size": "256"}]}}}}}, {"name": "956", "op": "Const", "attr": {"value": {"tensor": {"dtype": "DT_INT32", "tensorShape": {"dim": [{"size": "4"}, {"size": "2"}]}}}, "dtype": {"type": "DT_INT32"}}}, {"name": "958", "op": "Const", "attr": {"value": {"tensor": {"dtype": "DT_FLOAT", "tensorShape": {"dim": [{"size": "3"}, {"size": "3"}, {"size": "256"}, {"size": "512"}]}}}, "dtype": {"type": "DT_FLOAT"}}}, {"name": "PartitionedCall/model_219/tf.math.add_50/Add/y", "op": "Const", "attr": {"value": {"tensor": {"dtype": "DT_FLOAT", "tensorShape": {"dim": [{"size": "512"}]}}}, "dtype": {"type": "DT_FLOAT"}}}, {"name": "960", "op": "Const", "attr": {"value": {"tensor": {"dtype": "DT_FLOAT", "tensorShape": {"dim": [{"size": "1"}, {"size": "1"}, {"size": "512"}, {"size": "512"}]}}}, "dtype": {"type": "DT_FLOAT"}}}, {"name": "PartitionedCall/model_219/tf.math.add_52/Add/y", "op": "Const", "attr": {"value": {"tensor": {"dtype": "DT_FLOAT", "tensorShape": {"dim": [{"size": "512"}]}}}, "dtype": {"type": "DT_FLOAT"}}}, {"name": "962", "op": "Const", "attr": {"value": {"tensor": {"dtype": "DT_INT64", "tensorShape": {"dim": [{"size": "4"}]}}}, "dtype": {"type": "DT_INT64"}}}, {"name": "964", "op": "Const", "attr": {"value": {"tensor": {"dtype": "DT_INT64", "tensorShape": {"dim": [{"size": "4"}]}}}, "dtype": {"type": "DT_INT64"}}}, {"name": "PartitionedCall/model_219/tf.strided_slice_7/ones_like", "op": "Const", "attr": {"value": {"tensor": {"dtype": "DT_INT64", "tensorShape": {"dim": [{"size": "4"}]}}}, "dtype": {"type": "DT_INT64"}}}, {"name": "966", "op": "Const", "attr": {"value": {"tensor": {"dtype": "DT_FLOAT", "tensorShape": {"dim": [{"size": "3"}, {"size": "3"}, {"size": "256"}, {"size": "256"}]}}}, "dtype": {"type": "DT_FLOAT"}}}, {"name": "PartitionedCall/model_219/tf.math.add_54/Add/y", "op": "Const", "attr": {"value": {"tensor": {"dtype": "DT_FLOAT", "tensorShape": {"dim": [{"size": "256"}]}}}, "dtype": {"type": "DT_FLOAT"}}}, {"name": "968", "op": "Const", "attr": {"dtype": {"type": "DT_FLOAT"}, "value": {"tensor": {"dtype": "DT_FLOAT", "tensorShape": {"dim": [{"size": "3"}, {"size": "3"}, {"size": "256"}, {"size": "256"}]}}}}}, {"name": "PartitionedCall/model_219/tf.math.add_56/Add/y", "op": "Const", "attr": {"value": {"tensor": {"dtype": "DT_FLOAT", "tensorShape": {"dim": [{"size": "256"}]}}}, "dtype": {"type": "DT_FLOAT"}}}, {"name": "PartitionedCall/model_219/tf.concat_6/concat/axis", "op": "Const", "attr": {"value": {"tensor": {"dtype": "DT_INT32", "tensorShape": {}}}, "dtype": {"type": "DT_INT32"}}}, {"name": "974", "op": "Const", "attr": {"value": {"tensor": {"dtype": "DT_FLOAT", "tensorShape": {"dim": [{"size": "1"}, {"size": "1"}, {"size": "768"}, {"size": "512"}]}}}, "dtype": {"type": "DT_FLOAT"}}}, {"name": "PartitionedCall/model_219/tf.math.add_60/Add/y", "op": "Const", "attr": {"value": {"tensor": {"dtype": "DT_FLOAT", "tensorShape": {"dim": [{"size": "512"}]}}}, "dtype": {"type": "DT_FLOAT"}}}, {"name": "976", "op": "Const", "attr": {"value": {"tensor": {"dtype": "DT_FLOAT", "tensorShape": {"dim": [{"size": "1"}, {"size": "1"}, {"size": "512"}, {"size": "256"}]}}}, "dtype": {"type": "DT_FLOAT"}}}, {"name": "PartitionedCall/model_219/tf.math.add_62/Add/y", "op": "Const", "attr": {"value": {"tensor": {"dtype": "DT_FLOAT", "tensorShape": {"dim": [{"size": "256"}]}}}, "dtype": {"type": "DT_FLOAT"}}}, {"name": "PartitionedCall/model_219/tf.concat_8/concat/axis", "op": "Const", "attr": {"value": {"tensor": {"dtype": "DT_INT32", "tensorShape": {}}}, "dtype": {"type": "DT_INT32"}}}, {"name": "978", "op": "Const", "attr": {"value": {"tensor": {"dtype": "DT_FLOAT", "tensorShape": {"dim": [{"size": "1"}, {"size": "1"}, {"size": "1024"}, {"size": "512"}]}}}, "dtype": {"type": "DT_FLOAT"}}}, {"name": "PartitionedCall/model_219/tf.math.add_64/Add/y", "op": "Const", "attr": {"value": {"tensor": {"dtype": "DT_FLOAT", "tensorShape": {"dim": [{"size": "512"}]}}}, "dtype": {"type": "DT_FLOAT"}}}, {"name": "PartitionedCall/model_219/tf.concat_24/concat/axis", "op": "Const", "attr": {"dtype": {"type": "DT_INT32"}, "value": {"tensor": {"dtype": "DT_INT32", "tensorShape": {}}}}}, {"name": "1036", "op": "Const", "attr": {"dtype": {"type": "DT_FLOAT"}, "value": {"tensor": {"dtype": "DT_FLOAT", "tensorShape": {"dim": [{"size": "1"}, {"size": "1"}, {"size": "768"}, {"size": "512"}]}}}}}, {"name": "PartitionedCall/model_219/tf.math.add_114/Add/y", "op": "Const", "attr": {"dtype": {"type": "DT_FLOAT"}, "value": {"tensor": {"dtype": "DT_FLOAT", "tensorShape": {"dim": [{"size": "512"}]}}}}}, {"name": "1038", "op": "Const", "attr": {"value": {"tensor": {"dtype": "DT_INT64", "tensorShape": {"dim": [{"size": "4"}]}}}, "dtype": {"type": "DT_INT64"}}}, {"name": "1040", "op": "Const", "attr": {"value": {"tensor": {"dtype": "DT_INT64", "tensorShape": {"dim": [{"size": "4"}]}}}, "dtype": {"type": "DT_INT64"}}}, {"name": "PartitionedCall/model_219/tf.strided_slice_15/ones_like", "op": "Const", "attr": {"dtype": {"type": "DT_INT64"}, "value": {"tensor": {"dtype": "DT_INT64", "tensorShape": {"dim": [{"size": "4"}]}}}}}, {"name": "1042", "op": "Const", "attr": {"dtype": {"type": "DT_FLOAT"}, "value": {"tensor": {"dtype": "DT_FLOAT", "tensorShape": {"dim": [{"size": "3"}, {"size": "3"}, {"size": "256"}, {"size": "256"}]}}}}}, {"name": "PartitionedCall/model_219/tf.math.add_120/Add/y", "op": "Const", "attr": {"value": {"tensor": {"dtype": "DT_FLOAT", "tensorShape": {"dim": [{"size": "256"}]}}}, "dtype": {"type": "DT_FLOAT"}}}, {"name": "1044", "op": "Const", "attr": {"value": {"tensor": {"dtype": "DT_FLOAT", "tensorShape": {"dim": [{"size": "3"}, {"size": "3"}, {"size": "256"}, {"size": "256"}]}}}, "dtype": {"type": "DT_FLOAT"}}}, {"name": "PartitionedCall/model_219/tf.math.add_122/Add/y", "op": "Const", "attr": {"value": {"tensor": {"dtype": "DT_FLOAT", "tensorShape": {"dim": [{"size": "256"}]}}}, "dtype": {"type": "DT_FLOAT"}}}, {"name": "PartitionedCall/model_219/tf.concat_28/concat/axis", "op": "Const", "attr": {"dtype": {"type": "DT_INT32"}, "value": {"tensor": {"dtype": "DT_INT32", "tensorShape": {}}}}}, {"name": "1050", "op": "Const", "attr": {"value": {"tensor": {"dtype": "DT_FLOAT", "tensorShape": {"dim": [{"size": "1"}, {"size": "1"}, {"size": "768"}, {"size": "512"}]}}}, "dtype": {"type": "DT_FLOAT"}}}, {"name": "PartitionedCall/model_219/tf.math.add_124/Add/y", "op": "Const", "attr": {"value": {"tensor": {"dtype": "DT_FLOAT", "tensorShape": {"dim": [{"size": "512"}]}}}, "dtype": {"type": "DT_FLOAT"}}}, {"name": "1052", "op": "Const", "attr": {"dtype": {"type": "DT_FLOAT"}, "value": {"tensor": {"dtype": "DT_FLOAT", "tensorShape": {"dim": [{"size": "3"}, {"size": "3"}, {"size": "512"}, {"size": "128"}]}}}}}, {"name": "PartitionedCall/model_219/tf.math.add_128/Add/y", "op": "Const", "attr": {"value": {"tensor": {"dtype": "DT_FLOAT", "tensorShape": {"dim": [{"size": "128"}]}}}, "dtype": {"type": "DT_FLOAT"}}}, {"name": "1064", "op": "Const", "attr": {"value": {"tensor": {"dtype": "DT_FLOAT", "tensorShape": {"dim": [{"size": "3"}, {"size": "3"}, {"size": "128"}, {"size": "128"}]}}}, "dtype": {"type": "DT_FLOAT"}}}, {"name": "PartitionedCall/model_219/tf.math.add_132/Add/y", "op": "Const", "attr": {"value": {"tensor": {"dtype": "DT_FLOAT", "tensorShape": {"dim": [{"size": "128"}]}}}, "dtype": {"type": "DT_FLOAT"}}}, {"name": "1076", "op": "Const", "attr": {"value": {"tensor": {"dtype": "DT_FLOAT", "tensorShape": {"dim": [{"size": "1"}, {"size": "1"}, {"size": "128"}, {"size": "12"}]}}}, "dtype": {"type": "DT_FLOAT"}}}, {"name": "PartitionedCall/model_219/tf.math.add_136/Add/y", "op": "Const", "attr": {"value": {"tensor": {"dtype": "DT_FLOAT", "tensorShape": {"dim": [{"size": "12"}]}}}, "dtype": {"type": "DT_FLOAT"}}}, {"name": "PartitionedCall/model_219/tf.concat_30/concat/axis", "op": "Const", "attr": {"value": {"tensor": {"dtype": "DT_INT32", "tensorShape": {}}}, "dtype": {"type": "DT_INT32"}}}, {"name": "PartitionedCall/model_219/tf.compat.v1.transpose_2/transpose/perm", "op": "Const", "attr": {"value": {"tensor": {"dtype": "DT_INT32", "tensorShape": {"dim": [{"size": "4"}]}}}, "dtype": {"type": "DT_INT32"}}}, {"name": "PartitionedCall/model_219/tf.reshape_4/Reshape/shape", "op": "Const", "attr": {"value": {"tensor": {"dtype": "DT_INT32", "tensorShape": {"dim": [{"size": "3"}]}}}, "dtype": {"type": "DT_INT32"}}}, {"name": "PartitionedCall/model_219/tf.concat_32/concat/axis", "op": "Const", "attr": {"value": {"tensor": {"dtype": "DT_INT32", "tensorShape": {}}}, "dtype": {"type": "DT_INT32"}}}, {"name": "1108", "op": "Const", "attr": {"value": {"tensor": {"dtype": "DT_INT64", "tensorShape": {"dim": [{"size": "3"}]}}}, "dtype": {"type": "DT_INT64"}}}, {"name": "1110", "op": "Const", "attr": {"value": {"tensor": {"dtype": "DT_INT64", "tensorShape": {"dim": [{"size": "3"}]}}}, "dtype": {"type": "DT_INT64"}}}, {"name": "PartitionedCall/model_219/tf.strided_slice_17/StridedSlice/strides", "op": "Const", "attr": {"dtype": {"type": "DT_INT64"}, "value": {"tensor": {"dtype": "DT_INT64", "tensorShape": {"dim": [{"size": "3"}]}}}}}, {"name": "PartitionedCall/model_219/output0/concat/axis", "op": "Const", "attr": {"dtype": {"type": "DT_INT32"}, "value": {"tensor": {"dtype": "DT_INT32", "tensorShape": {}}}}}, {"name": "x", "op": "Placeholder", "attr": {"dtype": {"type": "DT_FLOAT"}, "shape": {"shape": {"dim": [{"size": "1"}, {"size": "480"}, {"size": "480"}, {"size": "3"}]}}}}, {"name": "PartitionedCall/model_219/tf.compat.v1.pad/Pad", "op": "Pad", "input": ["x", "884"], "attr": {"Tpaddings": {"type": "DT_INT32"}, "T": {"type": "DT_FLOAT"}}}, {"name": "PartitionedCall/model_219/tf.nn.convolution/convolution", "op": "Conv2D", "input": ["PartitionedCall/model_219/tf.compat.v1.pad/Pad", "886"], "device": "/device:CPU:0", "attr": {"padding": {"s": "VkFMSUQ="}, "explicit_paddings": {"list": {}}, "use_cudnn_on_gpu": {"b": true}, "dilations": {"list": {"i": ["1", "1", "1", "1"]}}, "data_format": {"s": "TkhXQw=="}, "T": {"type": "DT_FLOAT"}, "strides": {"list": {"i": ["1", "2", "2", "1"]}}}}, {"name": "PartitionedCall/model_219/tf.math.add/Add", "op": "AddV2", "input": ["PartitionedCall/model_219/tf.nn.convolution/convolution", "PartitionedCall/model_219/tf.math.add/Add/y"], "attr": {"T": {"type": "DT_FLOAT"}}}, {"name": "PartitionedCall/model_219/tf.math.sigmoid/Sigmoid", "op": "Sigmoid", "input": ["PartitionedCall/model_219/tf.math.add/Add"], "attr": {"T": {"type": "DT_FLOAT"}}}, {"name": "PartitionedCall/model_219/tf.math.multiply_1/Mul", "op": "Mul", "input": ["PartitionedCall/model_219/tf.math.add/Add", "PartitionedCall/model_219/tf.math.sigmoid/Sigmoid"], "attr": {"T": {"type": "DT_FLOAT"}}}, {"name": "PartitionedCall/model_219/tf.compat.v1.pad_1/Pad", "op": "Pad", "input": ["PartitionedCall/model_219/tf.math.multiply_1/Mul", "888"], "attr": {"Tpaddings": {"type": "DT_INT32"}, "T": {"type": "DT_FLOAT"}}}, {"name": "PartitionedCall/model_219/tf.nn.convolution_2/convolution", "op": "Conv2D", "input": ["PartitionedCall/model_219/tf.compat.v1.pad_1/Pad", "890"], "device": "/device:CPU:0", "attr": {"dilations": {"list": {"i": ["1", "1", "1", "1"]}}, "padding": {"s": "VkFMSUQ="}, "T": {"type": "DT_FLOAT"}, "strides": {"list": {"i": ["1", "2", "2", "1"]}}, "use_cudnn_on_gpu": {"b": true}, "data_format": {"s": "TkhXQw=="}, "explicit_paddings": {"list": {}}}}, {"name": "PartitionedCall/model_219/tf.math.add_2/Add", "op": "AddV2", "input": ["PartitionedCall/model_219/tf.nn.convolution_2/convolution", "PartitionedCall/model_219/tf.math.add_2/Add/y"], "attr": {"T": {"type": "DT_FLOAT"}}}, {"name": "PartitionedCall/model_219/tf.math.sigmoid_2/Sigmoid", "op": "Sigmoid", "input": ["PartitionedCall/model_219/tf.math.add_2/Add"], "attr": {"T": {"type": "DT_FLOAT"}}}, {"name": "PartitionedCall/model_219/tf.math.multiply_4/Mul", "op": "Mul", "input": ["PartitionedCall/model_219/tf.math.add_2/Add", "PartitionedCall/model_219/tf.math.sigmoid_2/Sigmoid"], "attr": {"T": {"type": "DT_FLOAT"}}}, {"name": "PartitionedCall/model_219/tf.nn.convolution_4/convolution", "op": "Conv2D", "input": ["PartitionedCall/model_219/tf.math.multiply_4/Mul", "892"], "device": "/device:CPU:0", "attr": {"dilations": {"list": {"i": ["1", "1", "1", "1"]}}, "padding": {"s": "U0FNRQ=="}, "T": {"type": "DT_FLOAT"}, "use_cudnn_on_gpu": {"b": true}, "data_format": {"s": "TkhXQw=="}, "explicit_paddings": {"list": {}}, "strides": {"list": {"i": ["1", "1", "1", "1"]}}}}, {"name": "PartitionedCall/model_219/tf.math.add_4/Add", "op": "AddV2", "input": ["PartitionedCall/model_219/tf.nn.convolution_4/convolution", "PartitionedCall/model_219/tf.math.add_4/Add/y"], "attr": {"T": {"type": "DT_FLOAT"}}}, {"name": "PartitionedCall/model_219/tf.math.sigmoid_4/Sigmoid", "op": "Sigmoid", "input": ["PartitionedCall/model_219/tf.math.add_4/Add"], "attr": {"T": {"type": "DT_FLOAT"}}}, {"name": "PartitionedCall/model_219/tf.math.multiply_7/Mul", "op": "Mul", "input": ["PartitionedCall/model_219/tf.math.add_4/Add", "PartitionedCall/model_219/tf.math.sigmoid_4/Sigmoid"], "attr": {"T": {"type": "DT_FLOAT"}}}, {"name": "PartitionedCall/model_219/tf.strided_slice/StridedSlice", "op": "StridedSlice", "input": ["PartitionedCall/model_219/tf.math.multiply_7/Mul", "902", "904", "PartitionedCall/model_219/tf.strided_slice/ones_like"], "attr": {"T": {"type": "DT_FLOAT"}, "end_mask": {"i": "7"}, "new_axis_mask": {"i": "0"}, "shrink_axis_mask": {"i": "0"}, "Index": {"type": "DT_INT64"}, "begin_mask": {"i": "15"}, "ellipsis_mask": {"i": "0"}}}, {"name": "PartitionedCall/model_219/tf.strided_slice_1/StridedSlice", "op": "StridedSlice", "input": ["PartitionedCall/model_219/tf.math.multiply_7/Mul", "894", "896", "PartitionedCall/model_219/tf.strided_slice_1/ones_like"], "attr": {"new_axis_mask": {"i": "0"}, "begin_mask": {"i": "7"}, "Index": {"type": "DT_INT64"}, "ellipsis_mask": {"i": "0"}, "T": {"type": "DT_FLOAT"}, "end_mask": {"i": "7"}, "shrink_axis_mask": {"i": "0"}}}, {"name": "PartitionedCall/model_219/tf.nn.convolution_6/convolution", "op": "Conv2D", "input": ["PartitionedCall/model_219/tf.strided_slice_1/StridedSlice", "898"], "device": "/device:CPU:0", "attr": {"T": {"type": "DT_FLOAT"}, "padding": {"s": "U0FNRQ=="}, "strides": {"list": {"i": ["1", "1", "1", "1"]}}, "dilations": {"list": {"i": ["1", "1", "1", "1"]}}, "use_cudnn_on_gpu": {"b": true}, "explicit_paddings": {"list": {}}, "data_format": {"s": "TkhXQw=="}}}, {"name": "PartitionedCall/model_219/tf.math.add_6/Add", "op": "AddV2", "input": ["PartitionedCall/model_219/tf.nn.convolution_6/convolution", "PartitionedCall/model_219/tf.math.add_6/Add/y"], "attr": {"T": {"type": "DT_FLOAT"}}}, {"name": "PartitionedCall/model_219/tf.math.sigmoid_6/Sigmoid", "op": "Sigmoid", "input": ["PartitionedCall/model_219/tf.math.add_6/Add"], "attr": {"T": {"type": "DT_FLOAT"}}}, {"name": "PartitionedCall/model_219/tf.math.multiply_10/Mul", "op": "Mul", "input": ["PartitionedCall/model_219/tf.math.add_6/Add", "PartitionedCall/model_219/tf.math.sigmoid_6/Sigmoid"], "attr": {"T": {"type": "DT_FLOAT"}}}, {"name": "PartitionedCall/model_219/tf.nn.convolution_8/convolution", "op": "Conv2D", "input": ["PartitionedCall/model_219/tf.math.multiply_10/Mul", "900"], "device": "/device:CPU:0", "attr": {"strides": {"list": {"i": ["1", "1", "1", "1"]}}, "use_cudnn_on_gpu": {"b": true}, "data_format": {"s": "TkhXQw=="}, "explicit_paddings": {"list": {}}, "padding": {"s": "U0FNRQ=="}, "T": {"type": "DT_FLOAT"}, "dilations": {"list": {"i": ["1", "1", "1", "1"]}}}}, {"name": "PartitionedCall/model_219/tf.math.add_8/Add", "op": "AddV2", "input": ["PartitionedCall/model_219/tf.nn.convolution_8/convolution", "PartitionedCall/model_219/tf.math.add_8/Add/y"], "attr": {"T": {"type": "DT_FLOAT"}}}, {"name": "PartitionedCall/model_219/tf.math.sigmoid_8/Sigmoid", "op": "Sigmoid", "input": ["PartitionedCall/model_219/tf.math.add_8/Add"], "attr": {"T": {"type": "DT_FLOAT"}}}, {"name": "PartitionedCall/model_219/tf.math.multiply_13/Mul", "op": "Mul", "input": ["PartitionedCall/model_219/tf.math.add_8/Add", "PartitionedCall/model_219/tf.math.sigmoid_8/Sigmoid"], "attr": {"T": {"type": "DT_FLOAT"}}}, {"name": "PartitionedCall/model_219/tf.math.add_10/Add", "op": "AddV2", "input": ["PartitionedCall/model_219/tf.strided_slice_1/StridedSlice", "PartitionedCall/model_219/tf.math.multiply_13/Mul"], "attr": {"T": {"type": "DT_FLOAT"}}}, {"name": "PartitionedCall/model_219/tf.concat/concat", "op": "ConcatV2", "input": ["PartitionedCall/model_219/tf.strided_slice/StridedSlice", "PartitionedCall/model_219/tf.strided_slice_1/StridedSlice", "PartitionedCall/model_219/tf.math.add_10/Add", "PartitionedCall/model_219/tf.concat/concat/axis"], "attr": {"T": {"type": "DT_FLOAT"}, "Tidx": {"type": "DT_INT32"}, "N": {"i": "3"}}}, {"name": "PartitionedCall/model_219/tf.nn.convolution_10/convolution", "op": "Conv2D", "input": ["PartitionedCall/model_219/tf.concat/concat", "906"], "device": "/device:CPU:0", "attr": {"dilations": {"list": {"i": ["1", "1", "1", "1"]}}, "use_cudnn_on_gpu": {"b": true}, "strides": {"list": {"i": ["1", "1", "1", "1"]}}, "data_format": {"s": "TkhXQw=="}, "T": {"type": "DT_FLOAT"}, "explicit_paddings": {"list": {}}, "padding": {"s": "U0FNRQ=="}}}, {"name": "PartitionedCall/model_219/tf.math.add_12/Add", "op": "AddV2", "input": ["PartitionedCall/model_219/tf.nn.convolution_10/convolution", "PartitionedCall/model_219/tf.math.add_12/Add/y"], "attr": {"T": {"type": "DT_FLOAT"}}}, {"name": "PartitionedCall/model_219/tf.math.sigmoid_10/Sigmoid", "op": "Sigmoid", "input": ["PartitionedCall/model_219/tf.math.add_12/Add"], "attr": {"T": {"type": "DT_FLOAT"}}}, {"name": "PartitionedCall/model_219/tf.math.multiply_17/Mul", "op": "Mul", "input": ["PartitionedCall/model_219/tf.math.add_12/Add", "PartitionedCall/model_219/tf.math.sigmoid_10/Sigmoid"], "attr": {"T": {"type": "DT_FLOAT"}}}, {"name": "PartitionedCall/model_219/tf.compat.v1.pad_2/Pad", "op": "Pad", "input": ["PartitionedCall/model_219/tf.math.multiply_17/Mul", "908"], "attr": {"Tpaddings": {"type": "DT_INT32"}, "T": {"type": "DT_FLOAT"}}}, {"name": "PartitionedCall/model_219/tf.nn.convolution_12/convolution", "op": "Conv2D", "input": ["PartitionedCall/model_219/tf.compat.v1.pad_2/Pad", "910"], "device": "/device:CPU:0", "attr": {"dilations": {"list": {"i": ["1", "1", "1", "1"]}}, "use_cudnn_on_gpu": {"b": true}, "data_format": {"s": "TkhXQw=="}, "T": {"type": "DT_FLOAT"}, "padding": {"s": "VkFMSUQ="}, "explicit_paddings": {"list": {}}, "strides": {"list": {"i": ["1", "2", "2", "1"]}}}}, {"name": "PartitionedCall/model_219/tf.math.add_14/Add", "op": "AddV2", "input": ["PartitionedCall/model_219/tf.nn.convolution_12/convolution", "PartitionedCall/model_219/tf.math.add_14/Add/y"], "attr": {"T": {"type": "DT_FLOAT"}}}, {"name": "PartitionedCall/model_219/tf.math.sigmoid_12/Sigmoid", "op": "Sigmoid", "input": ["PartitionedCall/model_219/tf.math.add_14/Add"], "attr": {"T": {"type": "DT_FLOAT"}}}, {"name": "PartitionedCall/model_219/tf.math.multiply_20/Mul", "op": "Mul", "input": ["PartitionedCall/model_219/tf.math.add_14/Add", "PartitionedCall/model_219/tf.math.sigmoid_12/Sigmoid"], "attr": {"T": {"type": "DT_FLOAT"}}}, {"name": "PartitionedCall/model_219/tf.nn.convolution_14/convolution", "op": "Conv2D", "input": ["PartitionedCall/model_219/tf.math.multiply_20/Mul", "912"], "device": "/device:CPU:0", "attr": {"T": {"type": "DT_FLOAT"}, "use_cudnn_on_gpu": {"b": true}, "dilations": {"list": {"i": ["1", "1", "1", "1"]}}, "strides": {"list": {"i": ["1", "1", "1", "1"]}}, "padding": {"s": "U0FNRQ=="}, "data_format": {"s": "TkhXQw=="}, "explicit_paddings": {"list": {}}}}, {"name": "PartitionedCall/model_219/tf.math.add_16/Add", "op": "AddV2", "input": ["PartitionedCall/model_219/tf.nn.convolution_14/convolution", "PartitionedCall/model_219/tf.math.add_16/Add/y"], "attr": {"T": {"type": "DT_FLOAT"}}}, {"name": "PartitionedCall/model_219/tf.math.sigmoid_14/Sigmoid", "op": "Sigmoid", "input": ["PartitionedCall/model_219/tf.math.add_16/Add"], "attr": {"T": {"type": "DT_FLOAT"}}}, {"name": "PartitionedCall/model_219/tf.math.multiply_23/Mul", "op": "Mul", "input": ["PartitionedCall/model_219/tf.math.add_16/Add", "PartitionedCall/model_219/tf.math.sigmoid_14/Sigmoid"], "attr": {"T": {"type": "DT_FLOAT"}}}, {"name": "PartitionedCall/model_219/tf.strided_slice_2/StridedSlice", "op": "StridedSlice", "input": ["PartitionedCall/model_219/tf.math.multiply_23/Mul", "926", "928", "PartitionedCall/model_219/tf.strided_slice_2/ones_like"], "attr": {"begin_mask": {"i": "15"}, "end_mask": {"i": "7"}, "ellipsis_mask": {"i": "0"}, "T": {"type": "DT_FLOAT"}, "shrink_axis_mask": {"i": "0"}, "new_axis_mask": {"i": "0"}, "Index": {"type": "DT_INT64"}}}, {"name": "PartitionedCall/model_219/tf.strided_slice_3/StridedSlice", "op": "StridedSlice", "input": ["PartitionedCall/model_219/tf.math.multiply_23/Mul", "914", "916", "PartitionedCall/model_219/tf.strided_slice_3/ones_like"], "attr": {"shrink_axis_mask": {"i": "0"}, "Index": {"type": "DT_INT64"}, "T": {"type": "DT_FLOAT"}, "ellipsis_mask": {"i": "0"}, "end_mask": {"i": "7"}, "new_axis_mask": {"i": "0"}, "begin_mask": {"i": "7"}}}, {"name": "PartitionedCall/model_219/tf.nn.convolution_16/convolution", "op": "Conv2D", "input": ["PartitionedCall/model_219/tf.strided_slice_3/StridedSlice", "918"], "device": "/device:CPU:0", "attr": {"explicit_paddings": {"list": {}}, "T": {"type": "DT_FLOAT"}, "dilations": {"list": {"i": ["1", "1", "1", "1"]}}, "use_cudnn_on_gpu": {"b": true}, "padding": {"s": "U0FNRQ=="}, "strides": {"list": {"i": ["1", "1", "1", "1"]}}, "data_format": {"s": "TkhXQw=="}}}, {"name": "PartitionedCall/model_219/tf.math.add_18/Add", "op": "AddV2", "input": ["PartitionedCall/model_219/tf.nn.convolution_16/convolution", "PartitionedCall/model_219/tf.math.add_18/Add/y"], "attr": {"T": {"type": "DT_FLOAT"}}}, {"name": "PartitionedCall/model_219/tf.math.sigmoid_16/Sigmoid", "op": "Sigmoid", "input": ["PartitionedCall/model_219/tf.math.add_18/Add"], "attr": {"T": {"type": "DT_FLOAT"}}}, {"name": "PartitionedCall/model_219/tf.math.multiply_26/Mul", "op": "Mul", "input": ["PartitionedCall/model_219/tf.math.add_18/Add", "PartitionedCall/model_219/tf.math.sigmoid_16/Sigmoid"], "attr": {"T": {"type": "DT_FLOAT"}}}, {"name": "PartitionedCall/model_219/tf.nn.convolution_18/convolution", "op": "Conv2D", "input": ["PartitionedCall/model_219/tf.math.multiply_26/Mul", "920"], "device": "/device:CPU:0", "attr": {"T": {"type": "DT_FLOAT"}, "data_format": {"s": "TkhXQw=="}, "padding": {"s": "U0FNRQ=="}, "explicit_paddings": {"list": {}}, "strides": {"list": {"i": ["1", "1", "1", "1"]}}, "dilations": {"list": {"i": ["1", "1", "1", "1"]}}, "use_cudnn_on_gpu": {"b": true}}}, {"name": "PartitionedCall/model_219/tf.math.add_20/Add", "op": "AddV2", "input": ["PartitionedCall/model_219/tf.nn.convolution_18/convolution", "PartitionedCall/model_219/tf.math.add_20/Add/y"], "attr": {"T": {"type": "DT_FLOAT"}}}, {"name": "PartitionedCall/model_219/tf.math.sigmoid_18/Sigmoid", "op": "Sigmoid", "input": ["PartitionedCall/model_219/tf.math.add_20/Add"], "attr": {"T": {"type": "DT_FLOAT"}}}, {"name": "PartitionedCall/model_219/tf.math.multiply_29/Mul", "op": "Mul", "input": ["PartitionedCall/model_219/tf.math.add_20/Add", "PartitionedCall/model_219/tf.math.sigmoid_18/Sigmoid"], "attr": {"T": {"type": "DT_FLOAT"}}}, {"name": "PartitionedCall/model_219/tf.math.add_22/Add", "op": "AddV2", "input": ["PartitionedCall/model_219/tf.strided_slice_3/StridedSlice", "PartitionedCall/model_219/tf.math.multiply_29/Mul"], "attr": {"T": {"type": "DT_FLOAT"}}}, {"name": "PartitionedCall/model_219/tf.nn.convolution_20/convolution", "op": "Conv2D", "input": ["PartitionedCall/model_219/tf.math.add_22/Add", "922"], "device": "/device:CPU:0", "attr": {"T": {"type": "DT_FLOAT"}, "padding": {"s": "U0FNRQ=="}, "explicit_paddings": {"list": {}}, "strides": {"list": {"i": ["1", "1", "1", "1"]}}, "dilations": {"list": {"i": ["1", "1", "1", "1"]}}, "use_cudnn_on_gpu": {"b": true}, "data_format": {"s": "TkhXQw=="}}}, {"name": "PartitionedCall/model_219/tf.math.add_24/Add", "op": "AddV2", "input": ["PartitionedCall/model_219/tf.nn.convolution_20/convolution", "PartitionedCall/model_219/tf.math.add_24/Add/y"], "attr": {"T": {"type": "DT_FLOAT"}}}, {"name": "PartitionedCall/model_219/tf.math.sigmoid_20/Sigmoid", "op": "Sigmoid", "input": ["PartitionedCall/model_219/tf.math.add_24/Add"], "attr": {"T": {"type": "DT_FLOAT"}}}, {"name": "PartitionedCall/model_219/tf.math.multiply_33/Mul", "op": "Mul", "input": ["PartitionedCall/model_219/tf.math.add_24/Add", "PartitionedCall/model_219/tf.math.sigmoid_20/Sigmoid"], "attr": {"T": {"type": "DT_FLOAT"}}}, {"name": "PartitionedCall/model_219/tf.nn.convolution_22/convolution", "op": "Conv2D", "input": ["PartitionedCall/model_219/tf.math.multiply_33/Mul", "924"], "device": "/device:CPU:0", "attr": {"strides": {"list": {"i": ["1", "1", "1", "1"]}}, "data_format": {"s": "TkhXQw=="}, "explicit_paddings": {"list": {}}, "dilations": {"list": {"i": ["1", "1", "1", "1"]}}, "T": {"type": "DT_FLOAT"}, "use_cudnn_on_gpu": {"b": true}, "padding": {"s": "U0FNRQ=="}}}, {"name": "PartitionedCall/model_219/tf.math.add_26/Add", "op": "AddV2", "input": ["PartitionedCall/model_219/tf.nn.convolution_22/convolution", "PartitionedCall/model_219/tf.math.add_26/Add/y"], "attr": {"T": {"type": "DT_FLOAT"}}}, {"name": "PartitionedCall/model_219/tf.math.sigmoid_22/Sigmoid", "op": "Sigmoid", "input": ["PartitionedCall/model_219/tf.math.add_26/Add"], "attr": {"T": {"type": "DT_FLOAT"}}}, {"name": "PartitionedCall/model_219/tf.math.multiply_36/Mul", "op": "Mul", "input": ["PartitionedCall/model_219/tf.math.add_26/Add", "PartitionedCall/model_219/tf.math.sigmoid_22/Sigmoid"], "attr": {"T": {"type": "DT_FLOAT"}}}, {"name": "PartitionedCall/model_219/tf.math.add_28/Add", "op": "AddV2", "input": ["PartitionedCall/model_219/tf.math.add_22/Add", "PartitionedCall/model_219/tf.math.multiply_36/Mul"], "attr": {"T": {"type": "DT_FLOAT"}}}, {"name": "PartitionedCall/model_219/tf.concat_2/concat", "op": "ConcatV2", "input": ["PartitionedCall/model_219/tf.strided_slice_2/StridedSlice", "PartitionedCall/model_219/tf.strided_slice_3/StridedSlice", "PartitionedCall/model_219/tf.math.add_22/Add", "PartitionedCall/model_219/tf.math.add_28/Add", "PartitionedCall/model_219/tf.concat_2/concat/axis"], "attr": {"Tidx": {"type": "DT_INT32"}, "T": {"type": "DT_FLOAT"}, "N": {"i": "4"}}}, {"name": "PartitionedCall/model_219/tf.nn.convolution_24/convolution", "op": "Conv2D", "input": ["PartitionedCall/model_219/tf.concat_2/concat", "930"], "device": "/device:CPU:0", "attr": {"explicit_paddings": {"list": {}}, "data_format": {"s": "TkhXQw=="}, "padding": {"s": "U0FNRQ=="}, "use_cudnn_on_gpu": {"b": true}, "strides": {"list": {"i": ["1", "1", "1", "1"]}}, "dilations": {"list": {"i": ["1", "1", "1", "1"]}}, "T": {"type": "DT_FLOAT"}}}, {"name": "PartitionedCall/model_219/tf.math.add_30/Add", "op": "AddV2", "input": ["PartitionedCall/model_219/tf.nn.convolution_24/convolution", "PartitionedCall/model_219/tf.math.add_30/Add/y"], "attr": {"T": {"type": "DT_FLOAT"}}}, {"name": "PartitionedCall/model_219/tf.math.sigmoid_24/Sigmoid", "op": "Sigmoid", "input": ["PartitionedCall/model_219/tf.math.add_30/Add"], "attr": {"T": {"type": "DT_FLOAT"}}}, {"name": "PartitionedCall/model_219/tf.math.multiply_40/Mul", "op": "Mul", "input": ["PartitionedCall/model_219/tf.math.add_30/Add", "PartitionedCall/model_219/tf.math.sigmoid_24/Sigmoid"], "attr": {"T": {"type": "DT_FLOAT"}}}, {"name": "PartitionedCall/model_219/tf.compat.v1.pad_3/Pad", "op": "Pad", "input": ["PartitionedCall/model_219/tf.math.multiply_40/Mul", "932"], "attr": {"Tpaddings": {"type": "DT_INT32"}, "T": {"type": "DT_FLOAT"}}}, {"name": "PartitionedCall/model_219/tf.nn.convolution_26/convolution", "op": "Conv2D", "input": ["PartitionedCall/model_219/tf.compat.v1.pad_3/Pad", "934"], "device": "/device:CPU:0", "attr": {"T": {"type": "DT_FLOAT"}, "explicit_paddings": {"list": {}}, "padding": {"s": "VkFMSUQ="}, "dilations": {"list": {"i": ["1", "1", "1", "1"]}}, "use_cudnn_on_gpu": {"b": true}, "data_format": {"s": "TkhXQw=="}, "strides": {"list": {"i": ["1", "2", "2", "1"]}}}}, {"name": "PartitionedCall/model_219/tf.math.add_32/Add", "op": "AddV2", "input": ["PartitionedCall/model_219/tf.nn.convolution_26/convolution", "PartitionedCall/model_219/tf.math.add_32/Add/y"], "attr": {"T": {"type": "DT_FLOAT"}}}, {"name": "PartitionedCall/model_219/tf.math.sigmoid_26/Sigmoid", "op": "Sigmoid", "input": ["PartitionedCall/model_219/tf.math.add_32/Add"], "attr": {"T": {"type": "DT_FLOAT"}}}, {"name": "PartitionedCall/model_219/tf.math.multiply_43/Mul", "op": "Mul", "input": ["PartitionedCall/model_219/tf.math.add_32/Add", "PartitionedCall/model_219/tf.math.sigmoid_26/Sigmoid"], "attr": {"T": {"type": "DT_FLOAT"}}}, {"name": "PartitionedCall/model_219/tf.nn.convolution_28/convolution", "op": "Conv2D", "input": ["PartitionedCall/model_219/tf.math.multiply_43/Mul", "936"], "device": "/device:CPU:0", "attr": {"explicit_paddings": {"list": {}}, "T": {"type": "DT_FLOAT"}, "use_cudnn_on_gpu": {"b": true}, "dilations": {"list": {"i": ["1", "1", "1", "1"]}}, "strides": {"list": {"i": ["1", "1", "1", "1"]}}, "padding": {"s": "U0FNRQ=="}, "data_format": {"s": "TkhXQw=="}}}, {"name": "PartitionedCall/model_219/tf.math.add_34/Add", "op": "AddV2", "input": ["PartitionedCall/model_219/tf.nn.convolution_28/convolution", "PartitionedCall/model_219/tf.math.add_34/Add/y"], "attr": {"T": {"type": "DT_FLOAT"}}}, {"name": "PartitionedCall/model_219/tf.math.sigmoid_28/Sigmoid", "op": "Sigmoid", "input": ["PartitionedCall/model_219/tf.math.add_34/Add"], "attr": {"T": {"type": "DT_FLOAT"}}}, {"name": "PartitionedCall/model_219/tf.math.multiply_46/Mul", "op": "Mul", "input": ["PartitionedCall/model_219/tf.math.add_34/Add", "PartitionedCall/model_219/tf.math.sigmoid_28/Sigmoid"], "attr": {"T": {"type": "DT_FLOAT"}}}, {"name": "PartitionedCall/model_219/tf.strided_slice_4/StridedSlice", "op": "StridedSlice", "input": ["PartitionedCall/model_219/tf.math.multiply_46/Mul", "950", "952", "PartitionedCall/model_219/tf.strided_slice_4/ones_like"], "attr": {"Index": {"type": "DT_INT64"}, "end_mask": {"i": "7"}, "T": {"type": "DT_FLOAT"}, "begin_mask": {"i": "15"}, "ellipsis_mask": {"i": "0"}, "shrink_axis_mask": {"i": "0"}, "new_axis_mask": {"i": "0"}}}, {"name": "PartitionedCall/model_219/tf.strided_slice_5/StridedSlice", "op": "StridedSlice", "input": ["PartitionedCall/model_219/tf.math.multiply_46/Mul", "938", "940", "PartitionedCall/model_219/tf.strided_slice_5/ones_like"], "attr": {"new_axis_mask": {"i": "0"}, "end_mask": {"i": "7"}, "ellipsis_mask": {"i": "0"}, "Index": {"type": "DT_INT64"}, "shrink_axis_mask": {"i": "0"}, "T": {"type": "DT_FLOAT"}, "begin_mask": {"i": "7"}}}, {"name": "PartitionedCall/model_219/tf.nn.convolution_30/convolution", "op": "Conv2D", "input": ["PartitionedCall/model_219/tf.strided_slice_5/StridedSlice", "942"], "device": "/device:CPU:0", "attr": {"T": {"type": "DT_FLOAT"}, "explicit_paddings": {"list": {}}, "strides": {"list": {"i": ["1", "1", "1", "1"]}}, "dilations": {"list": {"i": ["1", "1", "1", "1"]}}, "use_cudnn_on_gpu": {"b": true}, "padding": {"s": "U0FNRQ=="}, "data_format": {"s": "TkhXQw=="}}}, {"name": "PartitionedCall/model_219/tf.math.add_36/Add", "op": "AddV2", "input": ["PartitionedCall/model_219/tf.nn.convolution_30/convolution", "PartitionedCall/model_219/tf.math.add_36/Add/y"], "attr": {"T": {"type": "DT_FLOAT"}}}, {"name": "PartitionedCall/model_219/tf.math.sigmoid_30/Sigmoid", "op": "Sigmoid", "input": ["PartitionedCall/model_219/tf.math.add_36/Add"], "attr": {"T": {"type": "DT_FLOAT"}}}, {"name": "PartitionedCall/model_219/tf.math.multiply_49/Mul", "op": "Mul", "input": ["PartitionedCall/model_219/tf.math.add_36/Add", "PartitionedCall/model_219/tf.math.sigmoid_30/Sigmoid"], "attr": {"T": {"type": "DT_FLOAT"}}}, {"name": "PartitionedCall/model_219/tf.nn.convolution_32/convolution", "op": "Conv2D", "input": ["PartitionedCall/model_219/tf.math.multiply_49/Mul", "944"], "device": "/device:CPU:0", "attr": {"explicit_paddings": {"list": {}}, "dilations": {"list": {"i": ["1", "1", "1", "1"]}}, "strides": {"list": {"i": ["1", "1", "1", "1"]}}, "T": {"type": "DT_FLOAT"}, "data_format": {"s": "TkhXQw=="}, "use_cudnn_on_gpu": {"b": true}, "padding": {"s": "U0FNRQ=="}}}, {"name": "PartitionedCall/model_219/tf.math.add_38/Add", "op": "AddV2", "input": ["PartitionedCall/model_219/tf.nn.convolution_32/convolution", "PartitionedCall/model_219/tf.math.add_38/Add/y"], "attr": {"T": {"type": "DT_FLOAT"}}}, {"name": "PartitionedCall/model_219/tf.math.sigmoid_32/Sigmoid", "op": "Sigmoid", "input": ["PartitionedCall/model_219/tf.math.add_38/Add"], "attr": {"T": {"type": "DT_FLOAT"}}}, {"name": "PartitionedCall/model_219/tf.math.multiply_52/Mul", "op": "Mul", "input": ["PartitionedCall/model_219/tf.math.add_38/Add", "PartitionedCall/model_219/tf.math.sigmoid_32/Sigmoid"], "attr": {"T": {"type": "DT_FLOAT"}}}, {"name": "PartitionedCall/model_219/tf.math.add_40/Add", "op": "AddV2", "input": ["PartitionedCall/model_219/tf.strided_slice_5/StridedSlice", "PartitionedCall/model_219/tf.math.multiply_52/Mul"], "attr": {"T": {"type": "DT_FLOAT"}}}, {"name": "PartitionedCall/model_219/tf.nn.convolution_34/convolution", "op": "Conv2D", "input": ["PartitionedCall/model_219/tf.math.add_40/Add", "946"], "device": "/device:CPU:0", "attr": {"strides": {"list": {"i": ["1", "1", "1", "1"]}}, "use_cudnn_on_gpu": {"b": true}, "explicit_paddings": {"list": {}}, "dilations": {"list": {"i": ["1", "1", "1", "1"]}}, "padding": {"s": "U0FNRQ=="}, "data_format": {"s": "TkhXQw=="}, "T": {"type": "DT_FLOAT"}}}, {"name": "PartitionedCall/model_219/tf.math.add_42/Add", "op": "AddV2", "input": ["PartitionedCall/model_219/tf.nn.convolution_34/convolution", "PartitionedCall/model_219/tf.math.add_42/Add/y"], "attr": {"T": {"type": "DT_FLOAT"}}}, {"name": "PartitionedCall/model_219/tf.math.sigmoid_34/Sigmoid", "op": "Sigmoid", "input": ["PartitionedCall/model_219/tf.math.add_42/Add"], "attr": {"T": {"type": "DT_FLOAT"}}}, {"name": "PartitionedCall/model_219/tf.math.multiply_56/Mul", "op": "Mul", "input": ["PartitionedCall/model_219/tf.math.add_42/Add", "PartitionedCall/model_219/tf.math.sigmoid_34/Sigmoid"], "attr": {"T": {"type": "DT_FLOAT"}}}, {"name": "PartitionedCall/model_219/tf.nn.convolution_36/convolution", "op": "Conv2D", "input": ["PartitionedCall/model_219/tf.math.multiply_56/Mul", "948"], "device": "/device:CPU:0", "attr": {"use_cudnn_on_gpu": {"b": true}, "strides": {"list": {"i": ["1", "1", "1", "1"]}}, "dilations": {"list": {"i": ["1", "1", "1", "1"]}}, "data_format": {"s": "TkhXQw=="}, "T": {"type": "DT_FLOAT"}, "padding": {"s": "U0FNRQ=="}, "explicit_paddings": {"list": {}}}}, {"name": "PartitionedCall/model_219/tf.math.add_44/Add", "op": "AddV2", "input": ["PartitionedCall/model_219/tf.nn.convolution_36/convolution", "PartitionedCall/model_219/tf.math.add_44/Add/y"], "attr": {"T": {"type": "DT_FLOAT"}}}, {"name": "PartitionedCall/model_219/tf.math.sigmoid_36/Sigmoid", "op": "Sigmoid", "input": ["PartitionedCall/model_219/tf.math.add_44/Add"], "attr": {"T": {"type": "DT_FLOAT"}}}, {"name": "PartitionedCall/model_219/tf.math.multiply_59/Mul", "op": "Mul", "input": ["PartitionedCall/model_219/tf.math.add_44/Add", "PartitionedCall/model_219/tf.math.sigmoid_36/Sigmoid"], "attr": {"T": {"type": "DT_FLOAT"}}}, {"name": "PartitionedCall/model_219/tf.math.add_46/Add", "op": "AddV2", "input": ["PartitionedCall/model_219/tf.math.add_40/Add", "PartitionedCall/model_219/tf.math.multiply_59/Mul"], "attr": {"T": {"type": "DT_FLOAT"}}}, {"name": "PartitionedCall/model_219/tf.concat_4/concat", "op": "ConcatV2", "input": ["PartitionedCall/model_219/tf.strided_slice_4/StridedSlice", "PartitionedCall/model_219/tf.strided_slice_5/StridedSlice", "PartitionedCall/model_219/tf.math.add_40/Add", "PartitionedCall/model_219/tf.math.add_46/Add", "PartitionedCall/model_219/tf.concat_4/concat/axis"], "attr": {"T": {"type": "DT_FLOAT"}, "N": {"i": "4"}, "Tidx": {"type": "DT_INT32"}}}, {"name": "PartitionedCall/model_219/tf.nn.convolution_38/convolution", "op": "Conv2D", "input": ["PartitionedCall/model_219/tf.concat_4/concat", "954"], "device": "/device:CPU:0", "attr": {"T": {"type": "DT_FLOAT"}, "use_cudnn_on_gpu": {"b": true}, "padding": {"s": "U0FNRQ=="}, "explicit_paddings": {"list": {}}, "strides": {"list": {"i": ["1", "1", "1", "1"]}}, "dilations": {"list": {"i": ["1", "1", "1", "1"]}}, "data_format": {"s": "TkhXQw=="}}}, {"name": "PartitionedCall/model_219/tf.math.add_48/Add", "op": "AddV2", "input": ["PartitionedCall/model_219/tf.nn.convolution_38/convolution", "PartitionedCall/model_219/tf.math.add_48/Add/y"], "attr": {"T": {"type": "DT_FLOAT"}}}, {"name": "PartitionedCall/model_219/tf.math.sigmoid_38/Sigmoid", "op": "Sigmoid", "input": ["PartitionedCall/model_219/tf.math.add_48/Add"], "attr": {"T": {"type": "DT_FLOAT"}}}, {"name": "PartitionedCall/model_219/tf.math.multiply_63/Mul", "op": "Mul", "input": ["PartitionedCall/model_219/tf.math.add_48/Add", "PartitionedCall/model_219/tf.math.sigmoid_38/Sigmoid"], "attr": {"T": {"type": "DT_FLOAT"}}}, {"name": "PartitionedCall/model_219/tf.compat.v1.pad_4/Pad", "op": "Pad", "input": ["PartitionedCall/model_219/tf.math.multiply_63/Mul", "956"], "attr": {"Tpaddings": {"type": "DT_INT32"}, "T": {"type": "DT_FLOAT"}}}, {"name": "PartitionedCall/model_219/tf.nn.convolution_40/convolution", "op": "Conv2D", "input": ["PartitionedCall/model_219/tf.compat.v1.pad_4/Pad", "958"], "device": "/device:CPU:0", "attr": {"padding": {"s": "VkFMSUQ="}, "T": {"type": "DT_FLOAT"}, "strides": {"list": {"i": ["1", "2", "2", "1"]}}, "use_cudnn_on_gpu": {"b": true}, "explicit_paddings": {"list": {}}, "dilations": {"list": {"i": ["1", "1", "1", "1"]}}, "data_format": {"s": "TkhXQw=="}}}, {"name": "PartitionedCall/model_219/tf.math.add_50/Add", "op": "AddV2", "input": ["PartitionedCall/model_219/tf.nn.convolution_40/convolution", "PartitionedCall/model_219/tf.math.add_50/Add/y"], "attr": {"T": {"type": "DT_FLOAT"}}}, {"name": "PartitionedCall/model_219/tf.math.sigmoid_40/Sigmoid", "op": "Sigmoid", "input": ["PartitionedCall/model_219/tf.math.add_50/Add"], "attr": {"T": {"type": "DT_FLOAT"}}}, {"name": "PartitionedCall/model_219/tf.math.multiply_66/Mul", "op": "Mul", "input": ["PartitionedCall/model_219/tf.math.add_50/Add", "PartitionedCall/model_219/tf.math.sigmoid_40/Sigmoid"], "attr": {"T": {"type": "DT_FLOAT"}}}, {"name": "PartitionedCall/model_219/tf.nn.convolution_42/convolution", "op": "Conv2D", "input": ["PartitionedCall/model_219/tf.math.multiply_66/Mul", "960"], "device": "/device:CPU:0", "attr": {"dilations": {"list": {"i": ["1", "1", "1", "1"]}}, "data_format": {"s": "TkhXQw=="}, "T": {"type": "DT_FLOAT"}, "strides": {"list": {"i": ["1", "1", "1", "1"]}}, "use_cudnn_on_gpu": {"b": true}, "padding": {"s": "U0FNRQ=="}, "explicit_paddings": {"list": {}}}}, {"name": "PartitionedCall/model_219/tf.math.add_52/Add", "op": "AddV2", "input": ["PartitionedCall/model_219/tf.nn.convolution_42/convolution", "PartitionedCall/model_219/tf.math.add_52/Add/y"], "attr": {"T": {"type": "DT_FLOAT"}}}, {"name": "PartitionedCall/model_219/tf.math.sigmoid_42/Sigmoid", "op": "Sigmoid", "input": ["PartitionedCall/model_219/tf.math.add_52/Add"], "attr": {"T": {"type": "DT_FLOAT"}}}, {"name": "PartitionedCall/model_219/tf.math.multiply_69/Mul", "op": "Mul", "input": ["PartitionedCall/model_219/tf.math.add_52/Add", "PartitionedCall/model_219/tf.math.sigmoid_42/Sigmoid"], "attr": {"T": {"type": "DT_FLOAT"}}}, {"name": "PartitionedCall/model_219/tf.strided_slice_6/StridedSlice", "op": "StridedSlice", "input": ["PartitionedCall/model_219/tf.math.multiply_69/Mul", "970", "972", "PartitionedCall/model_219/tf.strided_slice_6/ones_like"], "attr": {"new_axis_mask": {"i": "0"}, "end_mask": {"i": "7"}, "Index": {"type": "DT_INT64"}, "shrink_axis_mask": {"i": "0"}, "begin_mask": {"i": "15"}, "ellipsis_mask": {"i": "0"}, "T": {"type": "DT_FLOAT"}}}, {"name": "PartitionedCall/model_219/tf.strided_slice_7/StridedSlice", "op": "StridedSlice", "input": ["PartitionedCall/model_219/tf.math.multiply_69/Mul", "962", "964", "PartitionedCall/model_219/tf.strided_slice_7/ones_like"], "attr": {"shrink_axis_mask": {"i": "0"}, "ellipsis_mask": {"i": "0"}, "T": {"type": "DT_FLOAT"}, "new_axis_mask": {"i": "0"}, "begin_mask": {"i": "7"}, "end_mask": {"i": "7"}, "Index": {"type": "DT_INT64"}}}, {"name": "PartitionedCall/model_219/tf.nn.convolution_44/convolution", "op": "Conv2D", "input": ["PartitionedCall/model_219/tf.strided_slice_7/StridedSlice", "966"], "device": "/device:CPU:0", "attr": {"padding": {"s": "U0FNRQ=="}, "strides": {"list": {"i": ["1", "1", "1", "1"]}}, "dilations": {"list": {"i": ["1", "1", "1", "1"]}}, "explicit_paddings": {"list": {}}, "data_format": {"s": "TkhXQw=="}, "use_cudnn_on_gpu": {"b": true}, "T": {"type": "DT_FLOAT"}}}, {"name": "PartitionedCall/model_219/tf.math.add_54/Add", "op": "AddV2", "input": ["PartitionedCall/model_219/tf.nn.convolution_44/convolution", "PartitionedCall/model_219/tf.math.add_54/Add/y"], "attr": {"T": {"type": "DT_FLOAT"}}}, {"name": "PartitionedCall/model_219/tf.math.sigmoid_44/Sigmoid", "op": "Sigmoid", "input": ["PartitionedCall/model_219/tf.math.add_54/Add"], "attr": {"T": {"type": "DT_FLOAT"}}}, {"name": "PartitionedCall/model_219/tf.math.multiply_72/Mul", "op": "Mul", "input": ["PartitionedCall/model_219/tf.math.add_54/Add", "PartitionedCall/model_219/tf.math.sigmoid_44/Sigmoid"], "attr": {"T": {"type": "DT_FLOAT"}}}, {"name": "PartitionedCall/model_219/tf.nn.convolution_46/convolution", "op": "Conv2D", "input": ["PartitionedCall/model_219/tf.math.multiply_72/Mul", "968"], "device": "/device:CPU:0", "attr": {"explicit_paddings": {"list": {}}, "data_format": {"s": "TkhXQw=="}, "use_cudnn_on_gpu": {"b": true}, "T": {"type": "DT_FLOAT"}, "padding": {"s": "U0FNRQ=="}, "strides": {"list": {"i": ["1", "1", "1", "1"]}}, "dilations": {"list": {"i": ["1", "1", "1", "1"]}}}}, {"name": "PartitionedCall/model_219/tf.math.add_56/Add", "op": "AddV2", "input": ["PartitionedCall/model_219/tf.nn.convolution_46/convolution", "PartitionedCall/model_219/tf.math.add_56/Add/y"], "attr": {"T": {"type": "DT_FLOAT"}}}, {"name": "PartitionedCall/model_219/tf.math.sigmoid_46/Sigmoid", "op": "Sigmoid", "input": ["PartitionedCall/model_219/tf.math.add_56/Add"], "attr": {"T": {"type": "DT_FLOAT"}}}, {"name": "PartitionedCall/model_219/tf.math.multiply_75/Mul", "op": "Mul", "input": ["PartitionedCall/model_219/tf.math.add_56/Add", "PartitionedCall/model_219/tf.math.sigmoid_46/Sigmoid"], "attr": {"T": {"type": "DT_FLOAT"}}}, {"name": "PartitionedCall/model_219/tf.math.add_58/Add", "op": "AddV2", "input": ["PartitionedCall/model_219/tf.strided_slice_7/StridedSlice", "PartitionedCall/model_219/tf.math.multiply_75/Mul"], "attr": {"T": {"type": "DT_FLOAT"}}}, {"name": "PartitionedCall/model_219/tf.concat_6/concat", "op": "ConcatV2", "input": ["PartitionedCall/model_219/tf.strided_slice_6/StridedSlice", "PartitionedCall/model_219/tf.strided_slice_7/StridedSlice", "PartitionedCall/model_219/tf.math.add_58/Add", "PartitionedCall/model_219/tf.concat_6/concat/axis"], "attr": {"Tidx": {"type": "DT_INT32"}, "T": {"type": "DT_FLOAT"}, "N": {"i": "3"}}}, {"name": "PartitionedCall/model_219/tf.nn.convolution_48/convolution", "op": "Conv2D", "input": ["PartitionedCall/model_219/tf.concat_6/concat", "974"], "device": "/device:CPU:0", "attr": {"data_format": {"s": "TkhXQw=="}, "use_cudnn_on_gpu": {"b": true}, "T": {"type": "DT_FLOAT"}, "padding": {"s": "U0FNRQ=="}, "strides": {"list": {"i": ["1", "1", "1", "1"]}}, "dilations": {"list": {"i": ["1", "1", "1", "1"]}}, "explicit_paddings": {"list": {}}}}, {"name": "PartitionedCall/model_219/tf.math.add_60/Add", "op": "AddV2", "input": ["PartitionedCall/model_219/tf.nn.convolution_48/convolution", "PartitionedCall/model_219/tf.math.add_60/Add/y"], "attr": {"T": {"type": "DT_FLOAT"}}}, {"name": "PartitionedCall/model_219/tf.math.sigmoid_48/Sigmoid", "op": "Sigmoid", "input": ["PartitionedCall/model_219/tf.math.add_60/Add"], "attr": {"T": {"type": "DT_FLOAT"}}}, {"name": "PartitionedCall/model_219/tf.math.multiply_79/Mul", "op": "Mul", "input": ["PartitionedCall/model_219/tf.math.add_60/Add", "PartitionedCall/model_219/tf.math.sigmoid_48/Sigmoid"], "attr": {"T": {"type": "DT_FLOAT"}}}, {"name": "PartitionedCall/model_219/tf.nn.convolution_50/convolution", "op": "Conv2D", "input": ["PartitionedCall/model_219/tf.math.multiply_79/Mul", "976"], "device": "/device:CPU:0", "attr": {"T": {"type": "DT_FLOAT"}, "dilations": {"list": {"i": ["1", "1", "1", "1"]}}, "data_format": {"s": "TkhXQw=="}, "explicit_paddings": {"list": {}}, "use_cudnn_on_gpu": {"b": true}, "strides": {"list": {"i": ["1", "1", "1", "1"]}}, "padding": {"s": "U0FNRQ=="}}}, {"name": "PartitionedCall/model_219/tf.math.add_62/Add", "op": "AddV2", "input": ["PartitionedCall/model_219/tf.nn.convolution_50/convolution", "PartitionedCall/model_219/tf.math.add_62/Add/y"], "attr": {"T": {"type": "DT_FLOAT"}}}, {"name": "PartitionedCall/model_219/tf.math.sigmoid_50/Sigmoid", "op": "Sigmoid", "input": ["PartitionedCall/model_219/tf.math.add_62/Add"], "attr": {"T": {"type": "DT_FLOAT"}}}, {"name": "PartitionedCall/model_219/tf.math.multiply_82/Mul", "op": "Mul", "input": ["PartitionedCall/model_219/tf.math.add_62/Add", "PartitionedCall/model_219/tf.math.sigmoid_50/Sigmoid"], "attr": {"T": {"type": "DT_FLOAT"}}}, {"name": "PartitionedCall/model_219/tf.compat.v1.nn.pool/max_pool", "op": "MaxPool", "input": ["PartitionedCall/model_219/tf.math.multiply_82/Mul"], "attr": {"data_format": {"s": "TkhXQw=="}, "ksize": {"list": {"i": ["1", "5", "5", "1"]}}, "explicit_paddings": {"list": {}}, "padding": {"s": "U0FNRQ=="}, "T": {"type": "DT_FLOAT"}, "strides": {"list": {"i": ["1", "1", "1", "1"]}}}}, {"name": "PartitionedCall/model_219/tf.compat.v1.nn.pool_1/max_pool", "op": "MaxPool", "input": ["PartitionedCall/model_219/tf.compat.v1.nn.pool/max_pool"], "attr": {"T": {"type": "DT_FLOAT"}, "explicit_paddings": {"list": {}}, "padding": {"s": "U0FNRQ=="}, "data_format": {"s": "TkhXQw=="}, "strides": {"list": {"i": ["1", "1", "1", "1"]}}, "ksize": {"list": {"i": ["1", "5", "5", "1"]}}}}, {"name": "PartitionedCall/model_219/tf.compat.v1.nn.pool_2/max_pool", "op": "MaxPool", "input": ["PartitionedCall/model_219/tf.compat.v1.nn.pool_1/max_pool"], "attr": {"padding": {"s": "U0FNRQ=="}, "strides": {"list": {"i": ["1", "1", "1", "1"]}}, "T": {"type": "DT_FLOAT"}, "data_format": {"s": "TkhXQw=="}, "explicit_paddings": {"list": {}}, "ksize": {"list": {"i": ["1", "5", "5", "1"]}}}}, {"name": "PartitionedCall/model_219/tf.concat_8/concat", "op": "ConcatV2", "input": ["PartitionedCall/model_219/tf.math.multiply_82/Mul", "PartitionedCall/model_219/tf.compat.v1.nn.pool/max_pool", "PartitionedCall/model_219/tf.compat.v1.nn.pool_1/max_pool", "PartitionedCall/model_219/tf.compat.v1.nn.pool_2/max_pool", "PartitionedCall/model_219/tf.concat_8/concat/axis"], "attr": {"T": {"type": "DT_FLOAT"}, "Tidx": {"type": "DT_INT32"}, "N": {"i": "4"}}}, {"name": "PartitionedCall/model_219/tf.nn.convolution_52/convolution", "op": "Conv2D", "input": ["PartitionedCall/model_219/tf.concat_8/concat", "978"], "device": "/device:CPU:0", "attr": {"T": {"type": "DT_FLOAT"}, "use_cudnn_on_gpu": {"b": true}, "strides": {"list": {"i": ["1", "1", "1", "1"]}}, "padding": {"s": "U0FNRQ=="}, "explicit_paddings": {"list": {}}, "dilations": {"list": {"i": ["1", "1", "1", "1"]}}, "data_format": {"s": "TkhXQw=="}}}, {"name": "PartitionedCall/model_219/tf.math.add_64/Add", "op": "AddV2", "input": ["PartitionedCall/model_219/tf.nn.convolution_52/convolution", "PartitionedCall/model_219/tf.math.add_64/Add/y"], "attr": {"T": {"type": "DT_FLOAT"}}}, {"name": "PartitionedCall/model_219/tf.math.sigmoid_52/Sigmoid", "op": "Sigmoid", "input": ["PartitionedCall/model_219/tf.math.add_64/Add"], "attr": {"T": {"type": "DT_FLOAT"}}}, {"name": "PartitionedCall/model_219/tf.math.multiply_85/Mul", "op": "Mul", "input": ["PartitionedCall/model_219/tf.math.add_64/Add", "PartitionedCall/model_219/tf.math.sigmoid_52/Sigmoid"], "attr": {"T": {"type": "DT_FLOAT"}}}, {"name": "PartitionedCall/model_219/lambda//model.10/Resize", "op": "ResizeNearestNeighbor", "input": ["PartitionedCall/model_219/tf.math.multiply_85/Mul", "PartitionedCall/model_219/lambda//model.10/Resize/size"], "attr": {"half_pixel_centers": {"b": false}, "align_corners": {"b": false}, "T": {"type": "DT_FLOAT"}}}, {"name": "PartitionedCall/model_219/tf.concat_10/concat", "op": "ConcatV2", "input": ["PartitionedCall/model_219/lambda//model.10/Resize", "PartitionedCall/model_219/tf.math.multiply_63/Mul", "PartitionedCall/model_219/tf.concat_10/concat/axis"], "attr": {"T": {"type": "DT_FLOAT"}, "Tidx": {"type": "DT_INT32"}, "N": {"i": "2"}}}, {"name": "PartitionedCall/model_219/tf.nn.convolution_54/convolution", "op": "Conv2D", "input": ["PartitionedCall/model_219/tf.concat_10/concat", "980"], "device": "/device:CPU:0", "attr": {"strides": {"list": {"i": ["1", "1", "1", "1"]}}, "use_cudnn_on_gpu": {"b": true}, "dilations": {"list": {"i": ["1", "1", "1", "1"]}}, "padding": {"s": "U0FNRQ=="}, "explicit_paddings": {"list": {}}, "data_format": {"s": "TkhXQw=="}, "T": {"type": "DT_FLOAT"}}}, {"name": "PartitionedCall/model_219/tf.math.add_66/Add", "op": "AddV2", "input": ["PartitionedCall/model_219/tf.nn.convolution_54/convolution", "PartitionedCall/model_219/tf.math.add_66/Add/y"], "attr": {"T": {"type": "DT_FLOAT"}}}, {"name": "PartitionedCall/model_219/tf.math.sigmoid_54/Sigmoid", "op": "Sigmoid", "input": ["PartitionedCall/model_219/tf.math.add_66/Add"], "attr": {"T": {"type": "DT_FLOAT"}}}, {"name": "PartitionedCall/model_219/tf.math.multiply_88/Mul", "op": "Mul", "input": ["PartitionedCall/model_219/tf.math.add_66/Add", "PartitionedCall/model_219/tf.math.sigmoid_54/Sigmoid"], "attr": {"T": {"type": "DT_FLOAT"}}}, {"name": "PartitionedCall/model_219/tf.strided_slice_8/StridedSlice", "op": "StridedSlice", "input": ["PartitionedCall/model_219/tf.math.multiply_88/Mul", "990", "992", "PartitionedCall/model_219/tf.strided_slice_8/ones_like"], "attr": {"shrink_axis_mask": {"i": "0"}, "T": {"type": "DT_FLOAT"}, "begin_mask": {"i": "15"}, "end_mask": {"i": "7"}, "ellipsis_mask": {"i": "0"}, "new_axis_mask": {"i": "0"}, "Index": {"type": "DT_INT64"}}}, {"name": "PartitionedCall/model_219/tf.strided_slice_9/StridedSlice", "op": "StridedSlice", "input": ["PartitionedCall/model_219/tf.math.multiply_88/Mul", "982", "984", "PartitionedCall/model_219/tf.strided_slice_9/ones_like"], "attr": {"begin_mask": {"i": "7"}, "ellipsis_mask": {"i": "0"}, "Index": {"type": "DT_INT64"}, "new_axis_mask": {"i": "0"}, "shrink_axis_mask": {"i": "0"}, "end_mask": {"i": "7"}, "T": {"type": "DT_FLOAT"}}}, {"name": "PartitionedCall/model_219/tf.nn.convolution_56/convolution", "op": "Conv2D", "input": ["PartitionedCall/model_219/tf.strided_slice_9/StridedSlice", "986"], "device": "/device:CPU:0", "attr": {"strides": {"list": {"i": ["1", "1", "1", "1"]}}, "use_cudnn_on_gpu": {"b": true}, "explicit_paddings": {"list": {}}, "T": {"type": "DT_FLOAT"}, "dilations": {"list": {"i": ["1", "1", "1", "1"]}}, "data_format": {"s": "TkhXQw=="}, "padding": {"s": "U0FNRQ=="}}}, {"name": "PartitionedCall/model_219/tf.math.add_68/Add", "op": "AddV2", "input": ["PartitionedCall/model_219/tf.nn.convolution_56/convolution", "PartitionedCall/model_219/tf.math.add_68/Add/y"], "attr": {"T": {"type": "DT_FLOAT"}}}, {"name": "PartitionedCall/model_219/tf.math.sigmoid_56/Sigmoid", "op": "Sigmoid", "input": ["PartitionedCall/model_219/tf.math.add_68/Add"], "attr": {"T": {"type": "DT_FLOAT"}}}, {"name": "PartitionedCall/model_219/tf.math.multiply_91/Mul", "op": "Mul", "input": ["PartitionedCall/model_219/tf.math.add_68/Add", "PartitionedCall/model_219/tf.math.sigmoid_56/Sigmoid"], "attr": {"T": {"type": "DT_FLOAT"}}}, {"name": "PartitionedCall/model_219/tf.nn.convolution_58/convolution", "op": "Conv2D", "input": ["PartitionedCall/model_219/tf.math.multiply_91/Mul", "988"], "device": "/device:CPU:0", "attr": {"explicit_paddings": {"list": {}}, "T": {"type": "DT_FLOAT"}, "dilations": {"list": {"i": ["1", "1", "1", "1"]}}, "data_format": {"s": "TkhXQw=="}, "strides": {"list": {"i": ["1", "1", "1", "1"]}}, "padding": {"s": "U0FNRQ=="}, "use_cudnn_on_gpu": {"b": true}}}, {"name": "PartitionedCall/model_219/tf.math.add_70/Add", "op": "AddV2", "input": ["PartitionedCall/model_219/tf.nn.convolution_58/convolution", "PartitionedCall/model_219/tf.math.add_70/Add/y"], "attr": {"T": {"type": "DT_FLOAT"}}}, {"name": "PartitionedCall/model_219/tf.math.sigmoid_58/Sigmoid", "op": "Sigmoid", "input": ["PartitionedCall/model_219/tf.math.add_70/Add"], "attr": {"T": {"type": "DT_FLOAT"}}}, {"name": "PartitionedCall/model_219/tf.math.multiply_94/Mul", "op": "Mul", "input": ["PartitionedCall/model_219/tf.math.add_70/Add", "PartitionedCall/model_219/tf.math.sigmoid_58/Sigmoid"], "attr": {"T": {"type": "DT_FLOAT"}}}, {"name": "PartitionedCall/model_219/tf.concat_12/concat", "op": "ConcatV2", "input": ["PartitionedCall/model_219/tf.strided_slice_8/StridedSlice", "PartitionedCall/model_219/tf.strided_slice_9/StridedSlice", "PartitionedCall/model_219/tf.math.multiply_94/Mul", "PartitionedCall/model_219/tf.concat_12/concat/axis"], "attr": {"T": {"type": "DT_FLOAT"}, "Tidx": {"type": "DT_INT32"}, "N": {"i": "3"}}}, {"name": "PartitionedCall/model_219/tf.nn.convolution_60/convolution", "op": "Conv2D", "input": ["PartitionedCall/model_219/tf.concat_12/concat", "994"], "device": "/device:CPU:0", "attr": {"dilations": {"list": {"i": ["1", "1", "1", "1"]}}, "strides": {"list": {"i": ["1", "1", "1", "1"]}}, "explicit_paddings": {"list": {}}, "data_format": {"s": "TkhXQw=="}, "T": {"type": "DT_FLOAT"}, "padding": {"s": "U0FNRQ=="}, "use_cudnn_on_gpu": {"b": true}}}, {"name": "PartitionedCall/model_219/tf.math.add_72/Add", "op": "AddV2", "input": ["PartitionedCall/model_219/tf.nn.convolution_60/convolution", "PartitionedCall/model_219/tf.math.add_72/Add/y"], "attr": {"T": {"type": "DT_FLOAT"}}}, {"name": "PartitionedCall/model_219/tf.math.sigmoid_60/Sigmoid", "op": "Sigmoid", "input": ["PartitionedCall/model_219/tf.math.add_72/Add"], "attr": {"T": {"type": "DT_FLOAT"}}}, {"name": "PartitionedCall/model_219/tf.math.multiply_97/Mul", "op": "Mul", "input": ["PartitionedCall/model_219/tf.math.add_72/Add", "PartitionedCall/model_219/tf.math.sigmoid_60/Sigmoid"], "attr": {"T": {"type": "DT_FLOAT"}}}, {"name": "PartitionedCall/model_219/lambda_2//model.13/Resize", "op": "ResizeNearestNeighbor", "input": ["PartitionedCall/model_219/tf.math.multiply_97/Mul", "PartitionedCall/model_219/lambda_2//model.13/Resize/size"], "attr": {"align_corners": {"b": false}, "half_pixel_centers": {"b": false}, "T": {"type": "DT_FLOAT"}}}, {"name": "PartitionedCall/model_219/tf.concat_14/concat", "op": "ConcatV2", "input": ["PartitionedCall/model_219/lambda_2//model.13/Resize", "PartitionedCall/model_219/tf.math.multiply_40/Mul", "PartitionedCall/model_219/tf.concat_14/concat/axis"], "attr": {"T": {"type": "DT_FLOAT"}, "N": {"i": "2"}, "Tidx": {"type": "DT_INT32"}}}, {"name": "PartitionedCall/model_219/tf.nn.convolution_62/convolution", "op": "Conv2D", "input": ["PartitionedCall/model_219/tf.concat_14/concat", "996"], "device": "/device:CPU:0", "attr": {"strides": {"list": {"i": ["1", "1", "1", "1"]}}, "use_cudnn_on_gpu": {"b": true}, "explicit_paddings": {"list": {}}, "dilations": {"list": {"i": ["1", "1", "1", "1"]}}, "T": {"type": "DT_FLOAT"}, "data_format": {"s": "TkhXQw=="}, "padding": {"s": "U0FNRQ=="}}}, {"name": "PartitionedCall/model_219/tf.math.add_74/Add", "op": "AddV2", "input": ["PartitionedCall/model_219/tf.nn.convolution_62/convolution", "PartitionedCall/model_219/tf.math.add_74/Add/y"], "attr": {"T": {"type": "DT_FLOAT"}}}, {"name": "PartitionedCall/model_219/tf.math.sigmoid_62/Sigmoid", "op": "Sigmoid", "input": ["PartitionedCall/model_219/tf.math.add_74/Add"], "attr": {"T": {"type": "DT_FLOAT"}}}, {"name": "PartitionedCall/model_219/tf.math.multiply_100/Mul", "op": "Mul", "input": ["PartitionedCall/model_219/tf.math.add_74/Add", "PartitionedCall/model_219/tf.math.sigmoid_62/Sigmoid"], "attr": {"T": {"type": "DT_FLOAT"}}}, {"name": "PartitionedCall/model_219/tf.strided_slice_10/StridedSlice", "op": "StridedSlice", "input": ["PartitionedCall/model_219/tf.math.multiply_100/Mul", "1006", "1008", "PartitionedCall/model_219/tf.strided_slice_10/ones_like"], "attr": {"T": {"type": "DT_FLOAT"}, "end_mask": {"i": "7"}, "begin_mask": {"i": "15"}, "shrink_axis_mask": {"i": "0"}, "new_axis_mask": {"i": "0"}, "Index": {"type": "DT_INT64"}, "ellipsis_mask": {"i": "0"}}}, {"name": "PartitionedCall/model_219/tf.strided_slice_11/StridedSlice", "op": "StridedSlice", "input": ["PartitionedCall/model_219/tf.math.multiply_100/Mul", "998", "1000", "PartitionedCall/model_219/tf.strided_slice_11/ones_like"], "attr": {"T": {"type": "DT_FLOAT"}, "end_mask": {"i": "7"}, "shrink_axis_mask": {"i": "0"}, "ellipsis_mask": {"i": "0"}, "new_axis_mask": {"i": "0"}, "begin_mask": {"i": "7"}, "Index": {"type": "DT_INT64"}}}, {"name": "PartitionedCall/model_219/tf.nn.convolution_64/convolution", "op": "Conv2D", "input": ["PartitionedCall/model_219/tf.strided_slice_11/StridedSlice", "1002"], "device": "/device:CPU:0", "attr": {"T": {"type": "DT_FLOAT"}, "use_cudnn_on_gpu": {"b": true}, "explicit_paddings": {"list": {}}, "dilations": {"list": {"i": ["1", "1", "1", "1"]}}, "padding": {"s": "U0FNRQ=="}, "data_format": {"s": "TkhXQw=="}, "strides": {"list": {"i": ["1", "1", "1", "1"]}}}}, {"name": "PartitionedCall/model_219/tf.math.add_76/Add", "op": "AddV2", "input": ["PartitionedCall/model_219/tf.nn.convolution_64/convolution", "PartitionedCall/model_219/tf.math.add_76/Add/y"], "attr": {"T": {"type": "DT_FLOAT"}}}, {"name": "PartitionedCall/model_219/tf.math.sigmoid_64/Sigmoid", "op": "Sigmoid", "input": ["PartitionedCall/model_219/tf.math.add_76/Add"], "attr": {"T": {"type": "DT_FLOAT"}}}, {"name": "PartitionedCall/model_219/tf.math.multiply_103/Mul", "op": "Mul", "input": ["PartitionedCall/model_219/tf.math.add_76/Add", "PartitionedCall/model_219/tf.math.sigmoid_64/Sigmoid"], "attr": {"T": {"type": "DT_FLOAT"}}}, {"name": "PartitionedCall/model_219/tf.nn.convolution_66/convolution", "op": "Conv2D", "input": ["PartitionedCall/model_219/tf.math.multiply_103/Mul", "1004"], "device": "/device:CPU:0", "attr": {"explicit_paddings": {"list": {}}, "data_format": {"s": "TkhXQw=="}, "strides": {"list": {"i": ["1", "1", "1", "1"]}}, "T": {"type": "DT_FLOAT"}, "use_cudnn_on_gpu": {"b": true}, "padding": {"s": "U0FNRQ=="}, "dilations": {"list": {"i": ["1", "1", "1", "1"]}}}}, {"name": "PartitionedCall/model_219/tf.math.add_78/Add", "op": "AddV2", "input": ["PartitionedCall/model_219/tf.nn.convolution_66/convolution", "PartitionedCall/model_219/tf.math.add_78/Add/y"], "attr": {"T": {"type": "DT_FLOAT"}}}, {"name": "PartitionedCall/model_219/tf.math.sigmoid_66/Sigmoid", "op": "Sigmoid", "input": ["PartitionedCall/model_219/tf.math.add_78/Add"], "attr": {"T": {"type": "DT_FLOAT"}}}, {"name": "PartitionedCall/model_219/tf.math.multiply_106/Mul", "op": "Mul", "input": ["PartitionedCall/model_219/tf.math.add_78/Add", "PartitionedCall/model_219/tf.math.sigmoid_66/Sigmoid"], "attr": {"T": {"type": "DT_FLOAT"}}}, {"name": "PartitionedCall/model_219/tf.concat_16/concat", "op": "ConcatV2", "input": ["PartitionedCall/model_219/tf.strided_slice_10/StridedSlice", "PartitionedCall/model_219/tf.strided_slice_11/StridedSlice", "PartitionedCall/model_219/tf.math.multiply_106/Mul", "PartitionedCall/model_219/tf.concat_16/concat/axis"], "attr": {"Tidx": {"type": "DT_INT32"}, "N": {"i": "3"}, "T": {"type": "DT_FLOAT"}}}, {"name": "PartitionedCall/model_219/tf.nn.convolution_68/convolution", "op": "Conv2D", "input": ["PartitionedCall/model_219/tf.concat_16/concat", "1010"], "device": "/device:CPU:0", "attr": {"data_format": {"s": "TkhXQw=="}, "padding": {"s": "U0FNRQ=="}, "strides": {"list": {"i": ["1", "1", "1", "1"]}}, "use_cudnn_on_gpu": {"b": true}, "explicit_paddings": {"list": {}}, "T": {"type": "DT_FLOAT"}, "dilations": {"list": {"i": ["1", "1", "1", "1"]}}}}, {"name": "PartitionedCall/model_219/tf.math.add_80/Add", "op": "AddV2", "input": ["PartitionedCall/model_219/tf.nn.convolution_68/convolution", "PartitionedCall/model_219/tf.math.add_80/Add/y"], "attr": {"T": {"type": "DT_FLOAT"}}}, {"name": "PartitionedCall/model_219/tf.math.sigmoid_68/Sigmoid", "op": "Sigmoid", "input": ["PartitionedCall/model_219/tf.math.add_80/Add"], "attr": {"T": {"type": "DT_FLOAT"}}}, {"name": "PartitionedCall/model_219/tf.math.multiply_109/Mul", "op": "Mul", "input": ["PartitionedCall/model_219/tf.math.add_80/Add", "PartitionedCall/model_219/tf.math.sigmoid_68/Sigmoid"], "attr": {"T": {"type": "DT_FLOAT"}}}, {"name": "PartitionedCall/model_219/tf.nn.convolution_72/convolution", "op": "Conv2D", "input": ["PartitionedCall/model_219/tf.math.multiply_109/Mul", "1062"], "device": "/device:CPU:0", "attr": {"use_cudnn_on_gpu": {"b": true}, "explicit_paddings": {"list": {}}, "T": {"type": "DT_FLOAT"}, "dilations": {"list": {"i": ["1", "1", "1", "1"]}}, "data_format": {"s": "TkhXQw=="}, "padding": {"s": "U0FNRQ=="}, "strides": {"list": {"i": ["1", "1", "1", "1"]}}}}, {"name": "PartitionedCall/model_219/tf.nn.convolution_74/convolution", "op": "Conv2D", "input": ["PartitionedCall/model_219/tf.math.multiply_109/Mul", "1060"], "device": "/device:CPU:0", "attr": {"explicit_paddings": {"list": {}}, "dilations": {"list": {"i": ["1", "1", "1", "1"]}}, "T": {"type": "DT_FLOAT"}, "strides": {"list": {"i": ["1", "1", "1", "1"]}}, "data_format": {"s": "TkhXQw=="}, "padding": {"s": "U0FNRQ=="}, "use_cudnn_on_gpu": {"b": true}}}, {"name": "PartitionedCall/model_219/tf.compat.v1.pad_5/Pad", "op": "Pad", "input": ["PartitionedCall/model_219/tf.math.multiply_109/Mul", "1012"], "attr": {"Tpaddings": {"type": "DT_INT32"}, "T": {"type": "DT_FLOAT"}}}, {"name": "PartitionedCall/model_219/tf.math.add_84/Add", "op": "AddV2", "input": ["PartitionedCall/model_219/tf.nn.convolution_72/convolution", "PartitionedCall/model_219/tf.math.add_84/Add/y"], "attr": {"T": {"type": "DT_FLOAT"}}}, {"name": "PartitionedCall/model_219/tf.math.add_86/Add", "op": "AddV2", "input": ["PartitionedCall/model_219/tf.nn.convolution_74/convolution", "PartitionedCall/model_219/tf.math.add_86/Add/y"], "attr": {"T": {"type": "DT_FLOAT"}}}, {"name": "PartitionedCall/model_219/tf.nn.convolution_70/convolution", "op": "Conv2D", "input": ["PartitionedCall/model_219/tf.compat.v1.pad_5/Pad", "1014"], "device": "/device:CPU:0", "attr": {"T": {"type": "DT_FLOAT"}, "use_cudnn_on_gpu": {"b": true}, "strides": {"list": {"i": ["1", "2", "2", "1"]}}, "padding": {"s": "VkFMSUQ="}, "explicit_paddings": {"list": {}}, "dilations": {"list": {"i": ["1", "1", "1", "1"]}}, "data_format": {"s": "TkhXQw=="}}}, {"name": "PartitionedCall/model_219/tf.math.sigmoid_72/Sigmoid", "op": "Sigmoid", "input": ["PartitionedCall/model_219/tf.math.add_84/Add"], "attr": {"T": {"type": "DT_FLOAT"}}}, {"name": "PartitionedCall/model_219/tf.math.sigmoid_74/Sigmoid", "op": "Sigmoid", "input": ["PartitionedCall/model_219/tf.math.add_86/Add"], "attr": {"T": {"type": "DT_FLOAT"}}}, {"name": "PartitionedCall/model_219/tf.math.add_82/Add", "op": "AddV2", "input": ["PartitionedCall/model_219/tf.nn.convolution_70/convolution", "PartitionedCall/model_219/tf.math.add_82/Add/y"], "attr": {"T": {"type": "DT_FLOAT"}}}, {"name": "PartitionedCall/model_219/tf.math.multiply_115/Mul", "op": "Mul", "input": ["PartitionedCall/model_219/tf.math.add_84/Add", "PartitionedCall/model_219/tf.math.sigmoid_72/Sigmoid"], "attr": {"T": {"type": "DT_FLOAT"}}}, {"name": "PartitionedCall/model_219/tf.math.multiply_118/Mul", "op": "Mul", "input": ["PartitionedCall/model_219/tf.math.add_86/Add", "PartitionedCall/model_219/tf.math.sigmoid_74/Sigmoid"], "attr": {"T": {"type": "DT_FLOAT"}}}, {"name": "PartitionedCall/model_219/tf.math.sigmoid_70/Sigmoid", "op": "Sigmoid", "input": ["PartitionedCall/model_219/tf.math.add_82/Add"], "attr": {"T": {"type": "DT_FLOAT"}}}, {"name": "PartitionedCall/model_219/tf.nn.convolution_76/convolution", "op": "Conv2D", "input": ["PartitionedCall/model_219/tf.math.multiply_115/Mul", "1074"], "device": "/device:CPU:0", "attr": {"dilations": {"list": {"i": ["1", "1", "1", "1"]}}, "explicit_paddings": {"list": {}}, "T": {"type": "DT_FLOAT"}, "data_format": {"s": "TkhXQw=="}, "padding": {"s": "U0FNRQ=="}, "strides": {"list": {"i": ["1", "1", "1", "1"]}}, "use_cudnn_on_gpu": {"b": true}}}, {"name": "PartitionedCall/model_219/tf.nn.convolution_78/convolution", "op": "Conv2D", "input": ["PartitionedCall/model_219/tf.math.multiply_118/Mul", "1072"], "device": "/device:CPU:0", "attr": {"data_format": {"s": "TkhXQw=="}, "padding": {"s": "U0FNRQ=="}, "use_cudnn_on_gpu": {"b": true}, "explicit_paddings": {"list": {}}, "dilations": {"list": {"i": ["1", "1", "1", "1"]}}, "T": {"type": "DT_FLOAT"}, "strides": {"list": {"i": ["1", "1", "1", "1"]}}}}, {"name": "PartitionedCall/model_219/tf.math.multiply_112/Mul", "op": "Mul", "input": ["PartitionedCall/model_219/tf.math.add_82/Add", "PartitionedCall/model_219/tf.math.sigmoid_70/Sigmoid"], "attr": {"T": {"type": "DT_FLOAT"}}}, {"name": "PartitionedCall/model_219/tf.math.add_88/Add", "op": "AddV2", "input": ["PartitionedCall/model_219/tf.nn.convolution_76/convolution", "PartitionedCall/model_219/tf.math.add_88/Add/y"], "attr": {"T": {"type": "DT_FLOAT"}}}, {"name": "PartitionedCall/model_219/tf.math.add_90/Add", "op": "AddV2", "input": ["PartitionedCall/model_219/tf.nn.convolution_78/convolution", "PartitionedCall/model_219/tf.math.add_90/Add/y"], "attr": {"T": {"type": "DT_FLOAT"}}}, {"name": "PartitionedCall/model_219/tf.concat_18/concat", "op": "ConcatV2", "input": ["PartitionedCall/model_219/tf.math.multiply_112/Mul", "PartitionedCall/model_219/tf.math.multiply_97/Mul", "PartitionedCall/model_219/tf.concat_18/concat/axis"], "attr": {"N": {"i": "2"}, "Tidx": {"type": "DT_INT32"}, "T": {"type": "DT_FLOAT"}}}, {"name": "PartitionedCall/model_219/tf.math.sigmoid_76/Sigmoid", "op": "Sigmoid", "input": ["PartitionedCall/model_219/tf.math.add_88/Add"], "attr": {"T": {"type": "DT_FLOAT"}}}, {"name": "PartitionedCall/model_219/tf.math.sigmoid_78/Sigmoid", "op": "Sigmoid", "input": ["PartitionedCall/model_219/tf.math.add_90/Add"], "attr": {"T": {"type": "DT_FLOAT"}}}, {"name": "PartitionedCall/model_219/tf.nn.convolution_80/convolution", "op": "Conv2D", "input": ["PartitionedCall/model_219/tf.concat_18/concat", "1016"], "device": "/device:CPU:0", "attr": {"strides": {"list": {"i": ["1", "1", "1", "1"]}}, "T": {"type": "DT_FLOAT"}, "explicit_paddings": {"list": {}}, "dilations": {"list": {"i": ["1", "1", "1", "1"]}}, "data_format": {"s": "TkhXQw=="}, "padding": {"s": "U0FNRQ=="}, "use_cudnn_on_gpu": {"b": true}}}, {"name": "PartitionedCall/model_219/tf.math.multiply_121/Mul", "op": "Mul", "input": ["PartitionedCall/model_219/tf.math.add_88/Add", "PartitionedCall/model_219/tf.math.sigmoid_76/Sigmoid"], "attr": {"T": {"type": "DT_FLOAT"}}}, {"name": "PartitionedCall/model_219/tf.math.multiply_124/Mul", "op": "Mul", "input": ["PartitionedCall/model_219/tf.math.add_90/Add", "PartitionedCall/model_219/tf.math.sigmoid_78/Sigmoid"], "attr": {"T": {"type": "DT_FLOAT"}}}, {"name": "PartitionedCall/model_219/tf.math.add_92/Add", "op": "AddV2", "input": ["PartitionedCall/model_219/tf.nn.convolution_80/convolution", "PartitionedCall/model_219/tf.math.add_92/Add/y"], "attr": {"T": {"type": "DT_FLOAT"}}}, {"name": "PartitionedCall/model_219/tf.nn.convolution_82/convolution", "op": "Conv2D", "input": ["PartitionedCall/model_219/tf.math.multiply_121/Mul", "1086"], "device": "/device:CPU:0", "attr": {"T": {"type": "DT_FLOAT"}, "explicit_paddings": {"list": {}}, "dilations": {"list": {"i": ["1", "1", "1", "1"]}}, "strides": {"list": {"i": ["1", "1", "1", "1"]}}, "data_format": {"s": "TkhXQw=="}, "padding": {"s": "U0FNRQ=="}, "use_cudnn_on_gpu": {"b": true}}}, {"name": "PartitionedCall/model_219/tf.nn.convolution_84/convolution", "op": "Conv2D", "input": ["PartitionedCall/model_219/tf.math.multiply_124/Mul", "1084"], "device": "/device:CPU:0", "attr": {"dilations": {"list": {"i": ["1", "1", "1", "1"]}}, "T": {"type": "DT_FLOAT"}, "data_format": {"s": "TkhXQw=="}, "padding": {"s": "U0FNRQ=="}, "explicit_paddings": {"list": {}}, "strides": {"list": {"i": ["1", "1", "1", "1"]}}, "use_cudnn_on_gpu": {"b": true}}}, {"name": "PartitionedCall/model_219/tf.math.sigmoid_80/Sigmoid", "op": "Sigmoid", "input": ["PartitionedCall/model_219/tf.math.add_92/Add"], "attr": {"T": {"type": "DT_FLOAT"}}}, {"name": "PartitionedCall/model_219/tf.math.add_94/Add", "op": "AddV2", "input": ["PartitionedCall/model_219/tf.nn.convolution_82/convolution", "PartitionedCall/model_219/tf.math.add_94/Add/y"], "attr": {"T": {"type": "DT_FLOAT"}}}, {"name": "PartitionedCall/model_219/tf.math.add_96/Add", "op": "AddV2", "input": ["PartitionedCall/model_219/tf.nn.convolution_84/convolution", "PartitionedCall/model_219/tf.math.add_96/Add/y"], "attr": {"T": {"type": "DT_FLOAT"}}}, {"name": "PartitionedCall/model_219/tf.math.multiply_127/Mul", "op": "Mul", "input": ["PartitionedCall/model_219/tf.math.add_92/Add", "PartitionedCall/model_219/tf.math.sigmoid_80/Sigmoid"], "attr": {"T": {"type": "DT_FLOAT"}}}, {"name": "PartitionedCall/model_219/tf.concat_20/concat", "op": "ConcatV2", "input": ["PartitionedCall/model_219/tf.math.add_94/Add", "PartitionedCall/model_219/tf.math.add_96/Add", "PartitionedCall/model_219/tf.concat_20/concat/axis"], "attr": {"T": {"type": "DT_FLOAT"}, "N": {"i": "2"}, "Tidx": {"type": "DT_INT32"}}}, {"name": "PartitionedCall/model_219/tf.strided_slice_12/StridedSlice", "op": "StridedSlice", "input": ["PartitionedCall/model_219/tf.math.multiply_127/Mul", "1026", "1028", "PartitionedCall/model_219/tf.strided_slice_12/ones_like"], "attr": {"ellipsis_mask": {"i": "0"}, "T": {"type": "DT_FLOAT"}, "end_mask": {"i": "7"}, "new_axis_mask": {"i": "0"}, "begin_mask": {"i": "15"}, "Index": {"type": "DT_INT64"}, "shrink_axis_mask": {"i": "0"}}}, {"name": "PartitionedCall/model_219/tf.strided_slice_13/StridedSlice", "op": "StridedSlice", "input": ["PartitionedCall/model_219/tf.math.multiply_127/Mul", "1018", "1020", "PartitionedCall/model_219/tf.strided_slice_13/ones_like"], "attr": {"new_axis_mask": {"i": "0"}, "shrink_axis_mask": {"i": "0"}, "Index": {"type": "DT_INT64"}, "ellipsis_mask": {"i": "0"}, "T": {"type": "DT_FLOAT"}, "end_mask": {"i": "7"}, "begin_mask": {"i": "7"}}}, {"name": "PartitionedCall/model_219/tf.compat.v1.transpose/transpose", "op": "Transpose", "input": ["PartitionedCall/model_219/tf.concat_20/concat", "PartitionedCall/model_219/tf.compat.v1.transpose/transpose/perm"], "attr": {"Tperm": {"type": "DT_INT32"}, "T": {"type": "DT_FLOAT"}}}, {"name": "PartitionedCall/model_219/tf.nn.convolution_86/convolution", "op": "Conv2D", "input": ["PartitionedCall/model_219/tf.strided_slice_13/StridedSlice", "1022"], "device": "/device:CPU:0", "attr": {"use_cudnn_on_gpu": {"b": true}, "explicit_paddings": {"list": {}}, "dilations": {"list": {"i": ["1", "1", "1", "1"]}}, "padding": {"s": "U0FNRQ=="}, "strides": {"list": {"i": ["1", "1", "1", "1"]}}, "T": {"type": "DT_FLOAT"}, "data_format": {"s": "TkhXQw=="}}}, {"name": "PartitionedCall/model_219/tf.reshape/Reshape", "op": "Reshape", "input": ["PartitionedCall/model_219/tf.compat.v1.transpose/transpose", "PartitionedCall/model_219/tf.reshape/Reshape/shape"], "attr": {"T": {"type": "DT_FLOAT"}, "Tshape": {"type": "DT_INT32"}}}, {"name": "PartitionedCall/model_219/tf.math.add_98/Add", "op": "AddV2", "input": ["PartitionedCall/model_219/tf.nn.convolution_86/convolution", "PartitionedCall/model_219/tf.math.add_98/Add/y"], "attr": {"T": {"type": "DT_FLOAT"}}}, {"name": "PartitionedCall/model_219/tf.math.sigmoid_82/Sigmoid", "op": "Sigmoid", "input": ["PartitionedCall/model_219/tf.math.add_98/Add"], "attr": {"T": {"type": "DT_FLOAT"}}}, {"name": "PartitionedCall/model_219/tf.math.multiply_130/Mul", "op": "Mul", "input": ["PartitionedCall/model_219/tf.math.add_98/Add", "PartitionedCall/model_219/tf.math.sigmoid_82/Sigmoid"], "attr": {"T": {"type": "DT_FLOAT"}}}, {"name": "PartitionedCall/model_219/tf.nn.convolution_88/convolution", "op": "Conv2D", "input": ["PartitionedCall/model_219/tf.math.multiply_130/Mul", "1024"], "device": "/device:CPU:0", "attr": {"strides": {"list": {"i": ["1", "1", "1", "1"]}}, "data_format": {"s": "TkhXQw=="}, "padding": {"s": "U0FNRQ=="}, "use_cudnn_on_gpu": {"b": true}, "T": {"type": "DT_FLOAT"}, "explicit_paddings": {"list": {}}, "dilations": {"list": {"i": ["1", "1", "1", "1"]}}}}, {"name": "PartitionedCall/model_219/tf.math.add_100/Add", "op": "AddV2", "input": ["PartitionedCall/model_219/tf.nn.convolution_88/convolution", "PartitionedCall/model_219/tf.math.add_100/Add/y"], "attr": {"T": {"type": "DT_FLOAT"}}}, {"name": "PartitionedCall/model_219/tf.math.sigmoid_84/Sigmoid", "op": "Sigmoid", "input": ["PartitionedCall/model_219/tf.math.add_100/Add"], "attr": {"T": {"type": "DT_FLOAT"}}}, {"name": "PartitionedCall/model_219/tf.math.multiply_133/Mul", "op": "Mul", "input": ["PartitionedCall/model_219/tf.math.add_100/Add", "PartitionedCall/model_219/tf.math.sigmoid_84/Sigmoid"], "attr": {"T": {"type": "DT_FLOAT"}}}, {"name": "PartitionedCall/model_219/tf.concat_22/concat", "op": "ConcatV2", "input": ["PartitionedCall/model_219/tf.strided_slice_12/StridedSlice", "PartitionedCall/model_219/tf.strided_slice_13/StridedSlice", "PartitionedCall/model_219/tf.math.multiply_133/Mul", "PartitionedCall/model_219/tf.concat_22/concat/axis"], "attr": {"N": {"i": "3"}, "T": {"type": "DT_FLOAT"}, "Tidx": {"type": "DT_INT32"}}}, {"name": "PartitionedCall/model_219/tf.nn.convolution_90/convolution", "op": "Conv2D", "input": ["PartitionedCall/model_219/tf.concat_22/concat", "1030"], "device": "/device:CPU:0", "attr": {"padding": {"s": "U0FNRQ=="}, "data_format": {"s": "TkhXQw=="}, "strides": {"list": {"i": ["1", "1", "1", "1"]}}, "T": {"type": "DT_FLOAT"}, "dilations": {"list": {"i": ["1", "1", "1", "1"]}}, "use_cudnn_on_gpu": {"b": true}, "explicit_paddings": {"list": {}}}}, {"name": "PartitionedCall/model_219/tf.math.add_102/Add", "op": "AddV2", "input": ["PartitionedCall/model_219/tf.nn.convolution_90/convolution", "PartitionedCall/model_219/tf.math.add_102/Add/y"], "attr": {"T": {"type": "DT_FLOAT"}}}, {"name": "PartitionedCall/model_219/tf.math.sigmoid_86/Sigmoid", "op": "Sigmoid", "input": ["PartitionedCall/model_219/tf.math.add_102/Add"], "attr": {"T": {"type": "DT_FLOAT"}}}, {"name": "PartitionedCall/model_219/tf.math.multiply_136/Mul", "op": "Mul", "input": ["PartitionedCall/model_219/tf.math.add_102/Add", "PartitionedCall/model_219/tf.math.sigmoid_86/Sigmoid"], "attr": {"T": {"type": "DT_FLOAT"}}}, {"name": "PartitionedCall/model_219/tf.nn.convolution_94/convolution", "op": "Conv2D", "input": ["PartitionedCall/model_219/tf.math.multiply_136/Mul", "1058"], "device": "/device:CPU:0", "attr": {"padding": {"s": "U0FNRQ=="}, "strides": {"list": {"i": ["1", "1", "1", "1"]}}, "data_format": {"s": "TkhXQw=="}, "T": {"type": "DT_FLOAT"}, "explicit_paddings": {"list": {}}, "use_cudnn_on_gpu": {"b": true}, "dilations": {"list": {"i": ["1", "1", "1", "1"]}}}}, {"name": "PartitionedCall/model_219/tf.nn.convolution_96/convolution", "op": "Conv2D", "input": ["PartitionedCall/model_219/tf.math.multiply_136/Mul", "1056"], "device": "/device:CPU:0", "attr": {"explicit_paddings": {"list": {}}, "dilations": {"list": {"i": ["1", "1", "1", "1"]}}, "padding": {"s": "U0FNRQ=="}, "T": {"type": "DT_FLOAT"}, "data_format": {"s": "TkhXQw=="}, "strides": {"list": {"i": ["1", "1", "1", "1"]}}, "use_cudnn_on_gpu": {"b": true}}}, {"name": "PartitionedCall/model_219/tf.compat.v1.pad_6/Pad", "op": "Pad", "input": ["PartitionedCall/model_219/tf.math.multiply_136/Mul", "1032"], "attr": {"T": {"type": "DT_FLOAT"}, "Tpaddings": {"type": "DT_INT32"}}}, {"name": "PartitionedCall/model_219/tf.math.add_106/Add", "op": "AddV2", "input": ["PartitionedCall/model_219/tf.nn.convolution_94/convolution", "PartitionedCall/model_219/tf.math.add_106/Add/y"], "attr": {"T": {"type": "DT_FLOAT"}}}, {"name": "PartitionedCall/model_219/tf.math.add_108/Add", "op": "AddV2", "input": ["PartitionedCall/model_219/tf.nn.convolution_96/convolution", "PartitionedCall/model_219/tf.math.add_108/Add/y"], "attr": {"T": {"type": "DT_FLOAT"}}}, {"name": "PartitionedCall/model_219/tf.nn.convolution_92/convolution", "op": "Conv2D", "input": ["PartitionedCall/model_219/tf.compat.v1.pad_6/Pad", "1034"], "device": "/device:CPU:0", "attr": {"dilations": {"list": {"i": ["1", "1", "1", "1"]}}, "strides": {"list": {"i": ["1", "2", "2", "1"]}}, "explicit_paddings": {"list": {}}, "data_format": {"s": "TkhXQw=="}, "T": {"type": "DT_FLOAT"}, "use_cudnn_on_gpu": {"b": true}, "padding": {"s": "VkFMSUQ="}}}, {"name": "PartitionedCall/model_219/tf.math.sigmoid_90/Sigmoid", "op": "Sigmoid", "input": ["PartitionedCall/model_219/tf.math.add_106/Add"], "attr": {"T": {"type": "DT_FLOAT"}}}, {"name": "PartitionedCall/model_219/tf.math.sigmoid_92/Sigmoid", "op": "Sigmoid", "input": ["PartitionedCall/model_219/tf.math.add_108/Add"], "attr": {"T": {"type": "DT_FLOAT"}}}, {"name": "PartitionedCall/model_219/tf.math.add_104/Add", "op": "AddV2", "input": ["PartitionedCall/model_219/tf.nn.convolution_92/convolution", "PartitionedCall/model_219/tf.math.add_104/Add/y"], "attr": {"T": {"type": "DT_FLOAT"}}}, {"name": "PartitionedCall/model_219/tf.math.multiply_142/Mul", "op": "Mul", "input": ["PartitionedCall/model_219/tf.math.add_106/Add", "PartitionedCall/model_219/tf.math.sigmoid_90/Sigmoid"], "attr": {"T": {"type": "DT_FLOAT"}}}, {"name": "PartitionedCall/model_219/tf.math.multiply_145/Mul", "op": "Mul", "input": ["PartitionedCall/model_219/tf.math.add_108/Add", "PartitionedCall/model_219/tf.math.sigmoid_92/Sigmoid"], "attr": {"T": {"type": "DT_FLOAT"}}}, {"name": "PartitionedCall/model_219/tf.math.sigmoid_88/Sigmoid", "op": "Sigmoid", "input": ["PartitionedCall/model_219/tf.math.add_104/Add"], "attr": {"T": {"type": "DT_FLOAT"}}}, {"name": "PartitionedCall/model_219/tf.nn.convolution_98/convolution", "op": "Conv2D", "input": ["PartitionedCall/model_219/tf.math.multiply_142/Mul", "1070"], "device": "/device:CPU:0", "attr": {"data_format": {"s": "TkhXQw=="}, "padding": {"s": "U0FNRQ=="}, "use_cudnn_on_gpu": {"b": true}, "strides": {"list": {"i": ["1", "1", "1", "1"]}}, "T": {"type": "DT_FLOAT"}, "explicit_paddings": {"list": {}}, "dilations": {"list": {"i": ["1", "1", "1", "1"]}}}}, {"name": "PartitionedCall/model_219/tf.nn.convolution_100/convolution", "op": "Conv2D", "input": ["PartitionedCall/model_219/tf.math.multiply_145/Mul", "1068"], "device": "/device:CPU:0", "attr": {"data_format": {"s": "TkhXQw=="}, "padding": {"s": "U0FNRQ=="}, "explicit_paddings": {"list": {}}, "dilations": {"list": {"i": ["1", "1", "1", "1"]}}, "strides": {"list": {"i": ["1", "1", "1", "1"]}}, "use_cudnn_on_gpu": {"b": true}, "T": {"type": "DT_FLOAT"}}}, {"name": "PartitionedCall/model_219/tf.math.multiply_139/Mul", "op": "Mul", "input": ["PartitionedCall/model_219/tf.math.add_104/Add", "PartitionedCall/model_219/tf.math.sigmoid_88/Sigmoid"], "attr": {"T": {"type": "DT_FLOAT"}}}, {"name": "PartitionedCall/model_219/tf.math.add_110/Add", "op": "AddV2", "input": ["PartitionedCall/model_219/tf.nn.convolution_98/convolution", "PartitionedCall/model_219/tf.math.add_110/Add/y"], "attr": {"T": {"type": "DT_FLOAT"}}}, {"name": "PartitionedCall/model_219/tf.math.add_112/Add", "op": "AddV2", "input": ["PartitionedCall/model_219/tf.nn.convolution_100/convolution", "PartitionedCall/model_219/tf.math.add_112/Add/y"], "attr": {"T": {"type": "DT_FLOAT"}}}, {"name": "PartitionedCall/model_219/tf.concat_24/concat", "op": "ConcatV2", "input": ["PartitionedCall/model_219/tf.math.multiply_139/Mul", "PartitionedCall/model_219/tf.math.multiply_85/Mul", "PartitionedCall/model_219/tf.concat_24/concat/axis"], "attr": {"N": {"i": "2"}, "T": {"type": "DT_FLOAT"}, "Tidx": {"type": "DT_INT32"}}}, {"name": "PartitionedCall/model_219/tf.math.sigmoid_94/Sigmoid", "op": "Sigmoid", "input": ["PartitionedCall/model_219/tf.math.add_110/Add"], "attr": {"T": {"type": "DT_FLOAT"}}}, {"name": "PartitionedCall/model_219/tf.math.sigmoid_96/Sigmoid", "op": "Sigmoid", "input": ["PartitionedCall/model_219/tf.math.add_112/Add"], "attr": {"T": {"type": "DT_FLOAT"}}}, {"name": "PartitionedCall/model_219/tf.nn.convolution_102/convolution", "op": "Conv2D", "input": ["PartitionedCall/model_219/tf.concat_24/concat", "1036"], "device": "/device:CPU:0", "attr": {"explicit_paddings": {"list": {}}, "dilations": {"list": {"i": ["1", "1", "1", "1"]}}, "use_cudnn_on_gpu": {"b": true}, "T": {"type": "DT_FLOAT"}, "padding": {"s": "U0FNRQ=="}, "strides": {"list": {"i": ["1", "1", "1", "1"]}}, "data_format": {"s": "TkhXQw=="}}}, {"name": "PartitionedCall/model_219/tf.math.multiply_148/Mul", "op": "Mul", "input": ["PartitionedCall/model_219/tf.math.add_110/Add", "PartitionedCall/model_219/tf.math.sigmoid_94/Sigmoid"], "attr": {"T": {"type": "DT_FLOAT"}}}, {"name": "PartitionedCall/model_219/tf.math.multiply_151/Mul", "op": "Mul", "input": ["PartitionedCall/model_219/tf.math.add_112/Add", "PartitionedCall/model_219/tf.math.sigmoid_96/Sigmoid"], "attr": {"T": {"type": "DT_FLOAT"}}}, {"name": "PartitionedCall/model_219/tf.math.add_114/Add", "op": "AddV2", "input": ["PartitionedCall/model_219/tf.nn.convolution_102/convolution", "PartitionedCall/model_219/tf.math.add_114/Add/y"], "attr": {"T": {"type": "DT_FLOAT"}}}, {"name": "PartitionedCall/model_219/tf.nn.convolution_104/convolution", "op": "Conv2D", "input": ["PartitionedCall/model_219/tf.math.multiply_148/Mul", "1082"], "device": "/device:CPU:0", "attr": {"T": {"type": "DT_FLOAT"}, "data_format": {"s": "TkhXQw=="}, "explicit_paddings": {"list": {}}, "strides": {"list": {"i": ["1", "1", "1", "1"]}}, "use_cudnn_on_gpu": {"b": true}, "padding": {"s": "U0FNRQ=="}, "dilations": {"list": {"i": ["1", "1", "1", "1"]}}}}, {"name": "PartitionedCall/model_219/tf.nn.convolution_106/convolution", "op": "Conv2D", "input": ["PartitionedCall/model_219/tf.math.multiply_151/Mul", "1080"], "device": "/device:CPU:0", "attr": {"explicit_paddings": {"list": {}}, "strides": {"list": {"i": ["1", "1", "1", "1"]}}, "use_cudnn_on_gpu": {"b": true}, "padding": {"s": "U0FNRQ=="}, "dilations": {"list": {"i": ["1", "1", "1", "1"]}}, "T": {"type": "DT_FLOAT"}, "data_format": {"s": "TkhXQw=="}}}, {"name": "PartitionedCall/model_219/tf.math.sigmoid_98/Sigmoid", "op": "Sigmoid", "input": ["PartitionedCall/model_219/tf.math.add_114/Add"], "attr": {"T": {"type": "DT_FLOAT"}}}, {"name": "PartitionedCall/model_219/tf.math.add_116/Add", "op": "AddV2", "input": ["PartitionedCall/model_219/tf.nn.convolution_104/convolution", "PartitionedCall/model_219/tf.math.add_116/Add/y"], "attr": {"T": {"type": "DT_FLOAT"}}}, {"name": "PartitionedCall/model_219/tf.math.add_118/Add", "op": "AddV2", "input": ["PartitionedCall/model_219/tf.nn.convolution_106/convolution", "PartitionedCall/model_219/tf.math.add_118/Add/y"], "attr": {"T": {"type": "DT_FLOAT"}}}, {"name": "PartitionedCall/model_219/tf.math.multiply_154/Mul", "op": "Mul", "input": ["PartitionedCall/model_219/tf.math.add_114/Add", "PartitionedCall/model_219/tf.math.sigmoid_98/Sigmoid"], "attr": {"T": {"type": "DT_FLOAT"}}}, {"name": "PartitionedCall/model_219/tf.concat_26/concat", "op": "ConcatV2", "input": ["PartitionedCall/model_219/tf.math.add_116/Add", "PartitionedCall/model_219/tf.math.add_118/Add", "PartitionedCall/model_219/tf.concat_26/concat/axis"], "attr": {"Tidx": {"type": "DT_INT32"}, "N": {"i": "2"}, "T": {"type": "DT_FLOAT"}}}, {"name": "PartitionedCall/model_219/tf.strided_slice_14/StridedSlice", "op": "StridedSlice", "input": ["PartitionedCall/model_219/tf.math.multiply_154/Mul", "1046", "1048", "PartitionedCall/model_219/tf.strided_slice_14/ones_like"], "attr": {"Index": {"type": "DT_INT64"}, "end_mask": {"i": "7"}, "ellipsis_mask": {"i": "0"}, "T": {"type": "DT_FLOAT"}, "shrink_axis_mask": {"i": "0"}, "new_axis_mask": {"i": "0"}, "begin_mask": {"i": "15"}}}, {"name": "PartitionedCall/model_219/tf.strided_slice_15/StridedSlice", "op": "StridedSlice", "input": ["PartitionedCall/model_219/tf.math.multiply_154/Mul", "1038", "1040", "PartitionedCall/model_219/tf.strided_slice_15/ones_like"], "attr": {"end_mask": {"i": "7"}, "new_axis_mask": {"i": "0"}, "shrink_axis_mask": {"i": "0"}, "ellipsis_mask": {"i": "0"}, "Index": {"type": "DT_INT64"}, "T": {"type": "DT_FLOAT"}, "begin_mask": {"i": "7"}}}, {"name": "PartitionedCall/model_219/tf.compat.v1.transpose_1/transpose", "op": "Transpose", "input": ["PartitionedCall/model_219/tf.concat_26/concat", "PartitionedCall/model_219/tf.compat.v1.transpose_1/transpose/perm"], "attr": {"T": {"type": "DT_FLOAT"}, "Tperm": {"type": "DT_INT32"}}}, {"name": "PartitionedCall/model_219/tf.nn.convolution_108/convolution", "op": "Conv2D", "input": ["PartitionedCall/model_219/tf.strided_slice_15/StridedSlice", "1042"], "device": "/device:CPU:0", "attr": {"padding": {"s": "U0FNRQ=="}, "strides": {"list": {"i": ["1", "1", "1", "1"]}}, "data_format": {"s": "TkhXQw=="}, "T": {"type": "DT_FLOAT"}, "use_cudnn_on_gpu": {"b": true}, "explicit_paddings": {"list": {}}, "dilations": {"list": {"i": ["1", "1", "1", "1"]}}}}, {"name": "PartitionedCall/model_219/tf.reshape_2/Reshape", "op": "Reshape", "input": ["PartitionedCall/model_219/tf.compat.v1.transpose_1/transpose", "PartitionedCall/model_219/tf.reshape_2/Reshape/shape"], "attr": {"T": {"type": "DT_FLOAT"}, "Tshape": {"type": "DT_INT32"}}}, {"name": "PartitionedCall/model_219/tf.math.add_120/Add", "op": "AddV2", "input": ["PartitionedCall/model_219/tf.nn.convolution_108/convolution", "PartitionedCall/model_219/tf.math.add_120/Add/y"], "attr": {"T": {"type": "DT_FLOAT"}}}, {"name": "PartitionedCall/model_219/tf.math.sigmoid_100/Sigmoid", "op": "Sigmoid", "input": ["PartitionedCall/model_219/tf.math.add_120/Add"], "attr": {"T": {"type": "DT_FLOAT"}}}, {"name": "PartitionedCall/model_219/tf.math.multiply_157/Mul", "op": "Mul", "input": ["PartitionedCall/model_219/tf.math.add_120/Add", "PartitionedCall/model_219/tf.math.sigmoid_100/Sigmoid"], "attr": {"T": {"type": "DT_FLOAT"}}}, {"name": "PartitionedCall/model_219/tf.nn.convolution_110/convolution", "op": "Conv2D", "input": ["PartitionedCall/model_219/tf.math.multiply_157/Mul", "1044"], "device": "/device:CPU:0", "attr": {"data_format": {"s": "TkhXQw=="}, "padding": {"s": "U0FNRQ=="}, "explicit_paddings": {"list": {}}, "dilations": {"list": {"i": ["1", "1", "1", "1"]}}, "T": {"type": "DT_FLOAT"}, "strides": {"list": {"i": ["1", "1", "1", "1"]}}, "use_cudnn_on_gpu": {"b": true}}}, {"name": "PartitionedCall/model_219/tf.math.add_122/Add", "op": "AddV2", "input": ["PartitionedCall/model_219/tf.nn.convolution_110/convolution", "PartitionedCall/model_219/tf.math.add_122/Add/y"], "attr": {"T": {"type": "DT_FLOAT"}}}, {"name": "PartitionedCall/model_219/tf.math.sigmoid_102/Sigmoid", "op": "Sigmoid", "input": ["PartitionedCall/model_219/tf.math.add_122/Add"], "attr": {"T": {"type": "DT_FLOAT"}}}, {"name": "PartitionedCall/model_219/tf.math.multiply_160/Mul", "op": "Mul", "input": ["PartitionedCall/model_219/tf.math.add_122/Add", "PartitionedCall/model_219/tf.math.sigmoid_102/Sigmoid"], "attr": {"T": {"type": "DT_FLOAT"}}}, {"name": "PartitionedCall/model_219/tf.concat_28/concat", "op": "ConcatV2", "input": ["PartitionedCall/model_219/tf.strided_slice_14/StridedSlice", "PartitionedCall/model_219/tf.strided_slice_15/StridedSlice", "PartitionedCall/model_219/tf.math.multiply_160/Mul", "PartitionedCall/model_219/tf.concat_28/concat/axis"], "attr": {"Tidx": {"type": "DT_INT32"}, "N": {"i": "3"}, "T": {"type": "DT_FLOAT"}}}, {"name": "PartitionedCall/model_219/tf.nn.convolution_112/convolution", "op": "Conv2D", "input": ["PartitionedCall/model_219/tf.concat_28/concat", "1050"], "device": "/device:CPU:0", "attr": {"data_format": {"s": "TkhXQw=="}, "padding": {"s": "U0FNRQ=="}, "strides": {"list": {"i": ["1", "1", "1", "1"]}}, "T": {"type": "DT_FLOAT"}, "dilations": {"list": {"i": ["1", "1", "1", "1"]}}, "explicit_paddings": {"list": {}}, "use_cudnn_on_gpu": {"b": true}}}, {"name": "PartitionedCall/model_219/tf.math.add_124/Add", "op": "AddV2", "input": ["PartitionedCall/model_219/tf.nn.convolution_112/convolution", "PartitionedCall/model_219/tf.math.add_124/Add/y"], "attr": {"T": {"type": "DT_FLOAT"}}}, {"name": "PartitionedCall/model_219/tf.math.sigmoid_104/Sigmoid", "op": "Sigmoid", "input": ["PartitionedCall/model_219/tf.math.add_124/Add"], "attr": {"T": {"type": "DT_FLOAT"}}}, {"name": "PartitionedCall/model_219/tf.math.multiply_163/Mul", "op": "Mul", "input": ["PartitionedCall/model_219/tf.math.add_124/Add", "PartitionedCall/model_219/tf.math.sigmoid_104/Sigmoid"], "attr": {"T": {"type": "DT_FLOAT"}}}, {"name": "PartitionedCall/model_219/tf.nn.convolution_114/convolution", "op": "Conv2D", "input": ["PartitionedCall/model_219/tf.math.multiply_163/Mul", "1054"], "device": "/device:CPU:0", "attr": {"data_format": {"s": "TkhXQw=="}, "explicit_paddings": {"list": {}}, "strides": {"list": {"i": ["1", "1", "1", "1"]}}, "use_cudnn_on_gpu": {"b": true}, "dilations": {"list": {"i": ["1", "1", "1", "1"]}}, "padding": {"s": "U0FNRQ=="}, "T": {"type": "DT_FLOAT"}}}, {"name": "PartitionedCall/model_219/tf.nn.convolution_116/convolution", "op": "Conv2D", "input": ["PartitionedCall/model_219/tf.math.multiply_163/Mul", "1052"], "device": "/device:CPU:0", "attr": {"explicit_paddings": {"list": {}}, "T": {"type": "DT_FLOAT"}, "strides": {"list": {"i": ["1", "1", "1", "1"]}}, "use_cudnn_on_gpu": {"b": true}, "dilations": {"list": {"i": ["1", "1", "1", "1"]}}, "data_format": {"s": "TkhXQw=="}, "padding": {"s": "U0FNRQ=="}}}, {"name": "PartitionedCall/model_219/tf.math.add_126/Add", "op": "AddV2", "input": ["PartitionedCall/model_219/tf.nn.convolution_114/convolution", "PartitionedCall/model_219/tf.math.add_126/Add/y"], "attr": {"T": {"type": "DT_FLOAT"}}}, {"name": "PartitionedCall/model_219/tf.math.add_128/Add", "op": "AddV2", "input": ["PartitionedCall/model_219/tf.nn.convolution_116/convolution", "PartitionedCall/model_219/tf.math.add_128/Add/y"], "attr": {"T": {"type": "DT_FLOAT"}}}, {"name": "PartitionedCall/model_219/tf.math.sigmoid_106/Sigmoid", "op": "Sigmoid", "input": ["PartitionedCall/model_219/tf.math.add_126/Add"], "attr": {"T": {"type": "DT_FLOAT"}}}, {"name": "PartitionedCall/model_219/tf.math.sigmoid_108/Sigmoid", "op": "Sigmoid", "input": ["PartitionedCall/model_219/tf.math.add_128/Add"], "attr": {"T": {"type": "DT_FLOAT"}}}, {"name": "PartitionedCall/model_219/tf.math.multiply_166/Mul", "op": "Mul", "input": ["PartitionedCall/model_219/tf.math.add_126/Add", "PartitionedCall/model_219/tf.math.sigmoid_106/Sigmoid"], "attr": {"T": {"type": "DT_FLOAT"}}}, {"name": "PartitionedCall/model_219/tf.math.multiply_169/Mul", "op": "Mul", "input": ["PartitionedCall/model_219/tf.math.add_128/Add", "PartitionedCall/model_219/tf.math.sigmoid_108/Sigmoid"], "attr": {"T": {"type": "DT_FLOAT"}}}, {"name": "PartitionedCall/model_219/tf.nn.convolution_118/convolution", "op": "Conv2D", "input": ["PartitionedCall/model_219/tf.math.multiply_166/Mul", "1066"], "device": "/device:CPU:0", "attr": {"strides": {"list": {"i": ["1", "1", "1", "1"]}}, "data_format": {"s": "TkhXQw=="}, "explicit_paddings": {"list": {}}, "dilations": {"list": {"i": ["1", "1", "1", "1"]}}, "use_cudnn_on_gpu": {"b": true}, "padding": {"s": "U0FNRQ=="}, "T": {"type": "DT_FLOAT"}}}, {"name": "PartitionedCall/model_219/tf.nn.convolution_120/convolution", "op": "Conv2D", "input": ["PartitionedCall/model_219/tf.math.multiply_169/Mul", "1064"], "device": "/device:CPU:0", "attr": {"strides": {"list": {"i": ["1", "1", "1", "1"]}}, "data_format": {"s": "TkhXQw=="}, "padding": {"s": "U0FNRQ=="}, "use_cudnn_on_gpu": {"b": true}, "explicit_paddings": {"list": {}}, "dilations": {"list": {"i": ["1", "1", "1", "1"]}}, "T": {"type": "DT_FLOAT"}}}, {"name": "PartitionedCall/model_219/tf.math.add_130/Add", "op": "AddV2", "input": ["PartitionedCall/model_219/tf.nn.convolution_118/convolution", "PartitionedCall/model_219/tf.math.add_130/Add/y"], "attr": {"T": {"type": "DT_FLOAT"}}}, {"name": "PartitionedCall/model_219/tf.math.add_132/Add", "op": "AddV2", "input": ["PartitionedCall/model_219/tf.nn.convolution_120/convolution", "PartitionedCall/model_219/tf.math.add_132/Add/y"], "attr": {"T": {"type": "DT_FLOAT"}}}, {"name": "PartitionedCall/model_219/tf.math.sigmoid_110/Sigmoid", "op": "Sigmoid", "input": ["PartitionedCall/model_219/tf.math.add_130/Add"], "attr": {"T": {"type": "DT_FLOAT"}}}, {"name": "PartitionedCall/model_219/tf.math.sigmoid_112/Sigmoid", "op": "Sigmoid", "input": ["PartitionedCall/model_219/tf.math.add_132/Add"], "attr": {"T": {"type": "DT_FLOAT"}}}, {"name": "PartitionedCall/model_219/tf.math.multiply_172/Mul", "op": "Mul", "input": ["PartitionedCall/model_219/tf.math.add_130/Add", "PartitionedCall/model_219/tf.math.sigmoid_110/Sigmoid"], "attr": {"T": {"type": "DT_FLOAT"}}}, {"name": "PartitionedCall/model_219/tf.math.multiply_175/Mul", "op": "Mul", "input": ["PartitionedCall/model_219/tf.math.add_132/Add", "PartitionedCall/model_219/tf.math.sigmoid_112/Sigmoid"], "attr": {"T": {"type": "DT_FLOAT"}}}, {"name": "PartitionedCall/model_219/tf.nn.convolution_122/convolution", "op": "Conv2D", "input": ["PartitionedCall/model_219/tf.math.multiply_172/Mul", "1078"], "device": "/device:CPU:0", "attr": {"data_format": {"s": "TkhXQw=="}, "padding": {"s": "U0FNRQ=="}, "explicit_paddings": {"list": {}}, "T": {"type": "DT_FLOAT"}, "strides": {"list": {"i": ["1", "1", "1", "1"]}}, "use_cudnn_on_gpu": {"b": true}, "dilations": {"list": {"i": ["1", "1", "1", "1"]}}}}, {"name": "PartitionedCall/model_219/tf.nn.convolution_124/convolution", "op": "Conv2D", "input": ["PartitionedCall/model_219/tf.math.multiply_175/Mul", "1076"], "device": "/device:CPU:0", "attr": {"T": {"type": "DT_FLOAT"}, "dilations": {"list": {"i": ["1", "1", "1", "1"]}}, "explicit_paddings": {"list": {}}, "use_cudnn_on_gpu": {"b": true}, "padding": {"s": "U0FNRQ=="}, "data_format": {"s": "TkhXQw=="}, "strides": {"list": {"i": ["1", "1", "1", "1"]}}}}, {"name": "PartitionedCall/model_219/tf.math.add_134/Add", "op": "AddV2", "input": ["PartitionedCall/model_219/tf.nn.convolution_122/convolution", "PartitionedCall/model_219/tf.math.add_134/Add/y"], "attr": {"T": {"type": "DT_FLOAT"}}}, {"name": "PartitionedCall/model_219/tf.math.add_136/Add", "op": "AddV2", "input": ["PartitionedCall/model_219/tf.nn.convolution_124/convolution", "PartitionedCall/model_219/tf.math.add_136/Add/y"], "attr": {"T": {"type": "DT_FLOAT"}}}, {"name": "PartitionedCall/model_219/tf.concat_30/concat", "op": "ConcatV2", "input": ["PartitionedCall/model_219/tf.math.add_134/Add", "PartitionedCall/model_219/tf.math.add_136/Add", "PartitionedCall/model_219/tf.concat_30/concat/axis"], "attr": {"N": {"i": "2"}, "Tidx": {"type": "DT_INT32"}, "T": {"type": "DT_FLOAT"}}}, {"name": "PartitionedCall/model_219/tf.compat.v1.transpose_2/transpose", "op": "Transpose", "input": ["PartitionedCall/model_219/tf.concat_30/concat", "PartitionedCall/model_219/tf.compat.v1.transpose_2/transpose/perm"], "attr": {"T": {"type": "DT_FLOAT"}, "Tperm": {"type": "DT_INT32"}}}, {"name": "PartitionedCall/model_219/tf.reshape_4/Reshape", "op": "Reshape", "input": ["PartitionedCall/model_219/tf.compat.v1.transpose_2/transpose", "PartitionedCall/model_219/tf.reshape_4/Reshape/shape"], "attr": {"T": {"type": "DT_FLOAT"}, "Tshape": {"type": "DT_INT32"}}}, {"name": "PartitionedCall/model_219/tf.concat_32/concat", "op": "ConcatV2", "input": ["PartitionedCall/model_219/tf.reshape/Reshape", "PartitionedCall/model_219/tf.reshape_2/Reshape", "PartitionedCall/model_219/tf.reshape_4/Reshape", "PartitionedCall/model_219/tf.concat_32/concat/axis"], "attr": {"Tidx": {"type": "DT_INT32"}, "T": {"type": "DT_FLOAT"}, "N": {"i": "3"}}}, {"name": "PartitionedCall/model_219/tf.strided_slice_16/StridedSlice", "op": "StridedSlice", "input": ["PartitionedCall/model_219/tf.concat_32/concat", "1088", "1090", "PartitionedCall/model_219/tf.strided_slice_16/StridedSlice/strides"], "attr": {"T": {"type": "DT_FLOAT"}, "end_mask": {"i": "5"}, "new_axis_mask": {"i": "0"}, "begin_mask": {"i": "7"}, "Index": {"type": "DT_INT64"}, "shrink_axis_mask": {"i": "0"}, "ellipsis_mask": {"i": "0"}}}, {"name": "PartitionedCall/model_219/tf.strided_slice_17/StridedSlice", "op": "StridedSlice", "input": ["PartitionedCall/model_219/tf.concat_32/concat", "1108", "1110", "PartitionedCall/model_219/tf.strided_slice_17/StridedSlice/strides"], "attr": {"shrink_axis_mask": {"i": "0"}, "end_mask": {"i": "5"}, "begin_mask": {"i": "5"}, "new_axis_mask": {"i": "0"}, "Index": {"type": "DT_INT64"}, "ellipsis_mask": {"i": "0"}, "T": {"type": "DT_FLOAT"}}}, {"name": "PartitionedCall/model_219/tf.reshape_6/Reshape", "op": "Reshape", "input": ["PartitionedCall/model_219/tf.strided_slice_16/StridedSlice", "PartitionedCall/model_219/tf.reshape_6/Reshape/shape"], "attr": {"Tshape": {"type": "DT_INT32"}, "T": {"type": "DT_FLOAT"}}}, {"name": "PartitionedCall/model_219/tf.math.sigmoid_114/Sigmoid", "op": "Sigmoid", "input": ["PartitionedCall/model_219/tf.strided_slice_17/StridedSlice"], "attr": {"T": {"type": "DT_FLOAT"}}}, {"name": "PartitionedCall/model_219/tf.compat.v1.transpose_4/transpose", "op": "Transpose", "input": ["PartitionedCall/model_219/tf.reshape_6/Reshape", "PartitionedCall/model_219/tf.compat.v1.transpose_4/transpose/perm"], "attr": {"Tperm": {"type": "DT_INT32"}, "T": {"type": "DT_FLOAT"}}}, {"name": "PartitionedCall/model_219/tf.nn.softmax_1/transpose", "op": "Transpose", "input": ["PartitionedCall/model_219/tf.compat.v1.transpose_4/transpose", "PartitionedCall/model_219/tf.nn.softmax_1/concat"], "attr": {"T": {"type": "DT_FLOAT"}, "Tperm": {"type": "DT_INT32"}}}, {"name": "PartitionedCall/model_219/tf.nn.softmax_1/Softmax", "op": "Softmax", "input": ["PartitionedCall/model_219/tf.nn.softmax_1/transpose"], "attr": {"T": {"type": "DT_FLOAT"}}}, {"name": "PartitionedCall/model_219/tf.nn.softmax_1/transpose_1", "op": "Transpose", "input": ["PartitionedCall/model_219/tf.nn.softmax_1/Softmax", "PartitionedCall/model_219/tf.nn.softmax_1/concat_1"], "attr": {"Tperm": {"type": "DT_INT32"}, "T": {"type": "DT_FLOAT"}}}, {"name": "PartitionedCall/model_219/tf.compat.v1.transpose_6/transpose", "op": "Transpose", "input": ["PartitionedCall/model_219/tf.nn.softmax_1/transpose_1", "PartitionedCall/model_219/tf.compat.v1.transpose_6/transpose/perm"], "attr": {"T": {"type": "DT_FLOAT"}, "Tperm": {"type": "DT_INT32"}}}, {"name": "PartitionedCall/model_219/tf.nn.convolution_126/convolution", "op": "Conv2D", "input": ["PartitionedCall/model_219/tf.compat.v1.transpose_6/transpose", "1092"], "device": "/device:CPU:0", "attr": {"data_format": {"s": "TkhXQw=="}, "T": {"type": "DT_FLOAT"}, "dilations": {"list": {"i": ["1", "1", "1", "1"]}}, "use_cudnn_on_gpu": {"b": true}, "explicit_paddings": {"list": {}}, "padding": {"s": "U0FNRQ=="}, "strides": {"list": {"i": ["1", "1", "1", "1"]}}}}, {"name": "PartitionedCall/model_219/tf.compat.v1.transpose_7/transpose", "op": "Transpose", "input": ["PartitionedCall/model_219/tf.nn.convolution_126/convolution", "PartitionedCall/model_219/tf.compat.v1.transpose_7/transpose/perm"], "attr": {"Tperm": {"type": "DT_INT32"}, "T": {"type": "DT_FLOAT"}}}, {"name": "PartitionedCall/model_219/tf.reshape_8/Reshape", "op": "Reshape", "input": ["PartitionedCall/model_219/tf.compat.v1.transpose_7/transpose", "PartitionedCall/model_219/tf.reshape_8/Reshape/shape"], "attr": {"Tshape": {"type": "DT_INT32"}, "T": {"type": "DT_FLOAT"}}}, {"name": "PartitionedCall/model_219/tf.strided_slice_19/StridedSlice", "op": "StridedSlice", "input": ["PartitionedCall/model_219/tf.reshape_8/Reshape", "1094", "1096", "PartitionedCall/model_219/tf.strided_slice_19/ones_like"], "attr": {"Index": {"type": "DT_INT64"}, "end_mask": {"i": "5"}, "shrink_axis_mask": {"i": "0"}, "ellipsis_mask": {"i": "0"}, "T": {"type": "DT_FLOAT"}, "begin_mask": {"i": "5"}, "new_axis_mask": {"i": "0"}}}, {"name": "PartitionedCall/model_219/tf.strided_slice_18/StridedSlice", "op": "StridedSlice", "input": ["PartitionedCall/model_219/tf.reshape_8/Reshape", "1098", "1100", "PartitionedCall/model_219/tf.strided_slice_18/ones_like"], "attr": {"begin_mask": {"i": "7"}, "shrink_axis_mask": {"i": "0"}, "end_mask": {"i": "5"}, "Index": {"type": "DT_INT64"}, "T": {"type": "DT_FLOAT"}, "ellipsis_mask": {"i": "0"}, "new_axis_mask": {"i": "0"}}}, {"name": "PartitionedCall/model_219/tf.math.add_138/Add", "op": "AddV2", "input": ["1102", "PartitionedCall/model_219/tf.strided_slice_19/StridedSlice"], "attr": {"T": {"type": "DT_FLOAT"}}}, {"name": "PartitionedCall/model_219/tf.math.subtract/Sub", "op": "Sub", "input": ["1104", "PartitionedCall/model_219/tf.strided_slice_18/StridedSlice"], "attr": {"T": {"type": "DT_FLOAT"}}}, {"name": "PartitionedCall/model_219/tf.math.add_140/Add", "op": "AddV2", "input": ["PartitionedCall/model_219/tf.math.subtract/Sub", "PartitionedCall/model_219/tf.math.add_138/Add"], "attr": {"T": {"type": "DT_FLOAT"}}}, {"name": "PartitionedCall/model_219/tf.math.subtract_2/Sub", "op": "Sub", "input": ["PartitionedCall/model_219/tf.math.add_138/Add", "PartitionedCall/model_219/tf.math.subtract/Sub"], "attr": {"T": {"type": "DT_FLOAT"}}}, {"name": "PartitionedCall/model_219/tf.math.divide/truediv", "op": "Mul", "input": ["PartitionedCall/model_219/tf.math.add_140/Add", "ConstantFolding/PartitionedCall/model_219/tf.math.divide/truediv_recip"], "attr": {"T": {"type": "DT_FLOAT"}}}, {"name": "PartitionedCall/model_219/tf.concat_34/concat", "op": "ConcatV2", "input": ["PartitionedCall/model_219/tf.math.divide/truediv", "PartitionedCall/model_219/tf.math.subtract_2/Sub", "PartitionedCall/model_219/tf.concat_34/concat/axis"], "attr": {"Tidx": {"type": "DT_INT32"}, "N": {"i": "2"}, "T": {"type": "DT_FLOAT"}}}, {"name": "PartitionedCall/model_219/tf.math.multiply_179/Mul", "op": "Mul", "input": ["PartitionedCall/model_219/tf.concat_34/concat", "PartitionedCall/model_219/tf.math.multiply_179/Mul/y"], "attr": {"T": {"type": "DT_FLOAT"}}}, {"name": "PartitionedCall/model_219/output0/concat", "op": "ConcatV2", "input": ["PartitionedCall/model_219/tf.math.multiply_179/Mul", "PartitionedCall/model_219/tf.math.sigmoid_114/Sigmoid", "PartitionedCall/model_219/output0/concat/axis"], "attr": {"N": {"i": "2"}, "T": {"type": "DT_FLOAT"}, "Tidx": {"type": "DT_INT32"}}}, {"name": "Identity", "op": "Identity", "input": ["PartitionedCall/model_219/output0/concat"], "attr": {"T": {"type": "DT_FLOAT"}}}], "library": {}, "versions": {"producer": 1286}}, "weightsManifest": [{"paths": ["group1-shard1of11.bin", "group1-shard2of11.bin", "group1-shard3of11.bin", "group1-shard4of11.bin", "group1-shard5of11.bin", "group1-shard6of11.bin", "group1-shard7of11.bin", "group1-shard8of11.bin", "group1-shard9of11.bin", "group1-shard10of11.bin", "group1-shard11of11.bin"], "weights": [{"name": "ConstantFolding/PartitionedCall/model_219/tf.math.divide/truediv_recip", "shape": [1, 1, 1], "dtype": "float32"}, {"name": "1102", "shape": [1, 2, 4725], "dtype": "float32"}, {"name": "1094", "shape": [3], "dtype": "int32"}, {"name": "1096", "shape": [3], "dtype": "int32"}, {"name": "PartitionedCall/model_219/tf.strided_slice_19/ones_like", "shape": [3], "dtype": "int32"}, {"name": "1104", "shape": [1, 2, 4725], "dtype": "float32"}, {"name": "1088", "shape": [3], "dtype": "int32"}, {"name": "1090", "shape": [3], "dtype": "int32"}, {"name": "PartitionedCall/model_219/tf.strided_slice_16/StridedSlice/strides", "shape": [3], "dtype": "int32"}, {"name": "PartitionedCall/model_219/tf.reshape_6/Reshape/shape", "shape": [4], "dtype": "int32"}, {"name": "PartitionedCall/model_219/tf.compat.v1.transpose_4/transpose/perm", "shape": [4], "dtype": "int32"}, {"name": "PartitionedCall/model_219/tf.nn.softmax_1/concat", "shape": [4], "dtype": "int32"}, {"name": "PartitionedCall/model_219/tf.nn.softmax_1/concat_1", "shape": [4], "dtype": "int32"}, {"name": "PartitionedCall/model_219/tf.compat.v1.transpose_6/transpose/perm", "shape": [4], "dtype": "int32"}, {"name": "1092", "shape": [1, 1, 16, 1], "dtype": "float32"}, {"name": "PartitionedCall/model_219/tf.compat.v1.transpose_7/transpose/perm", "shape": [4], "dtype": "int32"}, {"name": "PartitionedCall/model_219/tf.reshape_8/Reshape/shape", "shape": [3], "dtype": "int32"}, {"name": "1098", "shape": [3], "dtype": "int32"}, {"name": "1100", "shape": [3], "dtype": "int32"}, {"name": "PartitionedCall/model_219/tf.strided_slice_18/ones_like", "shape": [3], "dtype": "int32"}, {"name": "PartitionedCall/model_219/tf.concat_34/concat/axis", "shape": [], "dtype": "int32"}, {"name": "PartitionedCall/model_219/tf.math.multiply_179/Mul/y", "shape": [1, 1, 4725], "dtype": "float32"}, {"name": "1062", "shape": [3, 3, 128, 64], "dtype": "float32"}, {"name": "PartitionedCall/model_219/tf.math.add_84/Add/y", "shape": [64], "dtype": "float32"}, {"name": "1074", "shape": [3, 3, 64, 64], "dtype": "float32"}, {"name": "PartitionedCall/model_219/tf.math.add_88/Add/y", "shape": [64], "dtype": "float32"}, {"name": "1086", "shape": [1, 1, 64, 64], "dtype": "float32"}, {"name": "PartitionedCall/model_219/tf.math.add_94/Add/y", "shape": [64], "dtype": "float32"}, {"name": "1060", "shape": [3, 3, 128, 128], "dtype": "float32"}, {"name": "PartitionedCall/model_219/tf.math.add_86/Add/y", "shape": [128], "dtype": "float32"}, {"name": "1072", "shape": [3, 3, 128, 128], "dtype": "float32"}, {"name": "PartitionedCall/model_219/tf.math.add_90/Add/y", "shape": [128], "dtype": "float32"}, {"name": "1084", "shape": [1, 1, 128, 12], "dtype": "float32"}, {"name": "PartitionedCall/model_219/tf.math.add_96/Add/y", "shape": [12], "dtype": "float32"}, {"name": "PartitionedCall/model_219/tf.concat_20/concat/axis", "shape": [], "dtype": "int32"}, {"name": "PartitionedCall/model_219/tf.compat.v1.transpose/transpose/perm", "shape": [4], "dtype": "int32"}, {"name": "PartitionedCall/model_219/tf.reshape/Reshape/shape", "shape": [3], "dtype": "int32"}, {"name": "1058", "shape": [3, 3, 256, 64], "dtype": "float32"}, {"name": "PartitionedCall/model_219/tf.math.add_106/Add/y", "shape": [64], "dtype": "float32"}, {"name": "1070", "shape": [3, 3, 64, 64], "dtype": "float32"}, {"name": "PartitionedCall/model_219/tf.math.add_110/Add/y", "shape": [64], "dtype": "float32"}, {"name": "1082", "shape": [1, 1, 64, 64], "dtype": "float32"}, {"name": "PartitionedCall/model_219/tf.math.add_116/Add/y", "shape": [64], "dtype": "float32"}, {"name": "1056", "shape": [3, 3, 256, 128], "dtype": "float32"}, {"name": "PartitionedCall/model_219/tf.math.add_108/Add/y", "shape": [128], "dtype": "float32"}, {"name": "1068", "shape": [3, 3, 128, 128], "dtype": "float32"}, {"name": "PartitionedCall/model_219/tf.math.add_112/Add/y", "shape": [128], "dtype": "float32"}, {"name": "1080", "shape": [1, 1, 128, 12], "dtype": "float32"}, {"name": "PartitionedCall/model_219/tf.math.add_118/Add/y", "shape": [12], "dtype": "float32"}, {"name": "PartitionedCall/model_219/tf.concat_26/concat/axis", "shape": [], "dtype": "int32"}, {"name": "PartitionedCall/model_219/tf.compat.v1.transpose_1/transpose/perm", "shape": [4], "dtype": "int32"}, {"name": "PartitionedCall/model_219/tf.reshape_2/Reshape/shape", "shape": [3], "dtype": "int32"}, {"name": "1054", "shape": [3, 3, 512, 64], "dtype": "float32"}, {"name": "PartitionedCall/model_219/tf.math.add_126/Add/y", "shape": [64], "dtype": "float32"}, {"name": "1066", "shape": [3, 3, 64, 64], "dtype": "float32"}, {"name": "PartitionedCall/model_219/tf.math.add_130/Add/y", "shape": [64], "dtype": "float32"}, {"name": "1078", "shape": [1, 1, 64, 64], "dtype": "float32"}, {"name": "PartitionedCall/model_219/tf.math.add_134/Add/y", "shape": [64], "dtype": "float32"}, {"name": "1046", "shape": [4], "dtype": "int32"}, {"name": "1048", "shape": [4], "dtype": "int32"}, {"name": "PartitionedCall/model_219/tf.strided_slice_14/ones_like", "shape": [4], "dtype": "int32"}, {"name": "1026", "shape": [4], "dtype": "int32"}, {"name": "1028", "shape": [4], "dtype": "int32"}, {"name": "PartitionedCall/model_219/tf.strided_slice_12/ones_like", "shape": [4], "dtype": "int32"}, {"name": "1006", "shape": [4], "dtype": "int32"}, {"name": "1008", "shape": [4], "dtype": "int32"}, {"name": "PartitionedCall/model_219/tf.strided_slice_10/ones_like", "shape": [4], "dtype": "int32"}, {"name": "PartitionedCall/model_219/lambda_2//model.13/Resize/size", "shape": [2], "dtype": "int32"}, {"name": "PartitionedCall/model_219/tf.concat_14/concat/axis", "shape": [], "dtype": "int32"}, {"name": "996", "shape": [1, 1, 384, 128], "dtype": "float32"}, {"name": "PartitionedCall/model_219/tf.math.add_74/Add/y", "shape": [128], "dtype": "float32"}, {"name": "998", "shape": [4], "dtype": "int32"}, {"name": "1000", "shape": [4], "dtype": "int32"}, {"name": "PartitionedCall/model_219/tf.strided_slice_11/ones_like", "shape": [4], "dtype": "int32"}, {"name": "1002", "shape": [3, 3, 64, 64], "dtype": "float32"}, {"name": "PartitionedCall/model_219/tf.math.add_76/Add/y", "shape": [64], "dtype": "float32"}, {"name": "1004", "shape": [3, 3, 64, 64], "dtype": "float32"}, {"name": "PartitionedCall/model_219/tf.math.add_78/Add/y", "shape": [64], "dtype": "float32"}, {"name": "PartitionedCall/model_219/tf.concat_16/concat/axis", "shape": [], "dtype": "int32"}, {"name": "1010", "shape": [1, 1, 192, 128], "dtype": "float32"}, {"name": "PartitionedCall/model_219/tf.math.add_80/Add/y", "shape": [128], "dtype": "float32"}, {"name": "1012", "shape": [4, 2], "dtype": "int32"}, {"name": "1014", "shape": [3, 3, 128, 128], "dtype": "float32"}, {"name": "PartitionedCall/model_219/tf.math.add_82/Add/y", "shape": [128], "dtype": "float32"}, {"name": "990", "shape": [4], "dtype": "int32"}, {"name": "992", "shape": [4], "dtype": "int32"}, {"name": "PartitionedCall/model_219/tf.strided_slice_8/ones_like", "shape": [4], "dtype": "int32"}, {"name": "PartitionedCall/model_219/lambda//model.10/Resize/size", "shape": [2], "dtype": "int32"}, {"name": "PartitionedCall/model_219/tf.concat_10/concat/axis", "shape": [], "dtype": "int32"}, {"name": "980", "shape": [1, 1, 768, 256], "dtype": "float32"}, {"name": "PartitionedCall/model_219/tf.math.add_66/Add/y", "shape": [256], "dtype": "float32"}, {"name": "982", "shape": [4], "dtype": "int32"}, {"name": "984", "shape": [4], "dtype": "int32"}, {"name": "PartitionedCall/model_219/tf.strided_slice_9/ones_like", "shape": [4], "dtype": "int32"}, {"name": "986", "shape": [3, 3, 128, 128], "dtype": "float32"}, {"name": "PartitionedCall/model_219/tf.math.add_68/Add/y", "shape": [128], "dtype": "float32"}, {"name": "988", "shape": [3, 3, 128, 128], "dtype": "float32"}, {"name": "PartitionedCall/model_219/tf.math.add_70/Add/y", "shape": [128], "dtype": "float32"}, {"name": "PartitionedCall/model_219/tf.concat_12/concat/axis", "shape": [], "dtype": "int32"}, {"name": "994", "shape": [1, 1, 384, 256], "dtype": "float32"}, {"name": "PartitionedCall/model_219/tf.math.add_72/Add/y", "shape": [256], "dtype": "float32"}, {"name": "PartitionedCall/model_219/tf.concat_18/concat/axis", "shape": [], "dtype": "int32"}, {"name": "1016", "shape": [1, 1, 384, 256], "dtype": "float32"}, {"name": "PartitionedCall/model_219/tf.math.add_92/Add/y", "shape": [256], "dtype": "float32"}, {"name": "1018", "shape": [4], "dtype": "int32"}, {"name": "1020", "shape": [4], "dtype": "int32"}, {"name": "PartitionedCall/model_219/tf.strided_slice_13/ones_like", "shape": [4], "dtype": "int32"}, {"name": "1022", "shape": [3, 3, 128, 128], "dtype": "float32"}, {"name": "PartitionedCall/model_219/tf.math.add_98/Add/y", "shape": [128], "dtype": "float32"}, {"name": "1024", "shape": [3, 3, 128, 128], "dtype": "float32"}, {"name": "PartitionedCall/model_219/tf.math.add_100/Add/y", "shape": [128], "dtype": "float32"}, {"name": "PartitionedCall/model_219/tf.concat_22/concat/axis", "shape": [], "dtype": "int32"}, {"name": "1030", "shape": [1, 1, 384, 256], "dtype": "float32"}, {"name": "PartitionedCall/model_219/tf.math.add_102/Add/y", "shape": [256], "dtype": "float32"}, {"name": "1032", "shape": [4, 2], "dtype": "int32"}, {"name": "1034", "shape": [3, 3, 256, 256], "dtype": "float32"}, {"name": "PartitionedCall/model_219/tf.math.add_104/Add/y", "shape": [256], "dtype": "float32"}, {"name": "970", "shape": [4], "dtype": "int32"}, {"name": "972", "shape": [4], "dtype": "int32"}, {"name": "PartitionedCall/model_219/tf.strided_slice_6/ones_like", "shape": [4], "dtype": "int32"}, {"name": "950", "shape": [4], "dtype": "int32"}, {"name": "952", "shape": [4], "dtype": "int32"}, {"name": "PartitionedCall/model_219/tf.strided_slice_4/ones_like", "shape": [4], "dtype": "int32"}, {"name": "926", "shape": [4], "dtype": "int32"}, {"name": "928", "shape": [4], "dtype": "int32"}, {"name": "PartitionedCall/model_219/tf.strided_slice_2/ones_like", "shape": [4], "dtype": "int32"}, {"name": "902", "shape": [4], "dtype": "int32"}, {"name": "904", "shape": [4], "dtype": "int32"}, {"name": "PartitionedCall/model_219/tf.strided_slice/ones_like", "shape": [4], "dtype": "int32"}, {"name": "884", "shape": [4, 2], "dtype": "int32"}, {"name": "886", "shape": [3, 3, 3, 32], "dtype": "float32"}, {"name": "PartitionedCall/model_219/tf.math.add/Add/y", "shape": [32], "dtype": "float32"}, {"name": "888", "shape": [4, 2], "dtype": "int32"}, {"name": "890", "shape": [3, 3, 32, 64], "dtype": "float32"}, {"name": "PartitionedCall/model_219/tf.math.add_2/Add/y", "shape": [64], "dtype": "float32"}, {"name": "892", "shape": [1, 1, 64, 64], "dtype": "float32"}, {"name": "PartitionedCall/model_219/tf.math.add_4/Add/y", "shape": [64], "dtype": "float32"}, {"name": "894", "shape": [4], "dtype": "int32"}, {"name": "896", "shape": [4], "dtype": "int32"}, {"name": "PartitionedCall/model_219/tf.strided_slice_1/ones_like", "shape": [4], "dtype": "int32"}, {"name": "898", "shape": [3, 3, 32, 32], "dtype": "float32"}, {"name": "PartitionedCall/model_219/tf.math.add_6/Add/y", "shape": [32], "dtype": "float32"}, {"name": "900", "shape": [3, 3, 32, 32], "dtype": "float32"}, {"name": "PartitionedCall/model_219/tf.math.add_8/Add/y", "shape": [32], "dtype": "float32"}, {"name": "PartitionedCall/model_219/tf.concat/concat/axis", "shape": [], "dtype": "int32"}, {"name": "906", "shape": [1, 1, 96, 64], "dtype": "float32"}, {"name": "PartitionedCall/model_219/tf.math.add_12/Add/y", "shape": [64], "dtype": "float32"}, {"name": "908", "shape": [4, 2], "dtype": "int32"}, {"name": "910", "shape": [3, 3, 64, 128], "dtype": "float32"}, {"name": "PartitionedCall/model_219/tf.math.add_14/Add/y", "shape": [128], "dtype": "float32"}, {"name": "912", "shape": [1, 1, 128, 128], "dtype": "float32"}, {"name": "PartitionedCall/model_219/tf.math.add_16/Add/y", "shape": [128], "dtype": "float32"}, {"name": "914", "shape": [4], "dtype": "int32"}, {"name": "916", "shape": [4], "dtype": "int32"}, {"name": "PartitionedCall/model_219/tf.strided_slice_3/ones_like", "shape": [4], "dtype": "int32"}, {"name": "918", "shape": [3, 3, 64, 64], "dtype": "float32"}, {"name": "PartitionedCall/model_219/tf.math.add_18/Add/y", "shape": [64], "dtype": "float32"}, {"name": "920", "shape": [3, 3, 64, 64], "dtype": "float32"}, {"name": "PartitionedCall/model_219/tf.math.add_20/Add/y", "shape": [64], "dtype": "float32"}, {"name": "922", "shape": [3, 3, 64, 64], "dtype": "float32"}, {"name": "PartitionedCall/model_219/tf.math.add_24/Add/y", "shape": [64], "dtype": "float32"}, {"name": "924", "shape": [3, 3, 64, 64], "dtype": "float32"}, {"name": "PartitionedCall/model_219/tf.math.add_26/Add/y", "shape": [64], "dtype": "float32"}, {"name": "PartitionedCall/model_219/tf.concat_2/concat/axis", "shape": [], "dtype": "int32"}, {"name": "930", "shape": [1, 1, 256, 128], "dtype": "float32"}, {"name": "PartitionedCall/model_219/tf.math.add_30/Add/y", "shape": [128], "dtype": "float32"}, {"name": "932", "shape": [4, 2], "dtype": "int32"}, {"name": "934", "shape": [3, 3, 128, 256], "dtype": "float32"}, {"name": "PartitionedCall/model_219/tf.math.add_32/Add/y", "shape": [256], "dtype": "float32"}, {"name": "936", "shape": [1, 1, 256, 256], "dtype": "float32"}, {"name": "PartitionedCall/model_219/tf.math.add_34/Add/y", "shape": [256], "dtype": "float32"}, {"name": "938", "shape": [4], "dtype": "int32"}, {"name": "940", "shape": [4], "dtype": "int32"}, {"name": "PartitionedCall/model_219/tf.strided_slice_5/ones_like", "shape": [4], "dtype": "int32"}, {"name": "942", "shape": [3, 3, 128, 128], "dtype": "float32"}, {"name": "PartitionedCall/model_219/tf.math.add_36/Add/y", "shape": [128], "dtype": "float32"}, {"name": "944", "shape": [3, 3, 128, 128], "dtype": "float32"}, {"name": "PartitionedCall/model_219/tf.math.add_38/Add/y", "shape": [128], "dtype": "float32"}, {"name": "946", "shape": [3, 3, 128, 128], "dtype": "float32"}, {"name": "PartitionedCall/model_219/tf.math.add_42/Add/y", "shape": [128], "dtype": "float32"}, {"name": "948", "shape": [3, 3, 128, 128], "dtype": "float32"}, {"name": "PartitionedCall/model_219/tf.math.add_44/Add/y", "shape": [128], "dtype": "float32"}, {"name": "PartitionedCall/model_219/tf.concat_4/concat/axis", "shape": [], "dtype": "int32"}, {"name": "954", "shape": [1, 1, 512, 256], "dtype": "float32"}, {"name": "PartitionedCall/model_219/tf.math.add_48/Add/y", "shape": [256], "dtype": "float32"}, {"name": "956", "shape": [4, 2], "dtype": "int32"}, {"name": "958", "shape": [3, 3, 256, 512], "dtype": "float32"}, {"name": "PartitionedCall/model_219/tf.math.add_50/Add/y", "shape": [512], "dtype": "float32"}, {"name": "960", "shape": [1, 1, 512, 512], "dtype": "float32"}, {"name": "PartitionedCall/model_219/tf.math.add_52/Add/y", "shape": [512], "dtype": "float32"}, {"name": "962", "shape": [4], "dtype": "int32"}, {"name": "964", "shape": [4], "dtype": "int32"}, {"name": "PartitionedCall/model_219/tf.strided_slice_7/ones_like", "shape": [4], "dtype": "int32"}, {"name": "966", "shape": [3, 3, 256, 256], "dtype": "float32"}, {"name": "PartitionedCall/model_219/tf.math.add_54/Add/y", "shape": [256], "dtype": "float32"}, {"name": "968", "shape": [3, 3, 256, 256], "dtype": "float32"}, {"name": "PartitionedCall/model_219/tf.math.add_56/Add/y", "shape": [256], "dtype": "float32"}, {"name": "PartitionedCall/model_219/tf.concat_6/concat/axis", "shape": [], "dtype": "int32"}, {"name": "974", "shape": [1, 1, 768, 512], "dtype": "float32"}, {"name": "PartitionedCall/model_219/tf.math.add_60/Add/y", "shape": [512], "dtype": "float32"}, {"name": "976", "shape": [1, 1, 512, 256], "dtype": "float32"}, {"name": "PartitionedCall/model_219/tf.math.add_62/Add/y", "shape": [256], "dtype": "float32"}, {"name": "PartitionedCall/model_219/tf.concat_8/concat/axis", "shape": [], "dtype": "int32"}, {"name": "978", "shape": [1, 1, 1024, 512], "dtype": "float32"}, {"name": "PartitionedCall/model_219/tf.math.add_64/Add/y", "shape": [512], "dtype": "float32"}, {"name": "PartitionedCall/model_219/tf.concat_24/concat/axis", "shape": [], "dtype": "int32"}, {"name": "1036", "shape": [1, 1, 768, 512], "dtype": "float32"}, {"name": "PartitionedCall/model_219/tf.math.add_114/Add/y", "shape": [512], "dtype": "float32"}, {"name": "1038", "shape": [4], "dtype": "int32"}, {"name": "1040", "shape": [4], "dtype": "int32"}, {"name": "PartitionedCall/model_219/tf.strided_slice_15/ones_like", "shape": [4], "dtype": "int32"}, {"name": "1042", "shape": [3, 3, 256, 256], "dtype": "float32"}, {"name": "PartitionedCall/model_219/tf.math.add_120/Add/y", "shape": [256], "dtype": "float32"}, {"name": "1044", "shape": [3, 3, 256, 256], "dtype": "float32"}, {"name": "PartitionedCall/model_219/tf.math.add_122/Add/y", "shape": [256], "dtype": "float32"}, {"name": "PartitionedCall/model_219/tf.concat_28/concat/axis", "shape": [], "dtype": "int32"}, {"name": "1050", "shape": [1, 1, 768, 512], "dtype": "float32"}, {"name": "PartitionedCall/model_219/tf.math.add_124/Add/y", "shape": [512], "dtype": "float32"}, {"name": "1052", "shape": [3, 3, 512, 128], "dtype": "float32"}, {"name": "PartitionedCall/model_219/tf.math.add_128/Add/y", "shape": [128], "dtype": "float32"}, {"name": "1064", "shape": [3, 3, 128, 128], "dtype": "float32"}, {"name": "PartitionedCall/model_219/tf.math.add_132/Add/y", "shape": [128], "dtype": "float32"}, {"name": "1076", "shape": [1, 1, 128, 12], "dtype": "float32"}, {"name": "PartitionedCall/model_219/tf.math.add_136/Add/y", "shape": [12], "dtype": "float32"}, {"name": "PartitionedCall/model_219/tf.concat_30/concat/axis", "shape": [], "dtype": "int32"}, {"name": "PartitionedCall/model_219/tf.compat.v1.transpose_2/transpose/perm", "shape": [4], "dtype": "int32"}, {"name": "PartitionedCall/model_219/tf.reshape_4/Reshape/shape", "shape": [3], "dtype": "int32"}, {"name": "PartitionedCall/model_219/tf.concat_32/concat/axis", "shape": [], "dtype": "int32"}, {"name": "1108", "shape": [3], "dtype": "int32"}, {"name": "1110", "shape": [3], "dtype": "int32"}, {"name": "PartitionedCall/model_219/tf.strided_slice_17/StridedSlice/strides", "shape": [3], "dtype": "int32"}, {"name": "PartitionedCall/model_219/output0/concat/axis", "shape": [], "dtype": "int32"}]}]}