{"format": "graph-model", "generatedBy": "2.14.0", "convertedBy": "TensorFlow.js Converter v4.12.0", "signature": {"outputs": {"Identity:0": {"name": "Identity:0"}}}, "modelTopology": {"node": [{"name": "ConstantFolding/PartitionedCall/model/tf.math.divide/truediv_recip", "op": "Const", "attr": {"value": {"tensor": {"dtype": "DT_FLOAT", "tensorShape": {"dim": [{"size": "1"}, {"size": "1"}, {"size": "1"}]}}}, "dtype": {"type": "DT_FLOAT"}}}, {"name": "4788", "op": "Const", "attr": {"value": {"tensor": {"dtype": "DT_FLOAT", "tensorShape": {"dim": [{"size": "1"}, {"size": "2"}, {"size": "4725"}]}}}, "dtype": {"type": "DT_FLOAT"}}}, {"name": "4780", "op": "Const", "attr": {"dtype": {"type": "DT_INT64"}, "value": {"tensor": {"dtype": "DT_INT64", "tensorShape": {"dim": [{"size": "3"}]}}}}}, {"name": "4782", "op": "Const", "attr": {"value": {"tensor": {"dtype": "DT_INT64", "tensorShape": {"dim": [{"size": "3"}]}}}, "dtype": {"type": "DT_INT64"}}}, {"name": "PartitionedCall/model/tf.strided_slice_19/ones_like", "op": "Const", "attr": {"value": {"tensor": {"dtype": "DT_INT64", "tensorShape": {"dim": [{"size": "3"}]}}}, "dtype": {"type": "DT_INT64"}}}, {"name": "4790", "op": "Const", "attr": {"value": {"tensor": {"dtype": "DT_FLOAT", "tensorShape": {"dim": [{"size": "1"}, {"size": "2"}, {"size": "4725"}]}}}, "dtype": {"type": "DT_FLOAT"}}}, {"name": "4774", "op": "Const", "attr": {"dtype": {"type": "DT_INT64"}, "value": {"tensor": {"dtype": "DT_INT64", "tensorShape": {"dim": [{"size": "3"}]}}}}}, {"name": "4776", "op": "Const", "attr": {"dtype": {"type": "DT_INT64"}, "value": {"tensor": {"dtype": "DT_INT64", "tensorShape": {"dim": [{"size": "3"}]}}}}}, {"name": "PartitionedCall/model/tf.strided_slice_16/StridedSlice/strides", "op": "Const", "attr": {"dtype": {"type": "DT_INT64"}, "value": {"tensor": {"dtype": "DT_INT64", "tensorShape": {"dim": [{"size": "3"}]}}}}}, {"name": "PartitionedCall/model/tf.reshape_3/Reshape/shape", "op": "Const", "attr": {"dtype": {"type": "DT_INT32"}, "value": {"tensor": {"dtype": "DT_INT32", "tensorShape": {"dim": [{"size": "4"}]}}}}}, {"name": "PartitionedCall/model/tf.compat.v1.transpose_4/transpose/perm", "op": "Const", "attr": {"value": {"tensor": {"dtype": "DT_INT32", "tensorShape": {"dim": [{"size": "4"}]}}}, "dtype": {"type": "DT_INT32"}}}, {"name": "PartitionedCall/model/tf.compat.v1.transpose_5/transpose/perm", "op": "Const", "attr": {"value": {"tensor": {"dtype": "DT_INT32", "tensorShape": {"dim": [{"size": "4"}]}}}, "dtype": {"type": "DT_INT32"}}}, {"name": "4778", "op": "Const", "attr": {"dtype": {"type": "DT_FLOAT"}, "value": {"tensor": {"dtype": "DT_FLOAT", "tensorShape": {"dim": [{"size": "1"}, {"size": "1"}, {"size": "16"}, {"size": "1"}]}}}}}, {"name": "PartitionedCall/model/tf.compat.v1.transpose_8/transpose/perm", "op": "Const", "attr": {"value": {"tensor": {"dtype": "DT_INT32", "tensorShape": {"dim": [{"size": "4"}]}}}, "dtype": {"type": "DT_INT32"}}}, {"name": "PartitionedCall/model/tf.reshape_4/Reshape/shape", "op": "Const", "attr": {"value": {"tensor": {"dtype": "DT_INT32", "tensorShape": {"dim": [{"size": "3"}]}}}, "dtype": {"type": "DT_INT32"}}}, {"name": "4784", "op": "Const", "attr": {"value": {"tensor": {"dtype": "DT_INT64", "tensorShape": {"dim": [{"size": "3"}]}}}, "dtype": {"type": "DT_INT64"}}}, {"name": "4786", "op": "Const", "attr": {"value": {"tensor": {"dtype": "DT_INT64", "tensorShape": {"dim": [{"size": "3"}]}}}, "dtype": {"type": "DT_INT64"}}}, {"name": "PartitionedCall/model/tf.strided_slice_18/ones_like", "op": "Const", "attr": {"dtype": {"type": "DT_INT64"}, "value": {"tensor": {"dtype": "DT_INT64", "tensorShape": {"dim": [{"size": "3"}]}}}}}, {"name": "PartitionedCall/model/tf.concat_17/concat/axis", "op": "Const", "attr": {"dtype": {"type": "DT_INT32"}, "value": {"tensor": {"dtype": "DT_INT32", "tensorShape": {}}}}}, {"name": "PartitionedCall/model/tf.math.multiply_339/Mul/y", "op": "Const", "attr": {"value": {"tensor": {"dtype": "DT_FLOAT", "tensorShape": {"dim": [{"size": "1"}, {"size": "1"}, {"size": "4725"}]}}}, "dtype": {"type": "DT_FLOAT"}}}, {"name": "4712", "op": "Const", "attr": {"dtype": {"type": "DT_FLOAT"}, "value": {"tensor": {"dtype": "DT_FLOAT", "tensorShape": {"dim": [{"size": "3"}, {"size": "3"}, {"size": "256"}, {"size": "64"}]}}}}}, {"name": "4724", "op": "Const", "attr": {"value": {"tensor": {"dtype": "DT_FLOAT", "tensorShape": {"dim": [{"size": "64"}]}}}, "dtype": {"type": "DT_FLOAT"}}}, {"name": "4736", "op": "Const", "attr": {"dtype": {"type": "DT_FLOAT"}, "value": {"tensor": {"dtype": "DT_FLOAT", "tensorShape": {"dim": [{"size": "3"}, {"size": "3"}, {"size": "64"}, {"size": "64"}]}}}}}, {"name": "4748", "op": "Const", "attr": {"dtype": {"type": "DT_FLOAT"}, "value": {"tensor": {"dtype": "DT_FLOAT", "tensorShape": {"dim": [{"size": "64"}]}}}}}, {"name": "4760", "op": "Const", "attr": {"value": {"tensor": {"dtype": "DT_FLOAT", "tensorShape": {"dim": [{"size": "1"}, {"size": "1"}, {"size": "64"}, {"size": "64"}]}}}, "dtype": {"type": "DT_FLOAT"}}}, {"name": "4770", "op": "Const", "attr": {"dtype": {"type": "DT_FLOAT"}, "value": {"tensor": {"dtype": "DT_FLOAT", "tensorShape": {"dim": [{"size": "64"}]}}}}}, {"name": "4710", "op": "Const", "attr": {"value": {"tensor": {"dtype": "DT_FLOAT", "tensorShape": {"dim": [{"size": "3"}, {"size": "3"}, {"size": "256"}, {"size": "256"}]}}}, "dtype": {"type": "DT_FLOAT"}}}, {"name": "4722", "op": "Const", "attr": {"value": {"tensor": {"dtype": "DT_FLOAT", "tensorShape": {"dim": [{"size": "256"}]}}}, "dtype": {"type": "DT_FLOAT"}}}, {"name": "4734", "op": "Const", "attr": {"dtype": {"type": "DT_FLOAT"}, "value": {"tensor": {"dtype": "DT_FLOAT", "tensorShape": {"dim": [{"size": "3"}, {"size": "3"}, {"size": "256"}, {"size": "256"}]}}}}}, {"name": "4746", "op": "Const", "attr": {"value": {"tensor": {"dtype": "DT_FLOAT", "tensorShape": {"dim": [{"size": "256"}]}}}, "dtype": {"type": "DT_FLOAT"}}}, {"name": "4758", "op": "Const", "attr": {"value": {"tensor": {"dtype": "DT_FLOAT", "tensorShape": {"dim": [{"size": "1"}, {"size": "1"}, {"size": "256"}, {"size": "1"}]}}}, "dtype": {"type": "DT_FLOAT"}}}, {"name": "4772", "op": "Const", "attr": {"dtype": {"type": "DT_FLOAT"}, "value": {"tensor": {"dtype": "DT_FLOAT", "tensorShape": {"dim": [{"size": "1"}]}}}}}, {"name": "PartitionedCall/model/tf.concat_10/concat/axis", "op": "Const", "attr": {"value": {"tensor": {"dtype": "DT_INT32", "tensorShape": {}}}, "dtype": {"type": "DT_INT32"}}}, {"name": "PartitionedCall/model/tf.compat.v1.transpose/transpose/perm", "op": "Const", "attr": {"value": {"tensor": {"dtype": "DT_INT32", "tensorShape": {"dim": [{"size": "4"}]}}}, "dtype": {"type": "DT_INT32"}}}, {"name": "PartitionedCall/model/tf.reshape/Reshape/shape", "op": "Const", "attr": {"dtype": {"type": "DT_INT32"}, "value": {"tensor": {"dtype": "DT_INT32", "tensorShape": {"dim": [{"size": "3"}]}}}}}, {"name": "4708", "op": "Const", "attr": {"dtype": {"type": "DT_FLOAT"}, "value": {"tensor": {"dtype": "DT_FLOAT", "tensorShape": {"dim": [{"size": "3"}, {"size": "3"}, {"size": "512"}, {"size": "64"}]}}}}}, {"name": "4720", "op": "Const", "attr": {"value": {"tensor": {"dtype": "DT_FLOAT", "tensorShape": {"dim": [{"size": "64"}]}}}, "dtype": {"type": "DT_FLOAT"}}}, {"name": "4732", "op": "Const", "attr": {"value": {"tensor": {"dtype": "DT_FLOAT", "tensorShape": {"dim": [{"size": "3"}, {"size": "3"}, {"size": "64"}, {"size": "64"}]}}}, "dtype": {"type": "DT_FLOAT"}}}, {"name": "4744", "op": "Const", "attr": {"value": {"tensor": {"dtype": "DT_FLOAT", "tensorShape": {"dim": [{"size": "64"}]}}}, "dtype": {"type": "DT_FLOAT"}}}, {"name": "4756", "op": "Const", "attr": {"dtype": {"type": "DT_FLOAT"}, "value": {"tensor": {"dtype": "DT_FLOAT", "tensorShape": {"dim": [{"size": "1"}, {"size": "1"}, {"size": "64"}, {"size": "64"}]}}}}}, {"name": "4766", "op": "Const", "attr": {"value": {"tensor": {"dtype": "DT_FLOAT", "tensorShape": {"dim": [{"size": "64"}]}}}, "dtype": {"type": "DT_FLOAT"}}}, {"name": "4706", "op": "Const", "attr": {"dtype": {"type": "DT_FLOAT"}, "value": {"tensor": {"dtype": "DT_FLOAT", "tensorShape": {"dim": [{"size": "3"}, {"size": "3"}, {"size": "512"}, {"size": "256"}]}}}}}, {"name": "4718", "op": "Const", "attr": {"dtype": {"type": "DT_FLOAT"}, "value": {"tensor": {"dtype": "DT_FLOAT", "tensorShape": {"dim": [{"size": "256"}]}}}}}, {"name": "4730", "op": "Const", "attr": {"value": {"tensor": {"dtype": "DT_FLOAT", "tensorShape": {"dim": [{"size": "3"}, {"size": "3"}, {"size": "256"}, {"size": "256"}]}}}, "dtype": {"type": "DT_FLOAT"}}}, {"name": "4742", "op": "Const", "attr": {"value": {"tensor": {"dtype": "DT_FLOAT", "tensorShape": {"dim": [{"size": "256"}]}}}, "dtype": {"type": "DT_FLOAT"}}}, {"name": "4754", "op": "Const", "attr": {"dtype": {"type": "DT_FLOAT"}, "value": {"tensor": {"dtype": "DT_FLOAT", "tensorShape": {"dim": [{"size": "1"}, {"size": "1"}, {"size": "256"}, {"size": "1"}]}}}}}, {"name": "4768", "op": "Const", "attr": {"value": {"tensor": {"dtype": "DT_FLOAT", "tensorShape": {"dim": [{"size": "1"}]}}}, "dtype": {"type": "DT_FLOAT"}}}, {"name": "PartitionedCall/model/tf.concat_13/concat/axis", "op": "Const", "attr": {"dtype": {"type": "DT_INT32"}, "value": {"tensor": {"dtype": "DT_INT32", "tensorShape": {}}}}}, {"name": "PartitionedCall/model/tf.compat.v1.transpose_1/transpose/perm", "op": "Const", "attr": {"value": {"tensor": {"dtype": "DT_INT32", "tensorShape": {"dim": [{"size": "4"}]}}}, "dtype": {"type": "DT_INT32"}}}, {"name": "PartitionedCall/model/tf.reshape_1/Reshape/shape", "op": "Const", "attr": {"value": {"tensor": {"dtype": "DT_INT32", "tensorShape": {"dim": [{"size": "3"}]}}}, "dtype": {"type": "DT_INT32"}}}, {"name": "4704", "op": "Const", "attr": {"value": {"tensor": {"dtype": "DT_FLOAT", "tensorShape": {"dim": [{"size": "3"}, {"size": "3"}, {"size": "512"}, {"size": "64"}]}}}, "dtype": {"type": "DT_FLOAT"}}}, {"name": "4716", "op": "Const", "attr": {"value": {"tensor": {"dtype": "DT_FLOAT", "tensorShape": {"dim": [{"size": "64"}]}}}, "dtype": {"type": "DT_FLOAT"}}}, {"name": "4728", "op": "Const", "attr": {"dtype": {"type": "DT_FLOAT"}, "value": {"tensor": {"dtype": "DT_FLOAT", "tensorShape": {"dim": [{"size": "3"}, {"size": "3"}, {"size": "64"}, {"size": "64"}]}}}}}, {"name": "4740", "op": "Const", "attr": {"value": {"tensor": {"dtype": "DT_FLOAT", "tensorShape": {"dim": [{"size": "64"}]}}}, "dtype": {"type": "DT_FLOAT"}}}, {"name": "4752", "op": "Const", "attr": {"value": {"tensor": {"dtype": "DT_FLOAT", "tensorShape": {"dim": [{"size": "1"}, {"size": "1"}, {"size": "64"}, {"size": "64"}]}}}, "dtype": {"type": "DT_FLOAT"}}}, {"name": "4762", "op": "Const", "attr": {"value": {"tensor": {"dtype": "DT_FLOAT", "tensorShape": {"dim": [{"size": "64"}]}}}, "dtype": {"type": "DT_FLOAT"}}}, {"name": "4694", "op": "Const", "attr": {"value": {"tensor": {"dtype": "DT_INT64", "tensorShape": {"dim": [{"size": "4"}]}}}, "dtype": {"type": "DT_INT64"}}}, {"name": "4696", "op": "Const", "attr": {"dtype": {"type": "DT_INT64"}, "value": {"tensor": {"dtype": "DT_INT64", "tensorShape": {"dim": [{"size": "4"}]}}}}}, {"name": "PartitionedCall/model/tf.strided_slice_14/ones_like", "op": "Const", "attr": {"dtype": {"type": "DT_INT64"}, "value": {"tensor": {"dtype": "DT_INT64", "tensorShape": {"dim": [{"size": "4"}]}}}}}, {"name": "4648", "op": "Const", "attr": {"dtype": {"type": "DT_INT64"}, "value": {"tensor": {"dtype": "DT_INT64", "tensorShape": {"dim": [{"size": "4"}]}}}}}, {"name": "4650", "op": "Const", "attr": {"dtype": {"type": "DT_INT64"}, "value": {"tensor": {"dtype": "DT_INT64", "tensorShape": {"dim": [{"size": "4"}]}}}}}, {"name": "PartitionedCall/model/tf.strided_slice_12/ones_like", "op": "Const", "attr": {"value": {"tensor": {"dtype": "DT_INT64", "tensorShape": {"dim": [{"size": "4"}]}}}, "dtype": {"type": "DT_INT64"}}}, {"name": "4602", "op": "Const", "attr": {"dtype": {"type": "DT_INT64"}, "value": {"tensor": {"dtype": "DT_INT64", "tensorShape": {"dim": [{"size": "4"}]}}}}}, {"name": "4604", "op": "Const", "attr": {"value": {"tensor": {"dtype": "DT_INT64", "tensorShape": {"dim": [{"size": "4"}]}}}, "dtype": {"type": "DT_INT64"}}}, {"name": "PartitionedCall/model/tf.strided_slice_10/ones_like", "op": "Const", "attr": {"value": {"tensor": {"dtype": "DT_INT64", "tensorShape": {"dim": [{"size": "4"}]}}}, "dtype": {"type": "DT_INT64"}}}, {"name": "PartitionedCall/model/lambda_1//model.13/Resize/size", "op": "Const", "attr": {"dtype": {"type": "DT_INT32"}, "value": {"tensor": {"dtype": "DT_INT32", "tensorShape": {"dim": [{"size": "2"}]}}}}}, {"name": "PartitionedCall/model/tf.concat_7/concat/axis", "op": "Const", "attr": {"dtype": {"type": "DT_INT32"}, "value": {"tensor": {"dtype": "DT_INT32", "tensorShape": {}}}}}, {"name": "4570", "op": "Const", "attr": {"dtype": {"type": "DT_FLOAT"}, "value": {"tensor": {"dtype": "DT_FLOAT", "tensorShape": {"dim": [{"size": "1"}, {"size": "1"}, {"size": "768"}, {"size": "256"}]}}}}}, {"name": "4572", "op": "Const", "attr": {"value": {"tensor": {"dtype": "DT_FLOAT", "tensorShape": {"dim": [{"size": "256"}]}}}, "dtype": {"type": "DT_FLOAT"}}}, {"name": "4574", "op": "Const", "attr": {"dtype": {"type": "DT_INT64"}, "value": {"tensor": {"dtype": "DT_INT64", "tensorShape": {"dim": [{"size": "4"}]}}}}}, {"name": "4576", "op": "Const", "attr": {"value": {"tensor": {"dtype": "DT_INT64", "tensorShape": {"dim": [{"size": "4"}]}}}, "dtype": {"type": "DT_INT64"}}}, {"name": "PartitionedCall/model/tf.strided_slice_11/ones_like", "op": "Const", "attr": {"dtype": {"type": "DT_INT64"}, "value": {"tensor": {"dtype": "DT_INT64", "tensorShape": {"dim": [{"size": "4"}]}}}}}, {"name": "4578", "op": "Const", "attr": {"value": {"tensor": {"dtype": "DT_FLOAT", "tensorShape": {"dim": [{"size": "3"}, {"size": "3"}, {"size": "128"}, {"size": "128"}]}}}, "dtype": {"type": "DT_FLOAT"}}}, {"name": "4580", "op": "Const", "attr": {"dtype": {"type": "DT_FLOAT"}, "value": {"tensor": {"dtype": "DT_FLOAT", "tensorShape": {"dim": [{"size": "128"}]}}}}}, {"name": "4582", "op": "Const", "attr": {"dtype": {"type": "DT_FLOAT"}, "value": {"tensor": {"dtype": "DT_FLOAT", "tensorShape": {"dim": [{"size": "3"}, {"size": "3"}, {"size": "128"}, {"size": "128"}]}}}}}, {"name": "4584", "op": "Const", "attr": {"value": {"tensor": {"dtype": "DT_FLOAT", "tensorShape": {"dim": [{"size": "128"}]}}}, "dtype": {"type": "DT_FLOAT"}}}, {"name": "4586", "op": "Const", "attr": {"dtype": {"type": "DT_FLOAT"}, "value": {"tensor": {"dtype": "DT_FLOAT", "tensorShape": {"dim": [{"size": "3"}, {"size": "3"}, {"size": "128"}, {"size": "128"}]}}}}}, {"name": "4588", "op": "Const", "attr": {"value": {"tensor": {"dtype": "DT_FLOAT", "tensorShape": {"dim": [{"size": "128"}]}}}, "dtype": {"type": "DT_FLOAT"}}}, {"name": "4590", "op": "Const", "attr": {"dtype": {"type": "DT_FLOAT"}, "value": {"tensor": {"dtype": "DT_FLOAT", "tensorShape": {"dim": [{"size": "3"}, {"size": "3"}, {"size": "128"}, {"size": "128"}]}}}}}, {"name": "4592", "op": "Const", "attr": {"dtype": {"type": "DT_FLOAT"}, "value": {"tensor": {"dtype": "DT_FLOAT", "tensorShape": {"dim": [{"size": "128"}]}}}}}, {"name": "4594", "op": "Const", "attr": {"value": {"tensor": {"dtype": "DT_FLOAT", "tensorShape": {"dim": [{"size": "3"}, {"size": "3"}, {"size": "128"}, {"size": "128"}]}}}, "dtype": {"type": "DT_FLOAT"}}}, {"name": "4596", "op": "Const", "attr": {"value": {"tensor": {"dtype": "DT_FLOAT", "tensorShape": {"dim": [{"size": "128"}]}}}, "dtype": {"type": "DT_FLOAT"}}}, {"name": "4598", "op": "Const", "attr": {"dtype": {"type": "DT_FLOAT"}, "value": {"tensor": {"dtype": "DT_FLOAT", "tensorShape": {"dim": [{"size": "3"}, {"size": "3"}, {"size": "128"}, {"size": "128"}]}}}}}, {"name": "4600", "op": "Const", "attr": {"value": {"tensor": {"dtype": "DT_FLOAT", "tensorShape": {"dim": [{"size": "128"}]}}}, "dtype": {"type": "DT_FLOAT"}}}, {"name": "PartitionedCall/model/tf.concat_8/concat/axis", "op": "Const", "attr": {"value": {"tensor": {"dtype": "DT_INT32", "tensorShape": {}}}, "dtype": {"type": "DT_INT32"}}}, {"name": "4606", "op": "Const", "attr": {"dtype": {"type": "DT_FLOAT"}, "value": {"tensor": {"dtype": "DT_FLOAT", "tensorShape": {"dim": [{"size": "1"}, {"size": "1"}, {"size": "640"}, {"size": "256"}]}}}}}, {"name": "4608", "op": "Const", "attr": {"dtype": {"type": "DT_FLOAT"}, "value": {"tensor": {"dtype": "DT_FLOAT", "tensorShape": {"dim": [{"size": "256"}]}}}}}, {"name": "4610", "op": "Const", "attr": {"value": {"tensor": {"dtype": "DT_INT32", "tensorShape": {"dim": [{"size": "4"}, {"size": "2"}]}}}, "dtype": {"type": "DT_INT32"}}}, {"name": "4612", "op": "Const", "attr": {"dtype": {"type": "DT_FLOAT"}, "value": {"tensor": {"dtype": "DT_FLOAT", "tensorShape": {"dim": [{"size": "3"}, {"size": "3"}, {"size": "256"}, {"size": "256"}]}}}}}, {"name": "4614", "op": "Const", "attr": {"dtype": {"type": "DT_FLOAT"}, "value": {"tensor": {"dtype": "DT_FLOAT", "tensorShape": {"dim": [{"size": "256"}]}}}}}, {"name": "4562", "op": "Const", "attr": {"dtype": {"type": "DT_INT64"}, "value": {"tensor": {"dtype": "DT_INT64", "tensorShape": {"dim": [{"size": "4"}]}}}}}, {"name": "4564", "op": "Const", "attr": {"dtype": {"type": "DT_INT64"}, "value": {"tensor": {"dtype": "DT_INT64", "tensorShape": {"dim": [{"size": "4"}]}}}}}, {"name": "PartitionedCall/model/tf.strided_slice_8/ones_like", "op": "Const", "attr": {"dtype": {"type": "DT_INT64"}, "value": {"tensor": {"dtype": "DT_INT64", "tensorShape": {"dim": [{"size": "4"}]}}}}}, {"name": "PartitionedCall/model/lambda//model.10/Resize/size", "op": "Const", "attr": {"dtype": {"type": "DT_INT32"}, "value": {"tensor": {"dtype": "DT_INT32", "tensorShape": {"dim": [{"size": "2"}]}}}}}, {"name": "PartitionedCall/model/tf.concat_5/concat/axis", "op": "Const", "attr": {"dtype": {"type": "DT_INT32"}, "value": {"tensor": {"dtype": "DT_INT32", "tensorShape": {}}}}}, {"name": "4530", "op": "Const", "attr": {"dtype": {"type": "DT_FLOAT"}, "value": {"tensor": {"dtype": "DT_FLOAT", "tensorShape": {"dim": [{"size": "1"}, {"size": "1"}, {"size": "1024"}, {"size": "512"}]}}}}}, {"name": "4532", "op": "Const", "attr": {"value": {"tensor": {"dtype": "DT_FLOAT", "tensorShape": {"dim": [{"size": "512"}]}}}, "dtype": {"type": "DT_FLOAT"}}}, {"name": "4534", "op": "Const", "attr": {"dtype": {"type": "DT_INT64"}, "value": {"tensor": {"dtype": "DT_INT64", "tensorShape": {"dim": [{"size": "4"}]}}}}}, {"name": "4536", "op": "Const", "attr": {"dtype": {"type": "DT_INT64"}, "value": {"tensor": {"dtype": "DT_INT64", "tensorShape": {"dim": [{"size": "4"}]}}}}}, {"name": "PartitionedCall/model/tf.strided_slice_9/ones_like", "op": "Const", "attr": {"dtype": {"type": "DT_INT64"}, "value": {"tensor": {"dtype": "DT_INT64", "tensorShape": {"dim": [{"size": "4"}]}}}}}, {"name": "4538", "op": "Const", "attr": {"value": {"tensor": {"dtype": "DT_FLOAT", "tensorShape": {"dim": [{"size": "3"}, {"size": "3"}, {"size": "256"}, {"size": "256"}]}}}, "dtype": {"type": "DT_FLOAT"}}}, {"name": "4540", "op": "Const", "attr": {"value": {"tensor": {"dtype": "DT_FLOAT", "tensorShape": {"dim": [{"size": "256"}]}}}, "dtype": {"type": "DT_FLOAT"}}}, {"name": "4542", "op": "Const", "attr": {"dtype": {"type": "DT_FLOAT"}, "value": {"tensor": {"dtype": "DT_FLOAT", "tensorShape": {"dim": [{"size": "3"}, {"size": "3"}, {"size": "256"}, {"size": "256"}]}}}}}, {"name": "4544", "op": "Const", "attr": {"value": {"tensor": {"dtype": "DT_FLOAT", "tensorShape": {"dim": [{"size": "256"}]}}}, "dtype": {"type": "DT_FLOAT"}}}, {"name": "4546", "op": "Const", "attr": {"dtype": {"type": "DT_FLOAT"}, "value": {"tensor": {"dtype": "DT_FLOAT", "tensorShape": {"dim": [{"size": "3"}, {"size": "3"}, {"size": "256"}, {"size": "256"}]}}}}}, {"name": "4548", "op": "Const", "attr": {"value": {"tensor": {"dtype": "DT_FLOAT", "tensorShape": {"dim": [{"size": "256"}]}}}, "dtype": {"type": "DT_FLOAT"}}}, {"name": "4550", "op": "Const", "attr": {"dtype": {"type": "DT_FLOAT"}, "value": {"tensor": {"dtype": "DT_FLOAT", "tensorShape": {"dim": [{"size": "3"}, {"size": "3"}, {"size": "256"}, {"size": "256"}]}}}}}, {"name": "4552", "op": "Const", "attr": {"value": {"tensor": {"dtype": "DT_FLOAT", "tensorShape": {"dim": [{"size": "256"}]}}}, "dtype": {"type": "DT_FLOAT"}}}, {"name": "4554", "op": "Const", "attr": {"dtype": {"type": "DT_FLOAT"}, "value": {"tensor": {"dtype": "DT_FLOAT", "tensorShape": {"dim": [{"size": "3"}, {"size": "3"}, {"size": "256"}, {"size": "256"}]}}}}}, {"name": "4556", "op": "Const", "attr": {"value": {"tensor": {"dtype": "DT_FLOAT", "tensorShape": {"dim": [{"size": "256"}]}}}, "dtype": {"type": "DT_FLOAT"}}}, {"name": "4558", "op": "Const", "attr": {"dtype": {"type": "DT_FLOAT"}, "value": {"tensor": {"dtype": "DT_FLOAT", "tensorShape": {"dim": [{"size": "3"}, {"size": "3"}, {"size": "256"}, {"size": "256"}]}}}}}, {"name": "4560", "op": "Const", "attr": {"dtype": {"type": "DT_FLOAT"}, "value": {"tensor": {"dtype": "DT_FLOAT", "tensorShape": {"dim": [{"size": "256"}]}}}}}, {"name": "PartitionedCall/model/tf.concat_6/concat/axis", "op": "Const", "attr": {"dtype": {"type": "DT_INT32"}, "value": {"tensor": {"dtype": "DT_INT32", "tensorShape": {}}}}}, {"name": "4566", "op": "Const", "attr": {"dtype": {"type": "DT_FLOAT"}, "value": {"tensor": {"dtype": "DT_FLOAT", "tensorShape": {"dim": [{"size": "1"}, {"size": "1"}, {"size": "1280"}, {"size": "512"}]}}}}}, {"name": "4568", "op": "Const", "attr": {"value": {"tensor": {"dtype": "DT_FLOAT", "tensorShape": {"dim": [{"size": "512"}]}}}, "dtype": {"type": "DT_FLOAT"}}}, {"name": "PartitionedCall/model/tf.concat_9/concat/axis", "op": "Const", "attr": {"value": {"tensor": {"dtype": "DT_INT32", "tensorShape": {}}}, "dtype": {"type": "DT_INT32"}}}, {"name": "4616", "op": "Const", "attr": {"dtype": {"type": "DT_FLOAT"}, "value": {"tensor": {"dtype": "DT_FLOAT", "tensorShape": {"dim": [{"size": "1"}, {"size": "1"}, {"size": "768"}, {"size": "512"}]}}}}}, {"name": "4618", "op": "Const", "attr": {"value": {"tensor": {"dtype": "DT_FLOAT", "tensorShape": {"dim": [{"size": "512"}]}}}, "dtype": {"type": "DT_FLOAT"}}}, {"name": "4620", "op": "Const", "attr": {"value": {"tensor": {"dtype": "DT_INT64", "tensorShape": {"dim": [{"size": "4"}]}}}, "dtype": {"type": "DT_INT64"}}}, {"name": "4622", "op": "Const", "attr": {"dtype": {"type": "DT_INT64"}, "value": {"tensor": {"dtype": "DT_INT64", "tensorShape": {"dim": [{"size": "4"}]}}}}}, {"name": "PartitionedCall/model/tf.strided_slice_13/ones_like", "op": "Const", "attr": {"value": {"tensor": {"dtype": "DT_INT64", "tensorShape": {"dim": [{"size": "4"}]}}}, "dtype": {"type": "DT_INT64"}}}, {"name": "4624", "op": "Const", "attr": {"dtype": {"type": "DT_FLOAT"}, "value": {"tensor": {"dtype": "DT_FLOAT", "tensorShape": {"dim": [{"size": "3"}, {"size": "3"}, {"size": "256"}, {"size": "256"}]}}}}}, {"name": "4626", "op": "Const", "attr": {"dtype": {"type": "DT_FLOAT"}, "value": {"tensor": {"dtype": "DT_FLOAT", "tensorShape": {"dim": [{"size": "256"}]}}}}}, {"name": "4628", "op": "Const", "attr": {"dtype": {"type": "DT_FLOAT"}, "value": {"tensor": {"dtype": "DT_FLOAT", "tensorShape": {"dim": [{"size": "3"}, {"size": "3"}, {"size": "256"}, {"size": "256"}]}}}}}, {"name": "4630", "op": "Const", "attr": {"dtype": {"type": "DT_FLOAT"}, "value": {"tensor": {"dtype": "DT_FLOAT", "tensorShape": {"dim": [{"size": "256"}]}}}}}, {"name": "4632", "op": "Const", "attr": {"dtype": {"type": "DT_FLOAT"}, "value": {"tensor": {"dtype": "DT_FLOAT", "tensorShape": {"dim": [{"size": "3"}, {"size": "3"}, {"size": "256"}, {"size": "256"}]}}}}}, {"name": "4634", "op": "Const", "attr": {"dtype": {"type": "DT_FLOAT"}, "value": {"tensor": {"dtype": "DT_FLOAT", "tensorShape": {"dim": [{"size": "256"}]}}}}}, {"name": "4636", "op": "Const", "attr": {"value": {"tensor": {"dtype": "DT_FLOAT", "tensorShape": {"dim": [{"size": "3"}, {"size": "3"}, {"size": "256"}, {"size": "256"}]}}}, "dtype": {"type": "DT_FLOAT"}}}, {"name": "4638", "op": "Const", "attr": {"value": {"tensor": {"dtype": "DT_FLOAT", "tensorShape": {"dim": [{"size": "256"}]}}}, "dtype": {"type": "DT_FLOAT"}}}, {"name": "4640", "op": "Const", "attr": {"dtype": {"type": "DT_FLOAT"}, "value": {"tensor": {"dtype": "DT_FLOAT", "tensorShape": {"dim": [{"size": "3"}, {"size": "3"}, {"size": "256"}, {"size": "256"}]}}}}}, {"name": "4642", "op": "Const", "attr": {"dtype": {"type": "DT_FLOAT"}, "value": {"tensor": {"dtype": "DT_FLOAT", "tensorShape": {"dim": [{"size": "256"}]}}}}}, {"name": "4644", "op": "Const", "attr": {"value": {"tensor": {"dtype": "DT_FLOAT", "tensorShape": {"dim": [{"size": "3"}, {"size": "3"}, {"size": "256"}, {"size": "256"}]}}}, "dtype": {"type": "DT_FLOAT"}}}, {"name": "4646", "op": "Const", "attr": {"value": {"tensor": {"dtype": "DT_FLOAT", "tensorShape": {"dim": [{"size": "256"}]}}}, "dtype": {"type": "DT_FLOAT"}}}, {"name": "PartitionedCall/model/tf.concat_11/concat/axis", "op": "Const", "attr": {"dtype": {"type": "DT_INT32"}, "value": {"tensor": {"dtype": "DT_INT32", "tensorShape": {}}}}}, {"name": "4652", "op": "Const", "attr": {"dtype": {"type": "DT_FLOAT"}, "value": {"tensor": {"dtype": "DT_FLOAT", "tensorShape": {"dim": [{"size": "1"}, {"size": "1"}, {"size": "1280"}, {"size": "512"}]}}}}}, {"name": "4654", "op": "Const", "attr": {"value": {"tensor": {"dtype": "DT_FLOAT", "tensorShape": {"dim": [{"size": "512"}]}}}, "dtype": {"type": "DT_FLOAT"}}}, {"name": "4656", "op": "Const", "attr": {"value": {"tensor": {"dtype": "DT_INT32", "tensorShape": {"dim": [{"size": "4"}, {"size": "2"}]}}}, "dtype": {"type": "DT_INT32"}}}, {"name": "4658", "op": "Const", "attr": {"value": {"tensor": {"dtype": "DT_FLOAT", "tensorShape": {"dim": [{"size": "3"}, {"size": "3"}, {"size": "512"}, {"size": "512"}]}}}, "dtype": {"type": "DT_FLOAT"}}}, {"name": "4660", "op": "Const", "attr": {"dtype": {"type": "DT_FLOAT"}, "value": {"tensor": {"dtype": "DT_FLOAT", "tensorShape": {"dim": [{"size": "512"}]}}}}}, {"name": "4514", "op": "Const", "attr": {"dtype": {"type": "DT_INT64"}, "value": {"tensor": {"dtype": "DT_INT64", "tensorShape": {"dim": [{"size": "4"}]}}}}}, {"name": "4516", "op": "Const", "attr": {"dtype": {"type": "DT_INT64"}, "value": {"tensor": {"dtype": "DT_INT64", "tensorShape": {"dim": [{"size": "4"}]}}}}}, {"name": "PartitionedCall/model/tf.strided_slice_6/ones_like", "op": "Const", "attr": {"value": {"tensor": {"dtype": "DT_INT64", "tensorShape": {"dim": [{"size": "4"}]}}}, "dtype": {"type": "DT_INT64"}}}, {"name": "4468", "op": "Const", "attr": {"dtype": {"type": "DT_INT64"}, "value": {"tensor": {"dtype": "DT_INT64", "tensorShape": {"dim": [{"size": "4"}]}}}}}, {"name": "4470", "op": "Const", "attr": {"dtype": {"type": "DT_INT64"}, "value": {"tensor": {"dtype": "DT_INT64", "tensorShape": {"dim": [{"size": "4"}]}}}}}, {"name": "PartitionedCall/model/tf.strided_slice_4/ones_like", "op": "Const", "attr": {"dtype": {"type": "DT_INT64"}, "value": {"tensor": {"dtype": "DT_INT64", "tensorShape": {"dim": [{"size": "4"}]}}}}}, {"name": "4398", "op": "Const", "attr": {"value": {"tensor": {"dtype": "DT_INT64", "tensorShape": {"dim": [{"size": "4"}]}}}, "dtype": {"type": "DT_INT64"}}}, {"name": "4400", "op": "Const", "attr": {"dtype": {"type": "DT_INT64"}, "value": {"tensor": {"dtype": "DT_INT64", "tensorShape": {"dim": [{"size": "4"}]}}}}}, {"name": "PartitionedCall/model/tf.strided_slice_2/ones_like", "op": "Const", "attr": {"dtype": {"type": "DT_INT64"}, "value": {"tensor": {"dtype": "DT_INT64", "tensorShape": {"dim": [{"size": "4"}]}}}}}, {"name": "4328", "op": "Const", "attr": {"value": {"tensor": {"dtype": "DT_INT64", "tensorShape": {"dim": [{"size": "4"}]}}}, "dtype": {"type": "DT_INT64"}}}, {"name": "4330", "op": "Const", "attr": {"dtype": {"type": "DT_INT64"}, "value": {"tensor": {"dtype": "DT_INT64", "tensorShape": {"dim": [{"size": "4"}]}}}}}, {"name": "PartitionedCall/model/tf.strided_slice/ones_like", "op": "Const", "attr": {"value": {"tensor": {"dtype": "DT_INT64", "tensorShape": {"dim": [{"size": "4"}]}}}, "dtype": {"type": "DT_INT64"}}}, {"name": "4284", "op": "Const", "attr": {"value": {"tensor": {"dtype": "DT_INT32", "tensorShape": {"dim": [{"size": "4"}, {"size": "2"}]}}}, "dtype": {"type": "DT_INT32"}}}, {"name": "4286", "op": "Const", "attr": {"value": {"tensor": {"dtype": "DT_FLOAT", "tensorShape": {"dim": [{"size": "3"}, {"size": "3"}, {"size": "3"}, {"size": "64"}]}}}, "dtype": {"type": "DT_FLOAT"}}}, {"name": "4288", "op": "Const", "attr": {"value": {"tensor": {"dtype": "DT_FLOAT", "tensorShape": {"dim": [{"size": "64"}]}}}, "dtype": {"type": "DT_FLOAT"}}}, {"name": "4290", "op": "Const", "attr": {"value": {"tensor": {"dtype": "DT_INT32", "tensorShape": {"dim": [{"size": "4"}, {"size": "2"}]}}}, "dtype": {"type": "DT_INT32"}}}, {"name": "4292", "op": "Const", "attr": {"value": {"tensor": {"dtype": "DT_FLOAT", "tensorShape": {"dim": [{"size": "3"}, {"size": "3"}, {"size": "64"}, {"size": "128"}]}}}, "dtype": {"type": "DT_FLOAT"}}}, {"name": "4294", "op": "Const", "attr": {"value": {"tensor": {"dtype": "DT_FLOAT", "tensorShape": {"dim": [{"size": "128"}]}}}, "dtype": {"type": "DT_FLOAT"}}}, {"name": "4296", "op": "Const", "attr": {"value": {"tensor": {"dtype": "DT_FLOAT", "tensorShape": {"dim": [{"size": "1"}, {"size": "1"}, {"size": "128"}, {"size": "128"}]}}}, "dtype": {"type": "DT_FLOAT"}}}, {"name": "4298", "op": "Const", "attr": {"dtype": {"type": "DT_FLOAT"}, "value": {"tensor": {"dtype": "DT_FLOAT", "tensorShape": {"dim": [{"size": "128"}]}}}}}, {"name": "4300", "op": "Const", "attr": {"dtype": {"type": "DT_INT64"}, "value": {"tensor": {"dtype": "DT_INT64", "tensorShape": {"dim": [{"size": "4"}]}}}}}, {"name": "4302", "op": "Const", "attr": {"dtype": {"type": "DT_INT64"}, "value": {"tensor": {"dtype": "DT_INT64", "tensorShape": {"dim": [{"size": "4"}]}}}}}, {"name": "PartitionedCall/model/tf.strided_slice_1/ones_like", "op": "Const", "attr": {"value": {"tensor": {"dtype": "DT_INT64", "tensorShape": {"dim": [{"size": "4"}]}}}, "dtype": {"type": "DT_INT64"}}}, {"name": "4304", "op": "Const", "attr": {"value": {"tensor": {"dtype": "DT_FLOAT", "tensorShape": {"dim": [{"size": "3"}, {"size": "3"}, {"size": "64"}, {"size": "64"}]}}}, "dtype": {"type": "DT_FLOAT"}}}, {"name": "4306", "op": "Const", "attr": {"dtype": {"type": "DT_FLOAT"}, "value": {"tensor": {"dtype": "DT_FLOAT", "tensorShape": {"dim": [{"size": "64"}]}}}}}, {"name": "4308", "op": "Const", "attr": {"dtype": {"type": "DT_FLOAT"}, "value": {"tensor": {"dtype": "DT_FLOAT", "tensorShape": {"dim": [{"size": "3"}, {"size": "3"}, {"size": "64"}, {"size": "64"}]}}}}}, {"name": "4310", "op": "Const", "attr": {"dtype": {"type": "DT_FLOAT"}, "value": {"tensor": {"dtype": "DT_FLOAT", "tensorShape": {"dim": [{"size": "64"}]}}}}}, {"name": "4312", "op": "Const", "attr": {"dtype": {"type": "DT_FLOAT"}, "value": {"tensor": {"dtype": "DT_FLOAT", "tensorShape": {"dim": [{"size": "3"}, {"size": "3"}, {"size": "64"}, {"size": "64"}]}}}}}, {"name": "4314", "op": "Const", "attr": {"value": {"tensor": {"dtype": "DT_FLOAT", "tensorShape": {"dim": [{"size": "64"}]}}}, "dtype": {"type": "DT_FLOAT"}}}, {"name": "4316", "op": "Const", "attr": {"dtype": {"type": "DT_FLOAT"}, "value": {"tensor": {"dtype": "DT_FLOAT", "tensorShape": {"dim": [{"size": "3"}, {"size": "3"}, {"size": "64"}, {"size": "64"}]}}}}}, {"name": "4318", "op": "Const", "attr": {"dtype": {"type": "DT_FLOAT"}, "value": {"tensor": {"dtype": "DT_FLOAT", "tensorShape": {"dim": [{"size": "64"}]}}}}}, {"name": "4320", "op": "Const", "attr": {"dtype": {"type": "DT_FLOAT"}, "value": {"tensor": {"dtype": "DT_FLOAT", "tensorShape": {"dim": [{"size": "3"}, {"size": "3"}, {"size": "64"}, {"size": "64"}]}}}}}, {"name": "4322", "op": "Const", "attr": {"dtype": {"type": "DT_FLOAT"}, "value": {"tensor": {"dtype": "DT_FLOAT", "tensorShape": {"dim": [{"size": "64"}]}}}}}, {"name": "4324", "op": "Const", "attr": {"dtype": {"type": "DT_FLOAT"}, "value": {"tensor": {"dtype": "DT_FLOAT", "tensorShape": {"dim": [{"size": "3"}, {"size": "3"}, {"size": "64"}, {"size": "64"}]}}}}}, {"name": "4326", "op": "Const", "attr": {"value": {"tensor": {"dtype": "DT_FLOAT", "tensorShape": {"dim": [{"size": "64"}]}}}, "dtype": {"type": "DT_FLOAT"}}}, {"name": "PartitionedCall/model/tf.concat/concat/axis", "op": "Const", "attr": {"dtype": {"type": "DT_INT32"}, "value": {"tensor": {"dtype": "DT_INT32", "tensorShape": {}}}}}, {"name": "4332", "op": "Const", "attr": {"value": {"tensor": {"dtype": "DT_FLOAT", "tensorShape": {"dim": [{"size": "1"}, {"size": "1"}, {"size": "320"}, {"size": "128"}]}}}, "dtype": {"type": "DT_FLOAT"}}}, {"name": "4334", "op": "Const", "attr": {"dtype": {"type": "DT_FLOAT"}, "value": {"tensor": {"dtype": "DT_FLOAT", "tensorShape": {"dim": [{"size": "128"}]}}}}}, {"name": "4336", "op": "Const", "attr": {"value": {"tensor": {"dtype": "DT_INT32", "tensorShape": {"dim": [{"size": "4"}, {"size": "2"}]}}}, "dtype": {"type": "DT_INT32"}}}, {"name": "4338", "op": "Const", "attr": {"dtype": {"type": "DT_FLOAT"}, "value": {"tensor": {"dtype": "DT_FLOAT", "tensorShape": {"dim": [{"size": "3"}, {"size": "3"}, {"size": "128"}, {"size": "256"}]}}}}}, {"name": "4340", "op": "Const", "attr": {"value": {"tensor": {"dtype": "DT_FLOAT", "tensorShape": {"dim": [{"size": "256"}]}}}, "dtype": {"type": "DT_FLOAT"}}}, {"name": "4342", "op": "Const", "attr": {"value": {"tensor": {"dtype": "DT_FLOAT", "tensorShape": {"dim": [{"size": "1"}, {"size": "1"}, {"size": "256"}, {"size": "256"}]}}}, "dtype": {"type": "DT_FLOAT"}}}, {"name": "4344", "op": "Const", "attr": {"dtype": {"type": "DT_FLOAT"}, "value": {"tensor": {"dtype": "DT_FLOAT", "tensorShape": {"dim": [{"size": "256"}]}}}}}, {"name": "4346", "op": "Const", "attr": {"dtype": {"type": "DT_INT64"}, "value": {"tensor": {"dtype": "DT_INT64", "tensorShape": {"dim": [{"size": "4"}]}}}}}, {"name": "4348", "op": "Const", "attr": {"dtype": {"type": "DT_INT64"}, "value": {"tensor": {"dtype": "DT_INT64", "tensorShape": {"dim": [{"size": "4"}]}}}}}, {"name": "PartitionedCall/model/tf.strided_slice_3/ones_like", "op": "Const", "attr": {"value": {"tensor": {"dtype": "DT_INT64", "tensorShape": {"dim": [{"size": "4"}]}}}, "dtype": {"type": "DT_INT64"}}}, {"name": "4350", "op": "Const", "attr": {"value": {"tensor": {"dtype": "DT_FLOAT", "tensorShape": {"dim": [{"size": "3"}, {"size": "3"}, {"size": "128"}, {"size": "128"}]}}}, "dtype": {"type": "DT_FLOAT"}}}, {"name": "4352", "op": "Const", "attr": {"value": {"tensor": {"dtype": "DT_FLOAT", "tensorShape": {"dim": [{"size": "128"}]}}}, "dtype": {"type": "DT_FLOAT"}}}, {"name": "4354", "op": "Const", "attr": {"value": {"tensor": {"dtype": "DT_FLOAT", "tensorShape": {"dim": [{"size": "3"}, {"size": "3"}, {"size": "128"}, {"size": "128"}]}}}, "dtype": {"type": "DT_FLOAT"}}}, {"name": "4356", "op": "Const", "attr": {"value": {"tensor": {"dtype": "DT_FLOAT", "tensorShape": {"dim": [{"size": "128"}]}}}, "dtype": {"type": "DT_FLOAT"}}}, {"name": "4358", "op": "Const", "attr": {"dtype": {"type": "DT_FLOAT"}, "value": {"tensor": {"dtype": "DT_FLOAT", "tensorShape": {"dim": [{"size": "3"}, {"size": "3"}, {"size": "128"}, {"size": "128"}]}}}}}, {"name": "4360", "op": "Const", "attr": {"value": {"tensor": {"dtype": "DT_FLOAT", "tensorShape": {"dim": [{"size": "128"}]}}}, "dtype": {"type": "DT_FLOAT"}}}, {"name": "4362", "op": "Const", "attr": {"dtype": {"type": "DT_FLOAT"}, "value": {"tensor": {"dtype": "DT_FLOAT", "tensorShape": {"dim": [{"size": "3"}, {"size": "3"}, {"size": "128"}, {"size": "128"}]}}}}}, {"name": "4364", "op": "Const", "attr": {"dtype": {"type": "DT_FLOAT"}, "value": {"tensor": {"dtype": "DT_FLOAT", "tensorShape": {"dim": [{"size": "128"}]}}}}}, {"name": "4366", "op": "Const", "attr": {"dtype": {"type": "DT_FLOAT"}, "value": {"tensor": {"dtype": "DT_FLOAT", "tensorShape": {"dim": [{"size": "3"}, {"size": "3"}, {"size": "128"}, {"size": "128"}]}}}}}, {"name": "4368", "op": "Const", "attr": {"dtype": {"type": "DT_FLOAT"}, "value": {"tensor": {"dtype": "DT_FLOAT", "tensorShape": {"dim": [{"size": "128"}]}}}}}, {"name": "4370", "op": "Const", "attr": {"value": {"tensor": {"dtype": "DT_FLOAT", "tensorShape": {"dim": [{"size": "3"}, {"size": "3"}, {"size": "128"}, {"size": "128"}]}}}, "dtype": {"type": "DT_FLOAT"}}}, {"name": "4372", "op": "Const", "attr": {"value": {"tensor": {"dtype": "DT_FLOAT", "tensorShape": {"dim": [{"size": "128"}]}}}, "dtype": {"type": "DT_FLOAT"}}}, {"name": "4374", "op": "Const", "attr": {"value": {"tensor": {"dtype": "DT_FLOAT", "tensorShape": {"dim": [{"size": "3"}, {"size": "3"}, {"size": "128"}, {"size": "128"}]}}}, "dtype": {"type": "DT_FLOAT"}}}, {"name": "4376", "op": "Const", "attr": {"value": {"tensor": {"dtype": "DT_FLOAT", "tensorShape": {"dim": [{"size": "128"}]}}}, "dtype": {"type": "DT_FLOAT"}}}, {"name": "4378", "op": "Const", "attr": {"dtype": {"type": "DT_FLOAT"}, "value": {"tensor": {"dtype": "DT_FLOAT", "tensorShape": {"dim": [{"size": "3"}, {"size": "3"}, {"size": "128"}, {"size": "128"}]}}}}}, {"name": "4380", "op": "Const", "attr": {"dtype": {"type": "DT_FLOAT"}, "value": {"tensor": {"dtype": "DT_FLOAT", "tensorShape": {"dim": [{"size": "128"}]}}}}}, {"name": "4382", "op": "Const", "attr": {"dtype": {"type": "DT_FLOAT"}, "value": {"tensor": {"dtype": "DT_FLOAT", "tensorShape": {"dim": [{"size": "3"}, {"size": "3"}, {"size": "128"}, {"size": "128"}]}}}}}, {"name": "4384", "op": "Const", "attr": {"dtype": {"type": "DT_FLOAT"}, "value": {"tensor": {"dtype": "DT_FLOAT", "tensorShape": {"dim": [{"size": "128"}]}}}}}, {"name": "4386", "op": "Const", "attr": {"dtype": {"type": "DT_FLOAT"}, "value": {"tensor": {"dtype": "DT_FLOAT", "tensorShape": {"dim": [{"size": "3"}, {"size": "3"}, {"size": "128"}, {"size": "128"}]}}}}}, {"name": "4388", "op": "Const", "attr": {"value": {"tensor": {"dtype": "DT_FLOAT", "tensorShape": {"dim": [{"size": "128"}]}}}, "dtype": {"type": "DT_FLOAT"}}}, {"name": "4390", "op": "Const", "attr": {"dtype": {"type": "DT_FLOAT"}, "value": {"tensor": {"dtype": "DT_FLOAT", "tensorShape": {"dim": [{"size": "3"}, {"size": "3"}, {"size": "128"}, {"size": "128"}]}}}}}, {"name": "4392", "op": "Const", "attr": {"value": {"tensor": {"dtype": "DT_FLOAT", "tensorShape": {"dim": [{"size": "128"}]}}}, "dtype": {"type": "DT_FLOAT"}}}, {"name": "4394", "op": "Const", "attr": {"dtype": {"type": "DT_FLOAT"}, "value": {"tensor": {"dtype": "DT_FLOAT", "tensorShape": {"dim": [{"size": "3"}, {"size": "3"}, {"size": "128"}, {"size": "128"}]}}}}}, {"name": "4396", "op": "Const", "attr": {"dtype": {"type": "DT_FLOAT"}, "value": {"tensor": {"dtype": "DT_FLOAT", "tensorShape": {"dim": [{"size": "128"}]}}}}}, {"name": "PartitionedCall/model/tf.concat_1/concat/axis", "op": "Const", "attr": {"value": {"tensor": {"dtype": "DT_INT32", "tensorShape": {}}}, "dtype": {"type": "DT_INT32"}}}, {"name": "4402", "op": "Const", "attr": {"dtype": {"type": "DT_FLOAT"}, "value": {"tensor": {"dtype": "DT_FLOAT", "tensorShape": {"dim": [{"size": "1"}, {"size": "1"}, {"size": "1024"}, {"size": "256"}]}}}}}, {"name": "4404", "op": "Const", "attr": {"value": {"tensor": {"dtype": "DT_FLOAT", "tensorShape": {"dim": [{"size": "256"}]}}}, "dtype": {"type": "DT_FLOAT"}}}, {"name": "4406", "op": "Const", "attr": {"value": {"tensor": {"dtype": "DT_INT32", "tensorShape": {"dim": [{"size": "4"}, {"size": "2"}]}}}, "dtype": {"type": "DT_INT32"}}}, {"name": "4408", "op": "Const", "attr": {"dtype": {"type": "DT_FLOAT"}, "value": {"tensor": {"dtype": "DT_FLOAT", "tensorShape": {"dim": [{"size": "3"}, {"size": "3"}, {"size": "256"}, {"size": "512"}]}}}}}, {"name": "4410", "op": "Const", "attr": {"dtype": {"type": "DT_FLOAT"}, "value": {"tensor": {"dtype": "DT_FLOAT", "tensorShape": {"dim": [{"size": "512"}]}}}}}, {"name": "4412", "op": "Const", "attr": {"dtype": {"type": "DT_FLOAT"}, "value": {"tensor": {"dtype": "DT_FLOAT", "tensorShape": {"dim": [{"size": "1"}, {"size": "1"}, {"size": "512"}, {"size": "512"}]}}}}}, {"name": "4414", "op": "Const", "attr": {"value": {"tensor": {"dtype": "DT_FLOAT", "tensorShape": {"dim": [{"size": "512"}]}}}, "dtype": {"type": "DT_FLOAT"}}}, {"name": "4416", "op": "Const", "attr": {"value": {"tensor": {"dtype": "DT_INT64", "tensorShape": {"dim": [{"size": "4"}]}}}, "dtype": {"type": "DT_INT64"}}}, {"name": "4418", "op": "Const", "attr": {"value": {"tensor": {"dtype": "DT_INT64", "tensorShape": {"dim": [{"size": "4"}]}}}, "dtype": {"type": "DT_INT64"}}}, {"name": "PartitionedCall/model/tf.strided_slice_5/ones_like", "op": "Const", "attr": {"value": {"tensor": {"dtype": "DT_INT64", "tensorShape": {"dim": [{"size": "4"}]}}}, "dtype": {"type": "DT_INT64"}}}, {"name": "4420", "op": "Const", "attr": {"dtype": {"type": "DT_FLOAT"}, "value": {"tensor": {"dtype": "DT_FLOAT", "tensorShape": {"dim": [{"size": "3"}, {"size": "3"}, {"size": "256"}, {"size": "256"}]}}}}}, {"name": "4422", "op": "Const", "attr": {"value": {"tensor": {"dtype": "DT_FLOAT", "tensorShape": {"dim": [{"size": "256"}]}}}, "dtype": {"type": "DT_FLOAT"}}}, {"name": "4424", "op": "Const", "attr": {"value": {"tensor": {"dtype": "DT_FLOAT", "tensorShape": {"dim": [{"size": "3"}, {"size": "3"}, {"size": "256"}, {"size": "256"}]}}}, "dtype": {"type": "DT_FLOAT"}}}, {"name": "4426", "op": "Const", "attr": {"dtype": {"type": "DT_FLOAT"}, "value": {"tensor": {"dtype": "DT_FLOAT", "tensorShape": {"dim": [{"size": "256"}]}}}}}, {"name": "4428", "op": "Const", "attr": {"dtype": {"type": "DT_FLOAT"}, "value": {"tensor": {"dtype": "DT_FLOAT", "tensorShape": {"dim": [{"size": "3"}, {"size": "3"}, {"size": "256"}, {"size": "256"}]}}}}}, {"name": "4430", "op": "Const", "attr": {"value": {"tensor": {"dtype": "DT_FLOAT", "tensorShape": {"dim": [{"size": "256"}]}}}, "dtype": {"type": "DT_FLOAT"}}}, {"name": "4432", "op": "Const", "attr": {"dtype": {"type": "DT_FLOAT"}, "value": {"tensor": {"dtype": "DT_FLOAT", "tensorShape": {"dim": [{"size": "3"}, {"size": "3"}, {"size": "256"}, {"size": "256"}]}}}}}, {"name": "4434", "op": "Const", "attr": {"dtype": {"type": "DT_FLOAT"}, "value": {"tensor": {"dtype": "DT_FLOAT", "tensorShape": {"dim": [{"size": "256"}]}}}}}, {"name": "4436", "op": "Const", "attr": {"dtype": {"type": "DT_FLOAT"}, "value": {"tensor": {"dtype": "DT_FLOAT", "tensorShape": {"dim": [{"size": "3"}, {"size": "3"}, {"size": "256"}, {"size": "256"}]}}}}}, {"name": "4438", "op": "Const", "attr": {"value": {"tensor": {"dtype": "DT_FLOAT", "tensorShape": {"dim": [{"size": "256"}]}}}, "dtype": {"type": "DT_FLOAT"}}}, {"name": "4440", "op": "Const", "attr": {"dtype": {"type": "DT_FLOAT"}, "value": {"tensor": {"dtype": "DT_FLOAT", "tensorShape": {"dim": [{"size": "3"}, {"size": "3"}, {"size": "256"}, {"size": "256"}]}}}}}, {"name": "4442", "op": "Const", "attr": {"dtype": {"type": "DT_FLOAT"}, "value": {"tensor": {"dtype": "DT_FLOAT", "tensorShape": {"dim": [{"size": "256"}]}}}}}, {"name": "4444", "op": "Const", "attr": {"dtype": {"type": "DT_FLOAT"}, "value": {"tensor": {"dtype": "DT_FLOAT", "tensorShape": {"dim": [{"size": "3"}, {"size": "3"}, {"size": "256"}, {"size": "256"}]}}}}}, {"name": "4446", "op": "Const", "attr": {"value": {"tensor": {"dtype": "DT_FLOAT", "tensorShape": {"dim": [{"size": "256"}]}}}, "dtype": {"type": "DT_FLOAT"}}}, {"name": "4448", "op": "Const", "attr": {"dtype": {"type": "DT_FLOAT"}, "value": {"tensor": {"dtype": "DT_FLOAT", "tensorShape": {"dim": [{"size": "3"}, {"size": "3"}, {"size": "256"}, {"size": "256"}]}}}}}, {"name": "4450", "op": "Const", "attr": {"value": {"tensor": {"dtype": "DT_FLOAT", "tensorShape": {"dim": [{"size": "256"}]}}}, "dtype": {"type": "DT_FLOAT"}}}, {"name": "4452", "op": "Const", "attr": {"value": {"tensor": {"dtype": "DT_FLOAT", "tensorShape": {"dim": [{"size": "3"}, {"size": "3"}, {"size": "256"}, {"size": "256"}]}}}, "dtype": {"type": "DT_FLOAT"}}}, {"name": "4454", "op": "Const", "attr": {"dtype": {"type": "DT_FLOAT"}, "value": {"tensor": {"dtype": "DT_FLOAT", "tensorShape": {"dim": [{"size": "256"}]}}}}}, {"name": "4456", "op": "Const", "attr": {"dtype": {"type": "DT_FLOAT"}, "value": {"tensor": {"dtype": "DT_FLOAT", "tensorShape": {"dim": [{"size": "3"}, {"size": "3"}, {"size": "256"}, {"size": "256"}]}}}}}, {"name": "4458", "op": "Const", "attr": {"dtype": {"type": "DT_FLOAT"}, "value": {"tensor": {"dtype": "DT_FLOAT", "tensorShape": {"dim": [{"size": "256"}]}}}}}, {"name": "4460", "op": "Const", "attr": {"value": {"tensor": {"dtype": "DT_FLOAT", "tensorShape": {"dim": [{"size": "3"}, {"size": "3"}, {"size": "256"}, {"size": "256"}]}}}, "dtype": {"type": "DT_FLOAT"}}}, {"name": "4462", "op": "Const", "attr": {"value": {"tensor": {"dtype": "DT_FLOAT", "tensorShape": {"dim": [{"size": "256"}]}}}, "dtype": {"type": "DT_FLOAT"}}}, {"name": "4464", "op": "Const", "attr": {"dtype": {"type": "DT_FLOAT"}, "value": {"tensor": {"dtype": "DT_FLOAT", "tensorShape": {"dim": [{"size": "3"}, {"size": "3"}, {"size": "256"}, {"size": "256"}]}}}}}, {"name": "4466", "op": "Const", "attr": {"dtype": {"type": "DT_FLOAT"}, "value": {"tensor": {"dtype": "DT_FLOAT", "tensorShape": {"dim": [{"size": "256"}]}}}}}, {"name": "PartitionedCall/model/tf.concat_2/concat/axis", "op": "Const", "attr": {"dtype": {"type": "DT_INT32"}, "value": {"tensor": {"dtype": "DT_INT32", "tensorShape": {}}}}}, {"name": "4472", "op": "Const", "attr": {"dtype": {"type": "DT_FLOAT"}, "value": {"tensor": {"dtype": "DT_FLOAT", "tensorShape": {"dim": [{"size": "1"}, {"size": "1"}, {"size": "2048"}, {"size": "512"}]}}}}}, {"name": "4474", "op": "Const", "attr": {"dtype": {"type": "DT_FLOAT"}, "value": {"tensor": {"dtype": "DT_FLOAT", "tensorShape": {"dim": [{"size": "512"}]}}}}}, {"name": "4476", "op": "Const", "attr": {"value": {"tensor": {"dtype": "DT_INT32", "tensorShape": {"dim": [{"size": "4"}, {"size": "2"}]}}}, "dtype": {"type": "DT_INT32"}}}, {"name": "4478", "op": "Const", "attr": {"dtype": {"type": "DT_FLOAT"}, "value": {"tensor": {"dtype": "DT_FLOAT", "tensorShape": {"dim": [{"size": "3"}, {"size": "3"}, {"size": "512"}, {"size": "512"}]}}}}}, {"name": "4480", "op": "Const", "attr": {"dtype": {"type": "DT_FLOAT"}, "value": {"tensor": {"dtype": "DT_FLOAT", "tensorShape": {"dim": [{"size": "512"}]}}}}}, {"name": "4482", "op": "Const", "attr": {"dtype": {"type": "DT_FLOAT"}, "value": {"tensor": {"dtype": "DT_FLOAT", "tensorShape": {"dim": [{"size": "1"}, {"size": "1"}, {"size": "512"}, {"size": "512"}]}}}}}, {"name": "4484", "op": "Const", "attr": {"dtype": {"type": "DT_FLOAT"}, "value": {"tensor": {"dtype": "DT_FLOAT", "tensorShape": {"dim": [{"size": "512"}]}}}}}, {"name": "4486", "op": "Const", "attr": {"value": {"tensor": {"dtype": "DT_INT64", "tensorShape": {"dim": [{"size": "4"}]}}}, "dtype": {"type": "DT_INT64"}}}, {"name": "4488", "op": "Const", "attr": {"dtype": {"type": "DT_INT64"}, "value": {"tensor": {"dtype": "DT_INT64", "tensorShape": {"dim": [{"size": "4"}]}}}}}, {"name": "PartitionedCall/model/tf.strided_slice_7/ones_like", "op": "Const", "attr": {"value": {"tensor": {"dtype": "DT_INT64", "tensorShape": {"dim": [{"size": "4"}]}}}, "dtype": {"type": "DT_INT64"}}}, {"name": "4490", "op": "Const", "attr": {"dtype": {"type": "DT_FLOAT"}, "value": {"tensor": {"dtype": "DT_FLOAT", "tensorShape": {"dim": [{"size": "3"}, {"size": "3"}, {"size": "256"}, {"size": "256"}]}}}}}, {"name": "4492", "op": "Const", "attr": {"dtype": {"type": "DT_FLOAT"}, "value": {"tensor": {"dtype": "DT_FLOAT", "tensorShape": {"dim": [{"size": "256"}]}}}}}, {"name": "4494", "op": "Const", "attr": {"dtype": {"type": "DT_FLOAT"}, "value": {"tensor": {"dtype": "DT_FLOAT", "tensorShape": {"dim": [{"size": "3"}, {"size": "3"}, {"size": "256"}, {"size": "256"}]}}}}}, {"name": "4496", "op": "Const", "attr": {"dtype": {"type": "DT_FLOAT"}, "value": {"tensor": {"dtype": "DT_FLOAT", "tensorShape": {"dim": [{"size": "256"}]}}}}}, {"name": "4498", "op": "Const", "attr": {"dtype": {"type": "DT_FLOAT"}, "value": {"tensor": {"dtype": "DT_FLOAT", "tensorShape": {"dim": [{"size": "3"}, {"size": "3"}, {"size": "256"}, {"size": "256"}]}}}}}, {"name": "4500", "op": "Const", "attr": {"dtype": {"type": "DT_FLOAT"}, "value": {"tensor": {"dtype": "DT_FLOAT", "tensorShape": {"dim": [{"size": "256"}]}}}}}, {"name": "4502", "op": "Const", "attr": {"value": {"tensor": {"dtype": "DT_FLOAT", "tensorShape": {"dim": [{"size": "3"}, {"size": "3"}, {"size": "256"}, {"size": "256"}]}}}, "dtype": {"type": "DT_FLOAT"}}}, {"name": "4504", "op": "Const", "attr": {"value": {"tensor": {"dtype": "DT_FLOAT", "tensorShape": {"dim": [{"size": "256"}]}}}, "dtype": {"type": "DT_FLOAT"}}}, {"name": "4506", "op": "Const", "attr": {"value": {"tensor": {"dtype": "DT_FLOAT", "tensorShape": {"dim": [{"size": "3"}, {"size": "3"}, {"size": "256"}, {"size": "256"}]}}}, "dtype": {"type": "DT_FLOAT"}}}, {"name": "4508", "op": "Const", "attr": {"value": {"tensor": {"dtype": "DT_FLOAT", "tensorShape": {"dim": [{"size": "256"}]}}}, "dtype": {"type": "DT_FLOAT"}}}, {"name": "4510", "op": "Const", "attr": {"dtype": {"type": "DT_FLOAT"}, "value": {"tensor": {"dtype": "DT_FLOAT", "tensorShape": {"dim": [{"size": "3"}, {"size": "3"}, {"size": "256"}, {"size": "256"}]}}}}}, {"name": "4512", "op": "Const", "attr": {"value": {"tensor": {"dtype": "DT_FLOAT", "tensorShape": {"dim": [{"size": "256"}]}}}, "dtype": {"type": "DT_FLOAT"}}}, {"name": "PartitionedCall/model/tf.concat_3/concat/axis", "op": "Const", "attr": {"dtype": {"type": "DT_INT32"}, "value": {"tensor": {"dtype": "DT_INT32", "tensorShape": {}}}}}, {"name": "4518", "op": "Const", "attr": {"value": {"tensor": {"dtype": "DT_FLOAT", "tensorShape": {"dim": [{"size": "1"}, {"size": "1"}, {"size": "1280"}, {"size": "512"}]}}}, "dtype": {"type": "DT_FLOAT"}}}, {"name": "4520", "op": "Const", "attr": {"dtype": {"type": "DT_FLOAT"}, "value": {"tensor": {"dtype": "DT_FLOAT", "tensorShape": {"dim": [{"size": "512"}]}}}}}, {"name": "4522", "op": "Const", "attr": {"value": {"tensor": {"dtype": "DT_FLOAT", "tensorShape": {"dim": [{"size": "1"}, {"size": "1"}, {"size": "512"}, {"size": "256"}]}}}, "dtype": {"type": "DT_FLOAT"}}}, {"name": "4524", "op": "Const", "attr": {"value": {"tensor": {"dtype": "DT_FLOAT", "tensorShape": {"dim": [{"size": "256"}]}}}, "dtype": {"type": "DT_FLOAT"}}}, {"name": "PartitionedCall/model/tf.concat_4/concat/axis", "op": "Const", "attr": {"value": {"tensor": {"dtype": "DT_INT32", "tensorShape": {}}}, "dtype": {"type": "DT_INT32"}}}, {"name": "4526", "op": "Const", "attr": {"dtype": {"type": "DT_FLOAT"}, "value": {"tensor": {"dtype": "DT_FLOAT", "tensorShape": {"dim": [{"size": "1"}, {"size": "1"}, {"size": "1024"}, {"size": "512"}]}}}}}, {"name": "4528", "op": "Const", "attr": {"value": {"tensor": {"dtype": "DT_FLOAT", "tensorShape": {"dim": [{"size": "512"}]}}}, "dtype": {"type": "DT_FLOAT"}}}, {"name": "PartitionedCall/model/tf.concat_12/concat/axis", "op": "Const", "attr": {"value": {"tensor": {"dtype": "DT_INT32", "tensorShape": {}}}, "dtype": {"type": "DT_INT32"}}}, {"name": "4662", "op": "Const", "attr": {"value": {"tensor": {"dtype": "DT_FLOAT", "tensorShape": {"dim": [{"size": "1"}, {"size": "1"}, {"size": "1024"}, {"size": "512"}]}}}, "dtype": {"type": "DT_FLOAT"}}}, {"name": "4664", "op": "Const", "attr": {"dtype": {"type": "DT_FLOAT"}, "value": {"tensor": {"dtype": "DT_FLOAT", "tensorShape": {"dim": [{"size": "512"}]}}}}}, {"name": "4666", "op": "Const", "attr": {"value": {"tensor": {"dtype": "DT_INT64", "tensorShape": {"dim": [{"size": "4"}]}}}, "dtype": {"type": "DT_INT64"}}}, {"name": "4668", "op": "Const", "attr": {"dtype": {"type": "DT_INT64"}, "value": {"tensor": {"dtype": "DT_INT64", "tensorShape": {"dim": [{"size": "4"}]}}}}}, {"name": "PartitionedCall/model/tf.strided_slice_15/ones_like", "op": "Const", "attr": {"value": {"tensor": {"dtype": "DT_INT64", "tensorShape": {"dim": [{"size": "4"}]}}}, "dtype": {"type": "DT_INT64"}}}, {"name": "4670", "op": "Const", "attr": {"value": {"tensor": {"dtype": "DT_FLOAT", "tensorShape": {"dim": [{"size": "3"}, {"size": "3"}, {"size": "256"}, {"size": "256"}]}}}, "dtype": {"type": "DT_FLOAT"}}}, {"name": "4672", "op": "Const", "attr": {"value": {"tensor": {"dtype": "DT_FLOAT", "tensorShape": {"dim": [{"size": "256"}]}}}, "dtype": {"type": "DT_FLOAT"}}}, {"name": "4674", "op": "Const", "attr": {"dtype": {"type": "DT_FLOAT"}, "value": {"tensor": {"dtype": "DT_FLOAT", "tensorShape": {"dim": [{"size": "3"}, {"size": "3"}, {"size": "256"}, {"size": "256"}]}}}}}, {"name": "4676", "op": "Const", "attr": {"dtype": {"type": "DT_FLOAT"}, "value": {"tensor": {"dtype": "DT_FLOAT", "tensorShape": {"dim": [{"size": "256"}]}}}}}, {"name": "4678", "op": "Const", "attr": {"dtype": {"type": "DT_FLOAT"}, "value": {"tensor": {"dtype": "DT_FLOAT", "tensorShape": {"dim": [{"size": "3"}, {"size": "3"}, {"size": "256"}, {"size": "256"}]}}}}}, {"name": "4680", "op": "Const", "attr": {"dtype": {"type": "DT_FLOAT"}, "value": {"tensor": {"dtype": "DT_FLOAT", "tensorShape": {"dim": [{"size": "256"}]}}}}}, {"name": "4682", "op": "Const", "attr": {"value": {"tensor": {"dtype": "DT_FLOAT", "tensorShape": {"dim": [{"size": "3"}, {"size": "3"}, {"size": "256"}, {"size": "256"}]}}}, "dtype": {"type": "DT_FLOAT"}}}, {"name": "4684", "op": "Const", "attr": {"value": {"tensor": {"dtype": "DT_FLOAT", "tensorShape": {"dim": [{"size": "256"}]}}}, "dtype": {"type": "DT_FLOAT"}}}, {"name": "4686", "op": "Const", "attr": {"dtype": {"type": "DT_FLOAT"}, "value": {"tensor": {"dtype": "DT_FLOAT", "tensorShape": {"dim": [{"size": "3"}, {"size": "3"}, {"size": "256"}, {"size": "256"}]}}}}}, {"name": "4688", "op": "Const", "attr": {"dtype": {"type": "DT_FLOAT"}, "value": {"tensor": {"dtype": "DT_FLOAT", "tensorShape": {"dim": [{"size": "256"}]}}}}}, {"name": "4690", "op": "Const", "attr": {"dtype": {"type": "DT_FLOAT"}, "value": {"tensor": {"dtype": "DT_FLOAT", "tensorShape": {"dim": [{"size": "3"}, {"size": "3"}, {"size": "256"}, {"size": "256"}]}}}}}, {"name": "4692", "op": "Const", "attr": {"value": {"tensor": {"dtype": "DT_FLOAT", "tensorShape": {"dim": [{"size": "256"}]}}}, "dtype": {"type": "DT_FLOAT"}}}, {"name": "PartitionedCall/model/tf.concat_14/concat/axis", "op": "Const", "attr": {"dtype": {"type": "DT_INT32"}, "value": {"tensor": {"dtype": "DT_INT32", "tensorShape": {}}}}}, {"name": "4698", "op": "Const", "attr": {"value": {"tensor": {"dtype": "DT_FLOAT", "tensorShape": {"dim": [{"size": "1"}, {"size": "1"}, {"size": "1280"}, {"size": "512"}]}}}, "dtype": {"type": "DT_FLOAT"}}}, {"name": "4700", "op": "Const", "attr": {"dtype": {"type": "DT_FLOAT"}, "value": {"tensor": {"dtype": "DT_FLOAT", "tensorShape": {"dim": [{"size": "512"}]}}}}}, {"name": "4702", "op": "Const", "attr": {"value": {"tensor": {"dtype": "DT_FLOAT", "tensorShape": {"dim": [{"size": "3"}, {"size": "3"}, {"size": "512"}, {"size": "256"}]}}}, "dtype": {"type": "DT_FLOAT"}}}, {"name": "4714", "op": "Const", "attr": {"dtype": {"type": "DT_FLOAT"}, "value": {"tensor": {"dtype": "DT_FLOAT", "tensorShape": {"dim": [{"size": "256"}]}}}}}, {"name": "4726", "op": "Const", "attr": {"dtype": {"type": "DT_FLOAT"}, "value": {"tensor": {"dtype": "DT_FLOAT", "tensorShape": {"dim": [{"size": "3"}, {"size": "3"}, {"size": "256"}, {"size": "256"}]}}}}}, {"name": "4738", "op": "Const", "attr": {"dtype": {"type": "DT_FLOAT"}, "value": {"tensor": {"dtype": "DT_FLOAT", "tensorShape": {"dim": [{"size": "256"}]}}}}}, {"name": "4750", "op": "Const", "attr": {"dtype": {"type": "DT_FLOAT"}, "value": {"tensor": {"dtype": "DT_FLOAT", "tensorShape": {"dim": [{"size": "1"}, {"size": "1"}, {"size": "256"}, {"size": "1"}]}}}}}, {"name": "4764", "op": "Const", "attr": {"dtype": {"type": "DT_FLOAT"}, "value": {"tensor": {"dtype": "DT_FLOAT", "tensorShape": {"dim": [{"size": "1"}]}}}}}, {"name": "PartitionedCall/model/tf.concat_15/concat/axis", "op": "Const", "attr": {"value": {"tensor": {"dtype": "DT_INT32", "tensorShape": {}}}, "dtype": {"type": "DT_INT32"}}}, {"name": "PartitionedCall/model/tf.compat.v1.transpose_2/transpose/perm", "op": "Const", "attr": {"value": {"tensor": {"dtype": "DT_INT32", "tensorShape": {"dim": [{"size": "4"}]}}}, "dtype": {"type": "DT_INT32"}}}, {"name": "PartitionedCall/model/tf.reshape_2/Reshape/shape", "op": "Const", "attr": {"dtype": {"type": "DT_INT32"}, "value": {"tensor": {"dtype": "DT_INT32", "tensorShape": {"dim": [{"size": "3"}]}}}}}, {"name": "PartitionedCall/model/tf.concat_16/concat/axis", "op": "Const", "attr": {"value": {"tensor": {"dtype": "DT_INT32", "tensorShape": {}}}, "dtype": {"type": "DT_INT32"}}}, {"name": "4794", "op": "Const", "attr": {"value": {"tensor": {"dtype": "DT_INT64", "tensorShape": {"dim": [{"size": "3"}]}}}, "dtype": {"type": "DT_INT64"}}}, {"name": "4796", "op": "Const", "attr": {"value": {"tensor": {"dtype": "DT_INT64", "tensorShape": {"dim": [{"size": "3"}]}}}, "dtype": {"type": "DT_INT64"}}}, {"name": "PartitionedCall/model/tf.strided_slice_17/StridedSlice/strides", "op": "Const", "attr": {"dtype": {"type": "DT_INT64"}, "value": {"tensor": {"dtype": "DT_INT64", "tensorShape": {"dim": [{"size": "3"}]}}}}}, {"name": "PartitionedCall/model/output0/concat/axis", "op": "Const", "attr": {"dtype": {"type": "DT_INT32"}, "value": {"tensor": {"dtype": "DT_INT32", "tensorShape": {}}}}}, {"name": "x", "op": "Placeholder", "attr": {"shape": {"shape": {"dim": [{"size": "1"}, {"size": "480"}, {"size": "480"}, {"size": "3"}]}}, "dtype": {"type": "DT_FLOAT"}}}, {"name": "PartitionedCall/model/tf.compat.v1.pad/Pad", "op": "Pad", "input": ["x", "4284"], "attr": {"Tpaddings": {"type": "DT_INT32"}, "T": {"type": "DT_FLOAT"}}}, {"name": "PartitionedCall/model/tf.math.add/Add", "op": "_FusedConv2D", "input": ["PartitionedCall/model/tf.compat.v1.pad/Pad", "4286", "4288"], "device": "/device:CPU:0", "attr": {"num_args": {"i": "1"}, "epsilon": {"f": 0.0}, "num_host_args": {"i": "0"}, "filter_format": {"s": "SFdJTw=="}, "dilations": {"list": {"i": ["1", "1", "1", "1"]}}, "strides": {"list": {"i": ["1", "2", "2", "1"]}}, "leakyrelu_alpha": {"f": 0.2}, "use_cudnn_on_gpu": {"b": true}, "padding": {"s": "VkFMSUQ="}, "TArgs": {"list": {"type": ["DT_FLOAT"]}}, "data_format": {"s": "TkhXQw=="}, "explicit_paddings": {"list": {}}, "fused_ops": {"list": {"s": ["Qmlhc0FkZA=="]}}, "T": {"type": "DT_FLOAT"}}}, {"name": "PartitionedCall/model/tf.math.sigmoid/Sigmoid", "op": "Sigmoid", "input": ["PartitionedCall/model/tf.math.add/Add"], "attr": {"T": {"type": "DT_FLOAT"}}}, {"name": "PartitionedCall/model/tf.math.multiply_2/Mul", "op": "Mul", "input": ["PartitionedCall/model/tf.math.add/Add", "PartitionedCall/model/tf.math.sigmoid/Sigmoid"], "attr": {"T": {"type": "DT_FLOAT"}}}, {"name": "PartitionedCall/model/tf.compat.v1.pad_1/Pad", "op": "Pad", "input": ["PartitionedCall/model/tf.math.multiply_2/Mul", "4290"], "attr": {"T": {"type": "DT_FLOAT"}, "Tpaddings": {"type": "DT_INT32"}}}, {"name": "PartitionedCall/model/tf.math.add_1/Add", "op": "_FusedConv2D", "input": ["PartitionedCall/model/tf.compat.v1.pad_1/Pad", "4292", "4294"], "device": "/device:CPU:0", "attr": {"TArgs": {"list": {"type": ["DT_FLOAT"]}}, "filter_format": {"s": "SFdJTw=="}, "dilations": {"list": {"i": ["1", "1", "1", "1"]}}, "leakyrelu_alpha": {"f": 0.2}, "padding": {"s": "VkFMSUQ="}, "strides": {"list": {"i": ["1", "2", "2", "1"]}}, "data_format": {"s": "TkhXQw=="}, "num_args": {"i": "1"}, "num_host_args": {"i": "0"}, "use_cudnn_on_gpu": {"b": true}, "explicit_paddings": {"list": {}}, "fused_ops": {"list": {"s": ["Qmlhc0FkZA=="]}}, "T": {"type": "DT_FLOAT"}, "epsilon": {"f": 0.0}}}, {"name": "PartitionedCall/model/tf.math.sigmoid_1/Sigmoid", "op": "Sigmoid", "input": ["PartitionedCall/model/tf.math.add_1/Add"], "attr": {"T": {"type": "DT_FLOAT"}}}, {"name": "PartitionedCall/model/tf.math.multiply_5/Mul", "op": "Mul", "input": ["PartitionedCall/model/tf.math.add_1/Add", "PartitionedCall/model/tf.math.sigmoid_1/Sigmoid"], "attr": {"T": {"type": "DT_FLOAT"}}}, {"name": "PartitionedCall/model/tf.math.add_2/Add", "op": "_FusedConv2D", "input": ["PartitionedCall/model/tf.math.multiply_5/Mul", "4296", "4298"], "device": "/device:CPU:0", "attr": {"explicit_paddings": {"list": {}}, "padding": {"s": "U0FNRQ=="}, "strides": {"list": {"i": ["1", "1", "1", "1"]}}, "use_cudnn_on_gpu": {"b": true}, "filter_format": {"s": "SFdJTw=="}, "TArgs": {"list": {"type": ["DT_FLOAT"]}}, "leakyrelu_alpha": {"f": 0.2}, "T": {"type": "DT_FLOAT"}, "dilations": {"list": {"i": ["1", "1", "1", "1"]}}, "fused_ops": {"list": {"s": ["Qmlhc0FkZA=="]}}, "num_args": {"i": "1"}, "num_host_args": {"i": "0"}, "epsilon": {"f": 0.0}, "data_format": {"s": "TkhXQw=="}}}, {"name": "PartitionedCall/model/tf.math.sigmoid_2/Sigmoid", "op": "Sigmoid", "input": ["PartitionedCall/model/tf.math.add_2/Add"], "attr": {"T": {"type": "DT_FLOAT"}}}, {"name": "PartitionedCall/model/tf.math.multiply_8/Mul", "op": "Mul", "input": ["PartitionedCall/model/tf.math.add_2/Add", "PartitionedCall/model/tf.math.sigmoid_2/Sigmoid"], "attr": {"T": {"type": "DT_FLOAT"}}}, {"name": "PartitionedCall/model/tf.strided_slice/StridedSlice", "op": "StridedSlice", "input": ["PartitionedCall/model/tf.math.multiply_8/Mul", "4328", "4330", "PartitionedCall/model/tf.strided_slice/ones_like"], "attr": {"ellipsis_mask": {"i": "0"}, "T": {"type": "DT_FLOAT"}, "new_axis_mask": {"i": "0"}, "Index": {"type": "DT_INT64"}, "end_mask": {"i": "7"}, "begin_mask": {"i": "15"}, "shrink_axis_mask": {"i": "0"}}}, {"name": "PartitionedCall/model/tf.strided_slice_1/StridedSlice", "op": "StridedSlice", "input": ["PartitionedCall/model/tf.math.multiply_8/Mul", "4300", "4302", "PartitionedCall/model/tf.strided_slice_1/ones_like"], "attr": {"end_mask": {"i": "7"}, "Index": {"type": "DT_INT64"}, "shrink_axis_mask": {"i": "0"}, "new_axis_mask": {"i": "0"}, "begin_mask": {"i": "7"}, "ellipsis_mask": {"i": "0"}, "T": {"type": "DT_FLOAT"}}}, {"name": "PartitionedCall/model/tf.math.add_3/Add", "op": "_FusedConv2D", "input": ["PartitionedCall/model/tf.strided_slice_1/StridedSlice", "4304", "4306"], "device": "/device:CPU:0", "attr": {"leakyrelu_alpha": {"f": 0.2}, "use_cudnn_on_gpu": {"b": true}, "T": {"type": "DT_FLOAT"}, "fused_ops": {"list": {"s": ["Qmlhc0FkZA=="]}}, "strides": {"list": {"i": ["1", "1", "1", "1"]}}, "TArgs": {"list": {"type": ["DT_FLOAT"]}}, "dilations": {"list": {"i": ["1", "1", "1", "1"]}}, "epsilon": {"f": 0.0}, "filter_format": {"s": "SFdJTw=="}, "num_host_args": {"i": "0"}, "num_args": {"i": "1"}, "explicit_paddings": {"list": {}}, "data_format": {"s": "TkhXQw=="}, "padding": {"s": "U0FNRQ=="}}}, {"name": "PartitionedCall/model/tf.math.sigmoid_3/Sigmoid", "op": "Sigmoid", "input": ["PartitionedCall/model/tf.math.add_3/Add"], "attr": {"T": {"type": "DT_FLOAT"}}}, {"name": "PartitionedCall/model/tf.math.multiply_11/Mul", "op": "Mul", "input": ["PartitionedCall/model/tf.math.add_3/Add", "PartitionedCall/model/tf.math.sigmoid_3/Sigmoid"], "attr": {"T": {"type": "DT_FLOAT"}}}, {"name": "PartitionedCall/model/tf.math.add_4/Add", "op": "_FusedConv2D", "input": ["PartitionedCall/model/tf.math.multiply_11/Mul", "4308", "4310"], "device": "/device:CPU:0", "attr": {"TArgs": {"list": {"type": ["DT_FLOAT"]}}, "epsilon": {"f": 0.0}, "explicit_paddings": {"list": {}}, "num_args": {"i": "1"}, "filter_format": {"s": "SFdJTw=="}, "dilations": {"list": {"i": ["1", "1", "1", "1"]}}, "padding": {"s": "U0FNRQ=="}, "fused_ops": {"list": {"s": ["Qmlhc0FkZA=="]}}, "data_format": {"s": "TkhXQw=="}, "T": {"type": "DT_FLOAT"}, "num_host_args": {"i": "0"}, "leakyrelu_alpha": {"f": 0.2}, "strides": {"list": {"i": ["1", "1", "1", "1"]}}, "use_cudnn_on_gpu": {"b": true}}}, {"name": "PartitionedCall/model/tf.math.sigmoid_4/Sigmoid", "op": "Sigmoid", "input": ["PartitionedCall/model/tf.math.add_4/Add"], "attr": {"T": {"type": "DT_FLOAT"}}}, {"name": "PartitionedCall/model/tf.math.multiply_14/Mul", "op": "Mul", "input": ["PartitionedCall/model/tf.math.add_4/Add", "PartitionedCall/model/tf.math.sigmoid_4/Sigmoid"], "attr": {"T": {"type": "DT_FLOAT"}}}, {"name": "PartitionedCall/model/tf.math.add_5/Add", "op": "AddV2", "input": ["PartitionedCall/model/tf.strided_slice_1/StridedSlice", "PartitionedCall/model/tf.math.multiply_14/Mul"], "attr": {"T": {"type": "DT_FLOAT"}}}, {"name": "PartitionedCall/model/tf.math.add_6/Add", "op": "_FusedConv2D", "input": ["PartitionedCall/model/tf.math.add_5/Add", "4312", "4314"], "device": "/device:CPU:0", "attr": {"TArgs": {"list": {"type": ["DT_FLOAT"]}}, "strides": {"list": {"i": ["1", "1", "1", "1"]}}, "explicit_paddings": {"list": {}}, "dilations": {"list": {"i": ["1", "1", "1", "1"]}}, "num_host_args": {"i": "0"}, "epsilon": {"f": 0.0}, "leakyrelu_alpha": {"f": 0.2}, "T": {"type": "DT_FLOAT"}, "padding": {"s": "U0FNRQ=="}, "fused_ops": {"list": {"s": ["Qmlhc0FkZA=="]}}, "data_format": {"s": "TkhXQw=="}, "num_args": {"i": "1"}, "use_cudnn_on_gpu": {"b": true}, "filter_format": {"s": "SFdJTw=="}}}, {"name": "PartitionedCall/model/tf.math.sigmoid_5/Sigmoid", "op": "Sigmoid", "input": ["PartitionedCall/model/tf.math.add_6/Add"], "attr": {"T": {"type": "DT_FLOAT"}}}, {"name": "PartitionedCall/model/tf.math.multiply_19/Mul", "op": "Mul", "input": ["PartitionedCall/model/tf.math.add_6/Add", "PartitionedCall/model/tf.math.sigmoid_5/Sigmoid"], "attr": {"T": {"type": "DT_FLOAT"}}}, {"name": "PartitionedCall/model/tf.math.add_7/Add", "op": "_FusedConv2D", "input": ["PartitionedCall/model/tf.math.multiply_19/Mul", "4316", "4318"], "device": "/device:CPU:0", "attr": {"num_args": {"i": "1"}, "TArgs": {"list": {"type": ["DT_FLOAT"]}}, "padding": {"s": "U0FNRQ=="}, "fused_ops": {"list": {"s": ["Qmlhc0FkZA=="]}}, "num_host_args": {"i": "0"}, "T": {"type": "DT_FLOAT"}, "dilations": {"list": {"i": ["1", "1", "1", "1"]}}, "use_cudnn_on_gpu": {"b": true}, "epsilon": {"f": 0.0}, "explicit_paddings": {"list": {}}, "leakyrelu_alpha": {"f": 0.2}, "filter_format": {"s": "SFdJTw=="}, "data_format": {"s": "TkhXQw=="}, "strides": {"list": {"i": ["1", "1", "1", "1"]}}}}, {"name": "PartitionedCall/model/tf.math.sigmoid_6/Sigmoid", "op": "Sigmoid", "input": ["PartitionedCall/model/tf.math.add_7/Add"], "attr": {"T": {"type": "DT_FLOAT"}}}, {"name": "PartitionedCall/model/tf.math.multiply_22/Mul", "op": "Mul", "input": ["PartitionedCall/model/tf.math.add_7/Add", "PartitionedCall/model/tf.math.sigmoid_6/Sigmoid"], "attr": {"T": {"type": "DT_FLOAT"}}}, {"name": "PartitionedCall/model/tf.math.add_8/Add", "op": "AddV2", "input": ["PartitionedCall/model/tf.math.add_5/Add", "PartitionedCall/model/tf.math.multiply_22/Mul"], "attr": {"T": {"type": "DT_FLOAT"}}}, {"name": "PartitionedCall/model/tf.math.add_9/Add", "op": "_FusedConv2D", "input": ["PartitionedCall/model/tf.math.add_8/Add", "4320", "4322"], "device": "/device:CPU:0", "attr": {"num_args": {"i": "1"}, "epsilon": {"f": 0.0}, "padding": {"s": "U0FNRQ=="}, "fused_ops": {"list": {"s": ["Qmlhc0FkZA=="]}}, "dilations": {"list": {"i": ["1", "1", "1", "1"]}}, "filter_format": {"s": "SFdJTw=="}, "use_cudnn_on_gpu": {"b": true}, "data_format": {"s": "TkhXQw=="}, "TArgs": {"list": {"type": ["DT_FLOAT"]}}, "num_host_args": {"i": "0"}, "strides": {"list": {"i": ["1", "1", "1", "1"]}}, "leakyrelu_alpha": {"f": 0.2}, "T": {"type": "DT_FLOAT"}, "explicit_paddings": {"list": {}}}}, {"name": "PartitionedCall/model/tf.math.sigmoid_7/Sigmoid", "op": "Sigmoid", "input": ["PartitionedCall/model/tf.math.add_9/Add"], "attr": {"T": {"type": "DT_FLOAT"}}}, {"name": "PartitionedCall/model/tf.math.multiply_27/Mul", "op": "Mul", "input": ["PartitionedCall/model/tf.math.add_9/Add", "PartitionedCall/model/tf.math.sigmoid_7/Sigmoid"], "attr": {"T": {"type": "DT_FLOAT"}}}, {"name": "PartitionedCall/model/tf.math.add_10/Add", "op": "_FusedConv2D", "input": ["PartitionedCall/model/tf.math.multiply_27/Mul", "4324", "4326"], "device": "/device:CPU:0", "attr": {"leakyrelu_alpha": {"f": 0.2}, "filter_format": {"s": "SFdJTw=="}, "explicit_paddings": {"list": {}}, "strides": {"list": {"i": ["1", "1", "1", "1"]}}, "num_args": {"i": "1"}, "T": {"type": "DT_FLOAT"}, "fused_ops": {"list": {"s": ["Qmlhc0FkZA=="]}}, "TArgs": {"list": {"type": ["DT_FLOAT"]}}, "num_host_args": {"i": "0"}, "dilations": {"list": {"i": ["1", "1", "1", "1"]}}, "data_format": {"s": "TkhXQw=="}, "padding": {"s": "U0FNRQ=="}, "epsilon": {"f": 0.0}, "use_cudnn_on_gpu": {"b": true}}}, {"name": "PartitionedCall/model/tf.math.sigmoid_8/Sigmoid", "op": "Sigmoid", "input": ["PartitionedCall/model/tf.math.add_10/Add"], "attr": {"T": {"type": "DT_FLOAT"}}}, {"name": "PartitionedCall/model/tf.math.multiply_30/Mul", "op": "Mul", "input": ["PartitionedCall/model/tf.math.add_10/Add", "PartitionedCall/model/tf.math.sigmoid_8/Sigmoid"], "attr": {"T": {"type": "DT_FLOAT"}}}, {"name": "PartitionedCall/model/tf.math.add_11/Add", "op": "AddV2", "input": ["PartitionedCall/model/tf.math.add_8/Add", "PartitionedCall/model/tf.math.multiply_30/Mul"], "attr": {"T": {"type": "DT_FLOAT"}}}, {"name": "PartitionedCall/model/tf.concat/concat", "op": "ConcatV2", "input": ["PartitionedCall/model/tf.strided_slice/StridedSlice", "PartitionedCall/model/tf.strided_slice_1/StridedSlice", "PartitionedCall/model/tf.math.add_5/Add", "PartitionedCall/model/tf.math.add_8/Add", "PartitionedCall/model/tf.math.add_11/Add", "PartitionedCall/model/tf.concat/concat/axis"], "attr": {"Tidx": {"type": "DT_INT32"}, "N": {"i": "5"}, "T": {"type": "DT_FLOAT"}}}, {"name": "PartitionedCall/model/tf.math.add_12/Add", "op": "_FusedConv2D", "input": ["PartitionedCall/model/tf.concat/concat", "4332", "4334"], "device": "/device:CPU:0", "attr": {"num_host_args": {"i": "0"}, "use_cudnn_on_gpu": {"b": true}, "T": {"type": "DT_FLOAT"}, "data_format": {"s": "TkhXQw=="}, "dilations": {"list": {"i": ["1", "1", "1", "1"]}}, "epsilon": {"f": 0.0}, "strides": {"list": {"i": ["1", "1", "1", "1"]}}, "padding": {"s": "U0FNRQ=="}, "num_args": {"i": "1"}, "TArgs": {"list": {"type": ["DT_FLOAT"]}}, "filter_format": {"s": "SFdJTw=="}, "explicit_paddings": {"list": {}}, "fused_ops": {"list": {"s": ["Qmlhc0FkZA=="]}}, "leakyrelu_alpha": {"f": 0.2}}}, {"name": "PartitionedCall/model/tf.math.sigmoid_9/Sigmoid", "op": "Sigmoid", "input": ["PartitionedCall/model/tf.math.add_12/Add"], "attr": {"T": {"type": "DT_FLOAT"}}}, {"name": "PartitionedCall/model/tf.math.multiply_35/Mul", "op": "Mul", "input": ["PartitionedCall/model/tf.math.add_12/Add", "PartitionedCall/model/tf.math.sigmoid_9/Sigmoid"], "attr": {"T": {"type": "DT_FLOAT"}}}, {"name": "PartitionedCall/model/tf.compat.v1.pad_2/Pad", "op": "Pad", "input": ["PartitionedCall/model/tf.math.multiply_35/Mul", "4336"], "attr": {"T": {"type": "DT_FLOAT"}, "Tpaddings": {"type": "DT_INT32"}}}, {"name": "PartitionedCall/model/tf.math.add_13/Add", "op": "_FusedConv2D", "input": ["PartitionedCall/model/tf.compat.v1.pad_2/Pad", "4338", "4340"], "device": "/device:CPU:0", "attr": {"TArgs": {"list": {"type": ["DT_FLOAT"]}}, "dilations": {"list": {"i": ["1", "1", "1", "1"]}}, "filter_format": {"s": "SFdJTw=="}, "num_host_args": {"i": "0"}, "T": {"type": "DT_FLOAT"}, "fused_ops": {"list": {"s": ["Qmlhc0FkZA=="]}}, "leakyrelu_alpha": {"f": 0.2}, "padding": {"s": "VkFMSUQ="}, "use_cudnn_on_gpu": {"b": true}, "epsilon": {"f": 0.0}, "strides": {"list": {"i": ["1", "2", "2", "1"]}}, "data_format": {"s": "TkhXQw=="}, "num_args": {"i": "1"}, "explicit_paddings": {"list": {}}}}, {"name": "PartitionedCall/model/tf.math.sigmoid_10/Sigmoid", "op": "Sigmoid", "input": ["PartitionedCall/model/tf.math.add_13/Add"], "attr": {"T": {"type": "DT_FLOAT"}}}, {"name": "PartitionedCall/model/tf.math.multiply_38/Mul", "op": "Mul", "input": ["PartitionedCall/model/tf.math.add_13/Add", "PartitionedCall/model/tf.math.sigmoid_10/Sigmoid"], "attr": {"T": {"type": "DT_FLOAT"}}}, {"name": "PartitionedCall/model/tf.math.add_14/Add", "op": "_FusedConv2D", "input": ["PartitionedCall/model/tf.math.multiply_38/Mul", "4342", "4344"], "device": "/device:CPU:0", "attr": {"data_format": {"s": "TkhXQw=="}, "use_cudnn_on_gpu": {"b": true}, "fused_ops": {"list": {"s": ["Qmlhc0FkZA=="]}}, "dilations": {"list": {"i": ["1", "1", "1", "1"]}}, "strides": {"list": {"i": ["1", "1", "1", "1"]}}, "T": {"type": "DT_FLOAT"}, "padding": {"s": "U0FNRQ=="}, "filter_format": {"s": "SFdJTw=="}, "leakyrelu_alpha": {"f": 0.2}, "explicit_paddings": {"list": {}}, "TArgs": {"list": {"type": ["DT_FLOAT"]}}, "num_host_args": {"i": "0"}, "num_args": {"i": "1"}, "epsilon": {"f": 0.0}}}, {"name": "PartitionedCall/model/tf.math.sigmoid_11/Sigmoid", "op": "Sigmoid", "input": ["PartitionedCall/model/tf.math.add_14/Add"], "attr": {"T": {"type": "DT_FLOAT"}}}, {"name": "PartitionedCall/model/tf.math.multiply_41/Mul", "op": "Mul", "input": ["PartitionedCall/model/tf.math.add_14/Add", "PartitionedCall/model/tf.math.sigmoid_11/Sigmoid"], "attr": {"T": {"type": "DT_FLOAT"}}}, {"name": "PartitionedCall/model/tf.strided_slice_2/StridedSlice", "op": "StridedSlice", "input": ["PartitionedCall/model/tf.math.multiply_41/Mul", "4398", "4400", "PartitionedCall/model/tf.strided_slice_2/ones_like"], "attr": {"T": {"type": "DT_FLOAT"}, "Index": {"type": "DT_INT64"}, "begin_mask": {"i": "15"}, "end_mask": {"i": "7"}, "ellipsis_mask": {"i": "0"}, "new_axis_mask": {"i": "0"}, "shrink_axis_mask": {"i": "0"}}}, {"name": "PartitionedCall/model/tf.strided_slice_3/StridedSlice", "op": "StridedSlice", "input": ["PartitionedCall/model/tf.math.multiply_41/Mul", "4346", "4348", "PartitionedCall/model/tf.strided_slice_3/ones_like"], "attr": {"shrink_axis_mask": {"i": "0"}, "end_mask": {"i": "7"}, "T": {"type": "DT_FLOAT"}, "ellipsis_mask": {"i": "0"}, "new_axis_mask": {"i": "0"}, "begin_mask": {"i": "7"}, "Index": {"type": "DT_INT64"}}}, {"name": "PartitionedCall/model/tf.math.add_15/Add", "op": "_FusedConv2D", "input": ["PartitionedCall/model/tf.strided_slice_3/StridedSlice", "4350", "4352"], "device": "/device:CPU:0", "attr": {"filter_format": {"s": "SFdJTw=="}, "dilations": {"list": {"i": ["1", "1", "1", "1"]}}, "fused_ops": {"list": {"s": ["Qmlhc0FkZA=="]}}, "TArgs": {"list": {"type": ["DT_FLOAT"]}}, "explicit_paddings": {"list": {}}, "epsilon": {"f": 0.0}, "strides": {"list": {"i": ["1", "1", "1", "1"]}}, "padding": {"s": "U0FNRQ=="}, "T": {"type": "DT_FLOAT"}, "use_cudnn_on_gpu": {"b": true}, "num_host_args": {"i": "0"}, "num_args": {"i": "1"}, "leakyrelu_alpha": {"f": 0.2}, "data_format": {"s": "TkhXQw=="}}}, {"name": "PartitionedCall/model/tf.math.sigmoid_12/Sigmoid", "op": "Sigmoid", "input": ["PartitionedCall/model/tf.math.add_15/Add"], "attr": {"T": {"type": "DT_FLOAT"}}}, {"name": "PartitionedCall/model/tf.math.multiply_44/Mul", "op": "Mul", "input": ["PartitionedCall/model/tf.math.add_15/Add", "PartitionedCall/model/tf.math.sigmoid_12/Sigmoid"], "attr": {"T": {"type": "DT_FLOAT"}}}, {"name": "PartitionedCall/model/tf.math.add_16/Add", "op": "_FusedConv2D", "input": ["PartitionedCall/model/tf.math.multiply_44/Mul", "4354", "4356"], "device": "/device:CPU:0", "attr": {"TArgs": {"list": {"type": ["DT_FLOAT"]}}, "dilations": {"list": {"i": ["1", "1", "1", "1"]}}, "data_format": {"s": "TkhXQw=="}, "padding": {"s": "U0FNRQ=="}, "use_cudnn_on_gpu": {"b": true}, "leakyrelu_alpha": {"f": 0.2}, "explicit_paddings": {"list": {}}, "filter_format": {"s": "SFdJTw=="}, "fused_ops": {"list": {"s": ["Qmlhc0FkZA=="]}}, "num_args": {"i": "1"}, "T": {"type": "DT_FLOAT"}, "epsilon": {"f": 0.0}, "strides": {"list": {"i": ["1", "1", "1", "1"]}}, "num_host_args": {"i": "0"}}}, {"name": "PartitionedCall/model/tf.math.sigmoid_13/Sigmoid", "op": "Sigmoid", "input": ["PartitionedCall/model/tf.math.add_16/Add"], "attr": {"T": {"type": "DT_FLOAT"}}}, {"name": "PartitionedCall/model/tf.math.multiply_47/Mul", "op": "Mul", "input": ["PartitionedCall/model/tf.math.add_16/Add", "PartitionedCall/model/tf.math.sigmoid_13/Sigmoid"], "attr": {"T": {"type": "DT_FLOAT"}}}, {"name": "PartitionedCall/model/tf.math.add_17/Add", "op": "AddV2", "input": ["PartitionedCall/model/tf.strided_slice_3/StridedSlice", "PartitionedCall/model/tf.math.multiply_47/Mul"], "attr": {"T": {"type": "DT_FLOAT"}}}, {"name": "PartitionedCall/model/tf.math.add_18/Add", "op": "_FusedConv2D", "input": ["PartitionedCall/model/tf.math.add_17/Add", "4358", "4360"], "device": "/device:CPU:0", "attr": {"strides": {"list": {"i": ["1", "1", "1", "1"]}}, "use_cudnn_on_gpu": {"b": true}, "num_args": {"i": "1"}, "num_host_args": {"i": "0"}, "leakyrelu_alpha": {"f": 0.2}, "fused_ops": {"list": {"s": ["Qmlhc0FkZA=="]}}, "dilations": {"list": {"i": ["1", "1", "1", "1"]}}, "filter_format": {"s": "SFdJTw=="}, "T": {"type": "DT_FLOAT"}, "padding": {"s": "U0FNRQ=="}, "data_format": {"s": "TkhXQw=="}, "TArgs": {"list": {"type": ["DT_FLOAT"]}}, "explicit_paddings": {"list": {}}, "epsilon": {"f": 0.0}}}, {"name": "PartitionedCall/model/tf.math.sigmoid_14/Sigmoid", "op": "Sigmoid", "input": ["PartitionedCall/model/tf.math.add_18/Add"], "attr": {"T": {"type": "DT_FLOAT"}}}, {"name": "PartitionedCall/model/tf.math.multiply_52/Mul", "op": "Mul", "input": ["PartitionedCall/model/tf.math.add_18/Add", "PartitionedCall/model/tf.math.sigmoid_14/Sigmoid"], "attr": {"T": {"type": "DT_FLOAT"}}}, {"name": "PartitionedCall/model/tf.math.add_19/Add", "op": "_FusedConv2D", "input": ["PartitionedCall/model/tf.math.multiply_52/Mul", "4362", "4364"], "device": "/device:CPU:0", "attr": {"leakyrelu_alpha": {"f": 0.2}, "epsilon": {"f": 0.0}, "dilations": {"list": {"i": ["1", "1", "1", "1"]}}, "data_format": {"s": "TkhXQw=="}, "num_args": {"i": "1"}, "padding": {"s": "U0FNRQ=="}, "use_cudnn_on_gpu": {"b": true}, "fused_ops": {"list": {"s": ["Qmlhc0FkZA=="]}}, "num_host_args": {"i": "0"}, "T": {"type": "DT_FLOAT"}, "explicit_paddings": {"list": {}}, "strides": {"list": {"i": ["1", "1", "1", "1"]}}, "filter_format": {"s": "SFdJTw=="}, "TArgs": {"list": {"type": ["DT_FLOAT"]}}}}, {"name": "PartitionedCall/model/tf.math.sigmoid_15/Sigmoid", "op": "Sigmoid", "input": ["PartitionedCall/model/tf.math.add_19/Add"], "attr": {"T": {"type": "DT_FLOAT"}}}, {"name": "PartitionedCall/model/tf.math.multiply_55/Mul", "op": "Mul", "input": ["PartitionedCall/model/tf.math.add_19/Add", "PartitionedCall/model/tf.math.sigmoid_15/Sigmoid"], "attr": {"T": {"type": "DT_FLOAT"}}}, {"name": "PartitionedCall/model/tf.math.add_20/Add", "op": "AddV2", "input": ["PartitionedCall/model/tf.math.add_17/Add", "PartitionedCall/model/tf.math.multiply_55/Mul"], "attr": {"T": {"type": "DT_FLOAT"}}}, {"name": "PartitionedCall/model/tf.math.add_21/Add", "op": "_FusedConv2D", "input": ["PartitionedCall/model/tf.math.add_20/Add", "4366", "4368"], "device": "/device:CPU:0", "attr": {"num_args": {"i": "1"}, "data_format": {"s": "TkhXQw=="}, "num_host_args": {"i": "0"}, "fused_ops": {"list": {"s": ["Qmlhc0FkZA=="]}}, "strides": {"list": {"i": ["1", "1", "1", "1"]}}, "explicit_paddings": {"list": {}}, "use_cudnn_on_gpu": {"b": true}, "leakyrelu_alpha": {"f": 0.2}, "padding": {"s": "U0FNRQ=="}, "TArgs": {"list": {"type": ["DT_FLOAT"]}}, "T": {"type": "DT_FLOAT"}, "dilations": {"list": {"i": ["1", "1", "1", "1"]}}, "epsilon": {"f": 0.0}, "filter_format": {"s": "SFdJTw=="}}}, {"name": "PartitionedCall/model/tf.math.sigmoid_16/Sigmoid", "op": "Sigmoid", "input": ["PartitionedCall/model/tf.math.add_21/Add"], "attr": {"T": {"type": "DT_FLOAT"}}}, {"name": "PartitionedCall/model/tf.math.multiply_60/Mul", "op": "Mul", "input": ["PartitionedCall/model/tf.math.add_21/Add", "PartitionedCall/model/tf.math.sigmoid_16/Sigmoid"], "attr": {"T": {"type": "DT_FLOAT"}}}, {"name": "PartitionedCall/model/tf.math.add_22/Add", "op": "_FusedConv2D", "input": ["PartitionedCall/model/tf.math.multiply_60/Mul", "4370", "4372"], "device": "/device:CPU:0", "attr": {"use_cudnn_on_gpu": {"b": true}, "strides": {"list": {"i": ["1", "1", "1", "1"]}}, "data_format": {"s": "TkhXQw=="}, "TArgs": {"list": {"type": ["DT_FLOAT"]}}, "leakyrelu_alpha": {"f": 0.2}, "num_host_args": {"i": "0"}, "filter_format": {"s": "SFdJTw=="}, "epsilon": {"f": 0.0}, "padding": {"s": "U0FNRQ=="}, "T": {"type": "DT_FLOAT"}, "num_args": {"i": "1"}, "fused_ops": {"list": {"s": ["Qmlhc0FkZA=="]}}, "explicit_paddings": {"list": {}}, "dilations": {"list": {"i": ["1", "1", "1", "1"]}}}}, {"name": "PartitionedCall/model/tf.math.sigmoid_17/Sigmoid", "op": "Sigmoid", "input": ["PartitionedCall/model/tf.math.add_22/Add"], "attr": {"T": {"type": "DT_FLOAT"}}}, {"name": "PartitionedCall/model/tf.math.multiply_63/Mul", "op": "Mul", "input": ["PartitionedCall/model/tf.math.add_22/Add", "PartitionedCall/model/tf.math.sigmoid_17/Sigmoid"], "attr": {"T": {"type": "DT_FLOAT"}}}, {"name": "PartitionedCall/model/tf.math.add_23/Add", "op": "AddV2", "input": ["PartitionedCall/model/tf.math.add_20/Add", "PartitionedCall/model/tf.math.multiply_63/Mul"], "attr": {"T": {"type": "DT_FLOAT"}}}, {"name": "PartitionedCall/model/tf.math.add_24/Add", "op": "_FusedConv2D", "input": ["PartitionedCall/model/tf.math.add_23/Add", "4374", "4376"], "device": "/device:CPU:0", "attr": {"num_host_args": {"i": "0"}, "padding": {"s": "U0FNRQ=="}, "TArgs": {"list": {"type": ["DT_FLOAT"]}}, "strides": {"list": {"i": ["1", "1", "1", "1"]}}, "use_cudnn_on_gpu": {"b": true}, "epsilon": {"f": 0.0}, "T": {"type": "DT_FLOAT"}, "filter_format": {"s": "SFdJTw=="}, "leakyrelu_alpha": {"f": 0.2}, "explicit_paddings": {"list": {}}, "dilations": {"list": {"i": ["1", "1", "1", "1"]}}, "data_format": {"s": "TkhXQw=="}, "num_args": {"i": "1"}, "fused_ops": {"list": {"s": ["Qmlhc0FkZA=="]}}}}, {"name": "PartitionedCall/model/tf.math.sigmoid_18/Sigmoid", "op": "Sigmoid", "input": ["PartitionedCall/model/tf.math.add_24/Add"], "attr": {"T": {"type": "DT_FLOAT"}}}, {"name": "PartitionedCall/model/tf.math.multiply_68/Mul", "op": "Mul", "input": ["PartitionedCall/model/tf.math.add_24/Add", "PartitionedCall/model/tf.math.sigmoid_18/Sigmoid"], "attr": {"T": {"type": "DT_FLOAT"}}}, {"name": "PartitionedCall/model/tf.math.add_25/Add", "op": "_FusedConv2D", "input": ["PartitionedCall/model/tf.math.multiply_68/Mul", "4378", "4380"], "device": "/device:CPU:0", "attr": {"dilations": {"list": {"i": ["1", "1", "1", "1"]}}, "num_host_args": {"i": "0"}, "TArgs": {"list": {"type": ["DT_FLOAT"]}}, "num_args": {"i": "1"}, "fused_ops": {"list": {"s": ["Qmlhc0FkZA=="]}}, "strides": {"list": {"i": ["1", "1", "1", "1"]}}, "filter_format": {"s": "SFdJTw=="}, "epsilon": {"f": 0.0}, "padding": {"s": "U0FNRQ=="}, "explicit_paddings": {"list": {}}, "data_format": {"s": "TkhXQw=="}, "use_cudnn_on_gpu": {"b": true}, "T": {"type": "DT_FLOAT"}, "leakyrelu_alpha": {"f": 0.2}}}, {"name": "PartitionedCall/model/tf.math.sigmoid_19/Sigmoid", "op": "Sigmoid", "input": ["PartitionedCall/model/tf.math.add_25/Add"], "attr": {"T": {"type": "DT_FLOAT"}}}, {"name": "PartitionedCall/model/tf.math.multiply_71/Mul", "op": "Mul", "input": ["PartitionedCall/model/tf.math.add_25/Add", "PartitionedCall/model/tf.math.sigmoid_19/Sigmoid"], "attr": {"T": {"type": "DT_FLOAT"}}}, {"name": "PartitionedCall/model/tf.math.add_26/Add", "op": "AddV2", "input": ["PartitionedCall/model/tf.math.add_23/Add", "PartitionedCall/model/tf.math.multiply_71/Mul"], "attr": {"T": {"type": "DT_FLOAT"}}}, {"name": "PartitionedCall/model/tf.math.add_27/Add", "op": "_FusedConv2D", "input": ["PartitionedCall/model/tf.math.add_26/Add", "4382", "4384"], "device": "/device:CPU:0", "attr": {"fused_ops": {"list": {"s": ["Qmlhc0FkZA=="]}}, "strides": {"list": {"i": ["1", "1", "1", "1"]}}, "epsilon": {"f": 0.0}, "data_format": {"s": "TkhXQw=="}, "filter_format": {"s": "SFdJTw=="}, "use_cudnn_on_gpu": {"b": true}, "T": {"type": "DT_FLOAT"}, "TArgs": {"list": {"type": ["DT_FLOAT"]}}, "num_args": {"i": "1"}, "explicit_paddings": {"list": {}}, "num_host_args": {"i": "0"}, "padding": {"s": "U0FNRQ=="}, "dilations": {"list": {"i": ["1", "1", "1", "1"]}}, "leakyrelu_alpha": {"f": 0.2}}}, {"name": "PartitionedCall/model/tf.math.sigmoid_20/Sigmoid", "op": "Sigmoid", "input": ["PartitionedCall/model/tf.math.add_27/Add"], "attr": {"T": {"type": "DT_FLOAT"}}}, {"name": "PartitionedCall/model/tf.math.multiply_76/Mul", "op": "Mul", "input": ["PartitionedCall/model/tf.math.add_27/Add", "PartitionedCall/model/tf.math.sigmoid_20/Sigmoid"], "attr": {"T": {"type": "DT_FLOAT"}}}, {"name": "PartitionedCall/model/tf.math.add_28/Add", "op": "_FusedConv2D", "input": ["PartitionedCall/model/tf.math.multiply_76/Mul", "4386", "4388"], "device": "/device:CPU:0", "attr": {"num_host_args": {"i": "0"}, "use_cudnn_on_gpu": {"b": true}, "epsilon": {"f": 0.0}, "fused_ops": {"list": {"s": ["Qmlhc0FkZA=="]}}, "T": {"type": "DT_FLOAT"}, "filter_format": {"s": "SFdJTw=="}, "data_format": {"s": "TkhXQw=="}, "explicit_paddings": {"list": {}}, "TArgs": {"list": {"type": ["DT_FLOAT"]}}, "dilations": {"list": {"i": ["1", "1", "1", "1"]}}, "num_args": {"i": "1"}, "padding": {"s": "U0FNRQ=="}, "strides": {"list": {"i": ["1", "1", "1", "1"]}}, "leakyrelu_alpha": {"f": 0.2}}}, {"name": "PartitionedCall/model/tf.math.sigmoid_21/Sigmoid", "op": "Sigmoid", "input": ["PartitionedCall/model/tf.math.add_28/Add"], "attr": {"T": {"type": "DT_FLOAT"}}}, {"name": "PartitionedCall/model/tf.math.multiply_79/Mul", "op": "Mul", "input": ["PartitionedCall/model/tf.math.add_28/Add", "PartitionedCall/model/tf.math.sigmoid_21/Sigmoid"], "attr": {"T": {"type": "DT_FLOAT"}}}, {"name": "PartitionedCall/model/tf.math.add_29/Add", "op": "AddV2", "input": ["PartitionedCall/model/tf.math.add_26/Add", "PartitionedCall/model/tf.math.multiply_79/Mul"], "attr": {"T": {"type": "DT_FLOAT"}}}, {"name": "PartitionedCall/model/tf.math.add_30/Add", "op": "_FusedConv2D", "input": ["PartitionedCall/model/tf.math.add_29/Add", "4390", "4392"], "device": "/device:CPU:0", "attr": {"dilations": {"list": {"i": ["1", "1", "1", "1"]}}, "use_cudnn_on_gpu": {"b": true}, "filter_format": {"s": "SFdJTw=="}, "TArgs": {"list": {"type": ["DT_FLOAT"]}}, "fused_ops": {"list": {"s": ["Qmlhc0FkZA=="]}}, "explicit_paddings": {"list": {}}, "leakyrelu_alpha": {"f": 0.2}, "data_format": {"s": "TkhXQw=="}, "num_host_args": {"i": "0"}, "num_args": {"i": "1"}, "epsilon": {"f": 0.0}, "strides": {"list": {"i": ["1", "1", "1", "1"]}}, "padding": {"s": "U0FNRQ=="}, "T": {"type": "DT_FLOAT"}}}, {"name": "PartitionedCall/model/tf.math.sigmoid_22/Sigmoid", "op": "Sigmoid", "input": ["PartitionedCall/model/tf.math.add_30/Add"], "attr": {"T": {"type": "DT_FLOAT"}}}, {"name": "PartitionedCall/model/tf.math.multiply_84/Mul", "op": "Mul", "input": ["PartitionedCall/model/tf.math.add_30/Add", "PartitionedCall/model/tf.math.sigmoid_22/Sigmoid"], "attr": {"T": {"type": "DT_FLOAT"}}}, {"name": "PartitionedCall/model/tf.math.add_31/Add", "op": "_FusedConv2D", "input": ["PartitionedCall/model/tf.math.multiply_84/Mul", "4394", "4396"], "device": "/device:CPU:0", "attr": {"use_cudnn_on_gpu": {"b": true}, "TArgs": {"list": {"type": ["DT_FLOAT"]}}, "num_host_args": {"i": "0"}, "epsilon": {"f": 0.0}, "padding": {"s": "U0FNRQ=="}, "dilations": {"list": {"i": ["1", "1", "1", "1"]}}, "data_format": {"s": "TkhXQw=="}, "T": {"type": "DT_FLOAT"}, "num_args": {"i": "1"}, "explicit_paddings": {"list": {}}, "fused_ops": {"list": {"s": ["Qmlhc0FkZA=="]}}, "leakyrelu_alpha": {"f": 0.2}, "strides": {"list": {"i": ["1", "1", "1", "1"]}}, "filter_format": {"s": "SFdJTw=="}}}, {"name": "PartitionedCall/model/tf.math.sigmoid_23/Sigmoid", "op": "Sigmoid", "input": ["PartitionedCall/model/tf.math.add_31/Add"], "attr": {"T": {"type": "DT_FLOAT"}}}, {"name": "PartitionedCall/model/tf.math.multiply_87/Mul", "op": "Mul", "input": ["PartitionedCall/model/tf.math.add_31/Add", "PartitionedCall/model/tf.math.sigmoid_23/Sigmoid"], "attr": {"T": {"type": "DT_FLOAT"}}}, {"name": "PartitionedCall/model/tf.math.add_32/Add", "op": "AddV2", "input": ["PartitionedCall/model/tf.math.add_29/Add", "PartitionedCall/model/tf.math.multiply_87/Mul"], "attr": {"T": {"type": "DT_FLOAT"}}}, {"name": "PartitionedCall/model/tf.concat_1/concat", "op": "ConcatV2", "input": ["PartitionedCall/model/tf.strided_slice_2/StridedSlice", "PartitionedCall/model/tf.strided_slice_3/StridedSlice", "PartitionedCall/model/tf.math.add_17/Add", "PartitionedCall/model/tf.math.add_20/Add", "PartitionedCall/model/tf.math.add_23/Add", "PartitionedCall/model/tf.math.add_26/Add", "PartitionedCall/model/tf.math.add_29/Add", "PartitionedCall/model/tf.math.add_32/Add", "PartitionedCall/model/tf.concat_1/concat/axis"], "attr": {"T": {"type": "DT_FLOAT"}, "Tidx": {"type": "DT_INT32"}, "N": {"i": "8"}}}, {"name": "PartitionedCall/model/tf.math.add_33/Add", "op": "_FusedConv2D", "input": ["PartitionedCall/model/tf.concat_1/concat", "4402", "4404"], "device": "/device:CPU:0", "attr": {"explicit_paddings": {"list": {}}, "data_format": {"s": "TkhXQw=="}, "epsilon": {"f": 0.0}, "filter_format": {"s": "SFdJTw=="}, "num_args": {"i": "1"}, "strides": {"list": {"i": ["1", "1", "1", "1"]}}, "padding": {"s": "U0FNRQ=="}, "leakyrelu_alpha": {"f": 0.2}, "use_cudnn_on_gpu": {"b": true}, "fused_ops": {"list": {"s": ["Qmlhc0FkZA=="]}}, "num_host_args": {"i": "0"}, "dilations": {"list": {"i": ["1", "1", "1", "1"]}}, "T": {"type": "DT_FLOAT"}, "TArgs": {"list": {"type": ["DT_FLOAT"]}}}}, {"name": "PartitionedCall/model/tf.math.sigmoid_24/Sigmoid", "op": "Sigmoid", "input": ["PartitionedCall/model/tf.math.add_33/Add"], "attr": {"T": {"type": "DT_FLOAT"}}}, {"name": "PartitionedCall/model/tf.math.multiply_92/Mul", "op": "Mul", "input": ["PartitionedCall/model/tf.math.add_33/Add", "PartitionedCall/model/tf.math.sigmoid_24/Sigmoid"], "attr": {"T": {"type": "DT_FLOAT"}}}, {"name": "PartitionedCall/model/tf.compat.v1.pad_3/Pad", "op": "Pad", "input": ["PartitionedCall/model/tf.math.multiply_92/Mul", "4406"], "attr": {"Tpaddings": {"type": "DT_INT32"}, "T": {"type": "DT_FLOAT"}}}, {"name": "PartitionedCall/model/tf.math.add_34/Add", "op": "_FusedConv2D", "input": ["PartitionedCall/model/tf.compat.v1.pad_3/Pad", "4408", "4410"], "device": "/device:CPU:0", "attr": {"dilations": {"list": {"i": ["1", "1", "1", "1"]}}, "num_args": {"i": "1"}, "leakyrelu_alpha": {"f": 0.2}, "epsilon": {"f": 0.0}, "strides": {"list": {"i": ["1", "2", "2", "1"]}}, "filter_format": {"s": "SFdJTw=="}, "fused_ops": {"list": {"s": ["Qmlhc0FkZA=="]}}, "use_cudnn_on_gpu": {"b": true}, "padding": {"s": "VkFMSUQ="}, "data_format": {"s": "TkhXQw=="}, "T": {"type": "DT_FLOAT"}, "explicit_paddings": {"list": {}}, "num_host_args": {"i": "0"}, "TArgs": {"list": {"type": ["DT_FLOAT"]}}}}, {"name": "PartitionedCall/model/tf.math.sigmoid_25/Sigmoid", "op": "Sigmoid", "input": ["PartitionedCall/model/tf.math.add_34/Add"], "attr": {"T": {"type": "DT_FLOAT"}}}, {"name": "PartitionedCall/model/tf.math.multiply_95/Mul", "op": "Mul", "input": ["PartitionedCall/model/tf.math.add_34/Add", "PartitionedCall/model/tf.math.sigmoid_25/Sigmoid"], "attr": {"T": {"type": "DT_FLOAT"}}}, {"name": "PartitionedCall/model/tf.math.add_35/Add", "op": "_FusedConv2D", "input": ["PartitionedCall/model/tf.math.multiply_95/Mul", "4412", "4414"], "device": "/device:CPU:0", "attr": {"fused_ops": {"list": {"s": ["Qmlhc0FkZA=="]}}, "explicit_paddings": {"list": {}}, "T": {"type": "DT_FLOAT"}, "epsilon": {"f": 0.0}, "use_cudnn_on_gpu": {"b": true}, "filter_format": {"s": "SFdJTw=="}, "TArgs": {"list": {"type": ["DT_FLOAT"]}}, "num_host_args": {"i": "0"}, "leakyrelu_alpha": {"f": 0.2}, "data_format": {"s": "TkhXQw=="}, "padding": {"s": "U0FNRQ=="}, "dilations": {"list": {"i": ["1", "1", "1", "1"]}}, "num_args": {"i": "1"}, "strides": {"list": {"i": ["1", "1", "1", "1"]}}}}, {"name": "PartitionedCall/model/tf.math.sigmoid_26/Sigmoid", "op": "Sigmoid", "input": ["PartitionedCall/model/tf.math.add_35/Add"], "attr": {"T": {"type": "DT_FLOAT"}}}, {"name": "PartitionedCall/model/tf.math.multiply_98/Mul", "op": "Mul", "input": ["PartitionedCall/model/tf.math.add_35/Add", "PartitionedCall/model/tf.math.sigmoid_26/Sigmoid"], "attr": {"T": {"type": "DT_FLOAT"}}}, {"name": "PartitionedCall/model/tf.strided_slice_4/StridedSlice", "op": "StridedSlice", "input": ["PartitionedCall/model/tf.math.multiply_98/Mul", "4468", "4470", "PartitionedCall/model/tf.strided_slice_4/ones_like"], "attr": {"T": {"type": "DT_FLOAT"}, "Index": {"type": "DT_INT64"}, "ellipsis_mask": {"i": "0"}, "shrink_axis_mask": {"i": "0"}, "begin_mask": {"i": "15"}, "end_mask": {"i": "7"}, "new_axis_mask": {"i": "0"}}}, {"name": "PartitionedCall/model/tf.strided_slice_5/StridedSlice", "op": "StridedSlice", "input": ["PartitionedCall/model/tf.math.multiply_98/Mul", "4416", "4418", "PartitionedCall/model/tf.strided_slice_5/ones_like"], "attr": {"Index": {"type": "DT_INT64"}, "new_axis_mask": {"i": "0"}, "shrink_axis_mask": {"i": "0"}, "T": {"type": "DT_FLOAT"}, "end_mask": {"i": "7"}, "ellipsis_mask": {"i": "0"}, "begin_mask": {"i": "7"}}}, {"name": "PartitionedCall/model/tf.math.add_36/Add", "op": "_FusedConv2D", "input": ["PartitionedCall/model/tf.strided_slice_5/StridedSlice", "4420", "4422"], "device": "/device:CPU:0", "attr": {"dilations": {"list": {"i": ["1", "1", "1", "1"]}}, "num_host_args": {"i": "0"}, "strides": {"list": {"i": ["1", "1", "1", "1"]}}, "leakyrelu_alpha": {"f": 0.2}, "epsilon": {"f": 0.0}, "num_args": {"i": "1"}, "filter_format": {"s": "SFdJTw=="}, "use_cudnn_on_gpu": {"b": true}, "data_format": {"s": "TkhXQw=="}, "fused_ops": {"list": {"s": ["Qmlhc0FkZA=="]}}, "padding": {"s": "U0FNRQ=="}, "T": {"type": "DT_FLOAT"}, "explicit_paddings": {"list": {}}, "TArgs": {"list": {"type": ["DT_FLOAT"]}}}}, {"name": "PartitionedCall/model/tf.math.sigmoid_27/Sigmoid", "op": "Sigmoid", "input": ["PartitionedCall/model/tf.math.add_36/Add"], "attr": {"T": {"type": "DT_FLOAT"}}}, {"name": "PartitionedCall/model/tf.math.multiply_101/Mul", "op": "Mul", "input": ["PartitionedCall/model/tf.math.add_36/Add", "PartitionedCall/model/tf.math.sigmoid_27/Sigmoid"], "attr": {"T": {"type": "DT_FLOAT"}}}, {"name": "PartitionedCall/model/tf.math.add_37/Add", "op": "_FusedConv2D", "input": ["PartitionedCall/model/tf.math.multiply_101/Mul", "4424", "4426"], "device": "/device:CPU:0", "attr": {"filter_format": {"s": "SFdJTw=="}, "data_format": {"s": "TkhXQw=="}, "num_args": {"i": "1"}, "strides": {"list": {"i": ["1", "1", "1", "1"]}}, "T": {"type": "DT_FLOAT"}, "epsilon": {"f": 0.0}, "explicit_paddings": {"list": {}}, "TArgs": {"list": {"type": ["DT_FLOAT"]}}, "padding": {"s": "U0FNRQ=="}, "fused_ops": {"list": {"s": ["Qmlhc0FkZA=="]}}, "dilations": {"list": {"i": ["1", "1", "1", "1"]}}, "leakyrelu_alpha": {"f": 0.2}, "num_host_args": {"i": "0"}, "use_cudnn_on_gpu": {"b": true}}}, {"name": "PartitionedCall/model/tf.math.sigmoid_28/Sigmoid", "op": "Sigmoid", "input": ["PartitionedCall/model/tf.math.add_37/Add"], "attr": {"T": {"type": "DT_FLOAT"}}}, {"name": "PartitionedCall/model/tf.math.multiply_104/Mul", "op": "Mul", "input": ["PartitionedCall/model/tf.math.add_37/Add", "PartitionedCall/model/tf.math.sigmoid_28/Sigmoid"], "attr": {"T": {"type": "DT_FLOAT"}}}, {"name": "PartitionedCall/model/tf.math.add_38/Add", "op": "AddV2", "input": ["PartitionedCall/model/tf.strided_slice_5/StridedSlice", "PartitionedCall/model/tf.math.multiply_104/Mul"], "attr": {"T": {"type": "DT_FLOAT"}}}, {"name": "PartitionedCall/model/tf.math.add_39/Add", "op": "_FusedConv2D", "input": ["PartitionedCall/model/tf.math.add_38/Add", "4428", "4430"], "device": "/device:CPU:0", "attr": {"filter_format": {"s": "SFdJTw=="}, "explicit_paddings": {"list": {}}, "padding": {"s": "U0FNRQ=="}, "num_host_args": {"i": "0"}, "T": {"type": "DT_FLOAT"}, "data_format": {"s": "TkhXQw=="}, "dilations": {"list": {"i": ["1", "1", "1", "1"]}}, "TArgs": {"list": {"type": ["DT_FLOAT"]}}, "strides": {"list": {"i": ["1", "1", "1", "1"]}}, "num_args": {"i": "1"}, "epsilon": {"f": 0.0}, "leakyrelu_alpha": {"f": 0.2}, "use_cudnn_on_gpu": {"b": true}, "fused_ops": {"list": {"s": ["Qmlhc0FkZA=="]}}}}, {"name": "PartitionedCall/model/tf.math.sigmoid_29/Sigmoid", "op": "Sigmoid", "input": ["PartitionedCall/model/tf.math.add_39/Add"], "attr": {"T": {"type": "DT_FLOAT"}}}, {"name": "PartitionedCall/model/tf.math.multiply_109/Mul", "op": "Mul", "input": ["PartitionedCall/model/tf.math.add_39/Add", "PartitionedCall/model/tf.math.sigmoid_29/Sigmoid"], "attr": {"T": {"type": "DT_FLOAT"}}}, {"name": "PartitionedCall/model/tf.math.add_40/Add", "op": "_FusedConv2D", "input": ["PartitionedCall/model/tf.math.multiply_109/Mul", "4432", "4434"], "device": "/device:CPU:0", "attr": {"num_args": {"i": "1"}, "num_host_args": {"i": "0"}, "epsilon": {"f": 0.0}, "filter_format": {"s": "SFdJTw=="}, "fused_ops": {"list": {"s": ["Qmlhc0FkZA=="]}}, "padding": {"s": "U0FNRQ=="}, "T": {"type": "DT_FLOAT"}, "explicit_paddings": {"list": {}}, "TArgs": {"list": {"type": ["DT_FLOAT"]}}, "data_format": {"s": "TkhXQw=="}, "strides": {"list": {"i": ["1", "1", "1", "1"]}}, "dilations": {"list": {"i": ["1", "1", "1", "1"]}}, "leakyrelu_alpha": {"f": 0.2}, "use_cudnn_on_gpu": {"b": true}}}, {"name": "PartitionedCall/model/tf.math.sigmoid_30/Sigmoid", "op": "Sigmoid", "input": ["PartitionedCall/model/tf.math.add_40/Add"], "attr": {"T": {"type": "DT_FLOAT"}}}, {"name": "PartitionedCall/model/tf.math.multiply_112/Mul", "op": "Mul", "input": ["PartitionedCall/model/tf.math.add_40/Add", "PartitionedCall/model/tf.math.sigmoid_30/Sigmoid"], "attr": {"T": {"type": "DT_FLOAT"}}}, {"name": "PartitionedCall/model/tf.math.add_41/Add", "op": "AddV2", "input": ["PartitionedCall/model/tf.math.add_38/Add", "PartitionedCall/model/tf.math.multiply_112/Mul"], "attr": {"T": {"type": "DT_FLOAT"}}}, {"name": "PartitionedCall/model/tf.math.add_42/Add", "op": "_FusedConv2D", "input": ["PartitionedCall/model/tf.math.add_41/Add", "4436", "4438"], "device": "/device:CPU:0", "attr": {"use_cudnn_on_gpu": {"b": true}, "num_host_args": {"i": "0"}, "padding": {"s": "U0FNRQ=="}, "filter_format": {"s": "SFdJTw=="}, "dilations": {"list": {"i": ["1", "1", "1", "1"]}}, "explicit_paddings": {"list": {}}, "strides": {"list": {"i": ["1", "1", "1", "1"]}}, "fused_ops": {"list": {"s": ["Qmlhc0FkZA=="]}}, "TArgs": {"list": {"type": ["DT_FLOAT"]}}, "leakyrelu_alpha": {"f": 0.2}, "num_args": {"i": "1"}, "epsilon": {"f": 0.0}, "T": {"type": "DT_FLOAT"}, "data_format": {"s": "TkhXQw=="}}}, {"name": "PartitionedCall/model/tf.math.sigmoid_31/Sigmoid", "op": "Sigmoid", "input": ["PartitionedCall/model/tf.math.add_42/Add"], "attr": {"T": {"type": "DT_FLOAT"}}}, {"name": "PartitionedCall/model/tf.math.multiply_117/Mul", "op": "Mul", "input": ["PartitionedCall/model/tf.math.add_42/Add", "PartitionedCall/model/tf.math.sigmoid_31/Sigmoid"], "attr": {"T": {"type": "DT_FLOAT"}}}, {"name": "PartitionedCall/model/tf.math.add_43/Add", "op": "_FusedConv2D", "input": ["PartitionedCall/model/tf.math.multiply_117/Mul", "4440", "4442"], "device": "/device:CPU:0", "attr": {"data_format": {"s": "TkhXQw=="}, "T": {"type": "DT_FLOAT"}, "num_host_args": {"i": "0"}, "use_cudnn_on_gpu": {"b": true}, "leakyrelu_alpha": {"f": 0.2}, "TArgs": {"list": {"type": ["DT_FLOAT"]}}, "num_args": {"i": "1"}, "explicit_paddings": {"list": {}}, "filter_format": {"s": "SFdJTw=="}, "strides": {"list": {"i": ["1", "1", "1", "1"]}}, "epsilon": {"f": 0.0}, "dilations": {"list": {"i": ["1", "1", "1", "1"]}}, "padding": {"s": "U0FNRQ=="}, "fused_ops": {"list": {"s": ["Qmlhc0FkZA=="]}}}}, {"name": "PartitionedCall/model/tf.math.sigmoid_32/Sigmoid", "op": "Sigmoid", "input": ["PartitionedCall/model/tf.math.add_43/Add"], "attr": {"T": {"type": "DT_FLOAT"}}}, {"name": "PartitionedCall/model/tf.math.multiply_120/Mul", "op": "Mul", "input": ["PartitionedCall/model/tf.math.add_43/Add", "PartitionedCall/model/tf.math.sigmoid_32/Sigmoid"], "attr": {"T": {"type": "DT_FLOAT"}}}, {"name": "PartitionedCall/model/tf.math.add_44/Add", "op": "AddV2", "input": ["PartitionedCall/model/tf.math.add_41/Add", "PartitionedCall/model/tf.math.multiply_120/Mul"], "attr": {"T": {"type": "DT_FLOAT"}}}, {"name": "PartitionedCall/model/tf.math.add_45/Add", "op": "_FusedConv2D", "input": ["PartitionedCall/model/tf.math.add_44/Add", "4444", "4446"], "device": "/device:CPU:0", "attr": {"explicit_paddings": {"list": {}}, "T": {"type": "DT_FLOAT"}, "num_host_args": {"i": "0"}, "strides": {"list": {"i": ["1", "1", "1", "1"]}}, "TArgs": {"list": {"type": ["DT_FLOAT"]}}, "epsilon": {"f": 0.0}, "num_args": {"i": "1"}, "use_cudnn_on_gpu": {"b": true}, "leakyrelu_alpha": {"f": 0.2}, "filter_format": {"s": "SFdJTw=="}, "data_format": {"s": "TkhXQw=="}, "dilations": {"list": {"i": ["1", "1", "1", "1"]}}, "padding": {"s": "U0FNRQ=="}, "fused_ops": {"list": {"s": ["Qmlhc0FkZA=="]}}}}, {"name": "PartitionedCall/model/tf.math.sigmoid_33/Sigmoid", "op": "Sigmoid", "input": ["PartitionedCall/model/tf.math.add_45/Add"], "attr": {"T": {"type": "DT_FLOAT"}}}, {"name": "PartitionedCall/model/tf.math.multiply_125/Mul", "op": "Mul", "input": ["PartitionedCall/model/tf.math.add_45/Add", "PartitionedCall/model/tf.math.sigmoid_33/Sigmoid"], "attr": {"T": {"type": "DT_FLOAT"}}}, {"name": "PartitionedCall/model/tf.math.add_46/Add", "op": "_FusedConv2D", "input": ["PartitionedCall/model/tf.math.multiply_125/Mul", "4448", "4450"], "device": "/device:CPU:0", "attr": {"padding": {"s": "U0FNRQ=="}, "num_host_args": {"i": "0"}, "num_args": {"i": "1"}, "fused_ops": {"list": {"s": ["Qmlhc0FkZA=="]}}, "leakyrelu_alpha": {"f": 0.2}, "dilations": {"list": {"i": ["1", "1", "1", "1"]}}, "epsilon": {"f": 0.0}, "T": {"type": "DT_FLOAT"}, "TArgs": {"list": {"type": ["DT_FLOAT"]}}, "use_cudnn_on_gpu": {"b": true}, "strides": {"list": {"i": ["1", "1", "1", "1"]}}, "data_format": {"s": "TkhXQw=="}, "explicit_paddings": {"list": {}}, "filter_format": {"s": "SFdJTw=="}}}, {"name": "PartitionedCall/model/tf.math.sigmoid_34/Sigmoid", "op": "Sigmoid", "input": ["PartitionedCall/model/tf.math.add_46/Add"], "attr": {"T": {"type": "DT_FLOAT"}}}, {"name": "PartitionedCall/model/tf.math.multiply_128/Mul", "op": "Mul", "input": ["PartitionedCall/model/tf.math.add_46/Add", "PartitionedCall/model/tf.math.sigmoid_34/Sigmoid"], "attr": {"T": {"type": "DT_FLOAT"}}}, {"name": "PartitionedCall/model/tf.math.add_47/Add", "op": "AddV2", "input": ["PartitionedCall/model/tf.math.add_44/Add", "PartitionedCall/model/tf.math.multiply_128/Mul"], "attr": {"T": {"type": "DT_FLOAT"}}}, {"name": "PartitionedCall/model/tf.math.add_48/Add", "op": "_FusedConv2D", "input": ["PartitionedCall/model/tf.math.add_47/Add", "4452", "4454"], "device": "/device:CPU:0", "attr": {"T": {"type": "DT_FLOAT"}, "dilations": {"list": {"i": ["1", "1", "1", "1"]}}, "use_cudnn_on_gpu": {"b": true}, "num_args": {"i": "1"}, "strides": {"list": {"i": ["1", "1", "1", "1"]}}, "TArgs": {"list": {"type": ["DT_FLOAT"]}}, "leakyrelu_alpha": {"f": 0.2}, "explicit_paddings": {"list": {}}, "epsilon": {"f": 0.0}, "fused_ops": {"list": {"s": ["Qmlhc0FkZA=="]}}, "padding": {"s": "U0FNRQ=="}, "filter_format": {"s": "SFdJTw=="}, "num_host_args": {"i": "0"}, "data_format": {"s": "TkhXQw=="}}}, {"name": "PartitionedCall/model/tf.math.sigmoid_35/Sigmoid", "op": "Sigmoid", "input": ["PartitionedCall/model/tf.math.add_48/Add"], "attr": {"T": {"type": "DT_FLOAT"}}}, {"name": "PartitionedCall/model/tf.math.multiply_133/Mul", "op": "Mul", "input": ["PartitionedCall/model/tf.math.add_48/Add", "PartitionedCall/model/tf.math.sigmoid_35/Sigmoid"], "attr": {"T": {"type": "DT_FLOAT"}}}, {"name": "PartitionedCall/model/tf.math.add_49/Add", "op": "_FusedConv2D", "input": ["PartitionedCall/model/tf.math.multiply_133/Mul", "4456", "4458"], "device": "/device:CPU:0", "attr": {"explicit_paddings": {"list": {}}, "num_args": {"i": "1"}, "num_host_args": {"i": "0"}, "use_cudnn_on_gpu": {"b": true}, "dilations": {"list": {"i": ["1", "1", "1", "1"]}}, "padding": {"s": "U0FNRQ=="}, "leakyrelu_alpha": {"f": 0.2}, "epsilon": {"f": 0.0}, "fused_ops": {"list": {"s": ["Qmlhc0FkZA=="]}}, "data_format": {"s": "TkhXQw=="}, "filter_format": {"s": "SFdJTw=="}, "strides": {"list": {"i": ["1", "1", "1", "1"]}}, "TArgs": {"list": {"type": ["DT_FLOAT"]}}, "T": {"type": "DT_FLOAT"}}}, {"name": "PartitionedCall/model/tf.math.sigmoid_36/Sigmoid", "op": "Sigmoid", "input": ["PartitionedCall/model/tf.math.add_49/Add"], "attr": {"T": {"type": "DT_FLOAT"}}}, {"name": "PartitionedCall/model/tf.math.multiply_136/Mul", "op": "Mul", "input": ["PartitionedCall/model/tf.math.add_49/Add", "PartitionedCall/model/tf.math.sigmoid_36/Sigmoid"], "attr": {"T": {"type": "DT_FLOAT"}}}, {"name": "PartitionedCall/model/tf.math.add_50/Add", "op": "AddV2", "input": ["PartitionedCall/model/tf.math.add_47/Add", "PartitionedCall/model/tf.math.multiply_136/Mul"], "attr": {"T": {"type": "DT_FLOAT"}}}, {"name": "PartitionedCall/model/tf.math.add_51/Add", "op": "_FusedConv2D", "input": ["PartitionedCall/model/tf.math.add_50/Add", "4460", "4462"], "device": "/device:CPU:0", "attr": {"TArgs": {"list": {"type": ["DT_FLOAT"]}}, "strides": {"list": {"i": ["1", "1", "1", "1"]}}, "fused_ops": {"list": {"s": ["Qmlhc0FkZA=="]}}, "explicit_paddings": {"list": {}}, "dilations": {"list": {"i": ["1", "1", "1", "1"]}}, "num_args": {"i": "1"}, "filter_format": {"s": "SFdJTw=="}, "T": {"type": "DT_FLOAT"}, "use_cudnn_on_gpu": {"b": true}, "data_format": {"s": "TkhXQw=="}, "num_host_args": {"i": "0"}, "epsilon": {"f": 0.0}, "leakyrelu_alpha": {"f": 0.2}, "padding": {"s": "U0FNRQ=="}}}, {"name": "PartitionedCall/model/tf.math.sigmoid_37/Sigmoid", "op": "Sigmoid", "input": ["PartitionedCall/model/tf.math.add_51/Add"], "attr": {"T": {"type": "DT_FLOAT"}}}, {"name": "PartitionedCall/model/tf.math.multiply_141/Mul", "op": "Mul", "input": ["PartitionedCall/model/tf.math.add_51/Add", "PartitionedCall/model/tf.math.sigmoid_37/Sigmoid"], "attr": {"T": {"type": "DT_FLOAT"}}}, {"name": "PartitionedCall/model/tf.math.add_52/Add", "op": "_FusedConv2D", "input": ["PartitionedCall/model/tf.math.multiply_141/Mul", "4464", "4466"], "device": "/device:CPU:0", "attr": {"fused_ops": {"list": {"s": ["Qmlhc0FkZA=="]}}, "explicit_paddings": {"list": {}}, "TArgs": {"list": {"type": ["DT_FLOAT"]}}, "T": {"type": "DT_FLOAT"}, "strides": {"list": {"i": ["1", "1", "1", "1"]}}, "dilations": {"list": {"i": ["1", "1", "1", "1"]}}, "num_args": {"i": "1"}, "num_host_args": {"i": "0"}, "padding": {"s": "U0FNRQ=="}, "epsilon": {"f": 0.0}, "data_format": {"s": "TkhXQw=="}, "use_cudnn_on_gpu": {"b": true}, "filter_format": {"s": "SFdJTw=="}, "leakyrelu_alpha": {"f": 0.2}}}, {"name": "PartitionedCall/model/tf.math.sigmoid_38/Sigmoid", "op": "Sigmoid", "input": ["PartitionedCall/model/tf.math.add_52/Add"], "attr": {"T": {"type": "DT_FLOAT"}}}, {"name": "PartitionedCall/model/tf.math.multiply_144/Mul", "op": "Mul", "input": ["PartitionedCall/model/tf.math.add_52/Add", "PartitionedCall/model/tf.math.sigmoid_38/Sigmoid"], "attr": {"T": {"type": "DT_FLOAT"}}}, {"name": "PartitionedCall/model/tf.math.add_53/Add", "op": "AddV2", "input": ["PartitionedCall/model/tf.math.add_50/Add", "PartitionedCall/model/tf.math.multiply_144/Mul"], "attr": {"T": {"type": "DT_FLOAT"}}}, {"name": "PartitionedCall/model/tf.concat_2/concat", "op": "ConcatV2", "input": ["PartitionedCall/model/tf.strided_slice_4/StridedSlice", "PartitionedCall/model/tf.strided_slice_5/StridedSlice", "PartitionedCall/model/tf.math.add_38/Add", "PartitionedCall/model/tf.math.add_41/Add", "PartitionedCall/model/tf.math.add_44/Add", "PartitionedCall/model/tf.math.add_47/Add", "PartitionedCall/model/tf.math.add_50/Add", "PartitionedCall/model/tf.math.add_53/Add", "PartitionedCall/model/tf.concat_2/concat/axis"], "attr": {"N": {"i": "8"}, "T": {"type": "DT_FLOAT"}, "Tidx": {"type": "DT_INT32"}}}, {"name": "PartitionedCall/model/tf.math.add_54/Add", "op": "_FusedConv2D", "input": ["PartitionedCall/model/tf.concat_2/concat", "4472", "4474"], "device": "/device:CPU:0", "attr": {"dilations": {"list": {"i": ["1", "1", "1", "1"]}}, "explicit_paddings": {"list": {}}, "epsilon": {"f": 0.0}, "num_args": {"i": "1"}, "filter_format": {"s": "SFdJTw=="}, "use_cudnn_on_gpu": {"b": true}, "fused_ops": {"list": {"s": ["Qmlhc0FkZA=="]}}, "num_host_args": {"i": "0"}, "padding": {"s": "U0FNRQ=="}, "leakyrelu_alpha": {"f": 0.2}, "T": {"type": "DT_FLOAT"}, "TArgs": {"list": {"type": ["DT_FLOAT"]}}, "data_format": {"s": "TkhXQw=="}, "strides": {"list": {"i": ["1", "1", "1", "1"]}}}}, {"name": "PartitionedCall/model/tf.math.sigmoid_39/Sigmoid", "op": "Sigmoid", "input": ["PartitionedCall/model/tf.math.add_54/Add"], "attr": {"T": {"type": "DT_FLOAT"}}}, {"name": "PartitionedCall/model/tf.math.multiply_149/Mul", "op": "Mul", "input": ["PartitionedCall/model/tf.math.add_54/Add", "PartitionedCall/model/tf.math.sigmoid_39/Sigmoid"], "attr": {"T": {"type": "DT_FLOAT"}}}, {"name": "PartitionedCall/model/tf.compat.v1.pad_4/Pad", "op": "Pad", "input": ["PartitionedCall/model/tf.math.multiply_149/Mul", "4476"], "attr": {"T": {"type": "DT_FLOAT"}, "Tpaddings": {"type": "DT_INT32"}}}, {"name": "PartitionedCall/model/tf.math.add_55/Add", "op": "_FusedConv2D", "input": ["PartitionedCall/model/tf.compat.v1.pad_4/Pad", "4478", "4480"], "device": "/device:CPU:0", "attr": {"leakyrelu_alpha": {"f": 0.2}, "explicit_paddings": {"list": {}}, "epsilon": {"f": 0.0}, "TArgs": {"list": {"type": ["DT_FLOAT"]}}, "fused_ops": {"list": {"s": ["Qmlhc0FkZA=="]}}, "strides": {"list": {"i": ["1", "2", "2", "1"]}}, "filter_format": {"s": "SFdJTw=="}, "num_args": {"i": "1"}, "padding": {"s": "VkFMSUQ="}, "T": {"type": "DT_FLOAT"}, "dilations": {"list": {"i": ["1", "1", "1", "1"]}}, "data_format": {"s": "TkhXQw=="}, "use_cudnn_on_gpu": {"b": true}, "num_host_args": {"i": "0"}}}, {"name": "PartitionedCall/model/tf.math.sigmoid_40/Sigmoid", "op": "Sigmoid", "input": ["PartitionedCall/model/tf.math.add_55/Add"], "attr": {"T": {"type": "DT_FLOAT"}}}, {"name": "PartitionedCall/model/tf.math.multiply_152/Mul", "op": "Mul", "input": ["PartitionedCall/model/tf.math.add_55/Add", "PartitionedCall/model/tf.math.sigmoid_40/Sigmoid"], "attr": {"T": {"type": "DT_FLOAT"}}}, {"name": "PartitionedCall/model/tf.math.add_56/Add", "op": "_FusedConv2D", "input": ["PartitionedCall/model/tf.math.multiply_152/Mul", "4482", "4484"], "device": "/device:CPU:0", "attr": {"data_format": {"s": "TkhXQw=="}, "filter_format": {"s": "SFdJTw=="}, "padding": {"s": "U0FNRQ=="}, "epsilon": {"f": 0.0}, "use_cudnn_on_gpu": {"b": true}, "strides": {"list": {"i": ["1", "1", "1", "1"]}}, "leakyrelu_alpha": {"f": 0.2}, "fused_ops": {"list": {"s": ["Qmlhc0FkZA=="]}}, "explicit_paddings": {"list": {}}, "dilations": {"list": {"i": ["1", "1", "1", "1"]}}, "T": {"type": "DT_FLOAT"}, "num_host_args": {"i": "0"}, "num_args": {"i": "1"}, "TArgs": {"list": {"type": ["DT_FLOAT"]}}}}, {"name": "PartitionedCall/model/tf.math.sigmoid_41/Sigmoid", "op": "Sigmoid", "input": ["PartitionedCall/model/tf.math.add_56/Add"], "attr": {"T": {"type": "DT_FLOAT"}}}, {"name": "PartitionedCall/model/tf.math.multiply_155/Mul", "op": "Mul", "input": ["PartitionedCall/model/tf.math.add_56/Add", "PartitionedCall/model/tf.math.sigmoid_41/Sigmoid"], "attr": {"T": {"type": "DT_FLOAT"}}}, {"name": "PartitionedCall/model/tf.strided_slice_6/StridedSlice", "op": "StridedSlice", "input": ["PartitionedCall/model/tf.math.multiply_155/Mul", "4514", "4516", "PartitionedCall/model/tf.strided_slice_6/ones_like"], "attr": {"ellipsis_mask": {"i": "0"}, "T": {"type": "DT_FLOAT"}, "new_axis_mask": {"i": "0"}, "Index": {"type": "DT_INT64"}, "begin_mask": {"i": "15"}, "end_mask": {"i": "7"}, "shrink_axis_mask": {"i": "0"}}}, {"name": "PartitionedCall/model/tf.strided_slice_7/StridedSlice", "op": "StridedSlice", "input": ["PartitionedCall/model/tf.math.multiply_155/Mul", "4486", "4488", "PartitionedCall/model/tf.strided_slice_7/ones_like"], "attr": {"ellipsis_mask": {"i": "0"}, "begin_mask": {"i": "7"}, "new_axis_mask": {"i": "0"}, "T": {"type": "DT_FLOAT"}, "Index": {"type": "DT_INT64"}, "shrink_axis_mask": {"i": "0"}, "end_mask": {"i": "7"}}}, {"name": "PartitionedCall/model/tf.math.add_57/Add", "op": "_FusedConv2D", "input": ["PartitionedCall/model/tf.strided_slice_7/StridedSlice", "4490", "4492"], "device": "/device:CPU:0", "attr": {"strides": {"list": {"i": ["1", "1", "1", "1"]}}, "fused_ops": {"list": {"s": ["Qmlhc0FkZA=="]}}, "TArgs": {"list": {"type": ["DT_FLOAT"]}}, "leakyrelu_alpha": {"f": 0.2}, "filter_format": {"s": "SFdJTw=="}, "padding": {"s": "U0FNRQ=="}, "data_format": {"s": "TkhXQw=="}, "use_cudnn_on_gpu": {"b": true}, "num_host_args": {"i": "0"}, "explicit_paddings": {"list": {}}, "dilations": {"list": {"i": ["1", "1", "1", "1"]}}, "epsilon": {"f": 0.0}, "T": {"type": "DT_FLOAT"}, "num_args": {"i": "1"}}}, {"name": "PartitionedCall/model/tf.math.sigmoid_42/Sigmoid", "op": "Sigmoid", "input": ["PartitionedCall/model/tf.math.add_57/Add"], "attr": {"T": {"type": "DT_FLOAT"}}}, {"name": "PartitionedCall/model/tf.math.multiply_158/Mul", "op": "Mul", "input": ["PartitionedCall/model/tf.math.add_57/Add", "PartitionedCall/model/tf.math.sigmoid_42/Sigmoid"], "attr": {"T": {"type": "DT_FLOAT"}}}, {"name": "PartitionedCall/model/tf.math.add_58/Add", "op": "_FusedConv2D", "input": ["PartitionedCall/model/tf.math.multiply_158/Mul", "4494", "4496"], "device": "/device:CPU:0", "attr": {"epsilon": {"f": 0.0}, "leakyrelu_alpha": {"f": 0.2}, "TArgs": {"list": {"type": ["DT_FLOAT"]}}, "padding": {"s": "U0FNRQ=="}, "use_cudnn_on_gpu": {"b": true}, "explicit_paddings": {"list": {}}, "fused_ops": {"list": {"s": ["Qmlhc0FkZA=="]}}, "T": {"type": "DT_FLOAT"}, "num_args": {"i": "1"}, "num_host_args": {"i": "0"}, "strides": {"list": {"i": ["1", "1", "1", "1"]}}, "data_format": {"s": "TkhXQw=="}, "filter_format": {"s": "SFdJTw=="}, "dilations": {"list": {"i": ["1", "1", "1", "1"]}}}}, {"name": "PartitionedCall/model/tf.math.sigmoid_43/Sigmoid", "op": "Sigmoid", "input": ["PartitionedCall/model/tf.math.add_58/Add"], "attr": {"T": {"type": "DT_FLOAT"}}}, {"name": "PartitionedCall/model/tf.math.multiply_161/Mul", "op": "Mul", "input": ["PartitionedCall/model/tf.math.add_58/Add", "PartitionedCall/model/tf.math.sigmoid_43/Sigmoid"], "attr": {"T": {"type": "DT_FLOAT"}}}, {"name": "PartitionedCall/model/tf.math.add_59/Add", "op": "AddV2", "input": ["PartitionedCall/model/tf.strided_slice_7/StridedSlice", "PartitionedCall/model/tf.math.multiply_161/Mul"], "attr": {"T": {"type": "DT_FLOAT"}}}, {"name": "PartitionedCall/model/tf.math.add_60/Add", "op": "_FusedConv2D", "input": ["PartitionedCall/model/tf.math.add_59/Add", "4498", "4500"], "device": "/device:CPU:0", "attr": {"num_host_args": {"i": "0"}, "TArgs": {"list": {"type": ["DT_FLOAT"]}}, "data_format": {"s": "TkhXQw=="}, "T": {"type": "DT_FLOAT"}, "strides": {"list": {"i": ["1", "1", "1", "1"]}}, "leakyrelu_alpha": {"f": 0.2}, "use_cudnn_on_gpu": {"b": true}, "filter_format": {"s": "SFdJTw=="}, "num_args": {"i": "1"}, "dilations": {"list": {"i": ["1", "1", "1", "1"]}}, "padding": {"s": "U0FNRQ=="}, "fused_ops": {"list": {"s": ["Qmlhc0FkZA=="]}}, "epsilon": {"f": 0.0}, "explicit_paddings": {"list": {}}}}, {"name": "PartitionedCall/model/tf.math.sigmoid_44/Sigmoid", "op": "Sigmoid", "input": ["PartitionedCall/model/tf.math.add_60/Add"], "attr": {"T": {"type": "DT_FLOAT"}}}, {"name": "PartitionedCall/model/tf.math.multiply_166/Mul", "op": "Mul", "input": ["PartitionedCall/model/tf.math.add_60/Add", "PartitionedCall/model/tf.math.sigmoid_44/Sigmoid"], "attr": {"T": {"type": "DT_FLOAT"}}}, {"name": "PartitionedCall/model/tf.math.add_61/Add", "op": "_FusedConv2D", "input": ["PartitionedCall/model/tf.math.multiply_166/Mul", "4502", "4504"], "device": "/device:CPU:0", "attr": {"explicit_paddings": {"list": {}}, "epsilon": {"f": 0.0}, "num_args": {"i": "1"}, "T": {"type": "DT_FLOAT"}, "fused_ops": {"list": {"s": ["Qmlhc0FkZA=="]}}, "strides": {"list": {"i": ["1", "1", "1", "1"]}}, "use_cudnn_on_gpu": {"b": true}, "TArgs": {"list": {"type": ["DT_FLOAT"]}}, "dilations": {"list": {"i": ["1", "1", "1", "1"]}}, "num_host_args": {"i": "0"}, "padding": {"s": "U0FNRQ=="}, "leakyrelu_alpha": {"f": 0.2}, "filter_format": {"s": "SFdJTw=="}, "data_format": {"s": "TkhXQw=="}}}, {"name": "PartitionedCall/model/tf.math.sigmoid_45/Sigmoid", "op": "Sigmoid", "input": ["PartitionedCall/model/tf.math.add_61/Add"], "attr": {"T": {"type": "DT_FLOAT"}}}, {"name": "PartitionedCall/model/tf.math.multiply_169/Mul", "op": "Mul", "input": ["PartitionedCall/model/tf.math.add_61/Add", "PartitionedCall/model/tf.math.sigmoid_45/Sigmoid"], "attr": {"T": {"type": "DT_FLOAT"}}}, {"name": "PartitionedCall/model/tf.math.add_62/Add", "op": "AddV2", "input": ["PartitionedCall/model/tf.math.add_59/Add", "PartitionedCall/model/tf.math.multiply_169/Mul"], "attr": {"T": {"type": "DT_FLOAT"}}}, {"name": "PartitionedCall/model/tf.math.add_63/Add", "op": "_FusedConv2D", "input": ["PartitionedCall/model/tf.math.add_62/Add", "4506", "4508"], "device": "/device:CPU:0", "attr": {"strides": {"list": {"i": ["1", "1", "1", "1"]}}, "num_args": {"i": "1"}, "dilations": {"list": {"i": ["1", "1", "1", "1"]}}, "explicit_paddings": {"list": {}}, "padding": {"s": "U0FNRQ=="}, "data_format": {"s": "TkhXQw=="}, "leakyrelu_alpha": {"f": 0.2}, "epsilon": {"f": 0.0}, "TArgs": {"list": {"type": ["DT_FLOAT"]}}, "use_cudnn_on_gpu": {"b": true}, "filter_format": {"s": "SFdJTw=="}, "num_host_args": {"i": "0"}, "fused_ops": {"list": {"s": ["Qmlhc0FkZA=="]}}, "T": {"type": "DT_FLOAT"}}}, {"name": "PartitionedCall/model/tf.math.sigmoid_46/Sigmoid", "op": "Sigmoid", "input": ["PartitionedCall/model/tf.math.add_63/Add"], "attr": {"T": {"type": "DT_FLOAT"}}}, {"name": "PartitionedCall/model/tf.math.multiply_174/Mul", "op": "Mul", "input": ["PartitionedCall/model/tf.math.add_63/Add", "PartitionedCall/model/tf.math.sigmoid_46/Sigmoid"], "attr": {"T": {"type": "DT_FLOAT"}}}, {"name": "PartitionedCall/model/tf.math.add_64/Add", "op": "_FusedConv2D", "input": ["PartitionedCall/model/tf.math.multiply_174/Mul", "4510", "4512"], "device": "/device:CPU:0", "attr": {"dilations": {"list": {"i": ["1", "1", "1", "1"]}}, "data_format": {"s": "TkhXQw=="}, "filter_format": {"s": "SFdJTw=="}, "num_host_args": {"i": "0"}, "strides": {"list": {"i": ["1", "1", "1", "1"]}}, "leakyrelu_alpha": {"f": 0.2}, "TArgs": {"list": {"type": ["DT_FLOAT"]}}, "T": {"type": "DT_FLOAT"}, "fused_ops": {"list": {"s": ["Qmlhc0FkZA=="]}}, "explicit_paddings": {"list": {}}, "use_cudnn_on_gpu": {"b": true}, "epsilon": {"f": 0.0}, "num_args": {"i": "1"}, "padding": {"s": "U0FNRQ=="}}}, {"name": "PartitionedCall/model/tf.math.sigmoid_47/Sigmoid", "op": "Sigmoid", "input": ["PartitionedCall/model/tf.math.add_64/Add"], "attr": {"T": {"type": "DT_FLOAT"}}}, {"name": "PartitionedCall/model/tf.math.multiply_177/Mul", "op": "Mul", "input": ["PartitionedCall/model/tf.math.add_64/Add", "PartitionedCall/model/tf.math.sigmoid_47/Sigmoid"], "attr": {"T": {"type": "DT_FLOAT"}}}, {"name": "PartitionedCall/model/tf.math.add_65/Add", "op": "AddV2", "input": ["PartitionedCall/model/tf.math.add_62/Add", "PartitionedCall/model/tf.math.multiply_177/Mul"], "attr": {"T": {"type": "DT_FLOAT"}}}, {"name": "PartitionedCall/model/tf.concat_3/concat", "op": "ConcatV2", "input": ["PartitionedCall/model/tf.strided_slice_6/StridedSlice", "PartitionedCall/model/tf.strided_slice_7/StridedSlice", "PartitionedCall/model/tf.math.add_59/Add", "PartitionedCall/model/tf.math.add_62/Add", "PartitionedCall/model/tf.math.add_65/Add", "PartitionedCall/model/tf.concat_3/concat/axis"], "attr": {"T": {"type": "DT_FLOAT"}, "Tidx": {"type": "DT_INT32"}, "N": {"i": "5"}}}, {"name": "PartitionedCall/model/tf.math.add_66/Add", "op": "_FusedConv2D", "input": ["PartitionedCall/model/tf.concat_3/concat", "4518", "4520"], "device": "/device:CPU:0", "attr": {"dilations": {"list": {"i": ["1", "1", "1", "1"]}}, "num_args": {"i": "1"}, "explicit_paddings": {"list": {}}, "epsilon": {"f": 0.0}, "T": {"type": "DT_FLOAT"}, "num_host_args": {"i": "0"}, "padding": {"s": "U0FNRQ=="}, "data_format": {"s": "TkhXQw=="}, "TArgs": {"list": {"type": ["DT_FLOAT"]}}, "fused_ops": {"list": {"s": ["Qmlhc0FkZA=="]}}, "strides": {"list": {"i": ["1", "1", "1", "1"]}}, "filter_format": {"s": "SFdJTw=="}, "use_cudnn_on_gpu": {"b": true}, "leakyrelu_alpha": {"f": 0.2}}}, {"name": "PartitionedCall/model/tf.math.sigmoid_48/Sigmoid", "op": "Sigmoid", "input": ["PartitionedCall/model/tf.math.add_66/Add"], "attr": {"T": {"type": "DT_FLOAT"}}}, {"name": "PartitionedCall/model/tf.math.multiply_182/Mul", "op": "Mul", "input": ["PartitionedCall/model/tf.math.add_66/Add", "PartitionedCall/model/tf.math.sigmoid_48/Sigmoid"], "attr": {"T": {"type": "DT_FLOAT"}}}, {"name": "PartitionedCall/model/tf.math.add_67/Add", "op": "_FusedConv2D", "input": ["PartitionedCall/model/tf.math.multiply_182/Mul", "4522", "4524"], "device": "/device:CPU:0", "attr": {"TArgs": {"list": {"type": ["DT_FLOAT"]}}, "strides": {"list": {"i": ["1", "1", "1", "1"]}}, "data_format": {"s": "TkhXQw=="}, "leakyrelu_alpha": {"f": 0.2}, "epsilon": {"f": 0.0}, "padding": {"s": "U0FNRQ=="}, "use_cudnn_on_gpu": {"b": true}, "T": {"type": "DT_FLOAT"}, "fused_ops": {"list": {"s": ["Qmlhc0FkZA=="]}}, "filter_format": {"s": "SFdJTw=="}, "dilations": {"list": {"i": ["1", "1", "1", "1"]}}, "num_args": {"i": "1"}, "explicit_paddings": {"list": {}}, "num_host_args": {"i": "0"}}}, {"name": "PartitionedCall/model/tf.math.sigmoid_49/Sigmoid", "op": "Sigmoid", "input": ["PartitionedCall/model/tf.math.add_67/Add"], "attr": {"T": {"type": "DT_FLOAT"}}}, {"name": "PartitionedCall/model/tf.math.multiply_185/Mul", "op": "Mul", "input": ["PartitionedCall/model/tf.math.add_67/Add", "PartitionedCall/model/tf.math.sigmoid_49/Sigmoid"], "attr": {"T": {"type": "DT_FLOAT"}}}, {"name": "PartitionedCall/model/tf.compat.v1.nn.pool/max_pool", "op": "MaxPool", "input": ["PartitionedCall/model/tf.math.multiply_185/Mul"], "attr": {"strides": {"list": {"i": ["1", "1", "1", "1"]}}, "explicit_paddings": {"list": {}}, "data_format": {"s": "TkhXQw=="}, "padding": {"s": "U0FNRQ=="}, "T": {"type": "DT_FLOAT"}, "ksize": {"list": {"i": ["1", "5", "5", "1"]}}}}, {"name": "PartitionedCall/model/tf.compat.v1.nn.pool_1/max_pool", "op": "MaxPool", "input": ["PartitionedCall/model/tf.compat.v1.nn.pool/max_pool"], "attr": {"data_format": {"s": "TkhXQw=="}, "T": {"type": "DT_FLOAT"}, "explicit_paddings": {"list": {}}, "padding": {"s": "U0FNRQ=="}, "strides": {"list": {"i": ["1", "1", "1", "1"]}}, "ksize": {"list": {"i": ["1", "5", "5", "1"]}}}}, {"name": "PartitionedCall/model/tf.compat.v1.nn.pool_2/max_pool", "op": "MaxPool", "input": ["PartitionedCall/model/tf.compat.v1.nn.pool_1/max_pool"], "attr": {"padding": {"s": "U0FNRQ=="}, "ksize": {"list": {"i": ["1", "5", "5", "1"]}}, "T": {"type": "DT_FLOAT"}, "data_format": {"s": "TkhXQw=="}, "explicit_paddings": {"list": {}}, "strides": {"list": {"i": ["1", "1", "1", "1"]}}}}, {"name": "PartitionedCall/model/tf.concat_4/concat", "op": "ConcatV2", "input": ["PartitionedCall/model/tf.math.multiply_185/Mul", "PartitionedCall/model/tf.compat.v1.nn.pool/max_pool", "PartitionedCall/model/tf.compat.v1.nn.pool_1/max_pool", "PartitionedCall/model/tf.compat.v1.nn.pool_2/max_pool", "PartitionedCall/model/tf.concat_4/concat/axis"], "attr": {"T": {"type": "DT_FLOAT"}, "N": {"i": "4"}, "Tidx": {"type": "DT_INT32"}}}, {"name": "PartitionedCall/model/tf.math.add_68/Add", "op": "_FusedConv2D", "input": ["PartitionedCall/model/tf.concat_4/concat", "4526", "4528"], "device": "/device:CPU:0", "attr": {"strides": {"list": {"i": ["1", "1", "1", "1"]}}, "num_args": {"i": "1"}, "padding": {"s": "U0FNRQ=="}, "data_format": {"s": "TkhXQw=="}, "T": {"type": "DT_FLOAT"}, "filter_format": {"s": "SFdJTw=="}, "fused_ops": {"list": {"s": ["Qmlhc0FkZA=="]}}, "use_cudnn_on_gpu": {"b": true}, "epsilon": {"f": 0.0}, "leakyrelu_alpha": {"f": 0.2}, "num_host_args": {"i": "0"}, "TArgs": {"list": {"type": ["DT_FLOAT"]}}, "dilations": {"list": {"i": ["1", "1", "1", "1"]}}, "explicit_paddings": {"list": {}}}}, {"name": "PartitionedCall/model/tf.math.sigmoid_50/Sigmoid", "op": "Sigmoid", "input": ["PartitionedCall/model/tf.math.add_68/Add"], "attr": {"T": {"type": "DT_FLOAT"}}}, {"name": "PartitionedCall/model/tf.math.multiply_188/Mul", "op": "Mul", "input": ["PartitionedCall/model/tf.math.add_68/Add", "PartitionedCall/model/tf.math.sigmoid_50/Sigmoid"], "attr": {"T": {"type": "DT_FLOAT"}}}, {"name": "PartitionedCall/model/lambda//model.10/Resize", "op": "ResizeNearestNeighbor", "input": ["PartitionedCall/model/tf.math.multiply_188/Mul", "PartitionedCall/model/lambda//model.10/Resize/size"], "attr": {"T": {"type": "DT_FLOAT"}, "align_corners": {"b": false}, "half_pixel_centers": {"b": false}}}, {"name": "PartitionedCall/model/tf.concat_5/concat", "op": "ConcatV2", "input": ["PartitionedCall/model/lambda//model.10/Resize", "PartitionedCall/model/tf.math.multiply_149/Mul", "PartitionedCall/model/tf.concat_5/concat/axis"], "attr": {"N": {"i": "2"}, "Tidx": {"type": "DT_INT32"}, "T": {"type": "DT_FLOAT"}}}, {"name": "PartitionedCall/model/tf.math.add_69/Add", "op": "_FusedConv2D", "input": ["PartitionedCall/model/tf.concat_5/concat", "4530", "4532"], "device": "/device:CPU:0", "attr": {"T": {"type": "DT_FLOAT"}, "explicit_paddings": {"list": {}}, "TArgs": {"list": {"type": ["DT_FLOAT"]}}, "num_host_args": {"i": "0"}, "strides": {"list": {"i": ["1", "1", "1", "1"]}}, "padding": {"s": "U0FNRQ=="}, "dilations": {"list": {"i": ["1", "1", "1", "1"]}}, "fused_ops": {"list": {"s": ["Qmlhc0FkZA=="]}}, "num_args": {"i": "1"}, "leakyrelu_alpha": {"f": 0.2}, "data_format": {"s": "TkhXQw=="}, "filter_format": {"s": "SFdJTw=="}, "use_cudnn_on_gpu": {"b": true}, "epsilon": {"f": 0.0}}}, {"name": "PartitionedCall/model/tf.math.sigmoid_51/Sigmoid", "op": "Sigmoid", "input": ["PartitionedCall/model/tf.math.add_69/Add"], "attr": {"T": {"type": "DT_FLOAT"}}}, {"name": "PartitionedCall/model/tf.math.multiply_191/Mul", "op": "Mul", "input": ["PartitionedCall/model/tf.math.add_69/Add", "PartitionedCall/model/tf.math.sigmoid_51/Sigmoid"], "attr": {"T": {"type": "DT_FLOAT"}}}, {"name": "PartitionedCall/model/tf.strided_slice_8/StridedSlice", "op": "StridedSlice", "input": ["PartitionedCall/model/tf.math.multiply_191/Mul", "4562", "4564", "PartitionedCall/model/tf.strided_slice_8/ones_like"], "attr": {"ellipsis_mask": {"i": "0"}, "T": {"type": "DT_FLOAT"}, "end_mask": {"i": "7"}, "Index": {"type": "DT_INT64"}, "new_axis_mask": {"i": "0"}, "shrink_axis_mask": {"i": "0"}, "begin_mask": {"i": "15"}}}, {"name": "PartitionedCall/model/tf.strided_slice_9/StridedSlice", "op": "StridedSlice", "input": ["PartitionedCall/model/tf.math.multiply_191/Mul", "4534", "4536", "PartitionedCall/model/tf.strided_slice_9/ones_like"], "attr": {"new_axis_mask": {"i": "0"}, "shrink_axis_mask": {"i": "0"}, "ellipsis_mask": {"i": "0"}, "begin_mask": {"i": "7"}, "T": {"type": "DT_FLOAT"}, "Index": {"type": "DT_INT64"}, "end_mask": {"i": "7"}}}, {"name": "PartitionedCall/model/tf.math.add_70/Add", "op": "_FusedConv2D", "input": ["PartitionedCall/model/tf.strided_slice_9/StridedSlice", "4538", "4540"], "device": "/device:CPU:0", "attr": {"num_args": {"i": "1"}, "explicit_paddings": {"list": {}}, "strides": {"list": {"i": ["1", "1", "1", "1"]}}, "padding": {"s": "U0FNRQ=="}, "epsilon": {"f": 0.0}, "leakyrelu_alpha": {"f": 0.2}, "use_cudnn_on_gpu": {"b": true}, "data_format": {"s": "TkhXQw=="}, "fused_ops": {"list": {"s": ["Qmlhc0FkZA=="]}}, "TArgs": {"list": {"type": ["DT_FLOAT"]}}, "dilations": {"list": {"i": ["1", "1", "1", "1"]}}, "filter_format": {"s": "SFdJTw=="}, "T": {"type": "DT_FLOAT"}, "num_host_args": {"i": "0"}}}, {"name": "PartitionedCall/model/tf.math.sigmoid_52/Sigmoid", "op": "Sigmoid", "input": ["PartitionedCall/model/tf.math.add_70/Add"], "attr": {"T": {"type": "DT_FLOAT"}}}, {"name": "PartitionedCall/model/tf.math.multiply_194/Mul", "op": "Mul", "input": ["PartitionedCall/model/tf.math.add_70/Add", "PartitionedCall/model/tf.math.sigmoid_52/Sigmoid"], "attr": {"T": {"type": "DT_FLOAT"}}}, {"name": "PartitionedCall/model/tf.math.add_71/Add", "op": "_FusedConv2D", "input": ["PartitionedCall/model/tf.math.multiply_194/Mul", "4542", "4544"], "device": "/device:CPU:0", "attr": {"TArgs": {"list": {"type": ["DT_FLOAT"]}}, "leakyrelu_alpha": {"f": 0.2}, "fused_ops": {"list": {"s": ["Qmlhc0FkZA=="]}}, "padding": {"s": "U0FNRQ=="}, "num_host_args": {"i": "0"}, "explicit_paddings": {"list": {}}, "filter_format": {"s": "SFdJTw=="}, "dilations": {"list": {"i": ["1", "1", "1", "1"]}}, "use_cudnn_on_gpu": {"b": true}, "strides": {"list": {"i": ["1", "1", "1", "1"]}}, "data_format": {"s": "TkhXQw=="}, "epsilon": {"f": 0.0}, "T": {"type": "DT_FLOAT"}, "num_args": {"i": "1"}}}, {"name": "PartitionedCall/model/tf.math.sigmoid_53/Sigmoid", "op": "Sigmoid", "input": ["PartitionedCall/model/tf.math.add_71/Add"], "attr": {"T": {"type": "DT_FLOAT"}}}, {"name": "PartitionedCall/model/tf.math.multiply_197/Mul", "op": "Mul", "input": ["PartitionedCall/model/tf.math.add_71/Add", "PartitionedCall/model/tf.math.sigmoid_53/Sigmoid"], "attr": {"T": {"type": "DT_FLOAT"}}}, {"name": "PartitionedCall/model/tf.math.add_72/Add", "op": "_FusedConv2D", "input": ["PartitionedCall/model/tf.math.multiply_197/Mul", "4546", "4548"], "device": "/device:CPU:0", "attr": {"dilations": {"list": {"i": ["1", "1", "1", "1"]}}, "T": {"type": "DT_FLOAT"}, "filter_format": {"s": "SFdJTw=="}, "TArgs": {"list": {"type": ["DT_FLOAT"]}}, "explicit_paddings": {"list": {}}, "use_cudnn_on_gpu": {"b": true}, "padding": {"s": "U0FNRQ=="}, "strides": {"list": {"i": ["1", "1", "1", "1"]}}, "num_host_args": {"i": "0"}, "fused_ops": {"list": {"s": ["Qmlhc0FkZA=="]}}, "epsilon": {"f": 0.0}, "leakyrelu_alpha": {"f": 0.2}, "data_format": {"s": "TkhXQw=="}, "num_args": {"i": "1"}}}, {"name": "PartitionedCall/model/tf.math.sigmoid_54/Sigmoid", "op": "Sigmoid", "input": ["PartitionedCall/model/tf.math.add_72/Add"], "attr": {"T": {"type": "DT_FLOAT"}}}, {"name": "PartitionedCall/model/tf.math.multiply_200/Mul", "op": "Mul", "input": ["PartitionedCall/model/tf.math.add_72/Add", "PartitionedCall/model/tf.math.sigmoid_54/Sigmoid"], "attr": {"T": {"type": "DT_FLOAT"}}}, {"name": "PartitionedCall/model/tf.math.add_73/Add", "op": "_FusedConv2D", "input": ["PartitionedCall/model/tf.math.multiply_200/Mul", "4550", "4552"], "device": "/device:CPU:0", "attr": {"explicit_paddings": {"list": {}}, "fused_ops": {"list": {"s": ["Qmlhc0FkZA=="]}}, "use_cudnn_on_gpu": {"b": true}, "T": {"type": "DT_FLOAT"}, "filter_format": {"s": "SFdJTw=="}, "dilations": {"list": {"i": ["1", "1", "1", "1"]}}, "num_host_args": {"i": "0"}, "padding": {"s": "U0FNRQ=="}, "data_format": {"s": "TkhXQw=="}, "epsilon": {"f": 0.0}, "strides": {"list": {"i": ["1", "1", "1", "1"]}}, "TArgs": {"list": {"type": ["DT_FLOAT"]}}, "num_args": {"i": "1"}, "leakyrelu_alpha": {"f": 0.2}}}, {"name": "PartitionedCall/model/tf.math.sigmoid_55/Sigmoid", "op": "Sigmoid", "input": ["PartitionedCall/model/tf.math.add_73/Add"], "attr": {"T": {"type": "DT_FLOAT"}}}, {"name": "PartitionedCall/model/tf.math.multiply_203/Mul", "op": "Mul", "input": ["PartitionedCall/model/tf.math.add_73/Add", "PartitionedCall/model/tf.math.sigmoid_55/Sigmoid"], "attr": {"T": {"type": "DT_FLOAT"}}}, {"name": "PartitionedCall/model/tf.math.add_74/Add", "op": "_FusedConv2D", "input": ["PartitionedCall/model/tf.math.multiply_203/Mul", "4554", "4556"], "device": "/device:CPU:0", "attr": {"leakyrelu_alpha": {"f": 0.2}, "num_host_args": {"i": "0"}, "data_format": {"s": "TkhXQw=="}, "strides": {"list": {"i": ["1", "1", "1", "1"]}}, "explicit_paddings": {"list": {}}, "num_args": {"i": "1"}, "use_cudnn_on_gpu": {"b": true}, "filter_format": {"s": "SFdJTw=="}, "padding": {"s": "U0FNRQ=="}, "epsilon": {"f": 0.0}, "TArgs": {"list": {"type": ["DT_FLOAT"]}}, "T": {"type": "DT_FLOAT"}, "dilations": {"list": {"i": ["1", "1", "1", "1"]}}, "fused_ops": {"list": {"s": ["Qmlhc0FkZA=="]}}}}, {"name": "PartitionedCall/model/tf.math.sigmoid_56/Sigmoid", "op": "Sigmoid", "input": ["PartitionedCall/model/tf.math.add_74/Add"], "attr": {"T": {"type": "DT_FLOAT"}}}, {"name": "PartitionedCall/model/tf.math.multiply_206/Mul", "op": "Mul", "input": ["PartitionedCall/model/tf.math.add_74/Add", "PartitionedCall/model/tf.math.sigmoid_56/Sigmoid"], "attr": {"T": {"type": "DT_FLOAT"}}}, {"name": "PartitionedCall/model/tf.math.add_75/Add", "op": "_FusedConv2D", "input": ["PartitionedCall/model/tf.math.multiply_206/Mul", "4558", "4560"], "device": "/device:CPU:0", "attr": {"strides": {"list": {"i": ["1", "1", "1", "1"]}}, "TArgs": {"list": {"type": ["DT_FLOAT"]}}, "dilations": {"list": {"i": ["1", "1", "1", "1"]}}, "filter_format": {"s": "SFdJTw=="}, "padding": {"s": "U0FNRQ=="}, "use_cudnn_on_gpu": {"b": true}, "data_format": {"s": "TkhXQw=="}, "num_args": {"i": "1"}, "explicit_paddings": {"list": {}}, "fused_ops": {"list": {"s": ["Qmlhc0FkZA=="]}}, "epsilon": {"f": 0.0}, "T": {"type": "DT_FLOAT"}, "num_host_args": {"i": "0"}, "leakyrelu_alpha": {"f": 0.2}}}, {"name": "PartitionedCall/model/tf.math.sigmoid_57/Sigmoid", "op": "Sigmoid", "input": ["PartitionedCall/model/tf.math.add_75/Add"], "attr": {"T": {"type": "DT_FLOAT"}}}, {"name": "PartitionedCall/model/tf.math.multiply_209/Mul", "op": "Mul", "input": ["PartitionedCall/model/tf.math.add_75/Add", "PartitionedCall/model/tf.math.sigmoid_57/Sigmoid"], "attr": {"T": {"type": "DT_FLOAT"}}}, {"name": "PartitionedCall/model/tf.concat_6/concat", "op": "ConcatV2", "input": ["PartitionedCall/model/tf.strided_slice_8/StridedSlice", "PartitionedCall/model/tf.strided_slice_9/StridedSlice", "PartitionedCall/model/tf.math.multiply_197/Mul", "PartitionedCall/model/tf.math.multiply_203/Mul", "PartitionedCall/model/tf.math.multiply_209/Mul", "PartitionedCall/model/tf.concat_6/concat/axis"], "attr": {"T": {"type": "DT_FLOAT"}, "N": {"i": "5"}, "Tidx": {"type": "DT_INT32"}}}, {"name": "PartitionedCall/model/tf.math.add_76/Add", "op": "_FusedConv2D", "input": ["PartitionedCall/model/tf.concat_6/concat", "4566", "4568"], "device": "/device:CPU:0", "attr": {"TArgs": {"list": {"type": ["DT_FLOAT"]}}, "epsilon": {"f": 0.0}, "use_cudnn_on_gpu": {"b": true}, "strides": {"list": {"i": ["1", "1", "1", "1"]}}, "T": {"type": "DT_FLOAT"}, "padding": {"s": "U0FNRQ=="}, "num_host_args": {"i": "0"}, "fused_ops": {"list": {"s": ["Qmlhc0FkZA=="]}}, "explicit_paddings": {"list": {}}, "dilations": {"list": {"i": ["1", "1", "1", "1"]}}, "leakyrelu_alpha": {"f": 0.2}, "filter_format": {"s": "SFdJTw=="}, "data_format": {"s": "TkhXQw=="}, "num_args": {"i": "1"}}}, {"name": "PartitionedCall/model/tf.math.sigmoid_58/Sigmoid", "op": "Sigmoid", "input": ["PartitionedCall/model/tf.math.add_76/Add"], "attr": {"T": {"type": "DT_FLOAT"}}}, {"name": "PartitionedCall/model/tf.math.multiply_212/Mul", "op": "Mul", "input": ["PartitionedCall/model/tf.math.add_76/Add", "PartitionedCall/model/tf.math.sigmoid_58/Sigmoid"], "attr": {"T": {"type": "DT_FLOAT"}}}, {"name": "PartitionedCall/model/lambda_1//model.13/Resize", "op": "ResizeNearestNeighbor", "input": ["PartitionedCall/model/tf.math.multiply_212/Mul", "PartitionedCall/model/lambda_1//model.13/Resize/size"], "attr": {"T": {"type": "DT_FLOAT"}, "align_corners": {"b": false}, "half_pixel_centers": {"b": false}}}, {"name": "PartitionedCall/model/tf.concat_7/concat", "op": "ConcatV2", "input": ["PartitionedCall/model/lambda_1//model.13/Resize", "PartitionedCall/model/tf.math.multiply_92/Mul", "PartitionedCall/model/tf.concat_7/concat/axis"], "attr": {"Tidx": {"type": "DT_INT32"}, "N": {"i": "2"}, "T": {"type": "DT_FLOAT"}}}, {"name": "PartitionedCall/model/tf.math.add_77/Add", "op": "_FusedConv2D", "input": ["PartitionedCall/model/tf.concat_7/concat", "4570", "4572"], "device": "/device:CPU:0", "attr": {"data_format": {"s": "TkhXQw=="}, "strides": {"list": {"i": ["1", "1", "1", "1"]}}, "num_args": {"i": "1"}, "explicit_paddings": {"list": {}}, "padding": {"s": "U0FNRQ=="}, "filter_format": {"s": "SFdJTw=="}, "fused_ops": {"list": {"s": ["Qmlhc0FkZA=="]}}, "num_host_args": {"i": "0"}, "use_cudnn_on_gpu": {"b": true}, "epsilon": {"f": 0.0}, "leakyrelu_alpha": {"f": 0.2}, "TArgs": {"list": {"type": ["DT_FLOAT"]}}, "dilations": {"list": {"i": ["1", "1", "1", "1"]}}, "T": {"type": "DT_FLOAT"}}}, {"name": "PartitionedCall/model/tf.math.sigmoid_59/Sigmoid", "op": "Sigmoid", "input": ["PartitionedCall/model/tf.math.add_77/Add"], "attr": {"T": {"type": "DT_FLOAT"}}}, {"name": "PartitionedCall/model/tf.math.multiply_215/Mul", "op": "Mul", "input": ["PartitionedCall/model/tf.math.add_77/Add", "PartitionedCall/model/tf.math.sigmoid_59/Sigmoid"], "attr": {"T": {"type": "DT_FLOAT"}}}, {"name": "PartitionedCall/model/tf.strided_slice_10/StridedSlice", "op": "StridedSlice", "input": ["PartitionedCall/model/tf.math.multiply_215/Mul", "4602", "4604", "PartitionedCall/model/tf.strided_slice_10/ones_like"], "attr": {"begin_mask": {"i": "15"}, "Index": {"type": "DT_INT64"}, "end_mask": {"i": "7"}, "shrink_axis_mask": {"i": "0"}, "ellipsis_mask": {"i": "0"}, "T": {"type": "DT_FLOAT"}, "new_axis_mask": {"i": "0"}}}, {"name": "PartitionedCall/model/tf.strided_slice_11/StridedSlice", "op": "StridedSlice", "input": ["PartitionedCall/model/tf.math.multiply_215/Mul", "4574", "4576", "PartitionedCall/model/tf.strided_slice_11/ones_like"], "attr": {"end_mask": {"i": "7"}, "Index": {"type": "DT_INT64"}, "ellipsis_mask": {"i": "0"}, "T": {"type": "DT_FLOAT"}, "new_axis_mask": {"i": "0"}, "shrink_axis_mask": {"i": "0"}, "begin_mask": {"i": "7"}}}, {"name": "PartitionedCall/model/tf.math.add_78/Add", "op": "_FusedConv2D", "input": ["PartitionedCall/model/tf.strided_slice_11/StridedSlice", "4578", "4580"], "device": "/device:CPU:0", "attr": {"filter_format": {"s": "SFdJTw=="}, "T": {"type": "DT_FLOAT"}, "use_cudnn_on_gpu": {"b": true}, "explicit_paddings": {"list": {}}, "epsilon": {"f": 0.0}, "padding": {"s": "U0FNRQ=="}, "fused_ops": {"list": {"s": ["Qmlhc0FkZA=="]}}, "data_format": {"s": "TkhXQw=="}, "strides": {"list": {"i": ["1", "1", "1", "1"]}}, "num_args": {"i": "1"}, "dilations": {"list": {"i": ["1", "1", "1", "1"]}}, "leakyrelu_alpha": {"f": 0.2}, "TArgs": {"list": {"type": ["DT_FLOAT"]}}, "num_host_args": {"i": "0"}}}, {"name": "PartitionedCall/model/tf.math.sigmoid_60/Sigmoid", "op": "Sigmoid", "input": ["PartitionedCall/model/tf.math.add_78/Add"], "attr": {"T": {"type": "DT_FLOAT"}}}, {"name": "PartitionedCall/model/tf.math.multiply_218/Mul", "op": "Mul", "input": ["PartitionedCall/model/tf.math.add_78/Add", "PartitionedCall/model/tf.math.sigmoid_60/Sigmoid"], "attr": {"T": {"type": "DT_FLOAT"}}}, {"name": "PartitionedCall/model/tf.math.add_79/Add", "op": "_FusedConv2D", "input": ["PartitionedCall/model/tf.math.multiply_218/Mul", "4582", "4584"], "device": "/device:CPU:0", "attr": {"strides": {"list": {"i": ["1", "1", "1", "1"]}}, "epsilon": {"f": 0.0}, "num_args": {"i": "1"}, "filter_format": {"s": "SFdJTw=="}, "dilations": {"list": {"i": ["1", "1", "1", "1"]}}, "use_cudnn_on_gpu": {"b": true}, "T": {"type": "DT_FLOAT"}, "explicit_paddings": {"list": {}}, "leakyrelu_alpha": {"f": 0.2}, "padding": {"s": "U0FNRQ=="}, "num_host_args": {"i": "0"}, "fused_ops": {"list": {"s": ["Qmlhc0FkZA=="]}}, "data_format": {"s": "TkhXQw=="}, "TArgs": {"list": {"type": ["DT_FLOAT"]}}}}, {"name": "PartitionedCall/model/tf.math.sigmoid_61/Sigmoid", "op": "Sigmoid", "input": ["PartitionedCall/model/tf.math.add_79/Add"], "attr": {"T": {"type": "DT_FLOAT"}}}, {"name": "PartitionedCall/model/tf.math.multiply_221/Mul", "op": "Mul", "input": ["PartitionedCall/model/tf.math.add_79/Add", "PartitionedCall/model/tf.math.sigmoid_61/Sigmoid"], "attr": {"T": {"type": "DT_FLOAT"}}}, {"name": "PartitionedCall/model/tf.math.add_80/Add", "op": "_FusedConv2D", "input": ["PartitionedCall/model/tf.math.multiply_221/Mul", "4586", "4588"], "device": "/device:CPU:0", "attr": {"strides": {"list": {"i": ["1", "1", "1", "1"]}}, "num_args": {"i": "1"}, "num_host_args": {"i": "0"}, "TArgs": {"list": {"type": ["DT_FLOAT"]}}, "use_cudnn_on_gpu": {"b": true}, "dilations": {"list": {"i": ["1", "1", "1", "1"]}}, "data_format": {"s": "TkhXQw=="}, "filter_format": {"s": "SFdJTw=="}, "leakyrelu_alpha": {"f": 0.2}, "epsilon": {"f": 0.0}, "explicit_paddings": {"list": {}}, "padding": {"s": "U0FNRQ=="}, "T": {"type": "DT_FLOAT"}, "fused_ops": {"list": {"s": ["Qmlhc0FkZA=="]}}}}, {"name": "PartitionedCall/model/tf.math.sigmoid_62/Sigmoid", "op": "Sigmoid", "input": ["PartitionedCall/model/tf.math.add_80/Add"], "attr": {"T": {"type": "DT_FLOAT"}}}, {"name": "PartitionedCall/model/tf.math.multiply_224/Mul", "op": "Mul", "input": ["PartitionedCall/model/tf.math.add_80/Add", "PartitionedCall/model/tf.math.sigmoid_62/Sigmoid"], "attr": {"T": {"type": "DT_FLOAT"}}}, {"name": "PartitionedCall/model/tf.math.add_81/Add", "op": "_FusedConv2D", "input": ["PartitionedCall/model/tf.math.multiply_224/Mul", "4590", "4592"], "device": "/device:CPU:0", "attr": {"explicit_paddings": {"list": {}}, "T": {"type": "DT_FLOAT"}, "strides": {"list": {"i": ["1", "1", "1", "1"]}}, "fused_ops": {"list": {"s": ["Qmlhc0FkZA=="]}}, "num_args": {"i": "1"}, "epsilon": {"f": 0.0}, "TArgs": {"list": {"type": ["DT_FLOAT"]}}, "dilations": {"list": {"i": ["1", "1", "1", "1"]}}, "num_host_args": {"i": "0"}, "filter_format": {"s": "SFdJTw=="}, "data_format": {"s": "TkhXQw=="}, "use_cudnn_on_gpu": {"b": true}, "leakyrelu_alpha": {"f": 0.2}, "padding": {"s": "U0FNRQ=="}}}, {"name": "PartitionedCall/model/tf.math.sigmoid_63/Sigmoid", "op": "Sigmoid", "input": ["PartitionedCall/model/tf.math.add_81/Add"], "attr": {"T": {"type": "DT_FLOAT"}}}, {"name": "PartitionedCall/model/tf.math.multiply_227/Mul", "op": "Mul", "input": ["PartitionedCall/model/tf.math.add_81/Add", "PartitionedCall/model/tf.math.sigmoid_63/Sigmoid"], "attr": {"T": {"type": "DT_FLOAT"}}}, {"name": "PartitionedCall/model/tf.math.add_82/Add", "op": "_FusedConv2D", "input": ["PartitionedCall/model/tf.math.multiply_227/Mul", "4594", "4596"], "device": "/device:CPU:0", "attr": {"leakyrelu_alpha": {"f": 0.2}, "dilations": {"list": {"i": ["1", "1", "1", "1"]}}, "T": {"type": "DT_FLOAT"}, "use_cudnn_on_gpu": {"b": true}, "num_host_args": {"i": "0"}, "epsilon": {"f": 0.0}, "padding": {"s": "U0FNRQ=="}, "num_args": {"i": "1"}, "data_format": {"s": "TkhXQw=="}, "explicit_paddings": {"list": {}}, "filter_format": {"s": "SFdJTw=="}, "fused_ops": {"list": {"s": ["Qmlhc0FkZA=="]}}, "strides": {"list": {"i": ["1", "1", "1", "1"]}}, "TArgs": {"list": {"type": ["DT_FLOAT"]}}}}, {"name": "PartitionedCall/model/tf.math.sigmoid_64/Sigmoid", "op": "Sigmoid", "input": ["PartitionedCall/model/tf.math.add_82/Add"], "attr": {"T": {"type": "DT_FLOAT"}}}, {"name": "PartitionedCall/model/tf.math.multiply_230/Mul", "op": "Mul", "input": ["PartitionedCall/model/tf.math.add_82/Add", "PartitionedCall/model/tf.math.sigmoid_64/Sigmoid"], "attr": {"T": {"type": "DT_FLOAT"}}}, {"name": "PartitionedCall/model/tf.math.add_83/Add", "op": "_FusedConv2D", "input": ["PartitionedCall/model/tf.math.multiply_230/Mul", "4598", "4600"], "device": "/device:CPU:0", "attr": {"fused_ops": {"list": {"s": ["Qmlhc0FkZA=="]}}, "strides": {"list": {"i": ["1", "1", "1", "1"]}}, "epsilon": {"f": 0.0}, "TArgs": {"list": {"type": ["DT_FLOAT"]}}, "dilations": {"list": {"i": ["1", "1", "1", "1"]}}, "leakyrelu_alpha": {"f": 0.2}, "filter_format": {"s": "SFdJTw=="}, "explicit_paddings": {"list": {}}, "T": {"type": "DT_FLOAT"}, "num_args": {"i": "1"}, "data_format": {"s": "TkhXQw=="}, "num_host_args": {"i": "0"}, "padding": {"s": "U0FNRQ=="}, "use_cudnn_on_gpu": {"b": true}}}, {"name": "PartitionedCall/model/tf.math.sigmoid_65/Sigmoid", "op": "Sigmoid", "input": ["PartitionedCall/model/tf.math.add_83/Add"], "attr": {"T": {"type": "DT_FLOAT"}}}, {"name": "PartitionedCall/model/tf.math.multiply_233/Mul", "op": "Mul", "input": ["PartitionedCall/model/tf.math.add_83/Add", "PartitionedCall/model/tf.math.sigmoid_65/Sigmoid"], "attr": {"T": {"type": "DT_FLOAT"}}}, {"name": "PartitionedCall/model/tf.concat_8/concat", "op": "ConcatV2", "input": ["PartitionedCall/model/tf.strided_slice_10/StridedSlice", "PartitionedCall/model/tf.strided_slice_11/StridedSlice", "PartitionedCall/model/tf.math.multiply_221/Mul", "PartitionedCall/model/tf.math.multiply_227/Mul", "PartitionedCall/model/tf.math.multiply_233/Mul", "PartitionedCall/model/tf.concat_8/concat/axis"], "attr": {"N": {"i": "5"}, "T": {"type": "DT_FLOAT"}, "Tidx": {"type": "DT_INT32"}}}, {"name": "PartitionedCall/model/tf.math.add_84/Add", "op": "_FusedConv2D", "input": ["PartitionedCall/model/tf.concat_8/concat", "4606", "4608"], "device": "/device:CPU:0", "attr": {"padding": {"s": "U0FNRQ=="}, "fused_ops": {"list": {"s": ["Qmlhc0FkZA=="]}}, "explicit_paddings": {"list": {}}, "leakyrelu_alpha": {"f": 0.2}, "use_cudnn_on_gpu": {"b": true}, "num_host_args": {"i": "0"}, "strides": {"list": {"i": ["1", "1", "1", "1"]}}, "data_format": {"s": "TkhXQw=="}, "epsilon": {"f": 0.0}, "T": {"type": "DT_FLOAT"}, "filter_format": {"s": "SFdJTw=="}, "dilations": {"list": {"i": ["1", "1", "1", "1"]}}, "TArgs": {"list": {"type": ["DT_FLOAT"]}}, "num_args": {"i": "1"}}}, {"name": "PartitionedCall/model/tf.math.sigmoid_66/Sigmoid", "op": "Sigmoid", "input": ["PartitionedCall/model/tf.math.add_84/Add"], "attr": {"T": {"type": "DT_FLOAT"}}}, {"name": "PartitionedCall/model/tf.math.multiply_236/Mul", "op": "Mul", "input": ["PartitionedCall/model/tf.math.add_84/Add", "PartitionedCall/model/tf.math.sigmoid_66/Sigmoid"], "attr": {"T": {"type": "DT_FLOAT"}}}, {"name": "PartitionedCall/model/tf.math.add_86/Add", "op": "_FusedConv2D", "input": ["PartitionedCall/model/tf.math.multiply_236/Mul", "4712", "4724"], "device": "/device:CPU:0", "attr": {"explicit_paddings": {"list": {}}, "strides": {"list": {"i": ["1", "1", "1", "1"]}}, "T": {"type": "DT_FLOAT"}, "leakyrelu_alpha": {"f": 0.2}, "fused_ops": {"list": {"s": ["Qmlhc0FkZA=="]}}, "data_format": {"s": "TkhXQw=="}, "num_args": {"i": "1"}, "padding": {"s": "U0FNRQ=="}, "num_host_args": {"i": "0"}, "filter_format": {"s": "SFdJTw=="}, "use_cudnn_on_gpu": {"b": true}, "TArgs": {"list": {"type": ["DT_FLOAT"]}}, "epsilon": {"f": 0.0}, "dilations": {"list": {"i": ["1", "1", "1", "1"]}}}}, {"name": "PartitionedCall/model/tf.math.add_87/Add", "op": "_FusedConv2D", "input": ["PartitionedCall/model/tf.math.multiply_236/Mul", "4710", "4722"], "device": "/device:CPU:0", "attr": {"num_args": {"i": "1"}, "strides": {"list": {"i": ["1", "1", "1", "1"]}}, "epsilon": {"f": 0.0}, "T": {"type": "DT_FLOAT"}, "num_host_args": {"i": "0"}, "leakyrelu_alpha": {"f": 0.2}, "TArgs": {"list": {"type": ["DT_FLOAT"]}}, "filter_format": {"s": "SFdJTw=="}, "padding": {"s": "U0FNRQ=="}, "explicit_paddings": {"list": {}}, "dilations": {"list": {"i": ["1", "1", "1", "1"]}}, "use_cudnn_on_gpu": {"b": true}, "fused_ops": {"list": {"s": ["Qmlhc0FkZA=="]}}, "data_format": {"s": "TkhXQw=="}}}, {"name": "PartitionedCall/model/tf.compat.v1.pad_5/Pad", "op": "Pad", "input": ["PartitionedCall/model/tf.math.multiply_236/Mul", "4610"], "attr": {"Tpaddings": {"type": "DT_INT32"}, "T": {"type": "DT_FLOAT"}}}, {"name": "PartitionedCall/model/tf.math.sigmoid_68/Sigmoid", "op": "Sigmoid", "input": ["PartitionedCall/model/tf.math.add_86/Add"], "attr": {"T": {"type": "DT_FLOAT"}}}, {"name": "PartitionedCall/model/tf.math.sigmoid_69/Sigmoid", "op": "Sigmoid", "input": ["PartitionedCall/model/tf.math.add_87/Add"], "attr": {"T": {"type": "DT_FLOAT"}}}, {"name": "PartitionedCall/model/tf.math.add_85/Add", "op": "_FusedConv2D", "input": ["PartitionedCall/model/tf.compat.v1.pad_5/Pad", "4612", "4614"], "device": "/device:CPU:0", "attr": {"leakyrelu_alpha": {"f": 0.2}, "num_host_args": {"i": "0"}, "filter_format": {"s": "SFdJTw=="}, "strides": {"list": {"i": ["1", "2", "2", "1"]}}, "num_args": {"i": "1"}, "data_format": {"s": "TkhXQw=="}, "fused_ops": {"list": {"s": ["Qmlhc0FkZA=="]}}, "T": {"type": "DT_FLOAT"}, "epsilon": {"f": 0.0}, "padding": {"s": "VkFMSUQ="}, "explicit_paddings": {"list": {}}, "dilations": {"list": {"i": ["1", "1", "1", "1"]}}, "use_cudnn_on_gpu": {"b": true}, "TArgs": {"list": {"type": ["DT_FLOAT"]}}}}, {"name": "PartitionedCall/model/tf.math.multiply_242/Mul", "op": "Mul", "input": ["PartitionedCall/model/tf.math.add_86/Add", "PartitionedCall/model/tf.math.sigmoid_68/Sigmoid"], "attr": {"T": {"type": "DT_FLOAT"}}}, {"name": "PartitionedCall/model/tf.math.multiply_245/Mul", "op": "Mul", "input": ["PartitionedCall/model/tf.math.add_87/Add", "PartitionedCall/model/tf.math.sigmoid_69/Sigmoid"], "attr": {"T": {"type": "DT_FLOAT"}}}, {"name": "PartitionedCall/model/tf.math.sigmoid_67/Sigmoid", "op": "Sigmoid", "input": ["PartitionedCall/model/tf.math.add_85/Add"], "attr": {"T": {"type": "DT_FLOAT"}}}, {"name": "PartitionedCall/model/tf.math.add_88/Add", "op": "_FusedConv2D", "input": ["PartitionedCall/model/tf.math.multiply_242/Mul", "4736", "4748"], "device": "/device:CPU:0", "attr": {"leakyrelu_alpha": {"f": 0.2}, "TArgs": {"list": {"type": ["DT_FLOAT"]}}, "dilations": {"list": {"i": ["1", "1", "1", "1"]}}, "filter_format": {"s": "SFdJTw=="}, "num_host_args": {"i": "0"}, "strides": {"list": {"i": ["1", "1", "1", "1"]}}, "num_args": {"i": "1"}, "fused_ops": {"list": {"s": ["Qmlhc0FkZA=="]}}, "data_format": {"s": "TkhXQw=="}, "use_cudnn_on_gpu": {"b": true}, "padding": {"s": "U0FNRQ=="}, "T": {"type": "DT_FLOAT"}, "epsilon": {"f": 0.0}, "explicit_paddings": {"list": {}}}}, {"name": "PartitionedCall/model/tf.math.add_89/Add", "op": "_FusedConv2D", "input": ["PartitionedCall/model/tf.math.multiply_245/Mul", "4734", "4746"], "device": "/device:CPU:0", "attr": {"leakyrelu_alpha": {"f": 0.2}, "strides": {"list": {"i": ["1", "1", "1", "1"]}}, "data_format": {"s": "TkhXQw=="}, "explicit_paddings": {"list": {}}, "T": {"type": "DT_FLOAT"}, "fused_ops": {"list": {"s": ["Qmlhc0FkZA=="]}}, "filter_format": {"s": "SFdJTw=="}, "epsilon": {"f": 0.0}, "use_cudnn_on_gpu": {"b": true}, "dilations": {"list": {"i": ["1", "1", "1", "1"]}}, "num_host_args": {"i": "0"}, "padding": {"s": "U0FNRQ=="}, "TArgs": {"list": {"type": ["DT_FLOAT"]}}, "num_args": {"i": "1"}}}, {"name": "PartitionedCall/model/tf.math.multiply_239/Mul", "op": "Mul", "input": ["PartitionedCall/model/tf.math.add_85/Add", "PartitionedCall/model/tf.math.sigmoid_67/Sigmoid"], "attr": {"T": {"type": "DT_FLOAT"}}}, {"name": "PartitionedCall/model/tf.math.sigmoid_70/Sigmoid", "op": "Sigmoid", "input": ["PartitionedCall/model/tf.math.add_88/Add"], "attr": {"T": {"type": "DT_FLOAT"}}}, {"name": "PartitionedCall/model/tf.math.sigmoid_71/Sigmoid", "op": "Sigmoid", "input": ["PartitionedCall/model/tf.math.add_89/Add"], "attr": {"T": {"type": "DT_FLOAT"}}}, {"name": "PartitionedCall/model/tf.concat_9/concat", "op": "ConcatV2", "input": ["Par…
"list": {"i": ["1", "2", "2", "1"]}}, "leakyrelu_alpha": {"f": 0.2}, "explicit_paddings": {"list": {}}, "dilations": {"list": {"i": ["1", "1", "1", "1"]}}, "TArgs": {"list": {"type": ["DT_FLOAT"]}}, "num_args": {"i": "1"}, "fused_ops": {"list": {"s": ["Qmlhc0FkZA=="]}}, "num_host_args": {"i": "0"}, "T": {"type": "DT_FLOAT"}, "filter_format": {"s": "SFdJTw=="}, "use_cudnn_on_gpu": {"b": true}}}, {"name": "PartitionedCall/model/tf.math.sigmoid_81/Sigmoid", "op": "Sigmoid", "input": ["PartitionedCall/model/tf.math.add_101/Add"], "attr": {"T": {"type": "DT_FLOAT"}}}, {"name": "PartitionedCall/model/tf.math.multiply_284/Mul", "op": "Mul", "input": ["PartitionedCall/model/tf.math.add_102/Add", "PartitionedCall/model/tf.math.sigmoid_82/Sigmoid"], "attr": {"T": {"type": "DT_FLOAT"}}}, {"name": "PartitionedCall/model/tf.math.sigmoid_80/Sigmoid", "op": "Sigmoid", "input": ["PartitionedCall/model/tf.math.add_100/Add"], "attr": {"T": {"type": "DT_FLOAT"}}}, {"name": "PartitionedCall/model/tf.math.multiply_281/Mul", "op": "Mul", "input": ["PartitionedCall/model/tf.math.add_101/Add", "PartitionedCall/model/tf.math.sigmoid_81/Sigmoid"], "attr": {"T": {"type": "DT_FLOAT"}}}, {"name": "PartitionedCall/model/tf.math.add_104/Add", "op": "_FusedConv2D", "input": ["PartitionedCall/model/tf.math.multiply_284/Mul", "4730", "4742"], "device": "/device:CPU:0", "attr": {"num_args": {"i": "1"}, "epsilon": {"f": 0.0}, "num_host_args": {"i": "0"}, "TArgs": {"list": {"type": ["DT_FLOAT"]}}, "filter_format": {"s": "SFdJTw=="}, "dilations": {"list": {"i": ["1", "1", "1", "1"]}}, "leakyrelu_alpha": {"f": 0.2}, "use_cudnn_on_gpu": {"b": true}, "strides": {"list": {"i": ["1", "1", "1", "1"]}}, "explicit_paddings": {"list": {}}, "padding": {"s": "U0FNRQ=="}, "fused_ops": {"list": {"s": ["Qmlhc0FkZA=="]}}, "data_format": {"s": "TkhXQw=="}, "T": {"type": "DT_FLOAT"}}}, {"name": "PartitionedCall/model/tf.math.multiply_278/Mul", "op": "Mul", "input": ["PartitionedCall/model/tf.math.add_100/Add", "PartitionedCall/model/tf.math.sigmoid_80/Sigmoid"], "attr": {"T": {"type": "DT_FLOAT"}}}, {"name": "PartitionedCall/model/tf.math.add_103/Add", "op": "_FusedConv2D", "input": ["PartitionedCall/model/tf.math.multiply_281/Mul", "4732", "4744"], "device": "/device:CPU:0", "attr": {"filter_format": {"s": "SFdJTw=="}, "dilations": {"list": {"i": ["1", "1", "1", "1"]}}, "num_args": {"i": "1"}, "strides": {"list": {"i": ["1", "1", "1", "1"]}}, "use_cudnn_on_gpu": {"b": true}, "TArgs": {"list": {"type": ["DT_FLOAT"]}}, "padding": {"s": "U0FNRQ=="}, "T": {"type": "DT_FLOAT"}, "data_format": {"s": "TkhXQw=="}, "epsilon": {"f": 0.0}, "num_host_args": {"i": "0"}, "leakyrelu_alpha": {"f": 0.2}, "fused_ops": {"list": {"s": ["Qmlhc0FkZA=="]}}, "explicit_paddings": {"list": {}}}}, {"name": "PartitionedCall/model/tf.math.sigmoid_84/Sigmoid", "op": "Sigmoid", "input": ["PartitionedCall/model/tf.math.add_104/Add"], "attr": {"T": {"type": "DT_FLOAT"}}}, {"name": "PartitionedCall/model/tf.concat_12/concat", "op": "ConcatV2", "input": ["PartitionedCall/model/tf.math.multiply_278/Mul", "PartitionedCall/model/tf.math.multiply_188/Mul", "PartitionedCall/model/tf.concat_12/concat/axis"], "attr": {"N": {"i": "2"}, "Tidx": {"type": "DT_INT32"}, "T": {"type": "DT_FLOAT"}}}, {"name": "PartitionedCall/model/tf.math.sigmoid_83/Sigmoid", "op": "Sigmoid", "input": ["PartitionedCall/model/tf.math.add_103/Add"], "attr": {"T": {"type": "DT_FLOAT"}}}, {"name": "PartitionedCall/model/tf.math.multiply_290/Mul", "op": "Mul", "input": ["PartitionedCall/model/tf.math.add_104/Add", "PartitionedCall/model/tf.math.sigmoid_84/Sigmoid"], "attr": {"T": {"type": "DT_FLOAT"}}}, {"name": "PartitionedCall/model/tf.math.add_105/Add", "op": "_FusedConv2D", "input": ["PartitionedCall/model/tf.concat_12/concat", "4662", "4664"], "device": "/device:CPU:0", "attr": {"dilations": {"list": {"i": ["1", "1", "1", "1"]}}, "TArgs": {"list": {"type": ["DT_FLOAT"]}}, "leakyrelu_alpha": {"f": 0.2}, "epsilon": {"f": 0.0}, "num_args": {"i": "1"}, "filter_format": {"s": "SFdJTw=="}, "T": {"type": "DT_FLOAT"}, "padding": {"s": "U0FNRQ=="}, "explicit_paddings": {"list": {}}, "fused_ops": {"list": {"s": ["Qmlhc0FkZA=="]}}, "strides": {"list": {"i": ["1", "1", "1", "1"]}}, "data_format": {"s": "TkhXQw=="}, "num_host_args": {"i": "0"}, "use_cudnn_on_gpu": {"b": true}}}, {"name": "PartitionedCall/model/tf.math.multiply_287/Mul", "op": "Mul", "input": ["PartitionedCall/model/tf.math.add_103/Add", "PartitionedCall/model/tf.math.sigmoid_83/Sigmoid"], "attr": {"T": {"type": "DT_FLOAT"}}}, {"name": "PartitionedCall/model/tf.math.add_107/Add", "op": "_FusedConv2D", "input": ["PartitionedCall/model/tf.math.multiply_290/Mul", "4754", "4768"], "device": "/device:CPU:0", "attr": {"num_host_args": {"i": "0"}, "filter_format": {"s": "SFdJTw=="}, "strides": {"list": {"i": ["1", "1", "1", "1"]}}, "epsilon": {"f": 0.0}, "padding": {"s": "U0FNRQ=="}, "num_args": {"i": "1"}, "fused_ops": {"list": {"s": ["Qmlhc0FkZA=="]}}, "use_cudnn_on_gpu": {"b": true}, "TArgs": {"list": {"type": ["DT_FLOAT"]}}, "dilations": {"list": {"i": ["1", "1", "1", "1"]}}, "leakyrelu_alpha": {"f": 0.2}, "T": {"type": "DT_FLOAT"}, "explicit_paddings": {"list": {}}, "data_format": {"s": "TkhXQw=="}}}, {"name": "PartitionedCall/model/tf.math.sigmoid_85/Sigmoid", "op": "Sigmoid", "input": ["PartitionedCall/model/tf.math.add_105/Add"], "attr": {"T": {"type": "DT_FLOAT"}}}, {"name": "PartitionedCall/model/tf.math.add_106/Add", "op": "_FusedConv2D", "input": ["PartitionedCall/model/tf.math.multiply_287/Mul", "4756", "4766"], "device": "/device:CPU:0", "attr": {"TArgs": {"list": {"type": ["DT_FLOAT"]}}, "strides": {"list": {"i": ["1", "1", "1", "1"]}}, "filter_format": {"s": "SFdJTw=="}, "fused_ops": {"list": {"s": ["Qmlhc0FkZA=="]}}, "T": {"type": "DT_FLOAT"}, "padding": {"s": "U0FNRQ=="}, "dilations": {"list": {"i": ["1", "1", "1", "1"]}}, "use_cudnn_on_gpu": {"b": true}, "explicit_paddings": {"list": {}}, "data_format": {"s": "TkhXQw=="}, "epsilon": {"f": 0.0}, "num_host_args": {"i": "0"}, "num_args": {"i": "1"}, "leakyrelu_alpha": {"f": 0.2}}}, {"name": "PartitionedCall/model/tf.math.multiply_293/Mul", "op": "Mul", "input": ["PartitionedCall/model/tf.math.add_105/Add", "PartitionedCall/model/tf.math.sigmoid_85/Sigmoid"], "attr": {"T": {"type": "DT_FLOAT"}}}, {"name": "PartitionedCall/model/tf.concat_13/concat", "op": "ConcatV2", "input": ["PartitionedCall/model/tf.math.add_106/Add", "PartitionedCall/model/tf.math.add_107/Add", "PartitionedCall/model/tf.concat_13/concat/axis"], "attr": {"N": {"i": "2"}, "T": {"type": "DT_FLOAT"}, "Tidx": {"type": "DT_INT32"}}}, {"name": "PartitionedCall/model/tf.strided_slice_14/StridedSlice", "op": "StridedSlice", "input": ["PartitionedCall/model/tf.math.multiply_293/Mul", "4694", "4696", "PartitionedCall/model/tf.strided_slice_14/ones_like"], "attr": {"new_axis_mask": {"i": "0"}, "end_mask": {"i": "7"}, "T": {"type": "DT_FLOAT"}, "Index": {"type": "DT_INT64"}, "begin_mask": {"i": "15"}, "ellipsis_mask": {"i": "0"}, "shrink_axis_mask": {"i": "0"}}}, {"name": "PartitionedCall/model/tf.strided_slice_15/StridedSlice", "op": "StridedSlice", "input": ["PartitionedCall/model/tf.math.multiply_293/Mul", "4666", "4668", "PartitionedCall/model/tf.strided_slice_15/ones_like"], "attr": {"end_mask": {"i": "7"}, "T": {"type": "DT_FLOAT"}, "ellipsis_mask": {"i": "0"}, "shrink_axis_mask": {"i": "0"}, "begin_mask": {"i": "7"}, "Index": {"type": "DT_INT64"}, "new_axis_mask": {"i": "0"}}}, {"name": "PartitionedCall/model/tf.compat.v1.transpose_1/transpose", "op": "Transpose", "input": ["PartitionedCall/model/tf.concat_13/concat", "PartitionedCall/model/tf.compat.v1.transpose_1/transpose/perm"], "attr": {"T": {"type": "DT_FLOAT"}, "Tperm": {"type": "DT_INT32"}}}, {"name": "PartitionedCall/model/tf.math.add_108/Add", "op": "_FusedConv2D", "input": ["PartitionedCall/model/tf.strided_slice_15/StridedSlice", "4670", "4672"], "device": "/device:CPU:0", "attr": {"strides": {"list": {"i": ["1", "1", "1", "1"]}}, "T": {"type": "DT_FLOAT"}, "padding": {"s": "U0FNRQ=="}, "filter_format": {"s": "SFdJTw=="}, "num_host_args": {"i": "0"}, "dilations": {"list": {"i": ["1", "1", "1", "1"]}}, "epsilon": {"f": 0.0}, "data_format": {"s": "TkhXQw=="}, "num_args": {"i": "1"}, "TArgs": {"list": {"type": ["DT_FLOAT"]}}, "fused_ops": {"list": {"s": ["Qmlhc0FkZA=="]}}, "leakyrelu_alpha": {"f": 0.2}, "explicit_paddings": {"list": {}}, "use_cudnn_on_gpu": {"b": true}}}, {"name": "PartitionedCall/model/tf.reshape_1/Reshape", "op": "Reshape", "input": ["PartitionedCall/model/tf.compat.v1.transpose_1/transpose", "PartitionedCall/model/tf.reshape_1/Reshape/shape"], "attr": {"Tshape": {"type": "DT_INT32"}, "T": {"type": "DT_FLOAT"}}}, {"name": "PartitionedCall/model/tf.math.sigmoid_86/Sigmoid", "op": "Sigmoid", "input": ["PartitionedCall/model/tf.math.add_108/Add"], "attr": {"T": {"type": "DT_FLOAT"}}}, {"name": "PartitionedCall/model/tf.math.multiply_296/Mul", "op": "Mul", "input": ["PartitionedCall/model/tf.math.add_108/Add", "PartitionedCall/model/tf.math.sigmoid_86/Sigmoid"], "attr": {"T": {"type": "DT_FLOAT"}}}, {"name": "PartitionedCall/model/tf.math.add_109/Add", "op": "_FusedConv2D", "input": ["PartitionedCall/model/tf.math.multiply_296/Mul", "4674", "4676"], "device": "/device:CPU:0", "attr": {"use_cudnn_on_gpu": {"b": true}, "TArgs": {"list": {"type": ["DT_FLOAT"]}}, "dilations": {"list": {"i": ["1", "1", "1", "1"]}}, "T": {"type": "DT_FLOAT"}, "padding": {"s": "U0FNRQ=="}, "data_format": {"s": "TkhXQw=="}, "filter_format": {"s": "SFdJTw=="}, "explicit_paddings": {"list": {}}, "num_args": {"i": "1"}, "fused_ops": {"list": {"s": ["Qmlhc0FkZA=="]}}, "epsilon": {"f": 0.0}, "leakyrelu_alpha": {"f": 0.2}, "strides": {"list": {"i": ["1", "1", "1", "1"]}}, "num_host_args": {"i": "0"}}}, {"name": "PartitionedCall/model/tf.math.sigmoid_87/Sigmoid", "op": "Sigmoid", "input": ["PartitionedCall/model/tf.math.add_109/Add"], "attr": {"T": {"type": "DT_FLOAT"}}}, {"name": "PartitionedCall/model/tf.math.multiply_299/Mul", "op": "Mul", "input": ["PartitionedCall/model/tf.math.add_109/Add", "PartitionedCall/model/tf.math.sigmoid_87/Sigmoid"], "attr": {"T": {"type": "DT_FLOAT"}}}, {"name": "PartitionedCall/model/tf.math.add_110/Add", "op": "_FusedConv2D", "input": ["PartitionedCall/model/tf.math.multiply_299/Mul", "4678", "4680"], "device": "/device:CPU:0", "attr": {"TArgs": {"list": {"type": ["DT_FLOAT"]}}, "data_format": {"s": "TkhXQw=="}, "explicit_paddings": {"list": {}}, "dilations": {"list": {"i": ["1", "1", "1", "1"]}}, "leakyrelu_alpha": {"f": 0.2}, "epsilon": {"f": 0.0}, "num_host_args": {"i": "0"}, "num_args": {"i": "1"}, "use_cudnn_on_gpu": {"b": true}, "strides": {"list": {"i": ["1", "1", "1", "1"]}}, "padding": {"s": "U0FNRQ=="}, "filter_format": {"s": "SFdJTw=="}, "fused_ops": {"list": {"s": ["Qmlhc0FkZA=="]}}, "T": {"type": "DT_FLOAT"}}}, {"name": "PartitionedCall/model/tf.math.sigmoid_88/Sigmoid", "op": "Sigmoid", "input": ["PartitionedCall/model/tf.math.add_110/Add"], "attr": {"T": {"type": "DT_FLOAT"}}}, {"name": "PartitionedCall/model/tf.math.multiply_302/Mul", "op": "Mul", "input": ["PartitionedCall/model/tf.math.add_110/Add", "PartitionedCall/model/tf.math.sigmoid_88/Sigmoid"], "attr": {"T": {"type": "DT_FLOAT"}}}, {"name": "PartitionedCall/model/tf.math.add_111/Add", "op": "_FusedConv2D", "input": ["PartitionedCall/model/tf.math.multiply_302/Mul", "4682", "4684"], "device": "/device:CPU:0", "attr": {"TArgs": {"list": {"type": ["DT_FLOAT"]}}, "leakyrelu_alpha": {"f": 0.2}, "explicit_paddings": {"list": {}}, "padding": {"s": "U0FNRQ=="}, "epsilon": {"f": 0.0}, "num_args": {"i": "1"}, "strides": {"list": {"i": ["1", "1", "1", "1"]}}, "use_cudnn_on_gpu": {"b": true}, "filter_format": {"s": "SFdJTw=="}, "dilations": {"list": {"i": ["1", "1", "1", "1"]}}, "fused_ops": {"list": {"s": ["Qmlhc0FkZA=="]}}, "data_format": {"s": "TkhXQw=="}, "num_host_args": {"i": "0"}, "T": {"type": "DT_FLOAT"}}}, {"name": "PartitionedCall/model/tf.math.sigmoid_89/Sigmoid", "op": "Sigmoid", "input": ["PartitionedCall/model/tf.math.add_111/Add"], "attr": {"T": {"type": "DT_FLOAT"}}}, {"name": "PartitionedCall/model/tf.math.multiply_305/Mul", "op": "Mul", "input": ["PartitionedCall/model/tf.math.add_111/Add", "PartitionedCall/model/tf.math.sigmoid_89/Sigmoid"], "attr": {"T": {"type": "DT_FLOAT"}}}, {"name": "PartitionedCall/model/tf.math.add_112/Add", "op": "_FusedConv2D", "input": ["PartitionedCall/model/tf.math.multiply_305/Mul", "4686", "4688"], "device": "/device:CPU:0", "attr": {"num_host_args": {"i": "0"}, "filter_format": {"s": "SFdJTw=="}, "use_cudnn_on_gpu": {"b": true}, "epsilon": {"f": 0.0}, "leakyrelu_alpha": {"f": 0.2}, "data_format": {"s": "TkhXQw=="}, "explicit_paddings": {"list": {}}, "num_args": {"i": "1"}, "fused_ops": {"list": {"s": ["Qmlhc0FkZA=="]}}, "dilations": {"list": {"i": ["1", "1", "1", "1"]}}, "padding": {"s": "U0FNRQ=="}, "TArgs": {"list": {"type": ["DT_FLOAT"]}}, "strides": {"list": {"i": ["1", "1", "1", "1"]}}, "T": {"type": "DT_FLOAT"}}}, {"name": "PartitionedCall/model/tf.math.sigmoid_90/Sigmoid", "op": "Sigmoid", "input": ["PartitionedCall/model/tf.math.add_112/Add"], "attr": {"T": {"type": "DT_FLOAT"}}}, {"name": "PartitionedCall/model/tf.math.multiply_308/Mul", "op": "Mul", "input": ["PartitionedCall/model/tf.math.add_112/Add", "PartitionedCall/model/tf.math.sigmoid_90/Sigmoid"], "attr": {"T": {"type": "DT_FLOAT"}}}, {"name": "PartitionedCall/model/tf.math.add_113/Add", "op": "_FusedConv2D", "input": ["PartitionedCall/model/tf.math.multiply_308/Mul", "4690", "4692"], "device": "/device:CPU:0", "attr": {"num_host_args": {"i": "0"}, "dilations": {"list": {"i": ["1", "1", "1", "1"]}}, "fused_ops": {"list": {"s": ["Qmlhc0FkZA=="]}}, "strides": {"list": {"i": ["1", "1", "1", "1"]}}, "epsilon": {"f": 0.0}, "data_format": {"s": "TkhXQw=="}, "padding": {"s": "U0FNRQ=="}, "num_args": {"i": "1"}, "filter_format": {"s": "SFdJTw=="}, "leakyrelu_alpha": {"f": 0.2}, "explicit_paddings": {"list": {}}, "use_cudnn_on_gpu": {"b": true}, "T": {"type": "DT_FLOAT"}, "TArgs": {"list": {"type": ["DT_FLOAT"]}}}}, {"name": "PartitionedCall/model/tf.math.sigmoid_91/Sigmoid", "op": "Sigmoid", "input": ["PartitionedCall/model/tf.math.add_113/Add"], "attr": {"T": {"type": "DT_FLOAT"}}}, {"name": "PartitionedCall/model/tf.math.multiply_311/Mul", "op": "Mul", "input": ["PartitionedCall/model/tf.math.add_113/Add", "PartitionedCall/model/tf.math.sigmoid_91/Sigmoid"], "attr": {"T": {"type": "DT_FLOAT"}}}, {"name": "PartitionedCall/model/tf.concat_14/concat", "op": "ConcatV2", "input": ["PartitionedCall/model/tf.strided_slice_14/StridedSlice", "PartitionedCall/model/tf.strided_slice_15/StridedSlice", "PartitionedCall/model/tf.math.multiply_299/Mul", "PartitionedCall/model/tf.math.multiply_305/Mul", "PartitionedCall/model/tf.math.multiply_311/Mul", "PartitionedCall/model/tf.concat_14/concat/axis"], "attr": {"N": {"i": "5"}, "T": {"type": "DT_FLOAT"}, "Tidx": {"type": "DT_INT32"}}}, {"name": "PartitionedCall/model/tf.math.add_114/Add", "op": "_FusedConv2D", "input": ["PartitionedCall/model/tf.concat_14/concat", "4698", "4700"], "device": "/device:CPU:0", "attr": {"leakyrelu_alpha": {"f": 0.2}, "T": {"type": "DT_FLOAT"}, "fused_ops": {"list": {"s": ["Qmlhc0FkZA=="]}}, "num_host_args": {"i": "0"}, "dilations": {"list": {"i": ["1", "1", "1", "1"]}}, "explicit_paddings": {"list": {}}, "filter_format": {"s": "SFdJTw=="}, "strides": {"list": {"i": ["1", "1", "1", "1"]}}, "TArgs": {"list": {"type": ["DT_FLOAT"]}}, "data_format": {"s": "TkhXQw=="}, "use_cudnn_on_gpu": {"b": true}, "epsilon": {"f": 0.0}, "num_args": {"i": "1"}, "padding": {"s": "U0FNRQ=="}}}, {"name": "PartitionedCall/model/tf.math.sigmoid_92/Sigmoid", "op": "Sigmoid", "input": ["PartitionedCall/model/tf.math.add_114/Add"], "attr": {"T": {"type": "DT_FLOAT"}}}, {"name": "PartitionedCall/model/tf.math.multiply_314/Mul", "op": "Mul", "input": ["PartitionedCall/model/tf.math.add_114/Add", "PartitionedCall/model/tf.math.sigmoid_92/Sigmoid"], "attr": {"T": {"type": "DT_FLOAT"}}}, {"name": "PartitionedCall/model/tf.math.add_115/Add", "op": "_FusedConv2D", "input": ["PartitionedCall/model/tf.math.multiply_314/Mul", "4704", "4716"], "device": "/device:CPU:0", "attr": {"strides": {"list": {"i": ["1", "1", "1", "1"]}}, "fused_ops": {"list": {"s": ["Qmlhc0FkZA=="]}}, "filter_format": {"s": "SFdJTw=="}, "explicit_paddings": {"list": {}}, "use_cudnn_on_gpu": {"b": true}, "data_format": {"s": "TkhXQw=="}, "padding": {"s": "U0FNRQ=="}, "num_args": {"i": "1"}, "T": {"type": "DT_FLOAT"}, "leakyrelu_alpha": {"f": 0.2}, "num_host_args": {"i": "0"}, "dilations": {"list": {"i": ["1", "1", "1", "1"]}}, "epsilon": {"f": 0.0}, "TArgs": {"list": {"type": ["DT_FLOAT"]}}}}, {"name": "PartitionedCall/model/tf.math.add_116/Add", "op": "_FusedConv2D", "input": ["PartitionedCall/model/tf.math.multiply_314/Mul", "4702", "4714"], "device": "/device:CPU:0", "attr": {"T": {"type": "DT_FLOAT"}, "explicit_paddings": {"list": {}}, "fused_ops": {"list": {"s": ["Qmlhc0FkZA=="]}}, "epsilon": {"f": 0.0}, "strides": {"list": {"i": ["1", "1", "1", "1"]}}, "leakyrelu_alpha": {"f": 0.2}, "filter_format": {"s": "SFdJTw=="}, "data_format": {"s": "TkhXQw=="}, "num_host_args": {"i": "0"}, "dilations": {"list": {"i": ["1", "1", "1", "1"]}}, "padding": {"s": "U0FNRQ=="}, "TArgs": {"list": {"type": ["DT_FLOAT"]}}, "use_cudnn_on_gpu": {"b": true}, "num_args": {"i": "1"}}}, {"name": "PartitionedCall/model/tf.math.sigmoid_93/Sigmoid", "op": "Sigmoid", "input": ["PartitionedCall/model/tf.math.add_115/Add"], "attr": {"T": {"type": "DT_FLOAT"}}}, {"name": "PartitionedCall/model/tf.math.sigmoid_94/Sigmoid", "op": "Sigmoid", "input": ["PartitionedCall/model/tf.math.add_116/Add"], "attr": {"T": {"type": "DT_FLOAT"}}}, {"name": "PartitionedCall/model/tf.math.multiply_317/Mul", "op": "Mul", "input": ["PartitionedCall/model/tf.math.add_115/Add", "PartitionedCall/model/tf.math.sigmoid_93/Sigmoid"], "attr": {"T": {"type": "DT_FLOAT"}}}, {"name": "PartitionedCall/model/tf.math.multiply_320/Mul", "op": "Mul", "input": ["PartitionedCall/model/tf.math.add_116/Add", "PartitionedCall/model/tf.math.sigmoid_94/Sigmoid"], "attr": {"T": {"type": "DT_FLOAT"}}}, {"name": "PartitionedCall/model/tf.math.add_117/Add", "op": "_FusedConv2D", "input": ["PartitionedCall/model/tf.math.multiply_317/Mul", "4728", "4740"], "device": "/device:CPU:0", "attr": {"T": {"type": "DT_FLOAT"}, "data_format": {"s": "TkhXQw=="}, "padding": {"s": "U0FNRQ=="}, "fused_ops": {"list": {"s": ["Qmlhc0FkZA=="]}}, "leakyrelu_alpha": {"f": 0.2}, "num_host_args": {"i": "0"}, "dilations": {"list": {"i": ["1", "1", "1", "1"]}}, "num_args": {"i": "1"}, "filter_format": {"s": "SFdJTw=="}, "explicit_paddings": {"list": {}}, "use_cudnn_on_gpu": {"b": true}, "strides": {"list": {"i": ["1", "1", "1", "1"]}}, "epsilon": {"f": 0.0}, "TArgs": {"list": {"type": ["DT_FLOAT"]}}}}, {"name": "PartitionedCall/model/tf.math.add_118/Add", "op": "_FusedConv2D", "input": ["PartitionedCall/model/tf.math.multiply_320/Mul", "4726", "4738"], "device": "/device:CPU:0", "attr": {"use_cudnn_on_gpu": {"b": true}, "strides": {"list": {"i": ["1", "1", "1", "1"]}}, "num_args": {"i": "1"}, "padding": {"s": "U0FNRQ=="}, "TArgs": {"list": {"type": ["DT_FLOAT"]}}, "dilations": {"list": {"i": ["1", "1", "1", "1"]}}, "fused_ops": {"list": {"s": ["Qmlhc0FkZA=="]}}, "T": {"type": "DT_FLOAT"}, "filter_format": {"s": "SFdJTw=="}, "epsilon": {"f": 0.0}, "num_host_args": {"i": "0"}, "explicit_paddings": {"list": {}}, "data_format": {"s": "TkhXQw=="}, "leakyrelu_alpha": {"f": 0.2}}}, {"name": "PartitionedCall/model/tf.math.sigmoid_95/Sigmoid", "op": "Sigmoid", "input": ["PartitionedCall/model/tf.math.add_117/Add"], "attr": {"T": {"type": "DT_FLOAT"}}}, {"name": "PartitionedCall/model/tf.math.sigmoid_96/Sigmoid", "op": "Sigmoid", "input": ["PartitionedCall/model/tf.math.add_118/Add"], "attr": {"T": {"type": "DT_FLOAT"}}}, {"name": "PartitionedCall/model/tf.math.multiply_323/Mul", "op": "Mul", "input": ["PartitionedCall/model/tf.math.add_117/Add", "PartitionedCall/model/tf.math.sigmoid_95/Sigmoid"], "attr": {"T": {"type": "DT_FLOAT"}}}, {"name": "PartitionedCall/model/tf.math.multiply_326/Mul", "op": "Mul", "input": ["PartitionedCall/model/tf.math.add_118/Add", "PartitionedCall/model/tf.math.sigmoid_96/Sigmoid"], "attr": {"T": {"type": "DT_FLOAT"}}}, {"name": "PartitionedCall/model/tf.math.add_119/Add", "op": "_FusedConv2D", "input": ["PartitionedCall/model/tf.math.multiply_323/Mul", "4752", "4762"], "device": "/device:CPU:0", "attr": {"use_cudnn_on_gpu": {"b": true}, "explicit_paddings": {"list": {}}, "leakyrelu_alpha": {"f": 0.2}, "strides": {"list": {"i": ["1", "1", "1", "1"]}}, "filter_format": {"s": "SFdJTw=="}, "padding": {"s": "U0FNRQ=="}, "dilations": {"list": {"i": ["1", "1", "1", "1"]}}, "T": {"type": "DT_FLOAT"}, "num_args": {"i": "1"}, "epsilon": {"f": 0.0}, "num_host_args": {"i": "0"}, "fused_ops": {"list": {"s": ["Qmlhc0FkZA=="]}}, "data_format": {"s": "TkhXQw=="}, "TArgs": {"list": {"type": ["DT_FLOAT"]}}}}, {"name": "PartitionedCall/model/tf.math.add_120/Add", "op": "_FusedConv2D", "input": ["PartitionedCall/model/tf.math.multiply_326/Mul", "4750", "4764"], "device": "/device:CPU:0", "attr": {"leakyrelu_alpha": {"f": 0.2}, "num_args": {"i": "1"}, "T": {"type": "DT_FLOAT"}, "use_cudnn_on_gpu": {"b": true}, "epsilon": {"f": 0.0}, "data_format": {"s": "TkhXQw=="}, "filter_format": {"s": "SFdJTw=="}, "TArgs": {"list": {"type": ["DT_FLOAT"]}}, "num_host_args": {"i": "0"}, "fused_ops": {"list": {"s": ["Qmlhc0FkZA=="]}}, "explicit_paddings": {"list": {}}, "padding": {"s": "U0FNRQ=="}, "strides": {"list": {"i": ["1", "1", "1", "1"]}}, "dilations": {"list": {"i": ["1", "1", "1", "1"]}}}}, {"name": "PartitionedCall/model/tf.concat_15/concat", "op": "ConcatV2", "input": ["PartitionedCall/model/tf.math.add_119/Add", "PartitionedCall/model/tf.math.add_120/Add", "PartitionedCall/model/tf.concat_15/concat/axis"], "attr": {"N": {"i": "2"}, "Tidx": {"type": "DT_INT32"}, "T": {"type": "DT_FLOAT"}}}, {"name": "PartitionedCall/model/tf.compat.v1.transpose_2/transpose", "op": "Transpose", "input": ["PartitionedCall/model/tf.concat_15/concat", "PartitionedCall/model/tf.compat.v1.transpose_2/transpose/perm"], "attr": {"Tperm": {"type": "DT_INT32"}, "T": {"type": "DT_FLOAT"}}}, {"name": "PartitionedCall/model/tf.reshape_2/Reshape", "op": "Reshape", "input": ["PartitionedCall/model/tf.compat.v1.transpose_2/transpose", "PartitionedCall/model/tf.reshape_2/Reshape/shape"], "attr": {"T": {"type": "DT_FLOAT"}, "Tshape": {"type": "DT_INT32"}}}, {"name": "PartitionedCall/model/tf.concat_16/concat", "op": "ConcatV2", "input": ["PartitionedCall/model/tf.reshape/Reshape", "PartitionedCall/model/tf.reshape_1/Reshape", "PartitionedCall/model/tf.reshape_2/Reshape", "PartitionedCall/model/tf.concat_16/concat/axis"], "attr": {"Tidx": {"type": "DT_INT32"}, "T": {"type": "DT_FLOAT"}, "N": {"i": "3"}}}, {"name": "PartitionedCall/model/tf.strided_slice_17/StridedSlice", "op": "StridedSlice", "input": ["PartitionedCall/model/tf.concat_16/concat", "4794", "4796", "PartitionedCall/model/tf.strided_slice_17/StridedSlice/strides"], "attr": {"shrink_axis_mask": {"i": "0"}, "end_mask": {"i": "5"}, "new_axis_mask": {"i": "0"}, "begin_mask": {"i": "5"}, "T": {"type": "DT_FLOAT"}, "ellipsis_mask": {"i": "0"}, "Index": {"type": "DT_INT64"}}}, {"name": "PartitionedCall/model/tf.strided_slice_16/StridedSlice", "op": "StridedSlice", "input": ["PartitionedCall/model/tf.concat_16/concat", "4774", "4776", "PartitionedCall/model/tf.strided_slice_16/StridedSlice/strides"], "attr": {"ellipsis_mask": {"i": "0"}, "new_axis_mask": {"i": "0"}, "shrink_axis_mask": {"i": "0"}, "begin_mask": {"i": "7"}, "end_mask": {"i": "5"}, "T": {"type": "DT_FLOAT"}, "Index": {"type": "DT_INT64"}}}, {"name": "PartitionedCall/model/tf.math.sigmoid_97/Sigmoid", "op": "Sigmoid", "input": ["PartitionedCall/model/tf.strided_slice_17/StridedSlice"], "attr": {"T": {"type": "DT_FLOAT"}}}, {"name": "PartitionedCall/model/tf.reshape_3/Reshape", "op": "Reshape", "input": ["PartitionedCall/model/tf.strided_slice_16/StridedSlice", "PartitionedCall/model/tf.reshape_3/Reshape/shape"], "attr": {"T": {"type": "DT_FLOAT"}, "Tshape": {"type": "DT_INT32"}}}, {"name": "PartitionedCall/model/tf.compat.v1.transpose_4/transpose", "op": "Transpose", "input": ["PartitionedCall/model/tf.reshape_3/Reshape", "PartitionedCall/model/tf.compat.v1.transpose_4/transpose/perm"], "attr": {"Tperm": {"type": "DT_INT32"}, "T": {"type": "DT_FLOAT"}}}, {"name": "PartitionedCall/model/tf.compat.v1.transpose_5/transpose", "op": "Transpose", "input": ["PartitionedCall/model/tf.compat.v1.transpose_4/transpose", "PartitionedCall/model/tf.compat.v1.transpose_5/transpose/perm"], "attr": {"T": {"type": "DT_FLOAT"}, "Tperm": {"type": "DT_INT32"}}}, {"name": "PartitionedCall/model/tf.nn.softmax//model.22/dfl/Softmax", "op": "Softmax", "input": ["PartitionedCall/model/tf.compat.v1.transpose_5/transpose"], "attr": {"T": {"type": "DT_FLOAT"}}}, {"name": "PartitionedCall/model/tf.nn.convolution_103/convolution", "op": "Conv2D", "input": ["PartitionedCall/model/tf.nn.softmax//model.22/dfl/Softmax", "4778"], "device": "/device:CPU:0", "attr": {"strides": {"list": {"i": ["1", "1", "1", "1"]}}, "padding": {"s": "U0FNRQ=="}, "explicit_paddings": {"list": {}}, "use_cudnn_on_gpu": {"b": true}, "data_format": {"s": "TkhXQw=="}, "dilations": {"list": {"i": ["1", "1", "1", "1"]}}, "T": {"type": "DT_FLOAT"}}}, {"name": "PartitionedCall/model/tf.compat.v1.transpose_8/transpose", "op": "Transpose", "input": ["PartitionedCall/model/tf.nn.convolution_103/convolution", "PartitionedCall/model/tf.compat.v1.transpose_8/transpose/perm"], "attr": {"T": {"type": "DT_FLOAT"}, "Tperm": {"type": "DT_INT32"}}}, {"name": "PartitionedCall/model/tf.reshape_4/Reshape", "op": "Reshape", "input": ["PartitionedCall/model/tf.compat.v1.transpose_8/transpose", "PartitionedCall/model/tf.reshape_4/Reshape/shape"], "attr": {"T": {"type": "DT_FLOAT"}, "Tshape": {"type": "DT_INT32"}}}, {"name": "PartitionedCall/model/tf.strided_slice_19/StridedSlice", "op": "StridedSlice", "input": ["PartitionedCall/model/tf.reshape_4/Reshape", "4780", "4782", "PartitionedCall/model/tf.strided_slice_19/ones_like"], "attr": {"T": {"type": "DT_FLOAT"}, "new_axis_mask": {"i": "0"}, "ellipsis_mask": {"i": "0"}, "Index": {"type": "DT_INT64"}, "end_mask": {"i": "5"}, "shrink_axis_mask": {"i": "0"}, "begin_mask": {"i": "5"}}}, {"name": "PartitionedCall/model/tf.strided_slice_18/StridedSlice", "op": "StridedSlice", "input": ["PartitionedCall/model/tf.reshape_4/Reshape", "4784", "4786", "PartitionedCall/model/tf.strided_slice_18/ones_like"], "attr": {"new_axis_mask": {"i": "0"}, "T": {"type": "DT_FLOAT"}, "Index": {"type": "DT_INT64"}, "begin_mask": {"i": "7"}, "shrink_axis_mask": {"i": "0"}, "end_mask": {"i": "5"}, "ellipsis_mask": {"i": "0"}}}, {"name": "PartitionedCall/model/tf.math.add_121/Add", "op": "AddV2", "input": ["4788", "PartitionedCall/model/tf.strided_slice_19/StridedSlice"], "attr": {"T": {"type": "DT_FLOAT"}}}, {"name": "PartitionedCall/model/tf.math.subtract/Sub", "op": "Sub", "input": ["4790", "PartitionedCall/model/tf.strided_slice_18/StridedSlice"], "attr": {"T": {"type": "DT_FLOAT"}}}, {"name": "PartitionedCall/model/tf.math.add_122/Add", "op": "AddV2", "input": ["PartitionedCall/model/tf.math.subtract/Sub", "PartitionedCall/model/tf.math.add_121/Add"], "attr": {"T": {"type": "DT_FLOAT"}}}, {"name": "PartitionedCall/model/tf.math.subtract_1/Sub", "op": "Sub", "input": ["PartitionedCall/model/tf.math.add_121/Add", "PartitionedCall/model/tf.math.subtract/Sub"], "attr": {"T": {"type": "DT_FLOAT"}}}, {"name": "PartitionedCall/model/tf.math.divide/truediv", "op": "Mul", "input": ["PartitionedCall/model/tf.math.add_122/Add", "ConstantFolding/PartitionedCall/model/tf.math.divide/truediv_recip"], "attr": {"T": {"type": "DT_FLOAT"}}}, {"name": "PartitionedCall/model/tf.concat_17/concat", "op": "ConcatV2", "input": ["PartitionedCall/model/tf.math.divide/truediv", "PartitionedCall/model/tf.math.subtract_1/Sub", "PartitionedCall/model/tf.concat_17/concat/axis"], "attr": {"N": {"i": "2"}, "T": {"type": "DT_FLOAT"}, "Tidx": {"type": "DT_INT32"}}}, {"name": "PartitionedCall/model/tf.math.multiply_339/Mul", "op": "Mul", "input": ["PartitionedCall/model/tf.concat_17/concat", "PartitionedCall/model/tf.math.multiply_339/Mul/y"], "attr": {"T": {"type": "DT_FLOAT"}}}, {"name": "PartitionedCall/model/output0/concat", "op": "ConcatV2", "input": ["PartitionedCall/model/tf.math.multiply_339/Mul", "PartitionedCall/model/tf.math.sigmoid_97/Sigmoid", "PartitionedCall/model/output0/concat/axis"], "attr": {"T": {"type": "DT_FLOAT"}, "N": {"i": "2"}, "Tidx": {"type": "DT_INT32"}}}, {"name": "Identity", "op": "Identity", "input": ["PartitionedCall/model/output0/concat"], "attr": {"T": {"type": "DT_FLOAT"}}}], "library": {}, "versions": {"producer": 1575}}, "weightsManifest": [{"paths": ["group1-shard1of42.bin", "group1-shard2of42.bin", "group1-shard3of42.bin", "group1-shard4of42.bin", "group1-shard5of42.bin", "group1-shard6of42.bin", "group1-shard7of42.bin", "group1-shard8of42.bin", "group1-shard9of42.bin", "group1-shard10of42.bin", "group1-shard11of42.bin", "group1-shard12of42.bin", "group1-shard13of42.bin", "group1-shard14of42.bin", "group1-shard15of42.bin", "group1-shard16of42.bin", "group1-shard17of42.bin", "group1-shard18of42.bin", "group1-shard19of42.bin", "group1-shard20of42.bin", "group1-shard21of42.bin", "group1-shard22of42.bin", "group1-shard23of42.bin", "group1-shard24of42.bin", "group1-shard25of42.bin", "group1-shard26of42.bin", "group1-shard27of42.bin", "group1-shard28of42.bin", "group1-shard29of42.bin", "group1-shard30of42.bin", "group1-shard31of42.bin", "group1-shard32of42.bin", "group1-shard33of42.bin", "group1-shard34of42.bin", "group1-shard35of42.bin", "group1-shard36of42.bin", "group1-shard37of42.bin", "group1-shard38of42.bin", "group1-shard39of42.bin", "group1-shard40of42.bin", "group1-shard41of42.bin", "group1-shard42of42.bin"], "weights": [{"name": "ConstantFolding/PartitionedCall/model/tf.math.divide/truediv_recip", "shape": [1, 1, 1], "dtype": "float32"}, {"name": "4788", "shape": [1, 2, 4725], "dtype": "float32"}, {"name": "4780", "shape": [3], "dtype": "int32"}, {"name": "4782", "shape": [3], "dtype": "int32"}, {"name": "PartitionedCall/model/tf.strided_slice_19/ones_like", "shape": [3], "dtype": "int32"}, {"name": "4790", "shape": [1, 2, 4725], "dtype": "float32"}, {"name": "4774", "shape": [3], "dtype": "int32"}, {"name": "4776", "shape": [3], "dtype": "int32"}, {"name": "PartitionedCall/model/tf.strided_slice_16/StridedSlice/strides", "shape": [3], "dtype": "int32"}, {"name": "PartitionedCall/model/tf.reshape_3/Reshape/shape", "shape": [4], "dtype": "int32"}, {"name": "PartitionedCall/model/tf.compat.v1.transpose_4/transpose/perm", "shape": [4], "dtype": "int32"}, {"name": "PartitionedCall/model/tf.compat.v1.transpose_5/transpose/perm", "shape": [4], "dtype": "int32"}, {"name": "4778", "shape": [1, 1, 16, 1], "dtype": "float32"}, {"name": "PartitionedCall/model/tf.compat.v1.transpose_8/transpose/perm", "shape": [4], "dtype": "int32"}, {"name": "PartitionedCall/model/tf.reshape_4/Reshape/shape", "shape": [3], "dtype": "int32"}, {"name": "4784", "shape": [3], "dtype": "int32"}, {"name": "4786", "shape": [3], "dtype": "int32"}, {"name": "PartitionedCall/model/tf.strided_slice_18/ones_like", "shape": [3], "dtype": "int32"}, {"name": "PartitionedCall/model/tf.concat_17/concat/axis", "shape": [], "dtype": "int32"}, {"name": "PartitionedCall/model/tf.math.multiply_339/Mul/y", "shape": [1, 1, 4725], "dtype": "float32"}, {"name": "4712", "shape": [3, 3, 256, 64], "dtype": "float32"}, {"name": "4724", "shape": [64], "dtype": "float32"}, {"name": "4736", "shape": [3, 3, 64, 64], "dtype": "float32"}, {"name": "4748", "shape": [64], "dtype": "float32"}, {"name": "4760", "shape": [1, 1, 64, 64], "dtype": "float32"}, {"name": "4770", "shape": [64], "dtype": "float32"}, {"name": "4710", "shape": [3, 3, 256, 256], "dtype": "float32"}, {"name": "4722", "shape": [256], "dtype": "float32"}, {"name": "4734", "shape": [3, 3, 256, 256], "dtype": "float32"}, {"name": "4746", "shape": [256], "dtype": "float32"}, {"name": "4758", "shape": [1, 1, 256, 1], "dtype": "float32"}, {"name": "4772", "shape": [1], "dtype": "float32"}, {"name": "PartitionedCall/model/tf.concat_10/concat/axis", "shape": [], "dtype": "int32"}, {"name": "PartitionedCall/model/tf.compat.v1.transpose/transpose/perm", "shape": [4], "dtype": "int32"}, {"name": "PartitionedCall/model/tf.reshape/Reshape/shape", "shape": [3], "dtype": "int32"}, {"name": "4708", "shape": [3, 3, 512, 64], "dtype": "float32"}, {"name": "4720", "shape": [64], "dtype": "float32"}, {"name": "4732", "shape": [3, 3, 64, 64], "dtype": "float32"}, {"name": "4744", "shape": [64], "dtype": "float32"}, {"name": "4756", "shape": [1, 1, 64, 64], "dtype": "float32"}, {"name": "4766", "shape": [64], "dtype": "float32"}, {"name": "4706", "shape": [3, 3, 512, 256], "dtype": "float32"}, {"name": "4718", "shape": [256], "dtype": "float32"}, {"name": "4730", "shape": [3, 3, 256, 256], "dtype": "float32"}, {"name": "4742", "shape": [256], "dtype": "float32"}, {"name": "4754", "shape": [1, 1, 256, 1], "dtype": "float32"}, {"name": "4768", "shape": [1], "dtype": "float32"}, {"name": "PartitionedCall/model/tf.concat_13/concat/axis", "shape": [], "dtype": "int32"}, {"name": "PartitionedCall/model/tf.compat.v1.transpose_1/transpose/perm", "shape": [4], "dtype": "int32"}, {"name": "PartitionedCall/model/tf.reshape_1/Reshape/shape", "shape": [3], "dtype": "int32"}, {"name": "4704", "shape": [3, 3, 512, 64], "dtype": "float32"}, {"name": "4716", "shape": [64], "dtype": "float32"}, {"name": "4728", "shape": [3, 3, 64, 64], "dtype": "float32"}, {"name": "4740", "shape": [64], "dtype": "float32"}, {"name": "4752", "shape": [1, 1, 64, 64], "dtype": "float32"}, {"name": "4762", "shape": [64], "dtype": "float32"}, {"name": "4694", "shape": [4], "dtype": "int32"}, {"name": "4696", "shape": [4], "dtype": "int32"}, {"name": "PartitionedCall/model/tf.strided_slice_14/ones_like", "shape": [4], "dtype": "int32"}, {"name": "4648", "shape": [4], "dtype": "int32"}, {"name": "4650", "shape": [4], "dtype": "int32"}, {"name": "PartitionedCall/model/tf.strided_slice_12/ones_like", "shape": [4], "dtype": "int32"}, {"name": "4602", "shape": [4], "dtype": "int32"}, {"name": "4604", "shape": [4], "dtype": "int32"}, {"name": "PartitionedCall/model/tf.strided_slice_10/ones_like", "shape": [4], "dtype": "int32"}, {"name": "PartitionedCall/model/lambda_1//model.13/Resize/size", "shape": [2], "dtype": "int32"}, {"name": "PartitionedCall/model/tf.concat_7/concat/axis", "shape": [], "dtype": "int32"}, {"name": "4570", "shape": [1, 1, 768, 256], "dtype": "float32"}, {"name": "4572", "shape": [256], "dtype": "float32"}, {"name": "4574", "shape": [4], "dtype": "int32"}, {"name": "4576", "shape": [4], "dtype": "int32"}, {"name": "PartitionedCall/model/tf.strided_slice_11/ones_like", "shape": [4], "dtype": "int32"}, {"name": "4578", "shape": [3, 3, 128, 128], "dtype": "float32"}, {"name": "4580", "shape": [128], "dtype": "float32"}, {"name": "4582", "shape": [3, 3, 128, 128], "dtype": "float32"}, {"name": "4584", "shape": [128], "dtype": "float32"}, {"name": "4586", "shape": [3, 3, 128, 128], "dtype": "float32"}, {"name": "4588", "shape": [128], "dtype": "float32"}, {"name": "4590", "shape": [3, 3, 128, 128], "dtype": "float32"}, {"name": "4592", "shape": [128], "dtype": "float32"}, {"name": "4594", "shape": [3, 3, 128, 128], "dtype": "float32"}, {"name": "4596", "shape": [128], "dtype": "float32"}, {"name": "4598", "shape": [3, 3, 128, 128], "dtype": "float32"}, {"name": "4600", "shape": [128], "dtype": "float32"}, {"name": "PartitionedCall/model/tf.concat_8/concat/axis", "shape": [], "dtype": "int32"}, {"name": "4606", "shape": [1, 1, 640, 256], "dtype": "float32"}, {"name": "4608", "shape": [256], "dtype": "float32"}, {"name": "4610", "shape": [4, 2], "dtype": "int32"}, {"name": "4612", "shape": [3, 3, 256, 256], "dtype": "float32"}, {"name": "4614", "shape": [256], "dtype": "float32"}, {"name": "4562", "shape": [4], "dtype": "int32"}, {"name": "4564", "shape": [4], "dtype": "int32"}, {"name": "PartitionedCall/model/tf.strided_slice_8/ones_like", "shape": [4], "dtype": "int32"}, {"name": "PartitionedCall/model/lambda//model.10/Resize/size", "shape": [2], "dtype": "int32"}, {"name": "PartitionedCall/model/tf.concat_5/concat/axis", "shape": [], "dtype": "int32"}, {"name": "4530", "shape": [1, 1, 1024, 512], "dtype": "float32"}, {"name": "4532", "shape": [512], "dtype": "float32"}, {"name": "4534", "shape": [4], "dtype": "int32"}, {"name": "4536", "shape": [4], "dtype": "int32"}, {"name": "PartitionedCall/model/tf.strided_slice_9/ones_like", "shape": [4], "dtype": "int32"}, {"name": "4538", "shape": [3, 3, 256, 256], "dtype": "float32"}, {"name": "4540", "shape": [256], "dtype": "float32"}, {"name": "4542", "shape": [3, 3, 256, 256], "dtype": "float32"}, {"name": "4544", "shape": [256], "dtype": "float32"}, {"name": "4546", "shape": [3, 3, 256, 256], "dtype": "float32"}, {"name": "4548", "shape": [256], "dtype": "float32"}, {"name": "4550", "shape": [3, 3, 256, 256], "dtype": "float32"}, {"name": "4552", "shape": [256], "dtype": "float32"}, {"name": "4554", "shape": [3, 3, 256, 256], "dtype": "float32"}, {"name": "4556", "shape": [256], "dtype": "float32"}, {"name": "4558", "shape": [3, 3, 256, 256], "dtype": "float32"}, {"name": "4560", "shape": [256], "dtype": "float32"}, {"name": "PartitionedCall/model/tf.concat_6/concat/axis", "shape": [], "dtype": "int32"}, {"name": "4566", "shape": [1, 1, 1280, 512], "dtype": "float32"}, {"name": "4568", "shape": [512], "dtype": "float32"}, {"name": "PartitionedCall/model/tf.concat_9/concat/axis", "shape": [], "dtype": "int32"}, {"name": "4616", "shape": [1, 1, 768, 512], "dtype": "float32"}, {"name": "4618", "shape": [512], "dtype": "float32"}, {"name": "4620", "shape": [4], "dtype": "int32"}, {"name": "4622", "shape": [4], "dtype": "int32"}, {"name": "PartitionedCall/model/tf.strided_slice_13/ones_like", "shape": [4], "dtype": "int32"}, {"name": "4624", "shape": [3, 3, 256, 256], "dtype": "float32"}, {"name": "4626", "shape": [256], "dtype": "float32"}, {"name": "4628", "shape": [3, 3, 256, 256], "dtype": "float32"}, {"name": "4630", "shape": [256], "dtype": "float32"}, {"name": "4632", "shape": [3, 3, 256, 256], "dtype": "float32"}, {"name": "4634", "shape": [256], "dtype": "float32"}, {"name": "4636", "shape": [3, 3, 256, 256], "dtype": "float32"}, {"name": "4638", "shape": [256], "dtype": "float32"}, {"name": "4640", "shape": [3, 3, 256, 256], "dtype": "float32"}, {"name": "4642", "shape": [256], "dtype": "float32"}, {"name": "4644", "shape": [3, 3, 256, 256], "dtype": "float32"}, {"name": "4646", "shape": [256], "dtype": "float32"}, {"name": "PartitionedCall/model/tf.concat_11/concat/axis", "shape": [], "dtype": "int32"}, {"name": "4652", "shape": [1, 1, 1280, 512], "dtype": "float32"}, {"name": "4654", "shape": [512], "dtype": "float32"}, {"name": "4656", "shape": [4, 2], "dtype": "int32"}, {"name": "4658", "shape": [3, 3, 512, 512], "dtype": "float32"}, {"name": "4660", "shape": [512], "dtype": "float32"}, {"name": "4514", "shape": [4], "dtype": "int32"}, {"name": "4516", "shape": [4], "dtype": "int32"}, {"name": "PartitionedCall/model/tf.strided_slice_6/ones_like", "shape": [4], "dtype": "int32"}, {"name": "4468", "shape": [4], "dtype": "int32"}, {"name": "4470", "shape": [4], "dtype": "int32"}, {"name": "PartitionedCall/model/tf.strided_slice_4/ones_like", "shape": [4], "dtype": "int32"}, {"name": "4398", "shape": [4], "dtype": "int32"}, {"name": "4400", "shape": [4], "dtype": "int32"}, {"name": "PartitionedCall/model/tf.strided_slice_2/ones_like", "shape": [4], "dtype": "int32"}, {"name": "4328", "shape": [4], "dtype": "int32"}, {"name": "4330", "shape": [4], "dtype": "int32"}, {"name": "PartitionedCall/model/tf.strided_slice/ones_like", "shape": [4], "dtype": "int32"}, {"name": "4284", "shape": [4, 2], "dtype": "int32"}, {"name": "4286", "shape": [3, 3, 3, 64], "dtype": "float32"}, {"name": "4288", "shape": [64], "dtype": "float32"}, {"name": "4290", "shape": [4, 2], "dtype": "int32"}, {"name": "4292", "shape": [3, 3, 64, 128], "dtype": "float32"}, {"name": "4294", "shape": [128], "dtype": "float32"}, {"name": "4296", "shape": [1, 1, 128, 128], "dtype": "float32"}, {"name": "4298", "shape": [128], "dtype": "float32"}, {"name": "4300", "shape": [4], "dtype": "int32"}, {"name": "4302", "shape": [4], "dtype": "int32"}, {"name": "PartitionedCall/model/tf.strided_slice_1/ones_like", "shape": [4], "dtype": "int32"}, {"name": "4304", "shape": [3, 3, 64, 64], "dtype": "float32"}, {"name": "4306", "shape": [64], "dtype": "float32"}, {"name": "4308", "shape": [3, 3, 64, 64], "dtype": "float32"}, {"name": "4310", "shape": [64], "dtype": "float32"}, {"name": "4312", "shape": [3, 3, 64, 64], "dtype": "float32"}, {"name": "4314", "shape": [64], "dtype": "float32"}, {"name": "4316", "shape": [3, 3, 64, 64], "dtype": "float32"}, {"name": "4318", "shape": [64], "dtype": "float32"}, {"name": "4320", "shape": [3, 3, 64, 64], "dtype": "float32"}, {"name": "4322", "shape": [64], "dtype": "float32"}, {"name": "4324", "shape": [3, 3, 64, 64], "dtype": "float32"}, {"name": "4326", "shape": [64], "dtype": "float32"}, {"name": "PartitionedCall/model/tf.concat/concat/axis", "shape": [], "dtype": "int32"}, {"name": "4332", "shape": [1, 1, 320, 128], "dtype": "float32"}, {"name": "4334", "shape": [128], "dtype": "float32"}, {"name": "4336", "shape": [4, 2], "dtype": "int32"}, {"name": "4338", "shape": [3, 3, 128, 256], "dtype": "float32"}, {"name": "4340", "shape": [256], "dtype": "float32"}, {"name": "4342", "shape": [1, 1, 256, 256], "dtype": "float32"}, {"name": "4344", "shape": [256], "dtype": "float32"}, {"name": "4346", "shape": [4], "dtype": "int32"}, {"name": "4348", "shape": [4], "dtype": "int32"}, {"name": "PartitionedCall/model/tf.strided_slice_3/ones_like", "shape": [4], "dtype": "int32"}, {"name": "4350", "shape": [3, 3, 128, 128], "dtype": "float32"}, {"name": "4352", "shape": [128], "dtype": "float32"}, {"name": "4354", "shape": [3, 3, 128, 128], "dtype": "float32"}, {"name": "4356", "shape": [128], "dtype": "float32"}, {"name": "4358", "shape": [3, 3, 128, 128], "dtype": "float32"}, {"name": "4360", "shape": [128], "dtype": "float32"}, {"name": "4362", "shape": [3, 3, 128, 128], "dtype": "float32"}, {"name": "4364", "shape": [128], "dtype": "float32"}, {"name": "4366", "shape": [3, 3, 128, 128], "dtype": "float32"}, {"name": "4368", "shape": [128], "dtype": "float32"}, {"name": "4370", "shape": [3, 3, 128, 128], "dtype": "float32"}, {"name": "4372", "shape": [128], "dtype": "float32"}, {"name": "4374", "shape": [3, 3, 128, 128], "dtype": "float32"}, {"name": "4376", "shape": [128], "dtype": "float32"}, {"name": "4378", "shape": [3, 3, 128, 128], "dtype": "float32"}, {"name": "4380", "shape": [128], "dtype": "float32"}, {"name": "4382", "shape": [3, 3, 128, 128], "dtype": "float32"}, {"name": "4384", "shape": [128], "dtype": "float32"}, {"name": "4386", "shape": [3, 3, 128, 128], "dtype": "float32"}, {"name": "4388", "shape": [128], "dtype": "float32"}, {"name": "4390", "shape": [3, 3, 128, 128], "dtype": "float32"}, {"name": "4392", "shape": [128], "dtype": "float32"}, {"name": "4394", "shape": [3, 3, 128, 128], "dtype": "float32"}, {"name": "4396", "shape": [128], "dtype": "float32"}, {"name": "PartitionedCall/model/tf.concat_1/concat/axis", "shape": [], "dtype": "int32"}, {"name": "4402", "shape": [1, 1, 1024, 256], "dtype": "float32"}, {"name": "4404", "shape": [256], "dtype": "float32"}, {"name": "4406", "shape": [4, 2], "dtype": "int32"}, {"name": "4408", "shape": [3, 3, 256, 512], "dtype": "float32"}, {"name": "4410", "shape": [512], "dtype": "float32"}, {"name": "4412", "shape": [1, 1, 512, 512], "dtype": "float32"}, {"name": "4414", "shape": [512], "dtype": "float32"}, {"name": "4416", "shape": [4], "dtype": "int32"}, {"name": "4418", "shape": [4], "dtype": "int32"}, {"name": "PartitionedCall/model/tf.strided_slice_5/ones_like", "shape": [4], "dtype": "int32"}, {"name": "4420", "shape": [3, 3, 256, 256], "dtype": "float32"}, {"name": "4422", "shape": [256], "dtype": "float32"}, {"name": "4424", "shape": [3, 3, 256, 256], "dtype": "float32"}, {"name": "4426", "shape": [256], "dtype": "float32"}, {"name": "4428", "shape": [3, 3, 256, 256], "dtype": "float32"}, {"name": "4430", "shape": [256], "dtype": "float32"}, {"name": "4432", "shape": [3, 3, 256, 256], "dtype": "float32"}, {"name": "4434", "shape": [256], "dtype": "float32"}, {"name": "4436", "shape": [3, 3, 256, 256], "dtype": "float32"}, {"name": "4438", "shape": [256], "dtype": "float32"}, {"name": "4440", "shape": [3, 3, 256, 256], "dtype": "float32"}, {"name": "4442", "shape": [256], "dtype": "float32"}, {"name": "4444", "shape": [3, 3, 256, 256], "dtype": "float32"}, {"name": "4446", "shape": [256], "dtype": "float32"}, {"name": "4448", "shape": [3, 3, 256, 256], "dtype": "float32"}, {"name": "4450", "shape": [256], "dtype": "float32"}, {"name": "4452", "shape": [3, 3, 256, 256], "dtype": "float32"}, {"name": "4454", "shape": [256], "dtype": "float32"}, {"name": "4456", "shape": [3, 3, 256, 256], "dtype": "float32"}, {"name": "4458", "shape": [256], "dtype": "float32"}, {"name": "4460", "shape": [3, 3, 256, 256], "dtype": "float32"}, {"name": "4462", "shape": [256], "dtype": "float32"}, {"name": "4464", "shape": [3, 3, 256, 256], "dtype": "float32"}, {"name": "4466", "shape": [256], "dtype": "float32"}, {"name": "PartitionedCall/model/tf.concat_2/concat/axis", "shape": [], "dtype": "int32"}, {"name": "4472", "shape": [1, 1, 2048, 512], "dtype": "float32"}, {"name": "4474", "shape": [512], "dtype": "float32"}, {"name": "4476", "shape": [4, 2], "dtype": "int32"}, {"name": "4478", "shape": [3, 3, 512, 512], "dtype": "float32"}, {"name": "4480", "shape": [512], "dtype": "float32"}, {"name": "4482", "shape": [1, 1, 512, 512], "dtype": "float32"}, {"name": "4484", "shape": [512], "dtype": "float32"}, {"name": "4486", "shape": [4], "dtype": "int32"}, {"name": "4488", "shape": [4], "dtype": "int32"}, {"name": "PartitionedCall/model/tf.strided_slice_7/ones_like", "shape": [4], "dtype": "int32"}, {"name": "4490", "shape": [3, 3, 256, 256], "dtype": "float32"}, {"name": "4492", "shape": [256], "dtype": "float32"}, {"name": "4494", "shape": [3, 3, 256, 256], "dtype": "float32"}, {"name": "4496", "shape": [256], "dtype": "float32"}, {"name": "4498", "shape": [3, 3, 256, 256], "dtype": "float32"}, {"name": "4500", "shape": [256], "dtype": "float32"}, {"name": "4502", "shape": [3, 3, 256, 256], "dtype": "float32"}, {"name": "4504", "shape": [256], "dtype": "float32"}, {"name": "4506", "shape": [3, 3, 256, 256], "dtype": "float32"}, {"name": "4508", "shape": [256], "dtype": "float32"}, {"name": "4510", "shape": [3, 3, 256, 256], "dtype": "float32"}, {"name": "4512", "shape": [256], "dtype": "float32"}, {"name": "PartitionedCall/model/tf.concat_3/concat/axis", "shape": [], "dtype": "int32"}, {"name": "4518", "shape": [1, 1, 1280, 512], "dtype": "float32"}, {"name": "4520", "shape": [512], "dtype": "float32"}, {"name": "4522", "shape": [1, 1, 512, 256], "dtype": "float32"}, {"name": "4524", "shape": [256], "dtype": "float32"}, {"name": "PartitionedCall/model/tf.concat_4/concat/axis", "shape": [], "dtype": "int32"}, {"name": "4526", "shape": [1, 1, 1024, 512], "dtype": "float32"}, {"name": "4528", "shape": [512], "dtype": "float32"}, {"name": "PartitionedCall/model/tf.concat_12/concat/axis", "shape": [], "dtype": "int32"}, {"name": "4662", "shape": [1, 1, 1024, 512], "dtype": "float32"}, {"name": "4664", "shape": [512], "dtype": "float32"}, {"name": "4666", "shape": [4], "dtype": "int32"}, {"name": "4668", "shape": [4], "dtype": "int32"}, {"name": "PartitionedCall/model/tf.strided_slice_15/ones_like", "shape": [4], "dtype": "int32"}, {"name": "4670", "shape": [3, 3, 256, 256], "dtype": "float32"}, {"name": "4672", "shape": [256], "dtype": "float32"}, {"name": "4674", "shape": [3, 3, 256, 256], "dtype": "float32"}, {"name": "4676", "shape": [256], "dtype": "float32"}, {"name": "4678", "shape": [3, 3, 256, 256], "dtype": "float32"}, {"name": "4680", "shape": [256], "dtype": "float32"}, {"name": "4682", "shape": [3, 3, 256, 256], "dtype": "float32"}, {"name": "4684", "shape": [256], "dtype": "float32"}, {"name": "4686", "shape": [3, 3, 256, 256], "dtype": "float32"}, {"name": "4688", "shape": [256], "dtype": "float32"}, {"name": "4690", "shape": [3, 3, 256, 256], "dtype": "float32"}, {"name": "4692", "shape": [256], "dtype": "float32"}, {"name": "PartitionedCall/model/tf.concat_14/concat/axis", "shape": [], "dtype": "int32"}, {"name": "4698", "shape": [1, 1, 1280, 512], "dtype": "float32"}, {"name": "4700", "shape": [512], "dtype": "float32"}, {"name": "4702", "shape": [3, 3, 512, 256], "dtype": "float32"}, {"name": "4714", "shape": [256], "dtype": "float32"}, {"name": "4726", "shape": [3, 3, 256, 256], "dtype": "float32"}, {"name": "4738", "shape": [256], "dtype": "float32"}, {"name": "4750", "shape": [1, 1, 256, 1], "dtype": "float32"}, {"name": "4764", "shape": [1], "dtype": "float32"}, {"name": "PartitionedCall/model/tf.concat_15/concat/axis", "shape": [], "dtype": "int32"}, {"name": "PartitionedCall/model/tf.compat.v1.transpose_2/transpose/perm", "shape": [4], "dtype": "int32"}, {"name": "PartitionedCall/model/tf.reshape_2/Reshape/shape", "shape": [3], "dtype": "int32"}, {"name": "PartitionedCall/model/tf.concat_16/concat/axis", "shape": [], "dtype": "int32"}, {"name": "4794", "shape": [3], "dtype": "int32"}, {"name": "4796", "shape": [3], "dtype": "int32"}, {"name": "PartitionedCall/model/tf.strided_slice_17/StridedSlice/strides", "shape": [3], "dtype": "int32"}, {"name": "PartitionedCall/model/output0/concat/axis", "shape": [], "dtype": "int32"}]}]}