{"format": "graph-model", "generatedBy": "2.17.0", "convertedBy": "TensorFlow.js Converter v4.20.0", "signature": {"outputs": {"Identity:0": {"name": "Identity:0"}}}, "modelTopology": {"node": [{"name": "ConstantFolding/model/tf.math.truediv/truediv_recip", "op": "Const", "attr": {"value": {"tensor": {"dtype": "DT_FLOAT", "tensorShape": {}}}, "dtype": {"type": "DT_FLOAT"}}}, {"name": "model/tf.split/split/split_dim", "op": "Const", "attr": {"dtype": {"type": "DT_INT32"}, "value": {"tensor": {"dtype": "DT_INT32", "tensorShape": {}}}}}, {"name": "model/tf.__operators__.getitem_8/strided_slice/stack", "op": "Const", "attr": {"dtype": {"type": "DT_INT32"}, "value": {"tensor": {"dtype": "DT_INT32", "tensorShape": {"dim": [{"size": "2"}]}}}}}, {"name": "model/tf.__operators__.getitem_8/strided_slice/stack_1", "op": "Const", "attr": {"dtype": {"type": "DT_INT32"}, "value": {"tensor": {"dtype": "DT_INT32", "tensorShape": {"dim": [{"size": "2"}]}}}}}, {"name": "model/tf.__operators__.getitem_8/strided_slice/stack_2", "op": "Const", "attr": {"dtype": {"type": "DT_INT32"}, "value": {"tensor": {"dtype": "DT_INT32", "tensorShape": {"dim": [{"size": "2"}]}}}}}, {"name": "model/tf.reshape_3/Reshape/shape", "op": "Const", "attr": {"value": {"tensor": {"dtype": "DT_INT32", "tensorShape": {"dim": [{"size": "4"}]}}}, "dtype": {"type": "DT_INT32"}}}, {"name": "model/tf.compat.v1.transpose_3/transpose/perm", "op": "Const", "attr": {"dtype": {"type": "DT_INT32"}, "value": {"tensor": {"dtype": "DT_INT32", "tensorShape": {"dim": [{"size": "4"}]}}}}}, {"name": "model/tf.nn.softmax/concat", "op": "Const", "attr": {"dtype": {"type": "DT_INT32"}, "value": {"tensor": {"dtype": "DT_INT32", "tensorShape": {"dim": [{"size": "4"}]}}}}}, {"name": "model/tf.nn.softmax/concat_1", "op": "Const", "attr": {"value": {"tensor": {"dtype": "DT_INT32", "tensorShape": {"dim": [{"size": "4"}]}}}, "dtype": {"type": "DT_INT32"}}}, {"name": "model/tf.compat.v1.transpose_4/transpose/perm", "op": "Const", "attr": {"value": {"tensor": {"dtype": "DT_INT32", "tensorShape": {"dim": [{"size": "4"}]}}}, "dtype": {"type": "DT_INT32"}}}, {"name": "model/conv2d_78/Conv2D/ReadVariableOp", "op": "Const", "attr": {"value": {"tensor": {"dtype": "DT_FLOAT", "tensorShape": {"dim": [{"size": "1"}, {"size": "1"}, {"size": "16"}, {"size": "1"}]}}}, "dtype": {"type": "DT_FLOAT"}}}, {"name": "model/tf.compat.v1.transpose_5/transpose/perm", "op": "Const", "attr": {"dtype": {"type": "DT_INT32"}, "value": {"tensor": {"dtype": "DT_INT32", "tensorShape": {"dim": [{"size": "4"}]}}}}}, {"name": "model/tf.reshape_4/Reshape/shape", "op": "Const", "attr": {"dtype": {"type": "DT_INT32"}, "value": {"tensor": {"dtype": "DT_INT32", "tensorShape": {"dim": [{"size": "3"}]}}}}}, {"name": "model/tf.concat_9/concat/axis", "op": "Const", "attr": {"dtype": {"type": "DT_INT32"}, "value": {"tensor": {"dtype": "DT_INT32", "tensorShape": {}}}}}, {"name": "model/conv2d_66/Conv2D/ReadVariableOp", "op": "Const", "attr": {"dtype": {"type": "DT_FLOAT"}, "value": {"tensor": {"dtype": "DT_FLOAT", "tensorShape": {"dim": [{"size": "1"}, {"size": "1"}, {"size": "48"}, {"size": "64"}]}}}}}, {"name": "model/conv2d_66/BiasAdd/ReadVariableOp", "op": "Const", "attr": {"dtype": {"type": "DT_FLOAT"}, "value": {"tensor": {"dtype": "DT_FLOAT", "tensorShape": {"dim": [{"size": "64"}]}}}}}, {"name": "model/zero_padding2d_34/Pad/paddings", "op": "Const", "attr": {"value": {"tensor": {"dtype": "DT_INT32", "tensorShape": {"dim": [{"size": "4"}, {"size": "2"}]}}}, "dtype": {"type": "DT_INT32"}}}, {"name": "model/depthwise_conv2d_31/depthwise/ReadVariableOp", "op": "Const", "attr": {"value": {"tensor": {"dtype": "DT_FLOAT", "tensorShape": {"dim": [{"size": "3"}, {"size": "3"}, {"size": "64"}, {"size": "1"}]}}}, "dtype": {"type": "DT_FLOAT"}}}, {"name": "model/depthwise_conv2d_31/BiasAdd/ReadVariableOp", "op": "Const", "attr": {"value": {"tensor": {"dtype": "DT_FLOAT", "tensorShape": {"dim": [{"size": "64"}]}}}, "dtype": {"type": "DT_FLOAT"}}}, {"name": "model/zero_padding2d_35/Pad/paddings", "op": "Const", "attr": {"dtype": {"type": "DT_INT32"}, "value": {"tensor": {"dtype": "DT_INT32", "tensorShape": {"dim": [{"size": "4"}, {"size": "2"}]}}}}}, {"name": "model/depthwise_conv2d_32/depthwise/ReadVariableOp", "op": "Const", "attr": {"dtype": {"type": "DT_FLOAT"}, "value": {"tensor": {"dtype": "DT_FLOAT", "tensorShape": {"dim": [{"size": "3"}, {"size": "3"}, {"size": "64"}, {"size": "1"}]}}}}}, {"name": "model/depthwise_conv2d_32/BiasAdd/ReadVariableOp", "op": "Const", "attr": {"dtype": {"type": "DT_FLOAT"}, "value": {"tensor": {"dtype": "DT_FLOAT", "tensorShape": {"dim": [{"size": "64"}]}}}}}, {"name": "model/conv2d_67/Conv2D/ReadVariableOp", "op": "Const", "attr": {"dtype": {"type": "DT_FLOAT"}, "value": {"tensor": {"dtype": "DT_FLOAT", "tensorShape": {"dim": [{"size": "1"}, {"size": "1"}, {"size": "64"}, {"size": "64"}]}}}}}, {"name": "model/conv2d_67/BiasAdd/ReadVariableOp", "op": "Const", "attr": {"value": {"tensor": {"dtype": "DT_FLOAT", "tensorShape": {"dim": [{"size": "64"}]}}}, "dtype": {"type": "DT_FLOAT"}}}, {"name": "model/conv2d_68/Conv2D/ReadVariableOp", "op": "Const", "attr": {"dtype": {"type": "DT_FLOAT"}, "value": {"tensor": {"dtype": "DT_FLOAT", "tensorShape": {"dim": [{"size": "1"}, {"size": "1"}, {"size": "48"}, {"size": "48"}]}}}}}, {"name": "model/conv2d_68/BiasAdd/ReadVariableOp", "op": "Const", "attr": {"dtype": {"type": "DT_FLOAT"}, "value": {"tensor": {"dtype": "DT_FLOAT", "tensorShape": {"dim": [{"size": "48"}]}}}}}, {"name": "model/zero_padding2d_36/Pad/paddings", "op": "Const", "attr": {"value": {"tensor": {"dtype": "DT_INT32", "tensorShape": {"dim": [{"size": "4"}, {"size": "2"}]}}}, "dtype": {"type": "DT_INT32"}}}, {"name": "model/depthwise_conv2d_33/depthwise/ReadVariableOp", "op": "Const", "attr": {"value": {"tensor": {"dtype": "DT_FLOAT", "tensorShape": {"dim": [{"size": "3"}, {"size": "3"}, {"size": "48"}, {"size": "1"}]}}}, "dtype": {"type": "DT_FLOAT"}}}, {"name": "model/depthwise_conv2d_33/BiasAdd/ReadVariableOp", "op": "Const", "attr": {"dtype": {"type": "DT_FLOAT"}, "value": {"tensor": {"dtype": "DT_FLOAT", "tensorShape": {"dim": [{"size": "48"}]}}}}}, {"name": "model/zero_padding2d_37/Pad/paddings", "op": "Const", "attr": {"value": {"tensor": {"dtype": "DT_INT32", "tensorShape": {"dim": [{"size": "4"}, {"size": "2"}]}}}, "dtype": {"type": "DT_INT32"}}}, {"name": "model/depthwise_conv2d_34/depthwise/ReadVariableOp", "op": "Const", "attr": {"dtype": {"type": "DT_FLOAT"}, "value": {"tensor": {"dtype": "DT_FLOAT", "tensorShape": {"dim": [{"size": "3"}, {"size": "3"}, {"size": "48"}, {"size": "1"}]}}}}}, {"name": "model/depthwise_conv2d_34/BiasAdd/ReadVariableOp", "op": "Const", "attr": {"dtype": {"type": "DT_FLOAT"}, "value": {"tensor": {"dtype": "DT_FLOAT", "tensorShape": {"dim": [{"size": "48"}]}}}}}, {"name": "model/conv2d_69/Conv2D/ReadVariableOp", "op": "Const", "attr": {"value": {"tensor": {"dtype": "DT_FLOAT", "tensorShape": {"dim": [{"size": "1"}, {"size": "1"}, {"size": "48"}, {"size": "12"}]}}}, "dtype": {"type": "DT_FLOAT"}}}, {"name": "model/conv2d_69/BiasAdd/ReadVariableOp", "op": "Const", "attr": {"value": {"tensor": {"dtype": "DT_FLOAT", "tensorShape": {"dim": [{"size": "12"}]}}}, "dtype": {"type": "DT_FLOAT"}}}, {"name": "model/tf.concat_5/concat/axis", "op": "Const", "attr": {"value": {"tensor": {"dtype": "DT_INT32", "tensorShape": {}}}, "dtype": {"type": "DT_INT32"}}}, {"name": "model/tf.compat.v1.transpose/transpose/perm", "op": "Const", "attr": {"value": {"tensor": {"dtype": "DT_INT32", "tensorShape": {"dim": [{"size": "4"}]}}}, "dtype": {"type": "DT_INT32"}}}, {"name": "model/tf.reshape/Reshape/shape", "op": "Const", "attr": {"value": {"tensor": {"dtype": "DT_INT32", "tensorShape": {"dim": [{"size": "3"}]}}}, "dtype": {"type": "DT_INT32"}}}, {"name": "model/conv2d_70/Conv2D/ReadVariableOp", "op": "Const", "attr": {"dtype": {"type": "DT_FLOAT"}, "value": {"tensor": {"dtype": "DT_FLOAT", "tensorShape": {"dim": [{"size": "1"}, {"size": "1"}, {"size": "88"}, {"size": "64"}]}}}}}, {"name": "model/conv2d_70/BiasAdd/ReadVariableOp", "op": "Const", "attr": {"value": {"tensor": {"dtype": "DT_FLOAT", "tensorShape": {"dim": [{"size": "64"}]}}}, "dtype": {"type": "DT_FLOAT"}}}, {"name": "model/zero_padding2d_38/Pad/paddings", "op": "Const", "attr": {"dtype": {"type": "DT_INT32"}, "value": {"tensor": {"dtype": "DT_INT32", "tensorShape": {"dim": [{"size": "4"}, {"size": "2"}]}}}}}, {"name": "model/depthwise_conv2d_35/depthwise/ReadVariableOp", "op": "Const", "attr": {"value": {"tensor": {"dtype": "DT_FLOAT", "tensorShape": {"dim": [{"size": "3"}, {"size": "3"}, {"size": "64"}, {"size": "1"}]}}}, "dtype": {"type": "DT_FLOAT"}}}, {"name": "model/depthwise_conv2d_35/BiasAdd/ReadVariableOp", "op": "Const", "attr": {"dtype": {"type": "DT_FLOAT"}, "value": {"tensor": {"dtype": "DT_FLOAT", "tensorShape": {"dim": [{"size": "64"}]}}}}}, {"name": "model/zero_padding2d_39/Pad/paddings", "op": "Const", "attr": {"value": {"tensor": {"dtype": "DT_INT32", "tensorShape": {"dim": [{"size": "4"}, {"size": "2"}]}}}, "dtype": {"type": "DT_INT32"}}}, {"name": "model/depthwise_conv2d_36/depthwise/ReadVariableOp", "op": "Const", "attr": {"dtype": {"type": "DT_FLOAT"}, "value": {"tensor": {"dtype": "DT_FLOAT", "tensorShape": {"dim": [{"size": "3"}, {"size": "3"}, {"size": "64"}, {"size": "1"}]}}}}}, {"name": "model/depthwise_conv2d_36/BiasAdd/ReadVariableOp", "op": "Const", "attr": {"dtype": {"type": "DT_FLOAT"}, "value": {"tensor": {"dtype": "DT_FLOAT", "tensorShape": {"dim": [{"size": "64"}]}}}}}, {"name": "model/conv2d_71/Conv2D/ReadVariableOp", "op": "Const", "attr": {"dtype": {"type": "DT_FLOAT"}, "value": {"tensor": {"dtype": "DT_FLOAT", "tensorShape": {"dim": [{"size": "1"}, {"size": "1"}, {"size": "64"}, {"size": "64"}]}}}}}, {"name": "model/conv2d_71/BiasAdd/ReadVariableOp", "op": "Const", "attr": {"dtype": {"type": "DT_FLOAT"}, "value": {"tensor": {"dtype": "DT_FLOAT", "tensorShape": {"dim": [{"size": "64"}]}}}}}, {"name": "model/conv2d_72/Conv2D/ReadVariableOp", "op": "Const", "attr": {"value": {"tensor": {"dtype": "DT_FLOAT", "tensorShape": {"dim": [{"size": "1"}, {"size": "1"}, {"size": "88"}, {"size": "48"}]}}}, "dtype": {"type": "DT_FLOAT"}}}, {"name": "model/conv2d_72/BiasAdd/ReadVariableOp", "op": "Const", "attr": {"dtype": {"type": "DT_FLOAT"}, "value": {"tensor": {"dtype": "DT_FLOAT", "tensorShape": {"dim": [{"size": "48"}]}}}}}, {"name": "model/zero_padding2d_40/Pad/paddings", "op": "Const", "attr": {"value": {"tensor": {"dtype": "DT_INT32", "tensorShape": {"dim": [{"size": "4"}, {"size": "2"}]}}}, "dtype": {"type": "DT_INT32"}}}, {"name": "model/depthwise_conv2d_37/depthwise/ReadVariableOp", "op": "Const", "attr": {"value": {"tensor": {"dtype": "DT_FLOAT", "tensorShape": {"dim": [{"size": "3"}, {"size": "3"}, {"size": "48"}, {"size": "1"}]}}}, "dtype": {"type": "DT_FLOAT"}}}, {"name": "model/depthwise_conv2d_37/BiasAdd/ReadVariableOp", "op": "Const", "attr": {"value": {"tensor": {"dtype": "DT_FLOAT", "tensorShape": {"dim": [{"size": "48"}]}}}, "dtype": {"type": "DT_FLOAT"}}}, {"name": "model/zero_padding2d_41/Pad/paddings", "op": "Const", "attr": {"dtype": {"type": "DT_INT32"}, "value": {"tensor": {"dtype": "DT_INT32", "tensorShape": {"dim": [{"size": "4"}, {"size": "2"}]}}}}}, {"name": "model/depthwise_conv2d_38/depthwise/ReadVariableOp", "op": "Const", "attr": {"dtype": {"type": "DT_FLOAT"}, "value": {"tensor": {"dtype": "DT_FLOAT", "tensorShape": {"dim": [{"size": "3"}, {"size": "3"}, {"size": "48"}, {"size": "1"}]}}}}}, {"name": "model/depthwise_conv2d_38/BiasAdd/ReadVariableOp", "op": "Const", "attr": {"dtype": {"type": "DT_FLOAT"}, "value": {"tensor": {"dtype": "DT_FLOAT", "tensorShape": {"dim": [{"size": "48"}]}}}}}, {"name": "model/conv2d_73/Conv2D/ReadVariableOp", "op": "Const", "attr": {"value": {"tensor": {"dtype": "DT_FLOAT", "tensorShape": {"dim": [{"size": "1"}, {"size": "1"}, {"size": "48"}, {"size": "12"}]}}}, "dtype": {"type": "DT_FLOAT"}}}, {"name": "model/conv2d_73/BiasAdd/ReadVariableOp", "op": "Const", "attr": {"dtype": {"type": "DT_FLOAT"}, "value": {"tensor": {"dtype": "DT_FLOAT", "tensorShape": {"dim": [{"size": "12"}]}}}}}, {"name": "model/tf.concat_6/concat/axis", "op": "Const", "attr": {"value": {"tensor": {"dtype": "DT_INT32", "tensorShape": {}}}, "dtype": {"type": "DT_INT32"}}}, {"name": "model/tf.compat.v1.transpose_1/transpose/perm", "op": "Const", "attr": {"value": {"tensor": {"dtype": "DT_INT32", "tensorShape": {"dim": [{"size": "4"}]}}}, "dtype": {"type": "DT_INT32"}}}, {"name": "model/tf.reshape_1/Reshape/shape", "op": "Const", "attr": {"dtype": {"type": "DT_INT32"}, "value": {"tensor": {"dtype": "DT_INT32", "tensorShape": {"dim": [{"size": "3"}]}}}}}, {"name": "model/conv2d_74/Conv2D/ReadVariableOp", "op": "Const", "attr": {"value": {"tensor": {"dtype": "DT_FLOAT", "tensorShape": {"dim": [{"size": "1"}, {"size": "1"}, {"size": "256"}, {"size": "64"}]}}}, "dtype": {"type": "DT_FLOAT"}}}, {"name": "model/conv2d_74/BiasAdd/ReadVariableOp", "op": "Const", "attr": {"dtype": {"type": "DT_FLOAT"}, "value": {"tensor": {"dtype": "DT_FLOAT", "tensorShape": {"dim": [{"size": "64"}]}}}}}, {"name": "model/zero_padding2d_42/Pad/paddings", "op": "Const", "attr": {"value": {"tensor": {"dtype": "DT_INT32", "tensorShape": {"dim": [{"size": "4"}, {"size": "2"}]}}}, "dtype": {"type": "DT_INT32"}}}, {"name": "model/depthwise_conv2d_39/depthwise/ReadVariableOp", "op": "Const", "attr": {"value": {"tensor": {"dtype": "DT_FLOAT", "tensorShape": {"dim": [{"size": "3"}, {"size": "3"}, {"size": "64"}, {"size": "1"}]}}}, "dtype": {"type": "DT_FLOAT"}}}, {"name": "model/depthwise_conv2d_39/BiasAdd/ReadVariableOp", "op": "Const", "attr": {"value": {"tensor": {"dtype": "DT_FLOAT", "tensorShape": {"dim": [{"size": "64"}]}}}, "dtype": {"type": "DT_FLOAT"}}}, {"name": "model/zero_padding2d_43/Pad/paddings", "op": "Const", "attr": {"value": {"tensor": {"dtype": "DT_INT32", "tensorShape": {"dim": [{"size": "4"}, {"size": "2"}]}}}, "dtype": {"type": "DT_INT32"}}}, {"name": "model/depthwise_conv2d_40/depthwise/ReadVariableOp", "op": "Const", "attr": {"value": {"tensor": {"dtype": "DT_FLOAT", "tensorShape": {"dim": [{"size": "3"}, {"size": "3"}, {"size": "64"}, {"size": "1"}]}}}, "dtype": {"type": "DT_FLOAT"}}}, {"name": "model/depthwise_conv2d_40/BiasAdd/ReadVariableOp", "op": "Const", "attr": {"dtype": {"type": "DT_FLOAT"}, "value": {"tensor": {"dtype": "DT_FLOAT", "tensorShape": {"dim": [{"size": "64"}]}}}}}, {"name": "model/conv2d_75/Conv2D/ReadVariableOp", "op": "Const", "attr": {"dtype": {"type": "DT_FLOAT"}, "value": {"tensor": {"dtype": "DT_FLOAT", "tensorShape": {"dim": [{"size": "1"}, {"size": "1"}, {"size": "64"}, {"size": "64"}]}}}}}, {"name": "model/conv2d_75/BiasAdd/ReadVariableOp", "op": "Const", "attr": {"dtype": {"type": "DT_FLOAT"}, "value": {"tensor": {"dtype": "DT_FLOAT", "tensorShape": {"dim": [{"size": "64"}]}}}}}, {"name": "model/tf.image.resize_1/resize/size", "op": "Const", "attr": {"value": {"tensor": {"dtype": "DT_INT32", "tensorShape": {"dim": [{"size": "2"}]}}}, "dtype": {"type": "DT_INT32"}}}, {"name": "model/tf.concat_2/concat/axis", "op": "Const", "attr": {"value": {"tensor": {"dtype": "DT_INT32", "tensorShape": {}}}, "dtype": {"type": "DT_INT32"}}}, {"name": "model/zero_padding2d_20/Pad/paddings", "op": "Const", "attr": {"value": {"tensor": {"dtype": "DT_INT32", "tensorShape": {"dim": [{"size": "4"}, {"size": "2"}]}}}, "dtype": {"type": "DT_INT32"}}}, {"name": "model/zero_padding2d_21/Pad/paddings", "op": "Const", "attr": {"dtype": {"type": "DT_INT32"}, "value": {"tensor": {"dtype": "DT_INT32", "tensorShape": {"dim": [{"size": "4"}, {"size": "2"}]}}}}}, {"name": "model/zero_padding2d_22/Pad/paddings", "op": "Const", "attr": {"dtype": {"type": "DT_INT32"}, "value": {"tensor": {"dtype": "DT_INT32", "tensorShape": {"dim": [{"size": "4"}, {"size": "2"}]}}}}}, {"name": "model/zero_padding2d_23/Pad/paddings", "op": "Const", "attr": {"value": {"tensor": {"dtype": "DT_INT32", "tensorShape": {"dim": [{"size": "4"}, {"size": "2"}]}}}, "dtype": {"type": "DT_INT32"}}}, {"name": "model/zero_padding2d_24/Pad/paddings", "op": "Const", "attr": {"value": {"tensor": {"dtype": "DT_INT32", "tensorShape": {"dim": [{"size": "4"}, {"size": "2"}]}}}, "dtype": {"type": "DT_INT32"}}}, {"name": "model/tf.image.resize/resize/size", "op": "Const", "attr": {"dtype": {"type": "DT_INT32"}, "value": {"tensor": {"dtype": "DT_INT32", "tensorShape": {"dim": [{"size": "2"}]}}}}}, {"name": "model/tf.concat_1/concat/axis", "op": "Const", "attr": {"value": {"tensor": {"dtype": "DT_INT32", "tensorShape": {}}}, "dtype": {"type": "DT_INT32"}}}, {"name": "model/zero_padding2d_16/Pad/paddings", "op": "Const", "attr": {"value": {"tensor": {"dtype": "DT_INT32", "tensorShape": {"dim": [{"size": "4"}, {"size": "2"}]}}}, "dtype": {"type": "DT_INT32"}}}, {"name": "model/zero_padding2d_17/Pad/paddings", "op": "Const", "attr": {"value": {"tensor": {"dtype": "DT_INT32", "tensorShape": {"dim": [{"size": "4"}, {"size": "2"}]}}}, "dtype": {"type": "DT_INT32"}}}, {"name": "model/zero_padding2d_18/Pad/paddings", "op": "Const", "attr": {"value": {"tensor": {"dtype": "DT_INT32", "tensorShape": {"dim": [{"size": "4"}, {"size": "2"}]}}}, "dtype": {"type": "DT_INT32"}}}, {"name": "model/zero_padding2d_19/Pad/paddings", "op": "Const", "attr": {"dtype": {"type": "DT_INT32"}, "value": {"tensor": {"dtype": "DT_INT32", "tensorShape": {"dim": [{"size": "4"}, {"size": "2"}]}}}}}, {"name": "model/tf.concat_3/concat/axis", "op": "Const", "attr": {"dtype": {"type": "DT_INT32"}, "value": {"tensor": {"dtype": "DT_INT32", "tensorShape": {}}}}}, {"name": "model/zero_padding2d_25/Pad/paddings", "op": "Const", "attr": {"value": {"tensor": {"dtype": "DT_INT32", "tensorShape": {"dim": [{"size": "4"}, {"size": "2"}]}}}, "dtype": {"type": "DT_INT32"}}}, {"name": "model/zero_padding2d_26/Pad/paddings", "op": "Const", "attr": {"value": {"tensor": {"dtype": "DT_INT32", "tensorShape": {"dim": [{"size": "4"}, {"size": "2"}]}}}, "dtype": {"type": "DT_INT32"}}}, {"name": "model/zero_padding2d_27/Pad/paddings", "op": "Const", "attr": {"value": {"tensor": {"dtype": "DT_INT32", "tensorShape": {"dim": [{"size": "4"}, {"size": "2"}]}}}, "dtype": {"type": "DT_INT32"}}}, {"name": "model/zero_padding2d_28/Pad/paddings", "op": "Const", "attr": {"dtype": {"type": "DT_INT32"}, "value": {"tensor": {"dtype": "DT_INT32", "tensorShape": {"dim": [{"size": "4"}, {"size": "2"}]}}}}}, {"name": "model/zero_padding2d_29/Pad/paddings", "op": "Const", "attr": {"dtype": {"type": "DT_INT32"}, "value": {"tensor": {"dtype": "DT_INT32", "tensorShape": {"dim": [{"size": "4"}, {"size": "2"}]}}}}}, {"name": "model/zero_padding2d/Pad/paddings", "op": "Const", "attr": {"value": {"tensor": {"dtype": "DT_INT32", "tensorShape": {"dim": [{"size": "4"}, {"size": "2"}]}}}, "dtype": {"type": "DT_INT32"}}}, {"name": "model/zero_padding2d_1/Pad/paddings", "op": "Const", "attr": {"dtype": {"type": "DT_INT32"}, "value": {"tensor": {"dtype": "DT_INT32", "tensorShape": {"dim": [{"size": "4"}, {"size": "2"}]}}}}}, {"name": "model/zero_padding2d_2/Pad/paddings", "op": "Const", "attr": {"dtype": {"type": "DT_INT32"}, "value": {"tensor": {"dtype": "DT_INT32", "tensorShape": {"dim": [{"size": "4"}, {"size": "2"}]}}}}}, {"name": "model/zero_padding2d_3/Pad/paddings", "op": "Const", "attr": {"dtype": {"type": "DT_INT32"}, "value": {"tensor": {"dtype": "DT_INT32", "tensorShape": {"dim": [{"size": "4"}, {"size": "2"}]}}}}}, {"name": "model/zero_padding2d_4/Pad/paddings", "op": "Const", "attr": {"dtype": {"type": "DT_INT32"}, "value": {"tensor": {"dtype": "DT_INT32", "tensorShape": {"dim": [{"size": "4"}, {"size": "2"}]}}}}}, {"name": "model/zero_padding2d_5/Pad/paddings", "op": "Const", "attr": {"value": {"tensor": {"dtype": "DT_INT32", "tensorShape": {"dim": [{"size": "4"}, {"size": "2"}]}}}, "dtype": {"type": "DT_INT32"}}}, {"name": "model/zero_padding2d_6/Pad/paddings", "op": "Const", "attr": {"dtype": {"type": "DT_INT32"}, "value": {"tensor": {"dtype": "DT_INT32", "tensorShape": {"dim": [{"size": "4"}, {"size": "2"}]}}}}}, {"name": "model/zero_padding2d_7/Pad/paddings", "op": "Const", "attr": {"dtype": {"type": "DT_INT32"}, "value": {"tensor": {"dtype": "DT_INT32", "tensorShape": {"dim": [{"size": "4"}, {"size": "2"}]}}}}}, {"name": "model/zero_padding2d_8/Pad/paddings", "op": "Const", "attr": {"value": {"tensor": {"dtype": "DT_INT32", "tensorShape": {"dim": [{"size": "4"}, {"size": "2"}]}}}, "dtype": {"type": "DT_INT32"}}}, {"name": "model/zero_padding2d_9/Pad/paddings", "op": "Const", "attr": {"dtype": {"type": "DT_INT32"}, "value": {"tensor": {"dtype": "DT_INT32", "tensorShape": {"dim": [{"size": "4"}, {"size": "2"}]}}}}}, {"name": "model/zero_padding2d_10/Pad/paddings", "op": "Const", "attr": {"value": {"tensor": {"dtype": "DT_INT32", "tensorShape": {"dim": [{"size": "4"}, {"size": "2"}]}}}, "dtype": {"type": "DT_INT32"}}}, {"name": "model/zero_padding2d_11/Pad/paddings", "op": "Const", "attr": {"value": {"tensor": {"dtype": "DT_INT32", "tensorShape": {"dim": [{"size": "4"}, {"size": "2"}]}}}, "dtype": {"type": "DT_INT32"}}}, {"name": "model/zero_padding2d_12/Pad/paddings", "op": "Const", "attr": {"dtype": {"type": "DT_INT32"}, "value": {"tensor": {"dtype": "DT_INT32", "tensorShape": {"dim": [{"size": "4"}, {"size": "2"}]}}}}}, {"name": "model/zero_padding2d_13/Pad/paddings", "op": "Const", "attr": {"dtype": {"type": "DT_INT32"}, "value": {"tensor": {"dtype": "DT_INT32", "tensorShape": {"dim": [{"size": "4"}, {"size": "2"}]}}}}}, {"name": "model/zero_padding2d_14/Pad/paddings", "op": "Const", "attr": {"dtype": {"type": "DT_INT32"}, "value": {"tensor": {"dtype": "DT_INT32", "tensorShape": {"dim": [{"size": "4"}, {"size": "2"}]}}}}}, {"name": "model/zero_padding2d_15/Pad/paddings", "op": "Const", "attr": {"value": {"tensor": {"dtype": "DT_INT32", "tensorShape": {"dim": [{"size": "4"}, {"size": "2"}]}}}, "dtype": {"type": "DT_INT32"}}}, {"name": "model/conv2d_31/Conv2D/ReadVariableOp", "op": "Const", "attr": {"dtype": {"type": "DT_FLOAT"}, "value": {"tensor": {"dtype": "DT_FLOAT", "tensorShape": {"dim": [{"size": "1"}, {"size": "1"}, {"size": "128"}, {"size": "64"}]}}}}}, {"name": "model/conv2d_31/BiasAdd/ReadVariableOp", "op": "Const", "attr": {"value": {"tensor": {"dtype": "DT_FLOAT", "tensorShape": {"dim": [{"size": "64"}]}}}, "dtype": {"type": "DT_FLOAT"}}}, {"name": "model/tf.compat.v1.pad/PadV2/paddings", "op": "Const", "attr": {"value": {"tensor": {"dtype": "DT_INT32", "tensorShape": {"dim": [{"size": "4"}, {"size": "2"}]}}}, "dtype": {"type": "DT_INT32"}}}, {"name": "model/tf.compat.v1.pad/PadV2/constant_values", "op": "Const", "attr": {"dtype": {"type": "DT_FLOAT"}, "value": {"tensor": {"dtype": "DT_FLOAT", "tensorShape": {}}}}}, {"name": "model/tf.compat.v1.pad_1/PadV2/paddings", "op": "Const", "attr": {"value": {"tensor": {"dtype": "DT_INT32", "tensorShape": {"dim": [{"size": "4"}, {"size": "2"}]}}}, "dtype": {"type": "DT_INT32"}}}, {"name": "model/tf.compat.v1.pad_1/PadV2/constant_values", "op": "Const", "attr": {"dtype": {"type": "DT_FLOAT"}, "value": {"tensor": {"dtype": "DT_FLOAT", "tensorShape": {}}}}}, {"name": "model/tf.compat.v1.pad_2/PadV2/paddings", "op": "Const", "attr": {"dtype": {"type": "DT_INT32"}, "value": {"tensor": {"dtype": "DT_INT32", "tensorShape": {"dim": [{"size": "4"}, {"size": "2"}]}}}}}, {"name": "model/tf.compat.v1.pad_2/PadV2/constant_values", "op": "Const", "attr": {"dtype": {"type": "DT_FLOAT"}, "value": {"tensor": {"dtype": "DT_FLOAT", "tensorShape": {}}}}}, {"name": "model/tf.concat/concat/axis", "op": "Const", "attr": {"dtype": {"type": "DT_INT32"}, "value": {"tensor": {"dtype": "DT_INT32", "tensorShape": {}}}}}, {"name": "model/conv2d_32/Conv2D/ReadVariableOp", "op": "Const", "attr": {"value": {"tensor": {"dtype": "DT_FLOAT", "tensorShape": {"dim": [{"size": "1"}, {"size": "1"}, {"size": "256"}, {"size": "128"}]}}}, "dtype": {"type": "DT_FLOAT"}}}, {"name": "model/conv2d_32/BiasAdd/ReadVariableOp", "op": "Const", "attr": {"value": {"tensor": {"dtype": "DT_FLOAT", "tensorShape": {"dim": [{"size": "128"}]}}}, "dtype": {"type": "DT_FLOAT"}}}, {"name": "model/tf.concat_4/concat/axis", "op": "Const", "attr": {"dtype": {"type": "DT_INT32"}, "value": {"tensor": {"dtype": "DT_INT32", "tensorShape": {}}}}}, {"name": "model/conv2d_76/Conv2D/ReadVariableOp", "op": "Const", "attr": {"value": {"tensor": {"dtype": "DT_FLOAT", "tensorShape": {"dim": [{"size": "1"}, {"size": "1"}, {"size": "256"}, {"size": "48"}]}}}, "dtype": {"type": "DT_FLOAT"}}}, {"name": "model/conv2d_76/BiasAdd/ReadVariableOp", "op": "Const", "attr": {"value": {"tensor": {"dtype": "DT_FLOAT", "tensorShape": {"dim": [{"size": "48"}]}}}, "dtype": {"type": "DT_FLOAT"}}}, {"name": "model/zero_padding2d_44/Pad/paddings", "op": "Const", "attr": {"dtype": {"type": "DT_INT32"}, "value": {"tensor": {"dtype": "DT_INT32", "tensorShape": {"dim": [{"size": "4"}, {"size": "2"}]}}}}}, {"name": "model/depthwise_conv2d_41/depthwise/ReadVariableOp", "op": "Const", "attr": {"value": {"tensor": {"dtype": "DT_FLOAT", "tensorShape": {"dim": [{"size": "3"}, {"size": "3"}, {"size": "48"}, {"size": "1"}]}}}, "dtype": {"type": "DT_FLOAT"}}}, {"name": "model/depthwise_conv2d_41/BiasAdd/ReadVariableOp", "op": "Const", "attr": {"value": {"tensor": {"dtype": "DT_FLOAT", "tensorShape": {"dim": [{"size": "48"}]}}}, "dtype": {"type": "DT_FLOAT"}}}, {"name": "model/zero_padding2d_45/Pad/paddings", "op": "Const", "attr": {"value": {"tensor": {"dtype": "DT_INT32", "tensorShape": {"dim": [{"size": "4"}, {"size": "2"}]}}}, "dtype": {"type": "DT_INT32"}}}, {"name": "model/depthwise_conv2d_42/depthwise/ReadVariableOp", "op": "Const", "attr": {"value": {"tensor": {"dtype": "DT_FLOAT", "tensorShape": {"dim": [{"size": "3"}, {"size": "3"}, {"size": "48"}, {"size": "1"}]}}}, "dtype": {"type": "DT_FLOAT"}}}, {"name": "model/depthwise_conv2d_42/BiasAdd/ReadVariableOp", "op": "Const", "attr": {"dtype": {"type": "DT_FLOAT"}, "value": {"tensor": {"dtype": "DT_FLOAT", "tensorShape": {"dim": [{"size": "48"}]}}}}}, {"name": "model/conv2d_77/Conv2D/ReadVariableOp", "op": "Const", "attr": {"dtype": {"type": "DT_FLOAT"}, "value": {"tensor": {"dtype": "DT_FLOAT", "tensorShape": {"dim": [{"size": "1"}, {"size": "1"}, {"size": "48"}, {"size": "12"}]}}}}}, {"name": "model/conv2d_77/BiasAdd/ReadVariableOp", "op": "Const", "attr": {"dtype": {"type": "DT_FLOAT"}, "value": {"tensor": {"dtype": "DT_FLOAT", "tensorShape": {"dim": [{"size": "12"}]}}}}}, {"name": "model/tf.concat_7/concat/axis", "op": "Const", "attr": {"dtype": {"type": "DT_INT32"}, "value": {"tensor": {"dtype": "DT_INT32", "tensorShape": {}}}}}, {"name": "model/tf.compat.v1.transpose_2/transpose/perm", "op": "Const", "attr": {"dtype": {"type": "DT_INT32"}, "value": {"tensor": {"dtype": "DT_INT32", "tensorShape": {"dim": [{"size": "4"}]}}}}}, {"name": "model/tf.reshape_2/Reshape/shape", "op": "Const", "attr": {"dtype": {"type": "DT_INT32"}, "value": {"tensor": {"dtype": "DT_INT32", "tensorShape": {"dim": [{"size": "3"}]}}}}}, {"name": "model/tf.concat_8/concat/axis", "op": "Const", "attr": {"dtype": {"type": "DT_INT32"}, "value": {"tensor": {"dtype": "DT_INT32", "tensorShape": {}}}}}, {"name": "model/tf.__operators__.getitem_9/strided_slice/stack", "op": "Const", "attr": {"dtype": {"type": "DT_INT32"}, "value": {"tensor": {"dtype": "DT_INT32", "tensorShape": {"dim": [{"size": "2"}]}}}}}, {"name": "model/tf.__operators__.getitem_9/strided_slice/stack_1", "op": "Const", "attr": {"value": {"tensor": {"dtype": "DT_INT32", "tensorShape": {"dim": [{"size": "2"}]}}}, "dtype": {"type": "DT_INT32"}}}, {"name": "model/tf.__operators__.getitem_9/strided_slice/stack_2", "op": "Const", "attr": {"dtype": {"type": "DT_INT32"}, "value": {"tensor": {"dtype": "DT_INT32", "tensorShape": {"dim": [{"size": "2"}]}}}}}, {"name": "model/tf.concat_10/concat/axis", "op": "Const", "attr": {"value": {"tensor": {"dtype": "DT_INT32", "tensorShape": {}}}, "dtype": {"type": "DT_INT32"}}}, {"name": "x", "op": "Placeholder", "attr": {"shape": {"shape": {"dim": [{"size": "1"}, {"size": "288"}, {"size": "480"}, {"size": "3"}]}}, "dtype": {"type": "DT_FLOAT"}}}, {"name": "model/conv2d/Conv2D_weights", "op": "Const", "attr": {"value": {"tensor": {"dtype": "DT_FLOAT", "tensorShape": {"dim": [{"size": "3"}, {"size": "3"}, {"size": "3"}, {"size": "24"}]}}}, "dtype": {"type": "DT_FLOAT"}}}, {"name": "model/conv2d/Conv2D_bn_offset", "op": "Const", "attr": {"value": {"tensor": {"dtype": "DT_FLOAT", "tensorShape": {"dim": [{"size": "24"}]}}}, "dtype": {"type": "DT_FLOAT"}}}, {"name": "model/conv2d_1/Conv2D_weights", "op": "Const", "attr": {"value": {"tensor": {"dtype": "DT_FLOAT", "tensorShape": {"dim": [{"size": "1"}, {"size": "1"}, {"size": "24"}, {"size": "24"}]}}}, "dtype": {"type": "DT_FLOAT"}}}, {"name": "model/conv2d_56/Conv2D_bn_offset", "op": "Const", "attr": {"dtype": {"type": "DT_FLOAT"}, "value": {"tensor": {"dtype": "DT_FLOAT", "tensorShape": {"dim": [{"size": "88"}]}}}}}, {"name": "model/conv2d_1/Conv2D_bn_offset", "op": "Const", "attr": {"value": {"tensor": {"dtype": "DT_FLOAT", "tensorShape": {"dim": [{"size": "24"}]}}}, "dtype": {"type": "DT_FLOAT"}}}, {"name": "model/depthwise_conv2d/depthwise_weights", "op": "Const", "attr": {"dtype": {"type": "DT_FLOAT"}, "value": {"tensor": {"dtype": "DT_FLOAT", "tensorShape": {"dim": [{"size": "3"}, {"size": "3"}, {"size": "24"}, {"size": "1"}]}}}}}, {"name": "model/depthwise_conv2d/depthwise_bn_offset", "op": "Const", "attr": {"value": {"tensor": {"dtype": "DT_FLOAT", "tensorShape": {"dim": [{"size": "24"}]}}}, "dtype": {"type": "DT_FLOAT"}}}, {"name": "model/conv2d_2/Conv2D_weights", "op": "Const", "attr": {"value": {"tensor": {"dtype": "DT_FLOAT", "tensorShape": {"dim": [{"size": "1"}, {"size": "1"}, {"size": "24"}, {"size": "24"}]}}}, "dtype": {"type": "DT_FLOAT"}}}, {"name": "model/conv2d_2/Conv2D_bn_offset", "op": "Const", "attr": {"value": {"tensor": {"dtype": "DT_FLOAT", "tensorShape": {"dim": [{"size": "24"}]}}}, "dtype": {"type": "DT_FLOAT"}}}, {"name": "model/conv2d_3/Conv2D_weights", "op": "Const", "attr": {"dtype": {"type": "DT_FLOAT"}, "value": {"tensor": {"dtype": "DT_FLOAT", "tensorShape": {"dim": [{"size": "1"}, {"size": "1"}, {"size": "24"}, {"size": "128"}]}}}}}, {"name": "model/conv2d_3/Conv2D_bn_offset", "op": "Const", "attr": {"dtype": {"type": "DT_FLOAT"}, "value": {"tensor": {"dtype": "DT_FLOAT", "tensorShape": {"dim": [{"size": "128"}]}}}}}, {"name": "model/depthwise_conv2d_1/depthwise_weights", "op": "Const", "attr": {"dtype": {"type": "DT_FLOAT"}, "value": {"tensor": {"dtype": "DT_FLOAT", "tensorShape": {"dim": [{"size": "3"}, {"size": "3"}, {"size": "128"}, {"size": "1"}]}}}}}, {"name": "model/depthwise_conv2d_1/depthwise_bn_offset", "op": "Const", "attr": {"value": {"tensor": {"dtype": "DT_FLOAT", "tensorShape": {"dim": [{"size": "128"}]}}}, "dtype": {"type": "DT_FLOAT"}}}, {"name": "model/conv2d_4/Conv2D_weights", "op": "Const", "attr": {"dtype": {"type": "DT_FLOAT"}, "value": {"tensor": {"dtype": "DT_FLOAT", "tensorShape": {"dim": [{"size": "1"}, {"size": "1"}, {"size": "128"}, {"size": "48"}]}}}}}, {"name": "model/conv2d_4/Conv2D_bn_offset", "op": "Const", "attr": {"value": {"tensor": {"dtype": "DT_FLOAT", "tensorShape": {"dim": [{"size": "48"}]}}}, "dtype": {"type": "DT_FLOAT"}}}, {"name": "model/conv2d_5/Conv2D_weights", "op": "Const", "attr": {"value": {"tensor": {"dtype": "DT_FLOAT", "tensorShape": {"dim": [{"size": "1"}, {"size": "1"}, {"size": "48"}, {"size": "128"}]}}}, "dtype": {"type": "DT_FLOAT"}}}, {"name": "model/conv2d_57/Conv2D_weights", "op": "Const", "attr": {"value": {"tensor": {"dtype": "DT_FLOAT", "tensorShape": {"dim": [{"size": "3"}, {"size": "3"}, {"size": "88"}, {"size": "128"}]}}}, "dtype": {"type": "DT_FLOAT"}}}, {"name": "model/conv2d_5/Conv2D_bn_offset", "op": "Const", "attr": {"dtype": {"type": "DT_FLOAT"}, "value": {"tensor": {"dtype": "DT_FLOAT", "tensorShape": {"dim": [{"size": "128"}]}}}}}, {"name": "model/depthwise_conv2d_2/depthwise_weights", "op": "Const", "attr": {"dtype": {"type": "DT_FLOAT"}, "value": {"tensor": {"dtype": "DT_FLOAT", "tensorShape": {"dim": [{"size": "3"}, {"size": "3"}, {"size": "128"}, {"size": "1"}]}}}}}, {"name": "model/depthwise_conv2d_2/depthwise_bn_offset", "op": "Const", "attr": {"value": {"tensor": {"dtype": "DT_FLOAT", "tensorShape": {"dim": [{"size": "128"}]}}}, "dtype": {"type": "DT_FLOAT"}}}, {"name": "model/conv2d_6/Conv2D_weights", "op": "Const", "attr": {"value": {"tensor": {"dtype": "DT_FLOAT", "tensorShape": {"dim": [{"size": "1"}, {"size": "1"}, {"size": "128"}, {"size": "48"}]}}}, "dtype": {"type": "DT_FLOAT"}}}, {"name": "model/conv2d_6/Conv2D_bn_offset", "op": "Const", "attr": {"value": {"tensor": {"dtype": "DT_FLOAT", "tensorShape": {"dim": [{"size": "48"}]}}}, "dtype": {"type": "DT_FLOAT"}}}, {"name": "model/conv2d_7/Conv2D_weights", "op": "Const", "attr": {"dtype": {"type": "DT_FLOAT"}, "value": {"tensor": {"dtype": "DT_FLOAT", "tensorShape": {"dim": [{"size": "1"}, {"size": "1"}, {"size": "48"}, {"size": "128"}]}}}}}, {"name": "model/conv2d_57/Conv2D_bn_offset", "op": "Const", "attr": {"dtype": {"type": "DT_FLOAT"}, "value": {"tensor": {"dtype": "DT_FLOAT", "tensorShape": {"dim": [{"size": "128"}]}}}}}, {"name": "model/conv2d_7/Conv2D_bn_offset", "op": "Const", "attr": {"value": {"tensor": {"dtype": "DT_FLOAT", "tensorShape": {"dim": [{"size": "128"}]}}}, "dtype": {"type": "DT_FLOAT"}}}, {"name": "model/depthwise_conv2d_3/depthwise_weights", "op": "Const", "attr": {"dtype": {"type": "DT_FLOAT"}, "value": {"tensor": {"dtype": "DT_FLOAT", "tensorShape": {"dim": [{"size": "3"}, {"size": "3"}, {"size": "128"}, {"size": "1"}]}}}}}, {"name": "model/depthwise_conv2d_3/depthwise_bn_offset", "op": "Const", "attr": {"value": {"tensor": {"dtype": "DT_FLOAT", "tensorShape": {"dim": [{"size": "128"}]}}}, "dtype": {"type": "DT_FLOAT"}}}, {"name": "model/conv2d_8/Conv2D_weights", "op": "Const", "attr": {"dtype": {"type": "DT_FLOAT"}, "value": {"tensor": {"dtype": "DT_FLOAT", "tensorShape": {"dim": [{"size": "1"}, {"size": "1"}, {"size": "128"}, {"size": "48"}]}}}}}, {"name": "model/conv2d_8/Conv2D_bn_offset", "op": "Const", "attr": {"dtype": {"type": "DT_FLOAT"}, "value": {"tensor": {"dtype": "DT_FLOAT", "tensorShape": {"dim": [{"size": "48"}]}}}}}, {"name": "model/conv2d_9/Conv2D_weights", "op": "Const", "attr": {"value": {"tensor": {"dtype": "DT_FLOAT", "tensorShape": {"dim": [{"size": "1"}, {"size": "1"}, {"size": "48"}, {"size": "128"}]}}}, "dtype": {"type": "DT_FLOAT"}}}, {"name": "model/conv2d_9/Conv2D_bn_offset", "op": "Const", "attr": {"dtype": {"type": "DT_FLOAT"}, "value": {"tensor": {"dtype": "DT_FLOAT", "tensorShape": {"dim": [{"size": "128"}]}}}}}, {"name": "model/depthwise_conv2d_4/depthwise_weights", "op": "Const", "attr": {"dtype": {"type": "DT_FLOAT"}, "value": {"tensor": {"dtype": "DT_FLOAT", "tensorShape": {"dim": [{"size": "5"}, {"size": "5"}, {"size": "128"}, {"size": "1"}]}}}}}, {"name": "model/depthwise_conv2d_4/depthwise_bn_offset", "op": "Const", "attr": {"dtype": {"type": "DT_FLOAT"}, "value": {"tensor": {"dtype": "DT_FLOAT", "tensorShape": {"dim": [{"size": "128"}]}}}}}, {"name": "model/conv2d_10/Conv2D_weights", "op": "Const", "attr": {"dtype": {"type": "DT_FLOAT"}, "value": {"tensor": {"dtype": "DT_FLOAT", "tensorShape": {"dim": [{"size": "1"}, {"size": "1"}, {"size": "128"}, {"size": "88"}]}}}}}, {"name": "model/conv2d_10/Conv2D_bn_offset", "op": "Const", "attr": {"dtype": {"type": "DT_FLOAT"}, "value": {"tensor": {"dtype": "DT_FLOAT", "tensorShape": {"dim": [{"size": "88"}]}}}}}, {"name": "model/conv2d_11/Conv2D_weights", "op": "Const", "attr": {"value": {"tensor": {"dtype": "DT_FLOAT", "tensorShape": {"dim": [{"size": "1"}, {"size": "1"}, {"size": "88"}, {"size": "256"}]}}}, "dtype": {"type": "DT_FLOAT"}}}, {"name": "model/conv2d_11/Conv2D_bn_offset", "op": "Const", "attr": {"dtype": {"type": "DT_FLOAT"}, "value": {"tensor": {"dtype": "DT_FLOAT", "tensorShape": {"dim": [{"size": "256"}]}}}}}, {"name": "model/depthwise_conv2d_5/depthwise_weights", "op": "Const", "attr": {"value": {"tensor": {"dtype": "DT_FLOAT", "tensorShape": {"dim": [{"size": "5"}, {"size": "5"}, {"size": "256"}, {"size": "1"}]}}}, "dtype": {"type": "DT_FLOAT"}}}, {"name": "model/depthwise_conv2d_5/depthwise_bn_offset", "op": "Const", "attr": {"value": {"tensor": {"dtype": "DT_FLOAT", "tensorShape": {"dim": [{"size": "256"}]}}}, "dtype": {"type": "DT_FLOAT"}}}, {"name": "model/conv2d_12/Conv2D_weights", "op": "Const", "attr": {"dtype": {"type": "DT_FLOAT"}, "value": {"tensor": {"dtype": "DT_FLOAT", "tensorShape": {"dim": [{"size": "1"}, {"size": "1"}, {"size": "256"}, {"size": "88"}]}}}}}, {"name": "model/conv2d_12/Conv2D_bn_offset", "op": "Const", "attr": {"dtype": {"type": "DT_FLOAT"}, "value": {"tensor": {"dtype": "DT_FLOAT", "tensorShape": {"dim": [{"size": "88"}]}}}}}, {"name": "model/conv2d_13/Conv2D_weights", "op": "Const", "attr": {"value": {"tensor": {"dtype": "DT_FLOAT", "tensorShape": {"dim": [{"size": "1"}, {"size": "1"}, {"size": "88"}, {"size": "256"}]}}}, "dtype": {"type": "DT_FLOAT"}}}, {"name": "model/conv2d_13/Conv2D_bn_offset", "op": "Const", "attr": {"value": {"tensor": {"dtype": "DT_FLOAT", "tensorShape": {"dim": [{"size": "256"}]}}}, "dtype": {"type": "DT_FLOAT"}}}, {"name": "model/depthwise_conv2d_6/depthwise_weights", "op": "Const", "attr": {"dtype": {"type": "DT_FLOAT"}, "value": {"tensor": {"dtype": "DT_FLOAT", "tensorShape": {"dim": [{"size": "5"}, {"size": "5"}, {"size": "256"}, {"size": "1"}]}}}}}, {"name": "model/depthwise_conv2d_6/depthwise_bn_offset", "op": "Const", "attr": {"dtype": {"type": "DT_FLOAT"}, "value": {"tensor": {"dtype": "DT_FLOAT", "tensorShape": {"dim": [{"size": "256"}]}}}}}, {"name": "model/conv2d_14/Conv2D_weights", "op": "Const", "attr": {"value": {"tensor": {"dtype": "DT_FLOAT", "tensorShape": {"dim": [{"size": "1"}, {"size": "1"}, {"size": "256"}, {"size": "88"}]}}}, "dtype": {"type": "DT_FLOAT"}}}, {"name": "model/conv2d_14/Conv2D_bn_offset", "op": "Const", "attr": {"value": {"tensor": {"dtype": "DT_FLOAT", "tensorShape": {"dim": [{"size": "88"}]}}}, "dtype": {"type": "DT_FLOAT"}}}, {"name": "model/conv2d_15/Conv2D_weights", "op": "Const", "attr": {"dtype": {"type": "DT_FLOAT"}, "value": {"tensor": {"dtype": "DT_FLOAT", "tensorShape": {"dim": [{"size": "1"}, {"size": "1"}, {"size": "88"}, {"size": "256"}]}}}}}, {"name": "model/conv2d_15/Conv2D_bn_offset", "op": "Const", "attr": {"value": {"tensor": {"dtype": "DT_FLOAT", "tensorShape": {"dim": [{"size": "256"}]}}}, "dtype": {"type": "DT_FLOAT"}}}, {"name": "model/depthwise_conv2d_7/depthwise_weights", "op": "Const", "attr": {"value": {"tensor": {"dtype": "DT_FLOAT", "tensorShape": {"dim": [{"size": "5"}, {"size": "5"}, {"size": "256"}, {"size": "1"}]}}}, "dtype": {"type": "DT_FLOAT"}}}, {"name": "model/depthwise_conv2d_7/depthwise_bn_offset", "op": "Const", "attr": {"value": {"tensor": {"dtype": "DT_FLOAT", "tensorShape": {"dim": [{"size": "256"}]}}}, "dtype": {"type": "DT_FLOAT"}}}, {"name": "model/conv2d_16/Conv2D_weights", "op": "Const", "attr": {"dtype": {"type": "DT_FLOAT"}, "value": {"tensor": {"dtype": "DT_FLOAT", "tensorShape": {"dim": [{"size": "1"}, {"size": "1"}, {"size": "256"}, {"size": "88"}]}}}}}, {"name": "model/conv2d_16/Conv2D_bn_offset", "op": "Const", "attr": {"value": {"tensor": {"dtype": "DT_FLOAT", "tensorShape": {"dim": [{"size": "88"}]}}}, "dtype": {"type": "DT_FLOAT"}}}, {"name": "model/conv2d_17/Conv2D_weights", "op": "Const", "attr": {"value": {"tensor": {"dtype": "DT_FLOAT", "tensorShape": {"dim": [{"size": "1"}, {"size": "1"}, {"size": "88"}, {"size": "256"}]}}}, "dtype": {"type": "DT_FLOAT"}}}, {"name": "model/conv2d_17/Conv2D_bn_offset", "op": "Const", "attr": {"value": {"tensor": {"dtype": "DT_FLOAT", "tensorShape": {"dim": [{"size": "256"}]}}}, "dtype": {"type": "DT_FLOAT"}}}, {"name": "model/depthwise_conv2d_8/depthwise_weights", "op": "Const", "attr": {"dtype": {"type": "DT_FLOAT"}, "value": {"tensor": {"dtype": "DT_FLOAT", "tensorShape": {"dim": [{"size": "5"}, {"size": "5"}, {"size": "256"}, {"size": "1"}]}}}}}, {"name": "model/depthwise_conv2d_8/depthwise_bn_offset", "op": "Const", "attr": {"value": {"tensor": {"dtype": "DT_FLOAT", "tensorShape": {"dim": [{"size": "256"}]}}}, "dtype": {"type": "DT_FLOAT"}}}, {"name": "model/conv2d_18/Conv2D_weights", "op": "Const", "attr": {"value": {"tensor": {"dtype": "DT_FLOAT", "tensorShape": {"dim": [{"size": "1"}, {"size": "1"}, {"size": "256"}, {"size": "88"}]}}}, "dtype": {"type": "DT_FLOAT"}}}, {"name": "model/conv2d_18/Conv2D_bn_offset", "op": "Const", "attr": {"value": {"tensor": {"dtype": "DT_FLOAT", "tensorShape": {"dim": [{"size": "88"}]}}}, "dtype": {"type": "DT_FLOAT"}}}, {"name": "model/conv2d_19/Conv2D_weights", "op": "Const", "attr": {"value": {"tensor": {"dtype": "DT_FLOAT", "tensorShape": {"dim": [{"size": "1"}, {"size": "1"}, {"size": "88"}, {"size": "256"}]}}}, "dtype": {"type": "DT_FLOAT"}}}, {"name": "model/conv2d_19/Conv2D_bn_offset", "op": "Const", "attr": {"value": {"tensor": {"dtype": "DT_FLOAT", "tensorShape": {"dim": [{"size": "256"}]}}}, "dtype": {"type": "DT_FLOAT"}}}, {"name": "model/depthwise_conv2d_9/depthwise_weights", "op": "Const", "attr": {"value": {"tensor": {"dtype": "DT_FLOAT", "tensorShape": {"dim": [{"size": "5"}, {"size": "5"}, {"size": "256"}, {"size": "1"}]}}}, "dtype": {"type": "DT_FLOAT"}}}, {"name": "model/depthwise_conv2d_9/depthwise_bn_offset", "op": "Const", "attr": {"dtype": {"type": "DT_FLOAT"}, "value": {"tensor": {"dtype": "DT_FLOAT", "tensorShape": {"dim": [{"size": "256"}]}}}}}, {"name": "model/conv2d_20/Conv2D_weights", "op": "Const", "attr": {"dtype": {"type": "DT_FLOAT"}, "value": {"tensor": {"dtype": "DT_FLOAT", "tensorShape": {"dim": [{"size": "1"}, {"size": "1"}, {"size": "256"}, {"size": "88"}]}}}}}, {"name": "model/conv2d_20/Conv2D_bn_offset", "op": "Const", "attr": {"dtype": {"type": "DT_FLOAT"}, "value": {"tensor": {"dtype": "DT_FLOAT", "tensorShape": {"dim": [{"size": "88"}]}}}}}, {"name": "model/conv2d_21/Conv2D_weights", "op": "Const", "attr": {"dtype": {"type": "DT_FLOAT"}, "value": {"tensor": {"dtype": "DT_FLOAT", "tensorShape": {"dim": [{"size": "1"}, {"size": "1"}, {"size": "88"}, {"size": "768"}]}}}}}, {"name": "model/conv2d_21/Conv2D_bn_offset", "op": "Const", "attr": {"value": {"tensor": {"dtype": "DT_FLOAT", "tensorShape": {"dim": [{"size": "768"}]}}}, "dtype": {"type": "DT_FLOAT"}}}, {"name": "model/depthwise_conv2d_10/depthwise_weights", "op": "Const", "attr": {"value": {"tensor": {"dtype": "DT_FLOAT", "tensorShape": {"dim": [{"size": "5"}, {"size": "5"}, {"size": "768"}, {"size": "1"}]}}}, "dtype": {"type": "DT_FLOAT"}}}, {"name": "model/depthwise_conv2d_10/depthwise_bn_offset", "op": "Const", "attr": {"dtype": {"type": "DT_FLOAT"}, "value": {"tensor": {"dtype": "DT_FLOAT", "tensorShape": {"dim": [{"size": "768"}]}}}}}, {"name": "model/conv2d_22/Conv2D_weights", "op": "Const", "attr": {"dtype": {"type": "DT_FLOAT"}, "value": {"tensor": {"dtype": "DT_FLOAT", "tensorShape": {"dim": [{"size": "1"}, {"size": "1"}, {"size": "768"}, {"size": "128"}]}}}}}, {"name": "model/conv2d_22/Conv2D_bn_offset", "op": "Const", "attr": {"dtype": {"type": "DT_FLOAT"}, "value": {"tensor": {"dtype": "DT_FLOAT", "tensorShape": {"dim": [{"size": "128"}]}}}}}, {"name": "model/conv2d_23/Conv2D_weights", "op": "Const", "attr": {"dtype": {"type": "DT_FLOAT"}, "value": {"tensor": {"dtype": "DT_FLOAT", "tensorShape": {"dim": [{"size": "1"}, {"size": "1"}, {"size": "128"}, {"size": "768"}]}}}}}, {"name": "model/conv2d_23/Conv2D_bn_offset", "op": "Const", "attr": {"value": {"tensor": {"dtype": "DT_FLOAT", "tensorShape": {"dim": [{"size": "768"}]}}}, "dtype": {"type": "DT_FLOAT"}}}, {"name": "model/depthwise_conv2d_11/depthwise_weights", "op": "Const", "attr": {"dtype": {"type": "DT_FLOAT"}, "value": {"tensor": {"dtype": "DT_FLOAT", "tensorShape": {"dim": [{"size": "5"}, {"size": "5"}, {"size": "768"}, {"size": "1"}]}}}}}, {"name": "model/depthwise_conv2d_11/depthwise_bn_offset", "op": "Const", "attr": {"dtype": {"type": "DT_FLOAT"}, "value": {"tensor": {"dtype": "DT_FLOAT", "tensorShape": {"dim": [{"size": "768"}]}}}}}, {"name": "model/conv2d_24/Conv2D_weights", "op": "Const", "attr": {"dtype": {"type": "DT_FLOAT"}, "value": {"tensor": {"dtype": "DT_FLOAT", "tensorShape": {"dim": [{"size": "1"}, {"size": "1"}, {"size": "768"}, {"size": "128"}]}}}}}, {"name": "model/conv2d_24/Conv2D_bn_offset", "op": "Const", "attr": {"value": {"tensor": {"dtype": "DT_FLOAT", "tensorShape": {"dim": [{"size": "128"}]}}}, "dtype": {"type": "DT_FLOAT"}}}, {"name": "model/conv2d_25/Conv2D_weights", "op": "Const", "attr": {"value": {"tensor": {"dtype": "DT_FLOAT", "tensorShape": {"dim": [{"size": "1"}, {"size": "1"}, {"size": "128"}, {"size": "768"}]}}}, "dtype": {"type": "DT_FLOAT"}}}, {"name": "model/conv2d_25/Conv2D_bn_offset", "op": "Const", "attr": {"value": {"tensor": {"dtype": "DT_FLOAT", "tensorShape": {"dim": [{"size": "768"}]}}}, "dtype": {"type": "DT_FLOAT"}}}, {"name": "model/depthwise_conv2d_12/depthwise_weights", "op": "Const", "attr": {"value": {"tensor": {"dtype": "DT_FLOAT", "tensorShape": {"dim": [{"size": "5"}, {"size": "5"}, {"size": "768"}, {"size": "1"}]}}}, "dtype": {"type": "DT_FLOAT"}}}, {"name": "model/depthwise_conv2d_12/depthwise_bn_offset", "op": "Const", "attr": {"dtype": {"type": "DT_FLOAT"}, "value": {"tensor": {"dtype": "DT_FLOAT", "tensorShape": {"dim": [{"size": "768"}]}}}}}, {"name": "model/conv2d_26/Conv2D_weights", "op": "Const", "attr": {"dtype": {"type": "DT_FLOAT"}, "value": {"tensor": {"dtype": "DT_FLOAT", "tensorShape": {"dim": [{"size": "1"}, {"size": "1"}, {"size": "768"}, {"size": "128"}]}}}}}, {"name": "model/conv2d_26/Conv2D_bn_offset", "op": "Const", "attr": {"value": {"tensor": {"dtype": "DT_FLOAT", "tensorShape": {"dim": [{"size": "128"}]}}}, "dtype": {"type": "DT_FLOAT"}}}, {"name": "model/conv2d_27/Conv2D_weights", "op": "Const", "attr": {"value": {"tensor": {"dtype": "DT_FLOAT", "tensorShape": {"dim": [{"size": "1"}, {"size": "1"}, {"size": "128"}, {"size": "768"}]}}}, "dtype": {"type": "DT_FLOAT"}}}, {"name": "model/conv2d_27/Conv2D_bn_offset", "op": "Const", "attr": {"dtype": {"type": "DT_FLOAT"}, "value": {"tensor": {"dtype": "DT_FLOAT", "tensorShape": {"dim": [{"size": "768"}]}}}}}, {"name": "model/depthwise_conv2d_13/depthwise_weights", "op": "Const", "attr": {"value": {"tensor": {"dtype": "DT_FLOAT", "tensorShape": {"dim": [{"size": "5"}, {"size": "5"}, {"size": "768"}, {"size": "1"}]}}}, "dtype": {"type": "DT_FLOAT"}}}, {"name": "model/depthwise_conv2d_13/depthwise_bn_offset", "op": "Const", "attr": {"dtype": {"type": "DT_FLOAT"}, "value": {"tensor": {"dtype": "DT_FLOAT", "tensorShape": {"dim": [{"size": "768"}]}}}}}, {"name": "model/conv2d_28/Conv2D_weights", "op": "Const", "attr": {"dtype": {"type": "DT_FLOAT"}, "value": {"tensor": {"dtype": "DT_FLOAT", "tensorShape": {"dim": [{"size": "1"}, {"size": "1"}, {"size": "768"}, {"size": "128"}]}}}}}, {"name": "model/conv2d_28/Conv2D_bn_offset", "op": "Const", "attr": {"dtype": {"type": "DT_FLOAT"}, "value": {"tensor": {"dtype": "DT_FLOAT", "tensorShape": {"dim": [{"size": "128"}]}}}}}, {"name": "model/conv2d_29/Conv2D_weights", "op": "Const", "attr": {"dtype": {"type": "DT_FLOAT"}, "value": {"tensor": {"dtype": "DT_FLOAT", "tensorShape": {"dim": [{"size": "1"}, {"size": "1"}, {"size": "128"}, {"size": "768"}]}}}}}, {"name": "model/conv2d_29/Conv2D_bn_offset", "op": "Const", "attr": {"dtype": {"type": "DT_FLOAT"}, "value": {"tensor": {"dtype": "DT_FLOAT", "tensorShape": {"dim": [{"size": "768"}]}}}}}, {"name": "model/depthwise_conv2d_14/depthwise_weights", "op": "Const", "attr": {"value": {"tensor": {"dtype": "DT_FLOAT", "tensorShape": {"dim": [{"size": "5"}, {"size": "5"}, {"size": "768"}, {"size": "1"}]}}}, "dtype": {"type": "DT_FLOAT"}}}, {"name": "model/depthwise_conv2d_14/depthwise_bn_offset", "op": "Const", "attr": {"value": {"tensor": {"dtype": "DT_FLOAT", "tensorShape": {"dim": [{"size": "768"}]}}}, "dtype": {"type": "DT_FLOAT"}}}, {"name": "model/conv2d_30/Conv2D_weights", "op": "Const", "attr": {"value": {"tensor": {"dtype": "DT_FLOAT", "tensorShape": {"dim": [{"size": "1"}, {"size": "1"}, {"size": "768"}, {"size": "128"}]}}}, "dtype": {"type": "DT_FLOAT"}}}, {"name": "model/conv2d_30/Conv2D_bn_offset", "op": "Const", "attr": {"value": {"tensor": {"dtype": "DT_FLOAT", "tensorShape": {"dim": [{"size": "128"}]}}}, "dtype": {"type": "DT_FLOAT"}}}, {"name": "model/conv2d_33/Conv2D_weights", "op": "Const", "attr": {"dtype": {"type": "DT_FLOAT"}, "value": {"tensor": {"dtype": "DT_FLOAT", "tensorShape": {"dim": [{"size": "1"}, {"size": "1"}, {"size": "216"}, {"size": "176"}]}}}}}, {"name": "model/conv2d_33/Conv2D_bn_offset", "op": "Const", "attr": {"value": {"tensor": {"dtype": "DT_FLOAT", "tensorShape": {"dim": [{"size": "176"}]}}}, "dtype": {"type": "DT_FLOAT"}}}, {"name": "model/depthwise_conv2d_15/depthwise_weights", "op": "Const", "attr": {"value": {"tensor": {"dtype": "DT_FLOAT", "tensorShape": {"dim": [{"size": "5"}, {"size": "5"}, {"size": "176"}, {"size": "1"}]}}}, "dtype": {"type": "DT_FLOAT"}}}, {"name": "model/depthwise_conv2d_15/depthwise_bn_offset", "op": "Const", "attr": {"value": {"tensor": {"dtype": "DT_FLOAT", "tensorShape": {"dim": [{"size": "176"}]}}}, "dtype": {"type": "DT_FLOAT"}}}, {"name": "model/conv2d_34/Conv2D_weights", "op": "Const", "attr": {"dtype": {"type": "DT_FLOAT"}, "value": {"tensor": {"dtype": "DT_FLOAT", "tensorShape": {"dim": [{"size": "1"}, {"size": "1"}, {"size": "176"}, {"size": "88"}]}}}}}, {"name": "model/conv2d_34/Conv2D_bn_offset", "op": "Const", "attr": {"value": {"tensor": {"dtype": "DT_FLOAT", "tensorShape": {"dim": [{"size": "88"}]}}}, "dtype": {"type": "DT_FLOAT"}}}, {"name": "model/conv2d_35/Conv2D_weights", "op": "Const", "attr": {"value": {"tensor": {"dtype": "DT_FLOAT", "tensorShape": {"dim": [{"size": "1"}, {"size": "1"}, {"size": "88"}, {"size": "176"}]}}}, "dtype": {"type": "DT_FLOAT"}}}, {"name": "model/conv2d_35/Conv2D_bn_offset", "op": "Const", "attr": {"dtype": {"type": "DT_FLOAT"}, "value": {"tensor": {"dtype": "DT_FLOAT", "tensorShape": {"dim": [{"size": "176"}]}}}}}, {"name": "model/depthwise_conv2d_16/depthwise_weights", "op": "Const", "attr": {"value": {"tensor": {"dtype": "DT_FLOAT", "tensorShape": {"dim": [{"size": "5"}, {"size": "5"}, {"size": "176"}, {"size": "1"}]}}}, "dtype": {"type": "DT_FLOAT"}}}, {"name": "model/depthwise_conv2d_16/depthwise_bn_offset", "op": "Const", "attr": {"dtype": {"type": "DT_FLOAT"}, "value": {"tensor": {"dtype": "DT_FLOAT", "tensorShape": {"dim": [{"size": "176"}]}}}}}, {"name": "model/conv2d_36/Conv2D_weights", "op": "Const", "attr": {"value": {"tensor": {"dtype": "DT_FLOAT", "tensorShape": {"dim": [{"size": "1"}, {"size": "1"}, {"size": "176"}, {"size": "88"}]}}}, "dtype": {"type": "DT_FLOAT"}}}, {"name": "model/conv2d_36/Conv2D_bn_offset", "op": "Const", "attr": {"value": {"tensor": {"dtype": "DT_FLOAT", "tensorShape": {"dim": [{"size": "88"}]}}}, "dtype": {"type": "DT_FLOAT"}}}, {"name": "model/conv2d_37/Conv2D_weights", "op": "Const", "attr": {"dtype": {"type": "DT_FLOAT"}, "value": {"tensor": {"dtype": "DT_FLOAT", "tensorShape": {"dim": [{"size": "1"}, {"size": "1"}, {"size": "88"}, {"size": "176"}]}}}}}, {"name": "model/conv2d_37/Conv2D_bn_offset", "op": "Const", "attr": {"value": {"tensor": {"dtype": "DT_FLOAT", "tensorShape": {"dim": [{"size": "176"}]}}}, "dtype": {"type": "DT_FLOAT"}}}, {"name": "model/depthwise_conv2d_17/depthwise_weights", "op": "Const", "attr": {"dtype": {"type": "DT_FLOAT"}, "value": {"tensor": {"dtype": "DT_FLOAT", "tensorShape": {"dim": [{"size": "5"}, {"size": "5"}, {"size": "176"}, {"size": "1"}]}}}}}, {"name": "model/depthwise_conv2d_17/depthwise_bn_offset", "op": "Const", "attr": {"dtype": {"type": "DT_FLOAT"}, "value": {"tensor": {"dtype": "DT_FLOAT", "tensorShape": {"dim": [{"size": "176"}]}}}}}, {"name": "model/conv2d_38/Conv2D_weights", "op": "Const", "attr": {"value": {"tensor": {"dtype": "DT_FLOAT", "tensorShape": {"dim": [{"size": "1"}, {"size": "1"}, {"size": "176"}, {"size": "88"}]}}}, "dtype": {"type": "DT_FLOAT"}}}, {"name": "model/conv2d_38/Conv2D_bn_offset", "op": "Const", "attr": {"dtype": {"type": "DT_FLOAT"}, "value": {"tensor": {"dtype": "DT_FLOAT", "tensorShape": {"dim": [{"size": "88"}]}}}}}, {"name": "model/conv2d_39/Conv2D_weights", "op": "Const", "attr": {"value": {"tensor": {"dtype": "DT_FLOAT", "tensorShape": {"dim": [{"size": "1"}, {"size": "1"}, {"size": "88"}, {"size": "176"}]}}}, "dtype": {"type": "DT_FLOAT"}}}, {"name": "model/conv2d_39/Conv2D_bn_offset", "op": "Const", "attr": {"value": {"tensor": {"dtype": "DT_FLOAT", "tensorShape": {"dim": [{"size": "176"}]}}}, "dtype": {"type": "DT_FLOAT"}}}, {"name": "model/depthwise_conv2d_18/depthwise_weights", "op": "Const", "attr": {"value": {"tensor": {"dtype": "DT_FLOAT", "tensorShape": {"dim": [{"size": "5"}, {"size": "5"}, {"size": "176"}, {"size": "1"}]}}}, "dtype": {"type": "DT_FLOAT"}}}, {"name": "model/depthwise_conv2d_18/depthwise_bn_offset", "op": "Const", "attr": {"value": {"tensor": {"dtype": "DT_FLOAT", "tensorShape": {"dim": [{"size": "176"}]}}}, "dtype": {"type": "DT_FLOAT"}}}, {"name": "model/conv2d_40/Conv2D_weights", "op": "Const", "attr": {"value": {"tensor": {"dtype": "DT_FLOAT", "tensorShape": {"dim": [{"size": "1"}, {"size": "1"}, {"size": "176"}, {"size": "88"}]}}}, "dtype": {"type": "DT_FLOAT"}}}, {"name": "model/conv2d_40/Conv2D_bn_offset", "op": "Const", "attr": {"value": {"tensor": {"dtype": "DT_FLOAT", "tensorShape": {"dim": [{"size": "88"}]}}}, "dtype": {"type": "DT_FLOAT"}}}, {"name": "model/depthwise_conv2d_19/depthwise_weights", "op": "Const", "attr": {"dtype": {"type": "DT_FLOAT"}, "value": {"tensor": {"dtype": "DT_FLOAT", "tensorShape": {"dim": [{"size": "3"}, {"size": "3"}, {"size": "136"}, {"size": "1"}]}}}}}, {"name": "model/depthwise_conv2d_19/depthwise_bn_offset", "op": "Const", "attr": {"dtype": {"type": "DT_FLOAT"}, "value": {"tensor": {"dtype": "DT_FLOAT", "tensorShape": {"dim": [{"size": "136"}]}}}}}, {"name": "model/conv2d_41/Conv2D_weights", "op": "Const", "attr": {"value": {"tensor": {"dtype": "DT_FLOAT", "tensorShape": {"dim": [{"size": "1"}, {"size": "1"}, {"size": "136"}, {"size": "48"}]}}}, "dtype": {"type": "DT_FLOAT"}}}, {"name": "model/conv2d_41/Conv2D_bn_offset", "op": "Const", "attr": {"value": {"tensor": {"dtype": "DT_FLOAT", "tensorShape": {"dim": [{"size": "48"}]}}}, "dtype": {"type": "DT_FLOAT"}}}, {"name": "model/conv2d_42/Conv2D_weights", "op": "Const", "attr": {"value": {"tensor": {"dtype": "DT_FLOAT", "tensorShape": {"dim": [{"size": "1"}, {"size": "1"}, {"size": "48"}, {"size": "88"}]}}}, "dtype": {"type": "DT_FLOAT"}}}, {"name": "model/conv2d_42/Conv2D_bn_offset", "op": "Const", "attr": {"dtype": {"type": "DT_FLOAT"}, "value": {"tensor": {"dtype": "DT_FLOAT", "tensorShape": {"dim": [{"size": "88"}]}}}}}, {"name": "model/depthwise_conv2d_20/depthwise_weights", "op": "Const", "attr": {"dtype": {"type": "DT_FLOAT"}, "value": {"tensor": {"dtype": "DT_FLOAT", "tensorShape": {"dim": [{"size": "3"}, {"size": "3"}, {"size": "88"}, {"size": "1"}]}}}}}, {"name": "model/depthwise_conv2d_20/depthwise_bn_offset", "op": "Const", "attr": {"value": {"tensor": {"dtype": "DT_FLOAT", "tensorShape": {"dim": [{"size": "88"}]}}}, "dtype": {"type": "DT_FLOAT"}}}, {"name": "model/conv2d_43/Conv2D_weights", "op": "Const", "attr": {"value": {"tensor": {"dtype": "DT_FLOAT", "tensorShape": {"dim": [{"size": "1"}, {"size": "1"}, {"size": "88"}, {"size": "48"}]}}}, "dtype": {"type": "DT_FLOAT"}}}, {"name": "model/conv2d_43/Conv2D_bn_offset", "op": "Const", "attr": {"dtype": {"type": "DT_FLOAT"}, "value": {"tensor": {"dtype": "DT_FLOAT", "tensorShape": {"dim": [{"size": "48"}]}}}}}, {"name": "model/conv2d_44/Conv2D_weights", "op": "Const", "attr": {"dtype": {"type": "DT_FLOAT"}, "value": {"tensor": {"dtype": "DT_FLOAT", "tensorShape": {"dim": [{"size": "1"}, {"size": "1"}, {"size": "48"}, {"size": "88"}]}}}}}, {"name": "model/conv2d_44/Conv2D_bn_offset", "op": "Const", "attr": {"value": {"tensor": {"dtype": "DT_FLOAT", "tensorShape": {"dim": [{"size": "88"}]}}}, "dtype": {"type": "DT_FLOAT"}}}, {"name": "model/depthwise_conv2d_21/depthwise_weights", "op": "Const", "attr": {"value": {"tensor": {"dtype": "DT_FLOAT", "tensorShape": {"dim": [{"size": "3"}, {"size": "3"}, {"size": "88"}, {"size": "1"}]}}}, "dtype": {"type": "DT_FLOAT"}}}, {"name": "model/depthwise_conv2d_21/depthwise_bn_offset", "op": "Const", "attr": {"dtype": {"type": "DT_FLOAT"}, "value": {"tensor": {"dtype": "DT_FLOAT", "tensorShape": {"dim": [{"size": "88"}]}}}}}, {"name": "model/conv2d_45/Conv2D_weights", "op": "Const", "attr": {"dtype": {"type": "DT_FLOAT"}, "value": {"tensor": {"dtype": "DT_FLOAT", "tensorShape": {"dim": [{"size": "1"}, {"size": "1"}, {"size": "88"}, {"size": "48"}]}}}}}, {"name": "model/conv2d_45/Conv2D_bn_offset", "op": "Const", "attr": {"dtype": {"type": "DT_FLOAT"}, "value": {"tensor": {"dtype": "DT_FLOAT", "tensorShape": {"dim": [{"size": "48"}]}}}}}, {"name": "model/conv2d_46/Conv2D_weights", "op": "Const", "attr": {"value": {"tensor": {"dtype": "DT_FLOAT", "tensorShape": {"dim": [{"size": "1"}, {"size": "1"}, {"size": "48"}, {"size": "176"}]}}}, "dtype": {"type": "DT_FLOAT"}}}, {"name": "model/conv2d_46/Conv2D_bn_offset", "op": "Const", "attr": {"value": {"tensor": {"dtype": "DT_FLOAT", "tensorShape": {"dim": [{"size": "176"}]}}}, "dtype": {"type": "DT_FLOAT"}}}, {"name": "model/depthwise_conv2d_22/depthwise_weights", "op": "Const", "attr": {"value": {"tensor": {"dtype": "DT_FLOAT", "tensorShape": {"dim": [{"size": "5"}, {"size": "5"}, {"size": "176"}, {"size": "1"}]}}}, "dtype": {"type": "DT_FLOAT"}}}, {"name": "model/depthwise_conv2d_22/depthwise_bn_offset", "op": "Const", "attr": {"value": {"tensor": {"dtype": "DT_FLOAT", "tensorShape": {"dim": [{"size": "176"}]}}}, "dtype": {"type": "DT_FLOAT"}}}, {"name": "model/conv2d_47/Conv2D_weights", "op": "Const", "attr": {"value": {"tensor": {"dtype": "DT_FLOAT", "tensorShape": {"dim": [{"size": "1"}, {"size": "1"}, {"size": "176"}, {"size": "88"}]}}}, "dtype": {"type": "DT_FLOAT"}}}, {"name": "model/conv2d_47/Conv2D_bn_offset", "op": "Const", "attr": {"dtype": {"type": "DT_FLOAT"}, "value": {"tensor": {"dtype": "DT_FLOAT", "tensorShape": {"dim": [{"size": "88"}]}}}}}, {"name": "model/conv2d_48/Conv2D_weights", "op": "Const", "attr": {"dtype": {"type": "DT_FLOAT"}, "value": {"tensor": {"dtype": "DT_FLOAT", "tensorShape": {"dim": [{"size": "3"}, {"size": "3"}, {"size": "88"}, {"size": "88"}]}}}}}, {"name": "model/conv2d_48/Conv2D_bn_offset", "op": "Const", "attr": {"dtype": {"type": "DT_FLOAT"}, "value": {"tensor": {"dtype": "DT_FLOAT", "tensorShape": {"dim": [{"size": "88"}]}}}}}, {"name": "model/conv2d_49/Conv2D_weights", "op": "Const", "attr": {"value": {"tensor": {"dtype": "DT_FLOAT", "tensorShape": {"dim": [{"size": "1"}, {"size": "1"}, {"size": "176"}, {"size": "176"}]}}}, "dtype": {"type": "DT_FLOAT"}}}, {"name": "model/conv2d_49/Conv2D_bn_offset", "op": "Const", "attr": {"dtype": {"type": "DT_FLOAT"}, "value": {"tensor": {"dtype": "DT_FLOAT", "tensorShape": {"dim": [{"size": "176"}]}}}}}, {"name": "model/depthwise_conv2d_23/depthwise_weights", "op": "Const", "attr": {"dtype": {"type": "DT_FLOAT"}, "value": {"tensor": {"dtype": "DT_FLOAT", "tensorShape": {"dim": [{"size": "5"}, {"size": "5"}, {"size": "176"}, {"size": "1"}]}}}}}, {"name": "model/depthwise_conv2d_23/depthwise_bn_offset", "op": "Const", "attr": {"dtype": {"type": "DT_FLOAT"}, "value": {"tensor": {"dtype": "DT_FLOAT", "tensorShape": {"dim": [{"size": "176"}]}}}}}, {"name": "model/conv2d_50/Conv2D_weights", "op": "Const", "attr": {"value": {"tensor": {"dtype": "DT_FLOAT", "tensorShape": {"dim": [{"size": "1"}, {"size": "1"}, {"size": "176"}, {"size": "88"}]}}}, "dtype": {"type": "DT_FLOAT"}}}, {"name": "model/conv2d_50/Conv2D_bn_offset", "op": "Const", "attr": {"value": {"tensor": {"dtype": "DT_FLOAT", "tensorShape": {"dim": [{"size": "88"}]}}}, "dtype": {"type": "DT_FLOAT"}}}, {"name": "model/conv2d_51/Conv2D_weights", "op": "Const", "attr": {"dtype": {"type": "DT_FLOAT"}, "value": {"tensor": {"dtype": "DT_FLOAT", "tensorShape": {"dim": [{"size": "1"}, {"size": "1"}, {"size": "88"}, {"size": "176"}]}}}}}, {"name": "model/conv2d_51/Conv2D_bn_offset", "op": "Const", "attr": {"dtype": {"type": "DT_FLOAT"}, "value": {"tensor": {"dtype": "DT_FLOAT", "tensorShape": {"dim": [{"size": "176"}]}}}}}, {"name": "model/depthwise_conv2d_24/depthwise_weights", "op": "Const", "attr": {"value": {"tensor": {"dtype": "DT_FLOAT", "tensorShape": {"dim": [{"size": "5"}, {"size": "5"}, {"size": "176"}, {"size": "1"}]}}}, "dtype": {"type": "DT_FLOAT"}}}, {"name": "model/depthwise_conv2d_24/depthwise_bn_offset", "op": "Const", "attr": {"dtype": {"type": "DT_FLOAT"}, "value": {"tensor": {"dtype": "DT_FLOAT", "tensorShape": {"dim": [{"size": "176"}]}}}}}, {"name": "model/conv2d_52/Conv2D_weights", "op": "Const", "attr": {"value": {"tensor": {"dtype": "DT_FLOAT", "tensorShape": {"dim": [{"size": "1"}, {"size": "1"}, {"size": "176"}, {"size": "88"}]}}}, "dtype": {"type": "DT_FLOAT"}}}, {"name": "model/conv2d_52/Conv2D_bn_offset", "op": "Const", "attr": {"dtype": {"type": "DT_FLOAT"}, "value": {"tensor": {"dtype": "DT_FLOAT", "tensorShape": {"dim": [{"size": "88"}]}}}}}, {"name": "model/conv2d_53/Conv2D_weights", "op": "Const", "attr": {"value": {"tensor": {"dtype": "DT_FLOAT", "tensorShape": {"dim": [{"size": "1"}, {"size": "1"}, {"size": "88"}, {"size": "176"}]}}}, "dtype": {"type": "DT_FLOAT"}}}, {"name": "model/conv2d_53/Conv2D_bn_offset", "op": "Const", "attr": {"dtype": {"type": "DT_FLOAT"}, "value": {"tensor": {"dtype": "DT_FLOAT", "tensorShape": {"dim": [{"size": "176"}]}}}}}, {"name": "model/depthwise_conv2d_25/depthwise_weights", "op": "Const", "attr": {"dtype": {"type": "DT_FLOAT"}, "value": {"tensor": {"dtype": "DT_FLOAT", "tensorShape": {"dim": [{"size": "5"}, {"size": "5"}, {"size": "176"}, {"size": "1"}]}}}}}, {"name": "model/depthwise_conv2d_25/depthwise_bn_offset", "op": "Const", "attr": {"value": {"tensor": {"dtype": "DT_FLOAT", "tensorShape": {"dim": [{"size": "176"}]}}}, "dtype": {"type": "DT_FLOAT"}}}, {"name": "model/conv2d_54/Conv2D_weights", "op": "Const", "attr": {"dtype": {"type": "DT_FLOAT"}, "value": {"tensor": {"dtype": "DT_FLOAT", "tensorShape": {"dim": [{"size": "1"}, {"size": "1"}, {"size": "176"}, {"size": "88"}]}}}}}, {"name": "model/conv2d_54/Conv2D_bn_offset", "op": "Const", "attr": {"dtype": {"type": "DT_FLOAT"}, "value": {"tensor": {"dtype": "DT_FLOAT", "tensorShape": {"dim": [{"size": "88"}]}}}}}, {"name": "model/conv2d_55/Conv2D_weights", "op": "Const", "attr": {"dtype": {"type": "DT_FLOAT"}, "value": {"tensor": {"dtype": "DT_FLOAT", "tensorShape": {"dim": [{"size": "1"}, {"size": "1"}, {"size": "88"}, {"size": "176"}]}}}}}, {"name": "model/conv2d_55/Conv2D_bn_offset", "op": "Const", "attr": {"value": {"tensor": {"dtype": "DT_FLOAT", "tensorShape": {"dim": [{"size": "176"}]}}}, "dtype": {"type": "DT_FLOAT"}}}, {"name": "model/depthwise_conv2d_26/depthwise_weights", "op": "Const", "attr": {"dtype": {"type": "DT_FLOAT"}, "value": {"tensor": {"dtype": "DT_FLOAT", "tensorShape": {"dim": [{"size": "5"}, {"size": "5"}, {"size": "176"}, {"size": "1"}]}}}}}, {"name": "model/depthwise_conv2d_26/depthwise_bn_offset", "op": "Const", "attr": {"dtype": {"type": "DT_FLOAT"}, "value": {"tensor": {"dtype": "DT_FLOAT", "tensorShape": {"dim": [{"size": "176"}]}}}}}, {"name": "model/conv2d_56/Conv2D_weights", "op": "Const", "attr": {"dtype": {"type": "DT_FLOAT"}, "value": {"tensor": {"dtype": "DT_FLOAT", "tensorShape": {"dim": [{"size": "1"}, {"size": "1"}, {"size": "176"}, {"size": "88"}]}}}}}, {"name": "model/zero_padding2d/Pad", "op": "Pad", "input": ["x", "model/zero_padding2d/Pad/paddings"], "attr": {"Tpaddings": {"type": "DT_INT32"}, "T": {"type": "DT_FLOAT"}}}, {"name": "model/batch_normalization/FusedBatchNormV3", "op": "_FusedConv2D", "input": ["model/zero_padding2d/Pad", "model/conv2d/Conv2D_weights", "model/conv2d/Conv2D_bn_offset"], "device": "/device:CPU:0", "attr": {"padding": {"s": "VkFMSUQ="}, "leakyrelu_alpha": {"f": 0.2}, "data_format": {"s": "TkhXQw=="}, "filter_format": {"s": "SFdJTw=="}, "T": {"type": "DT_FLOAT"}, "num_args": {"i": "1"}, "num_host_args": {"i": "0"}, "dilations": {"list": {"i": ["1", "1", "1", "1"]}}, "TArgs": {"list": {"type": ["DT_FLOAT"]}}, "epsilon": {"f": 0.0}, "explicit_paddings": {"list": {}}, "fused_ops": {"list": {"s": ["Qmlhc0FkZA=="]}}, "use_cudnn_on_gpu": {"b": true}, "strides": {"list": {"i": ["1", "2", "2", "1"]}}}}, {"name": "model/tf.nn.silu/Sigmoid", "op": "Sigmoid", "input": ["model/batch_normalization/FusedBatchNormV3"], "attr": {"T": {"type": "DT_FLOAT"}}}, {"name": "model/tf.nn.silu/mul_1", "op": "Mul", "input": ["model/batch_normalization/FusedBatchNormV3", "model/tf.nn.silu/Sigmoid"], "attr": {"T": {"type": "DT_FLOAT"}}}, {"name": "model/batch_normalization_1/FusedBatchNormV3", "op": "_FusedConv2D", "input": ["model/tf.nn.silu/mul_1", "model/conv2d_1/Conv2D_weights", "model/conv2d_1/Conv2D_bn_offset"], "device": "/device:CPU:0", "attr": {"padding": {"s": "VkFMSUQ="}, "filter_format": {"s": "SFdJTw=="}, "strides": {"list": {"i": ["1", "1", "1", "1"]}}, "explicit_paddings": {"list": {}}, "fused_ops": {"list": {"s": ["Qmlhc0FkZA=="]}}, "epsilon": {"f": 0.0}, "use_cudnn_on_gpu": {"b": true}, "num_host_args": {"i": "0"}, "data_format": {"s": "TkhXQw=="}, "T": {"type": "DT_FLOAT"}, "dilations": {"list": {"i": ["1", "1", "1", "1"]}}, "num_args": {"i": "1"}, "leakyrelu_alpha": {"f": 0.2}, "TArgs": {"list": {"type": ["DT_FLOAT"]}}}}, {"name": "model/tf.nn.silu_1/Sigmoid", "op": "Sigmoid", "input": ["model/batch_normalization_1/FusedBatchNormV3"], "attr": {"T": {"type": "DT_FLOAT"}}}, {"name": "model/tf.nn.silu_1/mul_1", "op": "Mul", "input": ["model/batch_normalization_1/FusedBatchNormV3", "model/tf.nn.silu_1/Sigmoid"], "attr": {"T": {"type": "DT_FLOAT"}}}, {"name": "model/zero_padding2d_1/Pad", "op": "Pad", "input": ["model/tf.nn.silu_1/mul_1", "model/zero_padding2d_1/Pad/paddings"], "attr": {"T": {"type": "DT_FLOAT"}, "Tpaddings": {"type": "DT_INT32"}}}, {"name": "model/depthwise_conv2d/depthwise", "op": "FusedDepthwiseConv2dNative", "input": ["model/zero_padding2d_1/Pad", "model/depthwise_conv2d/depthwise_weights", "model/depthwise_conv2d/depthwise_bn_offset"], "attr": {"fused_ops": {"list": {"s": ["Qmlhc0FkZA=="]}}, "dilations": {"list": {"i": ["1", "1", "1", "1"]}}, "num_args": {"i": "1"}, "T": {"type": "DT_FLOAT"}, "data_format": {"s": "TkhXQw=="}, "strides": {"list": {"i": ["1", "2", "2", "1"]}}, "padding": {"s": "VkFMSUQ="}, "explicit_paddings": {"list": {}}}}, {"name": "model/tf.nn.silu_2/Sigmoid", "op": "Sigmoid", "input": ["model/depthwise_conv2d/depthwise"], "attr": {"T": {"type": "DT_FLOAT"}}}, {"name": "model/tf.nn.silu_2/mul_1", "op": "Mul", "input": ["model/depthwise_conv2d/depthwise", "model/tf.nn.silu_2/Sigmoid"], "attr": {"T": {"type": "DT_FLOAT"}}}, {"name": "model/batch_normalization_3/FusedBatchNormV3", "op": "_FusedConv2D", "input": ["model/tf.nn.silu_2/mul_1", "model/conv2d_2/Conv2D_weights", "model/conv2d_2/Conv2D_bn_offset"], "device": "/device:CPU:0", "attr": {"T": {"type": "DT_FLOAT"}, "padding": {"s": "VkFMSUQ="}, "dilations": {"list": {"i": ["1", "1", "1", "1"]}}, "filter_format": {"s": "SFdJTw=="}, "data_format": {"s": "TkhXQw=="}, "num_host_args": {"i": "0"}, "TArgs": {"list": {"type": ["DT_FLOAT"]}}, "fused_ops": {"list": {"s": ["Qmlhc0FkZA=="]}}, "strides": {"list": {"i": ["1", "1", "1", "1"]}}, "epsilon": {"f": 0.0}, "use_cudnn_on_gpu": {"b": true}, "explicit_paddings": {"list": {}}, "leakyrelu_alpha": {"f": 0.2}, "num_args": {"i": "1"}}}, {"name": "model/batch_normalization_4/FusedBatchNormV3", "op": "_FusedConv2D", "input": ["model/batch_normalization_3/FusedBatchNormV3", "model/conv2d_3/Conv2D_weights", "model/conv2d_3/Conv2D_bn_offset"], "device": "/device:CPU:0", "attr": {"num_args": {"i": "1"}, "data_format": {"s": "TkhXQw=="}, "T": {"type": "DT_FLOAT"}, "use_cudnn_on_gpu": {"b": true}, "padding": {"s": "VkFMSUQ="}, "epsilon": {"f": 0.0}, "filter_format": {"s": "SFdJTw=="}, "explicit_paddings": {"list": {}}, "fused_ops": {"list": {"s": ["Qmlhc0FkZA=="]}}, "strides": {"list": {"i": ["1", "1", "1", "1"]}}, "leakyrelu_alpha": {"f": 0.2}, "num_host_args": {"i": "0"}, "dilations": {"list": {"i": ["1", "1", "1", "1"]}}, "TArgs": {"list": {"type": ["DT_FLOAT"]}}}}, {"name": "model/tf.nn.silu_3/Sigmoid", "op": "Sigmoid", "input": ["model/batch_normalization_4/FusedBatchNormV3"], "attr": {"T": {"type": "DT_FLOAT"}}}, {"name": "model/tf.nn.silu_3/mul_1", "op": "Mul", "input": ["model/batch_normalization_4/FusedBatchNormV3", "model/tf.nn.silu_3/Sigmoid"], "attr": {"T": {"type": "DT_FLOAT"}}}, {"name": "model/zero_padding2d_2/Pad", "op": "Pad", "input": ["model/tf.nn.silu_3/mul_1", "model/zero_padding2d_2/Pad/paddings"], "attr": {"Tpaddings": {"type": "DT_INT32"}, "T": {"type": "DT_FLOAT"}}}, {"name": "model/depthwise_conv2d_1/depthwise", "op": "FusedDepthwiseConv2dNative", "input": ["model/zero_padding2d_2/Pad", "model/depthwise_conv2d_1/depthwise_weights", "model/depthwise_conv2d_1/depthwise_bn_offset"], "attr": {"dilations": {"list": {"i": ["1", "1", "1", "1"]}}, "T": {"type": "DT_FLOAT"}, "strides": {"list": {"i": ["1", "2", "2", "1"]}}, "data_format": {"s": "TkhXQw=="}, "fused_ops": {"list": {"s": ["Qmlhc0FkZA=="]}}, "num_args": {"i": "1"}, "padding": {"s": "VkFMSUQ="}, "explicit_paddings": {"list": {}}}}, {"name": "model/tf.nn.silu_4/Sigmoid", "op": "Sigmoid", "input": ["model/depthwise_conv2d_1/depthwise"], "attr": {"T": {"type": "DT_FLOAT"}}}, {"name": "model/tf.nn.silu_4/mul_1", "op": "Mul", "input": ["model/depthwise_conv2d_1/depthwise", "model/tf.nn.silu_4/Sigmoid"], "attr": {"T": {"type": "DT_FLOAT"}}}, {"name": "model/batch_normalization_6/FusedBatchNormV3", "op": "_FusedConv2D", "input": ["model/tf.nn.silu_4/mul_1", "model/conv2d_4/Conv2D_weights", "model/conv2d_4/Conv2D_bn_offset"], "device": "/device:CPU:0", "attr": {"dilations": {"list": {"i": ["1", "1", "1", "1"]}}, "filter_format": {"s": "SFdJTw=="}, "epsilon": {"f": 0.0}, "T": {"type": "DT_FLOAT"}, "explicit_paddings": {"list": {}}, "padding": {"s": "VkFMSUQ="}, "leakyrelu_alpha": {"f": 0.2}, "fused_ops": {"list": {"s": ["Qmlhc0FkZA=="]}}, "use_cudnn_on_gpu": {"b": true}, "TArgs": {"list": {"type": ["DT_FLOAT"]}}, "strides": {"list": {"i": ["1", "1", "1", "1"]}}, "num_host_args": {"i": "0"}, "num_args": {"i": "1"}, "data_format": {"s": "TkhXQw=="}}}, {"name": "model/batch_normalization_7/FusedBatchNormV3", "op": "_FusedConv2D", "input": ["model/batch_normalization_6/FusedBatchNormV3", "model/conv2d_5/Conv2D_weights", "model/conv2d_5/Conv2D_bn_offset"], "device": "/device:CPU:0", "attr": {"fused_ops": {"list": {"s": ["Qmlhc0FkZA=="]}}, "padding": {"s": "VkFMSUQ="}, "use_cudnn_on_gpu": {"b": true}, "leakyrelu_alpha": {"f": 0.2}, "data_format": {"s": "TkhXQw=="}, "TArgs": {"list": {"type": ["DT_FLOAT"]}}, "strides": {"list": {"i": ["1", "1", "1", "1"]}}, "num_host_args": {"i": "0"}, "explicit_paddings": {"list": {}}, "filter_format": {"s": "SFdJTw=="}, "T": {"type": "DT_FLOAT"}, "dilations": {"list": {"i": ["1", "1", "1", "1"]}}, "num_args": {"i": "1"}, "epsilon": {"f": 0.0}}}, {"name": "model/tf.nn.silu_5/Sigmoid", "op": "Sigmoid", "input": ["model/batch_normalization_7/FusedBatchNormV3"], "attr": {"T": {"type": "DT_FLOAT"}}}, {"name": "model/tf.nn.silu_5/mul_1", "op": "Mul", "input": ["model/batch_normalization_7/FusedBatchNormV3", "model/tf.nn.silu_5/Sigmoid"], "attr": {"T": {"type": "DT_FLOAT"}}}, {"name": "model/zero_padding2d_3/Pad", "op": "Pad", "input": ["model/tf.nn.silu_5/mul_1", "model/zero_padding2d_3/Pad/paddings"], "attr": {"Tpaddings": {"type": "DT_INT32"}, "T": {"type": "DT_FLOAT"}}}, {"name": "model/depthwise_conv2d_2/depthwise", "op": "FusedDepthwiseConv2dNative", "input": ["model/zero_padding2d_3/Pad", "model/depthwise_conv2d_2/depthwise_weights", "model/depthwise_conv2d_2/depthwise_bn_offset"], "attr": {"padding": {"s": "VkFMSUQ="}, "num_args": {"i": "1"}, "explicit_paddings": {"list": {}}, "dilations": {"list": {"i": ["1", "1", "1", "1"]}}, "fused_ops": {"list": {"s": ["Qmlhc0FkZA=="]}}, "data_format": {"s": "TkhXQw=="}, "strides": {"list": {"i": ["1", "1", "1", "1"]}}, "T": {"type": "DT_FLOAT"}}}, {"name": "model/tf.nn.silu_6/Sigmoid", "op": "Sigmoid", "input": ["model/depthwise_conv2d_2/depthwise"], "attr": {"T": {"type": "DT_FLOAT"}}}, {"name": "model/tf.nn.silu_6/mul_1", "op": "Mul", "input": ["model/depthwise_conv2d_2/depthwise", "model/tf.nn.silu_6/Sigmoid"], "attr": {"T": {"type": "DT_FLOAT"}}}, {"name": "model/batch_normalization_9/FusedBatchNormV3", "op": "_FusedConv2D", "input": ["model/tf.nn.silu_6/mul_1", "model/conv2d_6/Conv2D_weights", "model/conv2d_6/Conv2D_bn_offset"], "device": "/device:CPU:0", "attr": {"leakyrelu_alpha": {"f": 0.2}, "padding": {"s": "VkFMSUQ="}, "strides": {"list": {"i": ["1", "1", "1", "1"]}}, "use_cudnn_on_gpu": {"b": true}, "dilations": {"list": {"i": ["1", "1", "1", "1"]}}, "filter_format": {"s": "SFdJTw=="}, "epsilon": {"f": 0.0}, "num_host_args": {"i": "0"}, "data_format": {"s": "TkhXQw=="}, "fused_ops": {"list": {"s": ["Qmlhc0FkZA=="]}}, "num_args": {"i": "1"}, "TArgs": {"list": {"type": ["DT_FLOAT"]}}, "explicit_paddings": {"list": {}}, "T": {"type": "DT_FLOAT"}}}, {"name": "model/tf.__operators__.add/AddV2", "op": "AddV2", "input": ["model/batch_normalization_6/FusedBatchNormV3", "model/batch_normalization_9/FusedBatchNormV3"], "attr": {"T": {"type": "DT_FLOAT"}}}, {"name": "model/batch_normalization_10/FusedBatchNormV3", "op": "_FusedConv2D", "input": ["model/tf.__operators__.add/AddV2", "model/conv2d_7/Conv2D_weights", "model/conv2d_7/Conv2D_bn_offset"], "device": "/device:CPU:0", "attr": {"num_args": {"i": "1"}, "fused_ops": {"list": {"s": ["Qmlhc0FkZA=="]}}, "explicit_paddings": {"list": {}}, "filter_format": {"s": "SFdJTw=="}, "num_host_args": {"i": "0"}, "data_format": {"s": "TkhXQw=="}, "epsilon": {"f": 0.0}, "dilations": {"list": {"i": ["1", "1", "1", "1"]}}, "use_cudnn_on_gpu": {"b": true}, "padding": {"s": "VkFMSUQ="}, "T": {"type": "DT_FLOAT"}, "TArgs": {"list": {"type": ["DT_FLOAT"]}}, "leakyrelu_alpha": {"f": 0.2}, "strides": {"list": {"i": ["1", "1", "1", "1"]}}}}, {"name": "model/tf.nn.silu_7/Sigmoid", "op": "Sigmoid", "input": ["model/batch_normalization_10/FusedBatchNormV3"], "attr": {"T": {"type": "DT_FLOAT"}}}, {"name": "model/tf.nn.silu_7/mul_1", "op": "Mul", "input": ["model/batch_normalization_10/FusedBatchNormV3", "model/tf.nn.silu_7/Sigmoid"], "attr": {"T": {"type": "DT_FLOAT"}}}, {"name": "model/zero_padding2d_4/Pad", "op": "Pad", "input": ["model/tf.nn.silu_7/mul_1", "model/zero_padding2d_4/Pad/paddings"], "attr": {"Tpaddings": {"type": "DT_INT32"}, "T": {"type": "DT_FLOAT"}}}, {"name": "model/depthwise_conv2d_3/depthwise", "op": "FusedDepthwiseConv2dNative", "input": ["model/zero_padding2d_4/Pad", "model/depthwise_conv2d_3/depthwise_weights", "model/depthwise_conv2d_3/depthwise_bn_offset"], "attr": {"num_args": {"i": "1"}, "strides": {"list": {"i": ["1", "1", "1", "1"]}}, "padding": {"s": "VkFMSUQ="}, "explicit_paddings": {"list": {}}, "dilations": {"list": {"i": ["1", "1", "1", "1"]}}, "data_format": {"s": "TkhXQw=="}, "T": {"type": "DT_FLOAT"}, "fused_ops": {"list": {"s": ["Qmlhc0FkZA=="]}}}}, {"name": "model/tf.nn.silu_8/Sigmoid", "op": "Sigmoid", "input": ["model/depthwise_conv2d_3/depthwise"], "attr": {"T": {"type": "DT_FLOAT"}}}, {"name": "model/tf.nn.silu_8/mul_1", "op": "Mul", "input": ["model/depthwise_conv2d_3/depthwise", "model/tf.nn.silu_8/Sigmoid"], "attr": {"T": {"type": "DT_FLOAT"}}}, {"name": "model/batch_normalization_12/FusedBatchNormV3", "op": "_FusedConv2D", "input": ["model/tf.nn.silu_8/mul_1", "model/conv2d_8/Conv2D_weights", "model/conv2d_8/Conv2D_bn_offset"], "device": "/device:CPU:0", "attr": {"explicit_paddings": {"list": {}}, "dilations": {"list": {"i": ["1", "1", "1", "1"]}}, "filter_format": {"s": "SFdJTw=="}, "padding": {"s": "VkFMSUQ="}, "fused_ops": {"list": {"s": ["Qmlhc0FkZA=="]}}, "strides": {"list": {"i": ["1", "1", "1", "1"]}}, "TArgs": {"list": {"type": ["DT_FLOAT"]}}, "data_format": {"s": "TkhXQw=="}, "num_args": {"i": "1"}, "num_host_args": {"i": "0"}, "leakyrelu_alpha": {"f": 0.2}, "T": {"type": "DT_FLOAT"}, "use_cudnn_on_gpu": {"b": true}, "epsilon": {"f": 0.0}}}, {"name": "model/tf.__operators__.add_1/AddV2", "op": "AddV2", "input": ["model/tf.__operators__.add/AddV2", "model/batch_normalization_12/FusedBatchNormV3"], "attr": {"T": {"type": "DT_FLOAT"}}}, {"name": "model/batch_normalization_13/FusedBatchNormV3", "op": "_FusedConv2D", "input": ["model/tf.__operators__.add_1/AddV2", "model/conv2d_9/Conv2D_weights", "model/conv2d_9/Conv2D_bn_offset"], "device": "/device:CPU:0", "attr": {"dilations": {"list": {"i": ["1", "1", "1", "1"]}}, "T": {"type": "DT_FLOAT"}, "filter_format": {"s": "SFdJTw=="}, "num_args": {"i": "1"}, "padding": {"s": "VkFMSUQ="}, "leakyrelu_alpha": {"f": 0.2}, "epsilon": {"f": 0.0}, "strides": {"list": {"i": ["1", "1", "1", "1"]}}, "use_cudnn_on_gpu": {"b": true}, "TArgs": {"list": {"type": ["DT_FLOAT"]}}, "num_host_args": {"i": "0"}, "explicit_paddings": {"list": {}}, "fused_ops": {"list": {"s": ["Qmlhc0FkZA=="]}}, "data_format": {"s": "TkhXQw=="}}}, {"name": "model/tf.nn.silu_9/Sigmoid", "op": "Sigmoid", "input": ["model/batch_normalization_13/FusedBatchNormV3"], "attr": {"T": {"type": "DT_FLOAT"}}}, {"name": "model/tf.nn.silu_9/mul_1", "op": "Mul", "input": ["model/batch_normalization_13/FusedBatchNormV3", "model/tf.nn.silu_9/Sigmoid"], "attr": {"T": {"type": "DT_FLOAT"}}}, {"name": "model/zero_padding2d_5/Pad", "op": "Pad", "input": ["model/tf.nn.silu_9/mul_1", "model/zero_padding2d_5/Pad/paddings"], "attr": {"Tpaddings": {"type": "DT_INT32"}, "T": {"type": "DT_FLOAT"}}}, {"name": "model/depthwise_conv2d_4/depthwise", "op": "FusedDepthwiseConv2dNative", "input": ["model/zero_padding2d_5/Pad", "model/depthwise_conv2d_4/depthwise_weights", "model/depthwise_conv2d_4/depthwise_bn_offset"], "attr": {"fused_ops": {"list": {"s": ["Qmlhc0FkZA=="]}}, "dilations": {"list": {"i": ["1", "1", "1", "1"]}}, "T": {"type": "DT_FLOAT"}, "num_args": {"i": "1"}, "explicit_paddings": {"list": {}}, "data_format": {"s": "TkhXQw=="}, "strides": {"list": {"i": ["1", "2", "2", "1"]}}, "padding": {"s": "VkFMSUQ="}}}, {"name": "model/tf.nn.silu_10/Sigmoid", "op": "Sigmoid", "input": ["model/depthwise_conv2d_4/depthwise"], "attr": {"T": {"type": "DT_FLOAT"}}}, {"name": "model/tf.nn.silu_10/mul_1", "op": "Mul", "input": ["model/depthwise_conv2d_4/depthwise", "model/tf.nn.silu_10/Sigmoid"], "attr": {"T": {"type": "DT_FLOAT"}}}, {"name": "model/batch_normalization_15/FusedBatchNormV3", "op": "_FusedConv2D", "input": ["model/tf.nn.silu_10/mul_1", "model/conv2d_10/Conv2D_weights", "model/conv2d_10/Conv2D_bn_offset"], "device": "/device:CPU:0", "attr": {"filter_format": {"s": "SFdJTw=="}, "dilations": {"list": {"i": ["1", "1", "1", "1"]}}, "T": {"type": "DT_FLOAT"}, "strides": {"list": {"i": ["1", "1", "1", "1"]}}, "padding": {"s": "VkFMSUQ="}, "data_format": {"s": "TkhXQw=="}, "num_args": {"i": "1"}, "leakyrelu_alpha": {"f": 0.2}, "num_host_args": {"i": "0"}, "epsilon": {"f": 0.0}, "TArgs": {"list": {"type": ["DT_FLOAT"]}}, "use_cudnn_on_gpu": {"b": true}, "fused_ops": {"list": {"s": ["Qmlhc0FkZA=="]}}, "explicit_paddings": {"list": {}}}}, {"name": "model/batch_normalization_16/FusedBatchNormV3", "op": "_FusedConv2D", "input": ["model/batch_normalization_15/FusedBatchNormV3", "model/conv2d_11/Conv2D_weights", "model/conv2d_11/Conv2D_bn_offset"], "device": "/device:CPU:0", "attr": {"num_host_args": {"i": "0"}, "leakyrelu_alpha": {"f": 0.2}, "TArgs": {"list": {"type": ["DT_FLOAT"]}}, "fused_ops": {"list": {"s": ["Qmlhc0FkZA=="]}}, "num_args": {"i": "1"}, "data_format": {"s": "TkhXQw=="}, "strides": {"list": {"i": ["1", "1", "1", "1"]}}, "dilations": {"list": {"i": ["1", "1", "1", "1"]}}, "explicit_paddings": {"list": {}}, "use_cudnn_on_gpu": {"b": true}, "epsilon": {"f": 0.0}, "T": {"type": "DT_FLOAT"}, "filter_format": {"s": "SFdJTw=="}, "padding": {"s": "VkFMSUQ="}}}, {"name": "model/tf.nn.silu_11/Sigmoid", "op": "Sigmoid", "input": ["model/batch_normalization_16/FusedBatchNormV3"], "attr": {"T": {"type": "DT_FLOAT"}}}, {"name": "model/tf.nn.silu_11/mul_1", "op": "Mul", "input": ["model/batch_normalization_16/FusedBatchNormV3", "model/tf.nn.silu_11/Sigmoid"], "attr": {"T": {"type": "DT_FLOAT"}}}, {"name": "model/zero_padding2d_6/Pad", "op": "Pad", "input": ["model/tf.nn.silu_11/mul_1", "model/zero_padding2d_6/Pad/paddings"], "attr": {"T": {"type": "DT_FLOAT"}, "Tpaddings": {"type": "DT_INT32"}}}, {"name": "model/depthwise_conv2d_5/depthwise", "op": "FusedDepthwiseConv2dNative", "input": ["model/zero_padding2d_6/Pad", "model/depthwise_conv2d_5/depthwise_weights", "model/depthwise_conv2d_5/depthwise_bn_offset"], "attr": {"explicit_paddings": {"list": {}}, "T": {"type": "DT_FLOAT"}, "data_format": {"s": "TkhXQw=="}, "num_args": {"i": "1"}, "fused_ops": {"list": {"s": ["Qmlhc0FkZA=="]}}, "dilations": {"list": {"i": ["1", "1", "1", "1"]}}, "padding": {"s": "VkFMSUQ="}, "strides": {"list": {"i": ["1", "1", "1", "1"]}}}}, {"name": "model/tf.nn.silu_12/Sigmoid", "op": "Sigmoid", "input": ["model/depthwise_conv2d_5/depthwise"], "attr": {"T": {"type": "DT_FLOAT"}}}, {"name": "model/tf.nn.silu_12/mul_1", "op": "Mul", "input": ["model/depthwise_conv2d_5/depthwise", "model/tf.nn.silu_12/Sigmoid"], "attr": {"T": {"type": "DT_FLOAT"}}}, {"name": "model/batch_normalization_18/FusedBatchNormV3", "op": "_FusedConv2D", "input": ["model/tf.nn.silu_12/mul_1", "model/conv2d_12/Conv2D_weights", "model/conv2d_12/Conv2D_bn_offset"], "device": "/device:CPU:0", "attr": {"data_format": {"s": "TkhXQw=="}, "strides": {"list": {"i": ["1", "1", "1", "1"]}}, "leakyrelu_alpha": {"f": 0.2}, "T": {"type": "DT_FLOAT"}, "num_host_args": {"i": "0"}, "epsilon": {"f": 0.0}, "TArgs": {"list": {"type": ["DT_FLOAT"]}}, "dilations": {"list": {"i": ["1", "1", "1", "1"]}}, "filter_format": {"s": "SFdJTw=="}, "num_args": {"i": "1"}, "explicit_paddings": {"list": {}}, "fused_ops": {"list": {"s": ["Qmlhc0FkZA=="]}}, "use_cudnn_on_gpu": {"b": true}, "padding": {"s": "VkFMSUQ="}}}, {"name": "model/tf.__operators__.add_2/AddV2", "op": "AddV2", "input": ["model/batch_normalization_15/FusedBatchNormV3", "model/batch_normalization_18/FusedBatchNormV3"], "attr": {"T": {"type": "DT_FLOAT"}}}, {"name": "model/batch_normalization_19/FusedBatchNormV3", "op": "_FusedConv2D", "input": ["model/tf.__operators__.add_2/AddV2", "model/conv2d_13/Conv2D_weights", "model/conv2d_13/Conv2D_bn_offset"], "device": "/device:CPU:0", "attr": {"num_host_args": {"i": "0"}, "strides": {"list": {"i": ["1", "1", "1", "1"]}}, "fused_ops": {"list": {"s": ["Qmlhc0FkZA=="]}}, "data_format": {"s": "TkhXQw=="}, "padding": {"s": "VkFMSUQ="}, "TArgs": {"list": {"type": ["DT_FLOAT"]}}, "use_cudnn_on_gpu": {"b": true}, "filter_format": {"s": "SFdJTw=="}, "num_args": {"i": "1"}, "leakyrelu_alpha": {"f": 0.2}, "dilations": {"list": {"i": ["1", "1", "1", "1"]}}, "T": {"type": "DT_FLOAT"}, "epsilon": {"f": 0.0}, "explicit_paddings": {"list": {}}}}, {"name": "model/tf.nn.silu_13/Sigmoid", "op": "Sigmoid", "input": ["model/batch_normalization_19/FusedBatchNormV3"], "attr": {"T": {"type": "DT_FLOAT"}}}, {"name": "model/tf.nn.silu_13/mul_1", "op": "Mul", "input": ["model/batch_normalization_19/FusedBatchNormV3", "model/tf.nn.silu_13/Sigmoid"], "attr": {"T": {"type": "DT_FLOAT"}}}, {"name": "model/zero_padding2d_7/Pad", "op": "Pad", "input": ["model/tf.nn.silu_13/mul_1", "model/zero_padding2d_7/Pad/paddings"], "attr": {"Tpaddings": {"type": "DT_INT32"}, "T": {"type": "DT_FLOAT"}}}, {"name": "model/depthwise_conv2d_6/depthwise", "op": "FusedDepthwiseConv2dNative", "input": ["model/zero_padding2d_7/Pad", "model/depthwise_conv2d_6/depthwise_weights", "model/depthwise_conv2d_6/depthwise_bn_offset"], "attr": {"strides": {"list": {"i": ["1", "1", "1", "1"]}}, "fused_ops": {"list": {"s": ["Qmlhc0FkZA=="]}}, "dilations": {"list": {"i": ["1", "1", "1", "1"]}}, "data_format": {"s": "TkhXQw=="}, "T": {"type": "DT_FLOAT"}, "explicit_paddings": {"list": {}}, "padding": {"s": "VkFMSUQ="}, "num_args": {"i": "1"}}}, {"name": "model/tf.nn.silu_14/Sigmoid", "op": "Sigmoid", "input": ["model/depthwise_conv2d_6/depthwise"], "attr": {"T": {"type": "DT_FLOAT"}}}, {"name": "model/tf.nn.silu_14/mul_1", "op": "Mul", "input": ["model/depthwise_conv2d_6/depthwise", "model/tf.nn.silu_14/Sigmoid"], "attr": {"T": {"type": "DT_FLOAT"}}}, {"name": "model/batch_normalization_21/FusedBatchNormV3", "op": "_FusedConv2D", "input": ["model/tf.nn.silu_14/mul_1", "model/conv2d_14/Conv2D_weights", "model/conv2d_14/Conv2D_bn_offset"], "device": "/device:CPU:0", "attr": {"use_cudnn_on_gpu": {"b": true}, "num_args": {"i": "1"}, "leakyrelu_alpha": {"f": 0.2}, "TArgs": {"list": {"type": ["DT_FLOAT"]}}, "epsilon": {"f": 0.0}, "data_format": {"s": "TkhXQw=="}, "T": {"type": "DT_FLOAT"}, "strides": {"list": {"i": ["1", "1", "1", "1"]}}, "explicit_paddings": {"list": {}}, "padding": {"s": "VkFMSUQ="}, "fused_ops": {"list": {"s": ["Qmlhc0FkZA=="]}}, "dilations": {"list": {"i": ["1", "1", "1", "1"]}}, "num_host_args": {"i": "0"}, "filter_format": {"s": "SFdJTw=="}}}, {"name": "model/tf.__operators__.add_3/AddV2", "op": "AddV2", "input": ["model/tf.__operators__.add_2/AddV2", "model/batch_normalization_21/FusedBatchNormV3"], "attr": {"T": {"type": "DT_FLOAT"}}}, {"name": "model/batch_normalization_22/FusedBatchNormV3", "op": "_FusedConv2D", "input": ["model/tf.__operators__.add_3/AddV2", "model/conv2d_15/Conv2D_weights", "model/conv2d_15/Conv2D_bn_offset"], "device": "/device:CPU:0", "attr": {"filter_format": {"s": "SFdJTw=="}, "T": {"type": "DT_FLOAT"}, "epsilon": {"f": 0.0}, "num_args": {"i": "1"}, "num_host_args": {"i": "0"}, "use_cudnn_on_gpu": {"b": true}, "padding": {"s": "VkFMSUQ="}, "dilations": {"list": {"i": ["1", "1", "1", "1"]}}, "TArgs": {"list": {"type": ["DT_FLOAT"]}}, "data_format": {"s": "TkhXQw=="}, "strides": {"list": {"i": ["1", "1", "1", "1"]}}, "explicit_paddings": {"list": {}}, "fused_ops": {"list": {"s": ["Qmlhc0FkZA=="]}}, "leakyrelu_alpha": {"f": 0.2}}}, {"name": "model/tf.nn.silu_15/Sigmoid", "op": "Sigmoid", "input": ["model/batch_normalization_22/FusedBatchNormV3"], "attr": {"T": {"type": "DT_FLOAT"}}}, {"name": "model/tf.nn.silu_15/mul_1", "op": "Mul", "input": ["model/batch_normalization_22/FusedBatchNormV3", "model/tf.nn.silu_15/Sigmoid"], "attr": {"T": {"type": "DT_FLOAT"}}}, {"name": "model/zero_padding2d_8/Pad", "op": "Pad", "input": ["model/tf.nn.silu_15/mul_1", "model/zero_padding2d_8/Pad/paddings"], "attr": {"T": {"type": "DT_FLOAT"}, "Tpaddings": {"type": "DT_INT32"}}}, {"name": "model/depthwise_conv2d_7/depthwise", "op": "FusedDepthwiseConv2dNative", "input": ["model/zero_padding2d_8/Pad", "model/depthwise_conv2d_7/depthwise_weights", "model/depthwise_conv2d_7/depthwise_bn_offset"], "attr": {"explicit_paddings": {"list": {}}, "data_format": {"s": "TkhXQw=="}, "padding": {"s": "VkFMSUQ="}, "T": {"type": "DT_FLOAT"}, "strides": {"list": {"i": ["1", "1", "1", "1"]}}, "dilations": {"list": {"i": ["1", "1", "1", "1"]}}, "fused_ops": {"list": {"s": ["Qmlhc0FkZA=="]}}, "num_args": {"i": "1"}}}, {"name": "model/tf.nn.silu_16/Sigmoid", "op": "Sigmoid", "input": ["model/depthwise_conv2d_7/depthwise"], "attr": {"T": {"type": "DT_FLOAT"}}}, {"name": "model/tf.nn.silu_16/mul_1", "op": "Mul", "input": ["model/depthwise_conv2d_7/depthwise", "model/tf.nn.silu_16/Sigmoid"], "attr": {"T": {"type": "DT_FLOAT"}}}, {"name": "model/batch_normalization_24/FusedBatchNormV3", "op": "_FusedConv2D", "input": ["model/tf.nn.silu_16/mul_1", "model/conv2d_16/Conv2D_weights", "model/conv2d_16/Conv2D_bn_offset"], "device": "/device:CPU:0", "attr": {"leakyrelu_alpha": {"f": 0.2}, "T": {"type": "DT_FLOAT"}, "num_args": {"i": "1"}, "explicit_paddings": {"list": {}}, "padding": {"s": "VkFMSUQ="}, "strides": {"list": {"i": ["1", "1", "1", "1"]}}, "dilations": {"list": {"i": ["1", "1", "1", "1"]}}, "epsilon": {"f": 0.0}, "TArgs": {"list": {"type": ["DT_FLOAT"]}}, "num_host_args": {"i": "0"}, "fused_ops": {"list": {"s": ["Qmlhc0FkZA=="]}}, "data_format": {"s": "TkhXQw=="}, "use_cudnn_on_gpu": {"b": true}, "filter_format": {"s": "SFdJTw=="}}}, {"name": "model/tf.__operators__.add_4/AddV2", "op": "AddV2", "input": ["model/tf.__operators__.add_3/AddV2", "model/batch_normalization_24/FusedBatchNormV3"], "attr": {"T": {"type": "DT_FLOAT"}}}, {"name": "model/batch_normalization_25/FusedBatchNormV3", "op": "_FusedConv2D", "input": ["model/tf.__operators__.add_4/AddV2", "model/conv2d_17/Conv2D_weights", "model/conv2d_17/Conv2D_bn_offset"], "device": "/device:CPU:0", "attr": {"data_format": {"s": "TkhXQw=="}, "use_cudnn_on_gpu": {"b": true}, "num_host_args": {"i": "0"}, "strides": {"list": {"i": ["1", "1", "1", "1"]}}, "T": {"type": "DT_FLOAT"}, "leakyrelu_alpha": {"f": 0.2}, "fused_ops": {"list": {"s": ["Qmlhc0FkZA=="]}}, "padding": {"s": "VkFMSUQ="}, "explicit_paddings": {"list": {}}, "filter_format": {"s": "SFdJTw=="}, "num_args": {"i": "1"}, "epsilon": {"f": 0.0}, "TArgs": {"list": {"type": ["DT_FLOAT"]}}, "dilations": {"list": {"i": ["1", "1", "1", "1"]}}}}, {"name": "model/tf.nn.silu_17/Sigmoid", "op": "Sigmoid", "input": ["model/batch_normalization_25/FusedBatchNormV3"], "attr": {"T": {"type": "DT_FLOAT"}}}, {"name": "model/tf.nn.silu_17/mul_1", "op": "Mul", "input": ["model/batch_normalization_25/FusedBatchNormV3", "model/tf.nn.silu_17/Sigmoid"], "attr": {"T": {"type": "DT_FLOAT"}}}, {"name": "model/zero_padding2d_9/Pad", "op": "Pad", "input": ["model/tf.nn.silu_17/mul_1", "model/zero_padding2d_9/Pad/paddings"], "attr": {"T": {"type": "DT_FLOAT"}, "Tpaddings": {"type": "DT_INT32"}}}, {"name": "model/depthwise_conv2d_8/depthwise", "op": "FusedDepthwiseConv2dNative", "input": ["model/zero_padding2d_9/Pad", "model/depthwise_conv2d_8/depthwise_weights", "model/depthwise_conv2d_8/depthwise_bn_offset"], "attr": {"strides": {"list": {"i": ["1", "1", "1", "1"]}}, "padding": {"s": "VkFMSUQ="}, "T": {"type": "DT_FLOAT"}, "fused_ops": {"list": {"s": ["Qmlhc0FkZA=="]}}, "data_format": {"s": "TkhXQw=="}, "dilations": {"list": {"i": ["1", "1", "1", "1"]}}, "num_args": {"i": "1"}, "explicit_paddings": {"list": {}}}}, {"name": "model/tf.nn.silu_18/Sigmoid", "op": "Sigmoid", "input": ["model/depthwise_conv2d_8/depthwise"], "attr": {"T": {"type": "DT_FLOAT"}}}, {"name": "model/tf.nn.silu_18/mul_1", "op": "Mul", "input": ["model/depthwise_conv2d_8/depthwise", "model/tf.nn.silu_18/Sigmoid"], "attr": {"T": {"type": "DT_FLOAT"}}}, {"name": "model/batch_normalization_27/FusedBatchNormV3", "op": "_FusedConv2D", "input": ["model/tf.nn.silu_18/mul_1", "model/conv2d_18/Conv2D_weights", "model/conv2d_18/Conv2D_bn_offset"], "device": "/device:CPU:0", "attr": {"num_args": {"i": "1"}, "TArgs": {"list": {"type": ["DT_FLOAT"]}}, "padding": {"s": "VkFMSUQ="}, "explicit_paddings": {"list": {}}, "fused_ops": {"list": {"s": ["Qmlhc0FkZA=="]}}, "epsilon": {"f": 0.0}, "num_host_args": {"i": "0"}, "dilations": {"list": {"i": ["1", "1", "1", "1"]}}, "strides": {"list": {"i": ["1", "1", "1", "1"]}}, "filter_format": {"s": "SFdJTw=="}, "use_cudnn_on_gpu": {"b": true}, "leakyrelu_alpha": {"f": 0.2}, "T": {"type": "DT_FLOAT"}, "data_format": {"s": "TkhXQw=="}}}, {"name": "model/tf.__operators__.add_5/AddV2", "op": "AddV2", "input": ["model/tf.__operators__.add_4/AddV2", "model/batch_normalization_27/FusedBatchNormV3"], "attr": {"T": {"type": "DT_FLOAT"}}}, {"name": "model/batch_normalization_28/FusedBatchNormV3", "op": "_FusedConv2D", "input": ["model/tf.__operators__.add_5/AddV2", "model/conv2d_19/Conv2D_weights", "model/conv2d_19/Conv2D_bn_offset"], "device": "/device:CPU:0", "attr": {"leakyrelu_alpha": {"f": 0.2}, "filter_format": {"s": "SFdJTw=="}, "padding": {"s": "VkFMSUQ="}, "TArgs": {"list": {"type": ["DT_FLOAT"]}}, "num_host_args": {"i": "0"}, "explicit_paddings": {"list": {}}, "fused_ops": {"list": {"s": ["Qmlhc0FkZA=="]}}, "epsilon": {"f": 0.0}, "dilations": {"list": {"i": ["1", "1", "1", "1"]}}, "T": {"type": "DT_FLOAT"}, "use_cudnn_on_gpu": {"b": true}, "data_format": {"s": "TkhXQw=="}, "strides": {"list": {"i": ["1", "1", "1", "1"]}}, "num_args": {"i": "1"}}}, {"name": "model/tf.nn.silu_19/Sigmoid", "op": "Sigmoid", "input": ["model/batch_normalization_28/FusedBatchNormV3"], "attr": {"T": {"type": "DT_FLOAT"}}}, {"name": "model/tf.nn.silu_19/mul_1", "op": "Mul", "input": ["model/batch_normalization_28/FusedBatchNormV3", "model/tf.nn.silu_19/Sigmoid"], "attr": {"T": {"type": "DT_FLOAT"}}}, {"name": "model/zero_padding2d_10/Pad", "op": "Pad", "input": ["model/tf.nn.silu_19/mul_1", "model/zero_padding2d_10/Pad/paddings"], "attr": {"T": {"type": "DT_FLOAT"}, "Tpaddings": {"type": "DT_INT32"}}}, {"name": "model/depthwise_conv2d_9/depthwise", "op": "FusedDepthwiseConv2dNative", "input": ["model/zero_padding2d_10/Pad", "model/depthwise_conv2d_9/depthwise_weights", "model/depthwise_conv2d_9/depthwise_bn_offset"], "attr": {"fused_ops": {"list": {"s": ["Qmlhc0FkZA=="]}}, "padding": {"s": "VkFMSUQ="}, "num_args": {"i": "1"}, "T": {"type": "DT_FLOAT"}, "data_format": {"s": "TkhXQw=="}, "strides": {"list": {"i": ["1", "1", "1", "1"]}}, "explicit_paddings": {"list": {}}, "dilations": {"list": {"i": ["1", "1", "1", "1"]}}}}, {"name": "model/tf.nn.silu_20/Sigmoid", "op": "Sigmoid", "input": ["model/depthwise_conv2d_9/depthwise"], "attr": {"T": {"type": "DT_FLOAT"}}}, {"name": "model/tf.nn.silu_20/mul_1", "op": "Mul", "input": ["model/depthwise_conv2d_9/depthwise", "model/tf.nn.silu_20/Sigmoid"], "attr": {"T": {"type": "DT_FLOAT"}}}, {"name": "model/batch_normalization_30/FusedBatchNormV3", "op": "_FusedConv2D", "input": ["model/tf.nn.silu_20/mul_1", "model/conv2d_20/Conv2D_weights", "model/conv2d_20/Conv2D_bn_offset"], "device": "/device:CPU:0", "attr": {"padding": {"s": "VkFMSUQ="}, "epsilon": {"f": 0.0}, "num_host_args": {"i": "0"}, "TArgs": {"list": {"type": ["DT_FLOAT"]}}, "use_cudnn_on_gpu": {"b": true}, "T": {"type": "DT_FLOAT"}, "strides": {"list": {"i": ["1", "1", "1", "1"]}}, "leakyrelu_alpha": {"f": 0.2}, "filter_format": {"s": "SFdJTw=="}, "data_format": {"s": "TkhXQw=="}, "num_args": {"i": "1"}, "fused_ops": {"list": {"s": ["Qmlhc0FkZA=="]}}, "dilations": {"list": {"i": ["1", "1", "1", "1"]}}, "explicit_paddings": {"list": {}}}}, {"name": "model/tf.__operators__.add_6/AddV2", "op": "AddV2", "input": ["model/tf.__operators__.add_5/AddV2", "model/batch_normalization_30/FusedBatchNormV3"], "attr": {"T": {"type": "DT_FLOAT"}}}, {"name": "model/batch_normalization_31/FusedBatchNormV3", "op": "_FusedConv2D", "input": ["model/tf.__operators__.add_6/AddV2", "model/conv2d_21/Conv2D_weights", "model/conv2d_21/Conv2D_bn_offset"], "device": "/device:CPU:0", "attr": {"filter_format": {"s": "SFdJTw=="}, "num_args": {"i": "1"}, "data_format": {"s": "TkhXQw=="}, "padding": {"s": "VkFMSUQ="}, "num_host_args": {"i": "0"}, "T": {"type": "DT_FLOAT"}, "epsilon": {"f": 0.0}, "explicit_paddings": {"list": {}}, "leakyrelu_alpha": {"f": 0.2}, "strides": {"list": {"i": ["1", "1", "1", "1"]}}, "use_cudnn_on_gpu": {"b": true}, "fused_ops": {"list": {"s": ["Qmlhc0FkZA=="]}}, "TArgs": {"list": {"type": ["DT_FLOAT"]}}, "dilations": {"list": {"i": ["1", "1", "1", "1"]}}}}, {"name": "model/tf.nn.silu_21/Sigmoid", "op": "Sigmoid", "input": ["model/batch_normalization_31/FusedBatchNormV3"], "attr": {"T": {"type": "DT_FLOAT"}}}, {"name": "model/tf.nn.silu_21/mul_1", "op": "Mul", "input": ["model/batch_normalization_31/FusedBatchNormV3", "model/tf.nn.silu_21/Sigmoid"], "attr": {"T": {"type": "DT_FLOAT"}}}, {"name": "model/zero_padding2d_11/Pad", "op": "Pad", "input": ["model/tf.nn.silu_21/mul_1", "model/zero_padding2d_11/Pad/paddings"], "attr": {"T": {"type": "DT_FLOAT"}, "Tpaddings": {"type": "DT_INT32"}}}, {"name": "model/depthwise_conv2d_10/depthwise", "op": "FusedDepthwiseConv2dNative", "input": ["model/zero_padding2d_11/Pad", "model/depthwise_conv2d_10/depthwise_weights", "model/depthwise_conv2d_10/depthwise_bn_offset"], "attr": {"data_format": {"s": "TkhXQw=="}, "strides": {"list": {"i": ["1", "2", "2", "1"]}}, "explicit_paddings": {"list": {}}, "num_args": {"i": "1"}, "dilations": {"list": {"i": ["1", "1", "1", "1"]}}, "fused_ops": {"list": {"s": ["Qmlhc0FkZA=="]}}, "T": {"type": "DT_FLOAT"}, "padding": {"s": "VkFMSUQ="}}}, {"name": "model/tf.nn.silu_22/Sigmoid", "op": "Sigmoid", "input": ["model/depthwise_conv2d_10/depthwise"], "attr": {"T": {"type": "DT_FLOAT"}}}, {"name": "model/tf.nn.silu_22/mul_1", "op": "Mul", "input": ["model/depthwise_conv2d_10/depthwise", "model/tf.nn.silu_22/Sigmoid"], "attr": {"T": {"type": "DT_FLOAT"}}}, {"name": "model/batch_normalization_33/FusedBatchNormV3", "op": "_FusedConv2D", "input": ["model/tf.nn.silu_22/mul_1", "model/conv2d_22/Conv2D_weights", "model/conv2d_22/Conv2D_bn_offset"], "device": "/device:CPU:0", "attr": {"num_args": {"i": "1"}, "TArgs": {"list": {"type": ["DT_FLOAT"]}}, "explicit_paddings": {"list": {}}, "use_cudnn_on_gpu": {"b": true}, "padding": {"s": "VkFMSUQ="}, "epsilon": {"f": 0.0}, "data_format": {"s": "TkhXQw=="}, "filter_format": {"s": "SFdJTw=="}, "strides": {"list": {"i": ["1", "1", "1", "1"]}}, "leakyrelu_alpha": {"f": 0.2}, "num_host_args": {"i": "0"}, "dilations": {"list": {"i": ["1", "1", "1", "1"]}}, "T": {"type": "DT_FLOAT"}, "fused_ops": {"list": {"s": ["Qmlhc0FkZA=="]}}}}, {"name": "model/batch_normalization_34/FusedBatchNormV3", "op": "_FusedConv2D", "input": ["model/batch_normalization_33/FusedBatchNormV3", "model/conv2d_23/Conv2D_weights", "model/conv2d_23/Conv2D_bn_offset"], "device": "/device:CPU:0", "attr": {"num_args": {"i": "1"}, "explicit_paddings": {"list": {}}, "use_cudnn_on_gpu": {"b": true}, "epsilon": {"f": 0.0}, "T": {"type": "DT_FLOAT"}, "fused_ops": {"list": {"s": ["Qmlhc0FkZA=="]}}, "dilations": {"list": {"i": ["1", "1", "1", "1"]}}, "filter_format": {"s": "SFdJTw=="}, "padding": {"s": "VkFMSUQ="}, "num_host_args": {"i": "0"}, "TArgs": {"list": {"type": ["DT_FLOAT"]}}, "strides": {"list": {"i": ["1", "1", "1", "1"]}}, "leakyrelu_alpha": {"f": 0.2}, "data_format": {"s": "TkhXQw=="}}}, {"name": "model/tf.nn.silu_23/Sigmoid", "op": "Sigmoid", "input": ["model/batch_normalization_34/FusedBatchNormV3"], "attr": {"T": {"type": "DT_FLOAT"}}}, {"name": "model/tf.nn.silu_23/mul_1", "op": "Mul", "input": ["model/batch_normalization_34/FusedBatchNormV3", "model/tf.nn.silu_23/Sigmoid"], "attr": {"T": {"type": "DT_FLOAT"}}}, {"name": "model/zero_padding2d_12/Pad", "op": "Pad", "input": ["model/tf.nn.silu_23/mul_1", "model/zero_padding2d_12/Pad/paddings"], "attr": {"T": {"type": "DT_FLOAT"}, "Tpaddings": {"type": "DT_INT32"}}}, {"name": "model/depthwise_conv2d_11/depthwise", "op": "FusedDepthwiseConv2dNative", "input": ["model/zero_padding2d_12/Pad", "model/depthwise_conv2d_11/depthwise_weights", "model/depthwise_conv2d_11/depthwise_bn_offset"], "attr": {"explicit_paddings": {"list": {}}, "strides": {"list": {"i": ["1", "1", "1", "1"]}}, "num_args": {"i": "1"}, "padding": {"s": "VkFMSUQ="}, "data_format": {"s": "TkhXQw=="}, "dilations": {"list": {"i": ["1", "1", "1", "1"]}}, "fused_ops": {"list": {"s": ["Qmlhc0FkZA=="]}}, "T": {"type": "DT_FLOAT"}}}, {"name": "model/tf.nn.silu_24/Sigmoid", "op": "Sigmoid", "input": ["model/depthwise_conv2d_11/depthwise"], "attr": {"T": {"type": "DT_FLOAT"}}}, {"name": "model/tf.nn.silu_24/mul_1", "op": "Mul", "input": ["model/depthwise_conv2d_11/depthwise", "model/tf.nn.silu_24/Sigmoid"], "attr": {"T": {"type": "DT_FLOAT"}}}, {"name": "model/batch_normalization_36/FusedBatchNormV3", "op": "_FusedConv2D", "input": ["model/tf.nn.silu_24/mul_1", "model/conv2d_24/Conv2D_weights", "model/conv2d_24/Conv2D_bn_offset"], "device": "/device:CPU:0", "attr": {"T": {"type": "DT_FLOAT"}, "epsilon": {"f": 0.0}, "num_host_args": {"i": "0"}, "TArgs": {"list": {"type": ["DT_FLOAT"]}}, "padding": {"s": "VkFMSUQ="}, "fused_ops": {"list": {"s": ["Qmlhc0FkZA=="]}}, "dilations": {"list": {"i": ["1", "1", "1", "1"]}}, "leakyrelu_alpha": {"f": 0.2}, "strides": {"list": {"i": ["1", "1", "1", "1"]}}, "explicit_paddings": {"list": {}}, "filter_format": {"s": "SFdJTw=="}, "num_args": {"i": "1"}, "use_cudnn_on_gpu": {"b": true}, "data_format": {"s": "TkhXQw=="}}}, {"name": "model/tf.__operators__.add_7/AddV2", "op": "AddV2", "input": ["model/batch_normalization_33/FusedBatchNormV3", "model/batch_normalization_36/FusedBatchNormV3"], "attr": {"T": {"type": "DT_FLOAT"}}}, {"name": "model/batch_normalization_37/FusedBatchNormV3", "op": "_FusedConv2D", "input": ["model/tf.__operators__.add_7/AddV2", "model/conv2d_25/Conv2D_weights", "model/conv2d_25/Conv2D_bn_offset"], "device": "/device:CPU:0", "attr": {"leakyrelu_alpha": {"f": 0.2}, "explicit_paddings": {"list": {}}, "filter_format": {"s": "SFdJTw=="}, "fused_ops": {"list": {"s": ["Qmlhc0FkZA=="]}}, "data_format": {"s": "TkhXQw=="}, "TArgs": {"list": {"type": ["DT_FLOAT"]}}, "dilations": {"list": {"i": ["1", "1", "1", "1"]}}, "strides": {"list": {"i": ["1", "1", "1", "1"]}}, "padding": {"s": "VkFMSUQ="}, "T": {"type": "DT_FLOAT"}, "use_cudnn_on_gpu": {"b": true}, "epsilon": {"f": 0.0}, "num_args": {"i": "1"}, "num_host_args": {"i": "0"}}}, {"name": "model/tf.nn.silu_25/Sigmoid", "op": "Sigmoid", "input": ["model/batch_normalization_37/FusedBatchNormV3"], "attr": {"T": {"type": "DT_FLOAT"}}}, {"name": "model/tf.nn.silu_25/mul_1", "op": "Mul", "input": ["model/batch_normalization_37/FusedBatchNormV3", "model/tf.nn.silu_25/Sigmoid"], "attr": {"T": {"type": "DT_FLOAT"}}}, {"name": "model/zero_padding2d_13/Pad", "op": "Pad", "input": ["model/tf.nn.silu_25/mul_1", "model/zero_padding2d_13/Pad/paddings"], "attr": {"T": {"type": "DT_FLOAT"}, "Tpaddings": {"type": "DT_INT32"}}}, {"name": "model/depthwise_conv2d_12/depthwise", "op": "FusedDepthwiseConv2dNative", "input": ["model/zero_padding2d_13/Pad", "model/depthwise_conv2d_12/depthwise_weights", "model/depthwise_conv2d_12/depthwise_bn_offset"], "attr": {"T": {"type": "DT_FLOAT"}, "strides": {"list": {"i": ["1", "1", "1", "1"]}}, "dilations": {"list": {"i": ["1", "1", "1", "1"]}}, "padding": {"s": "VkFMSUQ="}, "data_format": {"s": "TkhXQw=="}, "fused_ops": {"list": {"s": ["Qmlhc0FkZA=="]}}, "explicit_paddings": {"list": {}}, "num_args": {"i": "1"}}}, {"name": "model/tf.nn.silu_26/Sigmoid", "op": "Sigmoid", "input": ["model/depthwise_conv2d_12/depthwise"], "attr": {"T": {"type": "DT_FLOAT"}}}, {"name": "model/tf.nn.silu_26/mul_1", "op": "Mul", "input": ["model/depthwise_conv2d_12/depthwise", "model/tf.nn.silu_26/Sigmoid"], "attr": {"T": {"type": "DT_FLOAT"}}}, {"name": "model/batch_normalization_39/FusedBatchNormV3", "op": "_FusedConv2D", "input": ["model/tf.nn.silu_26/mul_1", "model/conv2d_26/Conv2D_weights", "model/conv2d_26/Conv2D_bn_offset"], "device": "/device:CPU:0", "attr": {"padding": {"s": "VkFMSUQ="}, "num_args": {"i": "1"}, "use_cudnn_on_gpu": {"b": true}, "TArgs": {"list": {"type": ["DT_FLOAT"]}}, "fused_ops": {"list": {"s": ["Qmlhc0FkZA=="]}}, "T": {"type": "DT_FLOAT"}, "dilations": {"list": {"i": ["1", "1", "1", "1"]}}, "strides": {"list": {"i": ["1", "1", "1", "1"]}}, "num_host_args": {"i": "0"}, "filter_format": {"s": "SFdJTw=="}, "data_format": {"s": "TkhXQw=="}, "explicit_paddings": {"list": {}}, "leakyrelu_alpha": {"f": 0.2}, "epsilon": {"f": 0.0}}}, {"name": "model/tf.__operators__.add_8/AddV2", "op": "AddV2", "input": ["model/tf.__operators__.add_7/AddV2", "model/batch_normalization_39/FusedBatchNormV3"], "attr": {"T": {"type": "DT_FLOAT"}}}, {"name": "model/batch_normalization_40/FusedBatchNormV3", "op": "_FusedConv2D", "input": ["model/tf.__operators__.add_8/AddV2", "model/conv2d_27/Conv2D_weights", "model/conv2d_27/Conv2D_bn_offset"], "device": "/device:CPU:0", "attr": {"TArgs": {"list": {"type": ["DT_FLOAT"]}}, "use_cudnn_on_gpu": {"b": true}, "num_host_args": {"i": "0"}, "padding": {"s": "VkFMSUQ="}, "explicit_paddings": {"list": {}}, "leakyrelu_alpha": {"f": 0.2}, "strides": {"list": {"i": ["1", "1", "1", "1"]}}, "dilations": {"list": {"i": ["1", "1", "1", "1"]}}, "fused_ops": {"list": {"s": ["Qmlhc0FkZA=="]}}, "filter_format": {"s": "SFdJTw=="}, "T": {"type": "DT_FLOAT"}, "num_args": {"i": "1"}, "data_format": {"s": "TkhXQw=="}, "epsilon": {"f": 0.0}}}, {"name": "model/tf.nn.silu_27/Sigmoid", "op": "Sigmoid", "input": ["model/batch_normalization_40/FusedBatchNormV3"], "attr": {"T": {"type": "DT_FLOAT"}}}, {"name": "model/tf.nn.silu_27/mul_1", "op": "Mul", "input": ["model/batch_normalization_40/FusedBatchNormV3", "model/tf.nn.silu_27/Sigmoid"], "attr": {"T": {"type": "DT_FLOAT"}}}, {"name": "model/zero_padding2d_14/Pad", "op": "Pad", "input": ["model/tf.nn.silu_27/mul_1", "model/zero_padding2d_14/Pad/paddings"], "attr": {"T": {"type": "DT_FLOAT"}, "Tpaddings": {"type": "DT_INT32"}}}, {"name": "model/depthwise_conv2d_13/depthwise", "op": "FusedDepthwiseConv2dNative", "input": ["model/zero_padding2d_14/Pad", "model/depthwise_conv2d_13/depthwise_weights", "model/depthwise_conv2d_13/depthwise_bn_offset"], "attr": {"data_format": {"s": "TkhXQw=="}, "padding": {"s": "VkFMSUQ="}, "num_args": {"i": "1"}, "strides": {"list": {"i": ["1", "1", "1", "1"]}}, "T": {"type": "DT_FLOAT"}, "dilations": {"list": {"i": ["1", "1", "1", "1"]}}, "fused_ops": {"list": {"s": ["Qmlhc0FkZA=="]}}, "explicit_paddings": {"list": {}}}}, {"name": "model/tf.nn.silu_28/Sigmoid", "op": "Sigmoid", "input": ["model/depthwise_conv2d_13/depthwise"], "attr": {"T": {"type": "DT_FLOAT"}}}, {"name": "model/tf.nn.silu_28/mul_1", "op": "Mul", "input": ["model/depthwise_conv2d_13/depthwise", "model/tf.nn.silu_28/Sigmoid"], "attr": {"T": {"type": "DT_FLOAT"}}}, {"name": "model/batch_normalization_42/FusedBatchNormV3", "op": "_FusedConv2D", "input": ["model/tf.nn.silu_28/mul_1", "model/conv2d_28/Conv2D_weights", "model/conv2d_28/Conv2D_bn_offset"], "device": "/device:CPU:0", "attr": {"num_host_args": {"i": "0"}, "fused_ops": {"list": {"s": ["Qmlhc0FkZA=="]}}, "leakyrelu_alpha": {"f": 0.2}, "filter_format": {"s": "SFdJTw=="}, "explicit_paddings": {"list": {}}, "num_args": {"i": "1"}, "dilations": {"list": {"i": ["1", "1", "1", "1"]}}, "data_format": {"s": "TkhXQw=="}, "TArgs": {"list": {"type": ["DT_FLOAT"]}}, "strides": {"list": {"i": ["1", "1", "1", "1"]}}, "T": {"type": "DT_FLOAT"}, "padding": {"s": "VkFMSUQ="}, "epsilon": {"f": 0.0}, "use_cudnn_on_gpu": {"b": true}}}, {"name": "model/tf.__operators__.add_9/AddV2", "op": "AddV2", "input": ["model/tf.__operators__.add_8/AddV2", "model/batch_normalization_42/FusedBatchNormV3"], "attr": {"T": {"type": "DT_FLOAT"}}}, {"name": "model/batch_normalization_43/FusedBatchNormV3", "op": "_FusedConv2D", "input": ["model/tf.__operators__.add_9/AddV2", "model/conv2d_29/Conv2D_weights", "model/conv2d_29/Conv2D_bn_offset"], "device": "/device:CPU:0", "attr": {"TArgs": {"list": {"type": ["DT_FLOAT"]}}, "filter_format": {"s": "SFdJTw=="}, "dilations": {"list": {"i": ["1", "1", "1", "1"]}}, "fused_ops": {"list": {"s": ["Qmlhc0FkZA=="]}}, "num_args": {"i": "1"}, "data_format": {"s": "TkhXQw=="}, "epsilon": {"f": 0.0}, "explicit_paddings": {"list": {}}, "leakyrelu_alpha": {"f": 0.2}, "padding": {"s": "VkFMSUQ="}, "num_host_args": {"i": "0"}, "strides": {"list": {"i": ["1", "1", "1", "1"]}}, "use_cudnn_on_gpu": {"b": true}, "T": {"type": "DT_FLOAT"}}}, {"name": "model/tf.nn.silu_29/Sigmoid", "op": "Sigmoid", "input": ["model/batch_normalization_43/FusedBatchNormV3"], "attr": {"T": {"type": "DT_FLOAT"}}}, {"name": "model/tf.nn.silu_29/mul_1", "op": "Mul", "input": ["model/batch_normalization_43/FusedBatchNormV3", "model/tf.nn.silu_29/Sigmoid"], "attr": {"T": {"type": "DT_FLOAT"}}}, {"name": "model/zero_padding2d_15/Pad", "op": "Pad", "input": ["model/tf.nn.silu_29/mul_1", "model/zero_padding2d_15/Pad/paddings"], "attr": {"Tpaddings": {"type": "DT_INT32"}, "T": {"type": "DT_FLOAT"}}}, {"name": "model/depthwise_conv2d_14/depthwise", "op": "FusedDepthwiseConv2dNative", "input": ["model/zero_padding2d_15/Pad", "model/depthwise_conv2d_14/depthwise_weights", "model/depthwise_conv2d_14/depthwise_bn_offset"], "attr": {"explicit_paddings": {"list": {}}, "fused_ops": {"list": {"s": ["Qmlhc0FkZA=="]}}, "padding": {"s": "VkFMSUQ="}, "strides": {"list": {"i": ["1", "1", "1", "1"]}}, "T": {"type": "DT_FLOAT"}, "num_args": {"i": "1"}, "dilations": {"list": {"i": ["1", "1", "1", "1"]}}, "data_format": {"s": "TkhXQw=="}}}, {"name": "model/tf.nn.silu_30/Sigmoid", "op": "Sigmoid", "input": ["model/depthwise_conv2d_14/depthwise"], "attr": {"T": {"type": "DT_FLOAT"}}}, {"name": "model/tf.nn.silu_30/mul_1", "op": "Mul", "input": ["model/depthwise_conv2d_14/depthwise", "model/tf.nn.silu_30/Sigmoid"], "attr": {"T": {"type": "DT_FLOAT"}}}, {"name": "model/batch_normalization_45/FusedBatchNormV3", "op": "_FusedConv2D", "input": ["model/tf.nn.silu_30/mul_1", "model/conv2d_30/Conv2D_weights", "model/conv2d_30/Conv2D_bn_offset"], "device": "/device:CPU:0", "attr": {"data_format": {"s": "TkhXQw=="}, "num_args": {"i": "1"}, "strides": {"list": {"i": ["1", "1", "1", "1"]}}, "dilations": {"list": {"i": ["1", "1", "1", "1"]}}, "TArgs": {"list": {"type": ["DT_FLOAT"]}}, "epsilon": {"f": 0.0}, "explicit_paddings": {"list": {}}, "padding": {"s": "VkFMSUQ="}, "leakyrelu_alpha": {"f": 0.2}, "num_host_args": {"i": "0"}, "T": {"type": "DT_FLOAT"}, "use_cudnn_on_gpu": {"b": true}, "filter_format": {"s": "SFdJTw=="}, "fused_ops": {"list": {"s": ["Qmlhc0FkZA=="]}}}}, {"name": "model/tf.__operators__.add_10/AddV2", "op": "AddV2", "input": ["model/tf.__operators__.add_9/AddV2", "model/batch_normalization_45/FusedBatchNormV3"], "attr": {"T": {"type": "DT_FLOAT"}}}, {"name": "model/conv2d_31/BiasAdd", "op": "_FusedConv2D", "input": ["model/tf.__operators__.add_10/AddV2", "model/conv2d_31/Conv2D/ReadVariableOp", "model/conv2d_31/BiasAdd/ReadVariableOp"], "device": "/device:CPU:0", "attr": {"leakyrelu_alpha": {"f": 0.2}, "padding": {"s": "VkFMSUQ="}, "epsilon": {"f": 0.0}, "filter_format": {"s": "SFdJTw=="}, "dilations": {"list": {"i": ["1", "1", "1", "1"]}}, "fused_ops": {"list": {"s": ["Qmlhc0FkZA=="]}}, "T": {"type": "DT_FLOAT"}, "num_args": {"i": "1"}, "TArgs": {"list": {"type": ["DT_FLOAT"]}}, "strides": {"list": {"i": ["1", "1", "1", "1"]}}, "num_host_args": {"i": "0"}, "explicit_paddings": {"list": {}}, "data_format": {"s": "TkhXQw=="}, "use_cudnn_on_gpu": {"b": true}}}, {"name": "model/tf.nn.silu_31/Sigmoid", "op": "Sigmoid", "input": ["model/conv2d_31/BiasAdd"], "attr": {"T": {"type": "DT_FLOAT"}}}, {"name": "model/tf.nn.silu_31/mul_1", "op": "Mul", "input": ["model/conv2d_31/BiasAdd", "model/tf.nn.silu_31/Sigmoid"], "attr": {"T": {"type": "DT_FLOAT"}}}, {"name": "model/tf.compat.v1.pad/PadV2", "op": "PadV2", "input": ["model/tf.nn.silu_31/mul_1", "model/tf.compat.v1.pad/PadV2/paddings", "model/tf.compat.v1.pad/PadV2/constant_values"], "attr": {"Tpaddings": {"type": "DT_INT32"}, "T": {"type": "DT_FLOAT"}}}, {"name": "model/max_pooling2d/MaxPool", "op": "MaxPool", "input": ["model/tf.compat.v1.pad/PadV2"], "attr": {"padding": {"s": "VkFMSUQ="}, "strides": {"list": {"i": ["1", "1", "1", "1"]}}, "T": {"type": "DT_FLOAT"}, "data_format": {"s": "TkhXQw=="}, "ksize": {"list": {"i": ["1", "5", "5", "1"]}}, "explicit_paddings": {"list": {}}}}, {"name": "model/tf.compat.v1.pad_1/PadV2", "op": "PadV2", "input": ["model/max_pooling2d/MaxPool", "model/tf.compat.v1.pad_1/PadV2/paddings", "model/tf.compat.v1.pad_1/PadV2/constant_values"], "attr": {"Tpaddings": {"type": "DT_INT32"}, "T": {"type": "DT_FLOAT"}}}, {"name": "model/max_pooling2d_1/MaxPool", "op": "MaxPool", "input": ["model/tf.compat.v1.pad_1/PadV2"], "attr": {"T": {"type": "DT_FLOAT"}, "padding": {"s": "VkFMSUQ="}, "strides": {"list": {"i": ["1", "1", "1", "1"]}}, "explicit_paddings": {"list": {}}, "data_format": {"s": "TkhXQw=="}, "ksize": {"list": {"i": ["1", "5", "5", "1"]}}}}, {"name": "model/tf.compat.v1.pad_2/PadV2", "op": "PadV2", "input": ["model/max_pooling2d_1/MaxPool", "model/tf.compat.v1.pad_2/PadV2/paddings", "model/tf.compat.v1.pad_2/PadV2/constant_values"], "attr": {"Tpaddings": {"type": "DT_INT32"}, "T": {"type": "DT_FLOAT"}}}, {"name": "model/max_pooling2d_2/MaxPool", "op": "MaxPool", "input": ["model/tf.compat.v1.pad_2/PadV2"], "attr": {"strides": {"list": {"i": ["1", "1", "1", "1"]}}, "data_format": {"s": "TkhXQw=="}, "explicit_paddings": {"list": {}}, "padding": {"s": "VkFMSUQ="}, "T": {"type": "DT_FLOAT"}, "ksize": {"list": {"i": ["1", "5", "5", "1"]}}}}, {"name": "model/tf.concat/concat", "op": "ConcatV2", "input": ["model/tf.nn.silu_31/mul_1", "model/max_pooling2d/MaxPool", "model/max_pooling2d_1/MaxPool", "model/max_pooling2d_2/MaxPool", "model/tf.concat/concat/axis"], "attr": {"Tidx": {"type": "DT_INT32"}, "T": {"type": "DT_FLOAT"}, "N": {"i": "4"}}}, {"name": "model/conv2d_32/BiasAdd", "op": "_FusedConv2D", "input": ["model/tf.concat/concat", "model/conv2d_32/Conv2D/ReadVariableOp", "model/conv2d_32/BiasAdd/ReadVariableOp"], "device": "/device:CPU:0", "attr": {"fused_ops": {"list": {"s": ["Qmlhc0FkZA=="]}}, "data_format": {"s": "TkhXQw=="}, "explicit_paddings": {"list": {}}, "leakyrelu_alpha": {"f": 0.2}, "TArgs": {"list": {"type": ["DT_FLOAT"]}}, "use_cudnn_on_gpu": {"b": true}, "padding": {"s": "VkFMSUQ="}, "dilations": {"list": {"i": ["1", "1", "1", "1"]}}, "epsilon": {"f": 0.0}, "num_host_args": {"i": "0"}, "num_args": {"i": "1"}, "filter_format": {"s": "SFdJTw=="}, "strides": {"list": {"i": ["1", "1", "1", "1"]}}, "T": {"type": "DT_FLOAT"}}}, {"name": "model/tf.nn.silu_32/Sigmoid", "op": "Sigmoid", "input": ["model/conv2d_32/BiasAdd"], "attr": {"T": {"type": "DT_FLOAT"}}}, {"name": "model/tf.nn.silu_32/mul_1", "op": "Mul", "input": ["model/conv2d_32/BiasAdd", "model/tf.nn.silu_32/Sigmoid"], "attr": {"T": {"type": "DT_FLOAT"}}}, {"name": "model/tf.image.resize/resize/ResizeNearestNeighbor", "op": "ResizeNearestNeighbor", "input": ["model/tf.nn.silu_32/mul_1", "model/tf.image.resize/resize/size"], "attr": {"align_corners": {"b": false}, "half_pixel_centers": {"b": true}, "T": {"type": "DT_FLOAT"}}}, {"name": "model/tf.concat_1/concat", "op": "ConcatV2", "input": ["model/tf.image.resize/resize/ResizeNearestNeighbor", "model/tf.__operators__.add_6/AddV2", "model/tf.concat_1/concat/axis"], "attr": {"Tidx": {"type": "DT_INT32"}, "T": {"type": "DT_FLOAT"}, "N": {"i": "2"}}}, {"name": "model/batch_normalization_46/FusedBatchNormV3", "op": "_FusedConv2D", "input": ["model/tf.concat_1/concat", "model/conv2d_33/Conv2D_weights", "model/conv2d_33/Conv2D_bn_offset"], "device": "/device:CPU:0", "attr": {"data_format": {"s": "TkhXQw=="}, "explicit_paddings": {"list": {}}, "T": {"type": "DT_FLOAT"}, "fused_ops": {"list": {"s": ["Qmlhc0FkZA=="]}}, "use_cudnn_on_gpu": {"b": true}, "padding": {"s": "VkFMSUQ="}, "dilations": {"list": {"i": ["1", "1", "1", "1"]}}, "num_args": {"i": "1"}, "epsilon": {"f": 0.0}, "strides": {"list": {"i": ["1", "1", "1", "1"]}}, "leakyrelu_alpha": {"f": 0.2}, "filter_format": {"s": "SFdJTw=="}, "num_host_args": {"i": "0"}, "TArgs": {"list": {"type": ["DT_FLOAT"]}}}}, {"name": "model/tf.nn.silu_33/Sigmoid", "op": "Sigmoid", "input": ["model/batch_normalization_46/FusedBatchNormV3"], "attr": {"T": {"type": "DT_FLOAT"}}}, {"name": "model/tf.nn.silu_33/mul_1", "op": "Mul", "input": ["model/batch_normalization_46/FusedBatchNormV3", "model/tf.nn.silu_33/Sigmoid"], "attr": {"T": {"type": "DT_FLOAT"}}}, {"name": "model/zero_padding2d_16/Pad", "op": "Pad", "input": ["model/tf.nn.silu_33/mul_1", "model/zero_padding2d_16/Pad/paddings"], "attr": {"T": {"type": "DT_FLOAT"}, "Tpaddings": {"type": "DT_INT32"}}}, {"name": "model/depthwise_conv2d_15/depthwise", "op": "FusedDepthwiseConv2dNative", "input": ["model/zero_padding2d_16/Pad", "model/depthwise_conv2d_15/depthwise_weights", "model/depthwise_conv2d_15/depthwise_bn_offset"], "attr": {"padding": {"s": "VkFMSUQ="}, "strides": {"list": {"i": ["1", "1", "1", "1"]}}, "explicit_paddings": {"list": {}}, "T": {"type": "DT_FLOAT"}, "fused_ops": {"list": {"s": ["Qmlhc0FkZA=="]}}, "data_format": {"s": "TkhXQw=="}, "dilations": {"list": {"i": ["1", "1", "1", "1"]}}, "num_args": {"i": "1"}}}, {"name": "model/tf.nn.silu_34/Sigmoid", "op": "Sigmoid", "input": ["model/depthwise_conv2d_15/depthwise"], "attr": {"T": {"type": "DT_FLOAT"}}}, {"name": "model/tf.nn.silu_34/mul_1", "op": "Mul", "input": ["model/depthwise_conv2d_15/depthwise", "model/tf.nn.silu_34/Sigmoid"], "attr": {"T": {"type": "DT_FLOAT"}}}, {"name": "model/batch_normalization_48/FusedBatchNormV3", "op": "_FusedConv2D", "input": ["model/tf.nn.silu_34/mul_1", "model/conv2d_34/Conv2D_weights", "model/conv2d_34/Conv2D_bn_offset"], "device": "/device:CPU:0", "attr": {"filter_format": {"s": "SFdJTw=="}, "data_format": {"s": "TkhXQw=="}, "explicit_paddings": {"list": {}}, "num_host_args": {"i": "0"}, "leakyrelu_alpha": {"f": 0.2}, "strides": {"list": {"i": ["1", "1", "1", "1"]}}, "epsilon": {"f": 0.0}, "dilations": {"list": {"i": ["1", "1", "1", "1"]}}, "padding": {"s": "VkFMSUQ="}, "T": {"type": "DT_FLOAT"}, "fused_ops": {"list": {"s": ["Qmlhc0FkZA=="]}}, "TArgs": {"list": {"type": ["DT_FLOAT"]}}, "num_args": {"i": "1"}, "use_cudnn_on_gpu": {"b": true}}}, {"name": "model/batch_normalization_49/FusedBatchNormV3", "op": "_FusedConv2D", "input": ["model/batch_normalization_48/FusedBatchNormV3", "model/conv2d_35/Conv2D_weights", "model/conv2d_35/Conv2D_bn_offset"], "device": "/device:CPU:0", "attr": {"explicit_paddings": {"list": {}}, "use_cudnn_on_gpu": {"b": true}, "epsilon": {"f": 0.0}, "data_format": {"s": "TkhXQw=="}, "padding": {"s": "VkFMSUQ="}, "TArgs": {"list": {"type": ["DT_FLOAT"]}}, "num_args": {"i": "1"}, "strides": {"list": {"i": ["1", "1", "1", "1"]}}, "T": {"type": "DT_FLOAT"}, "dilations": {"list": {"i": ["1", "1", "1", "1"]}}, "leakyrelu_alpha": {"f": 0.2}, "fused_ops": {"list": {"s": ["Qmlhc0FkZA=="]}}, "filter_format": {"s": "SFdJTw=="}, "num_host_args": {"i": "0"}}}, {"name": "model/tf.nn.silu_35/Sigmoid", "op": "Sigmoid", "input": ["model/batch_normalization_49/FusedBatchNormV3"], "attr": {"T": {"type": "DT_FLOAT"}}}, {"name": "model/tf.nn.silu_35/mul_1", "op": "Mul", "input": ["model/batch_normalization_49/FusedBatchNormV3", "model/tf.nn.silu_35/Sigmoid"], "attr": {"T": {"type": "DT_FLOAT"}}}, {"name": "model/zero_padding2d_17/Pad", "op": "Pad", "input": ["model/tf.nn.silu_35/mul_1", "model/zero_padding2d_17/Pad/paddings"], "attr": {"Tpaddings": {"type": "DT_INT32"}, "T": {"type": "DT_FLOAT"}}}, {"name": "model/depthwise_conv2d_16/depthwise", "op": "FusedDepthwiseConv2dNative", "input": ["model/zero_padding2d_17/Pad", "model/depthwise_conv2d_16/depthwise_weights", "model/depthwise_conv2d_16/depthwise_bn_offset"], "attr": {"dilations": {"list": {"i": ["1", "1", "1", "1"]}}, "explicit_paddings": {"list": {}}, "data_format": {"s": "TkhXQw=="}, "num_args": {"i": "1"}, "padding": {"s": "VkFMSUQ="}, "T": {"type": "DT_FLOAT"}, "strides": {"list": {"i": ["1", "1", "1", "1"]}}, "fused_ops": {"list": {"s": ["Qmlhc0FkZA=="]}}}}, {"name": "model/tf.nn.silu_36/Sigmoid", "op": "Sigmoid", "input": ["model/depthwise_conv2d_16/depthwise"], "attr": {"T": {"type": "DT_FLOAT"}}}, {"name": "model/tf.nn.silu_36/mul_1", "op": "Mul", "input": ["model/depthwise_conv2d_16/depthwise", "model/tf.nn.silu_36/Sigmoid"], "attr": {"T": {"type": "DT_FLOAT"}}}, {"name": "model/batch_normalization_51/FusedBatchNormV3", "op": "_FusedConv2D", "input": ["model/tf.nn.silu_36/mul_1", "model/conv2d_36/Conv2D_weights", "model/conv2d_36/Conv2D_bn_offset"], "device": "/device:CPU:0", "attr": {"fused_ops": {"list": {"s": ["Qmlhc0FkZA=="]}}, "strides": {"list": {"i": ["1", "1", "1", "1"]}}, "num_args": {"i": "1"}, "T": {"type": "DT_FLOAT"}, "dilations": {"list": {"i": ["1", "1", "1", "1"]}}, "num_host_args": {"i": "0"}, "filter_format": {"s": "SFdJTw=="}, "padding": {"s": "VkFMSUQ="}, "leakyrelu_alpha": {"f": 0.2}, "data_format": {"s": "TkhXQw=="}, "explicit_paddings": {"list": {}}, "epsilon": {"f": 0.0}, "use_cudnn_on_gpu": {"b": true}, "TArgs": {"list": {"type": ["DT_FLOAT"]}}}}, {"name": "model/tf.__operators__.add_11/AddV2", "op": "AddV2", "input": ["model/batch_normalization_48/FusedBatchNormV3", "model/batch_normalization_51/FusedBatchNormV3"], "attr": {"T": {"type": "DT_FLOAT"}}}, {"name": "model/batch_normalization_52/FusedBatchNormV3", "op": "_FusedConv2D", "input": ["model/tf.__operators__.add_11/AddV2", "model/conv2d_37/Conv2D_weights", "model/conv2d_37/Conv2D_bn_offset"], "device": "/device:CPU:0", "attr": {"use_cudnn_on_gpu": {"b": true}, "leakyrelu_alpha": {"f": 0.2}, "T": {"type": "DT_FLOAT"}, "explicit_paddings": {"list": {}}, "fused_ops": {"list": {"s": ["Qmlhc0FkZA=="]}}, "padding": {"s": "VkFMSUQ="}, "epsilon": {"f": 0.0}, "num_args": {"i": "1"}, "dilations": {"list": {"i": ["1", "1", "1", "1"]}}, "strides": {"list": {"i": ["1", "1", "1", "1"]}}, "data_format": {"s": "TkhXQw=="}, "TArgs": {"list": {"type": ["DT_FLOAT"]}}, "filter_format": {"s": "SFdJTw=="}, "num_host_args": {"i": "0"}}}, {"name": "model/tf.nn.silu_37/Sigmoid", "op": "Sigmoid", "input": ["model/batch_normalization_52/FusedBatchNormV3"], "attr": {"T": {"type": "DT_FLOAT"}}}, {"name": "model/tf.nn.silu_37/mul_1", "op": "Mul", "input": ["model/batch_normalization_52/FusedBatchNormV3", "model/tf.nn.silu_37/Sigmoid"], "attr": {"T": {"type": "DT_FLOAT"}}}, {"name": "model/zero_padding2d_18/Pad", "op": "Pad", "input": ["model/tf.nn.silu_37/mul_1", "model/zero_padding2d_18/Pad/paddings"], "attr": {"T": {"type": "DT_FLOAT"}, "Tpaddings": {"type": "DT_INT32"}}}, {"name": "model/depthwise_conv2d_17/depthwise", "op": "FusedDepthwiseConv2dNative", "input": ["model/zero_padding2d_18/Pad", "model/depthwise_conv2d_17/depthwise_weights", "model/depthwise_conv2d_17/depthwise_bn_offset"], "attr": {"dilations": {"list": {"i": ["1", "1", "1", "1"]}}, "explicit_paddings": {"list": {}}, "strides": {"list": {"i": ["1", "1", "1", "1"]}}, "data_format": {"s": "TkhXQw=="}, "fused_ops": {"list": {"s": ["Qmlhc0FkZA=="]}}, "padding": {"s": "VkFMSUQ="}, "num_args": {"i": "1"}, "T": {"type": "DT_FLOAT"}}}, {"name": "model/tf.nn.silu_38/Sigmoid", "op": "Sigmoid", "input": ["model/depthwise_conv2d_17/depthwise"], "attr": {"T": {"type": "DT_FLOAT"}}}, {"name": "model/tf.nn.silu_38/mul_1", "op": "Mul", "input": ["model/depthwise_conv2d_17/depthwise", "model/tf.nn.silu_38/Sigmoid"], "attr": {"T": {"type": "DT_FLOAT"}}}, {"name": "model/batch_normalization_54/FusedBatchNormV3", "op": "_FusedConv2D", "input": ["model/tf.nn.silu_38/mul_1", "model/conv2d_38/Conv2D_weights", "model/conv2d_38/Conv2D_bn_offset"], "device": "/device:CPU:0", "attr": {"epsilon": {"f": 0.0}, "padding": {"s": "VkFMSUQ="}, "explicit_paddings": {"list": {}}, "use_cudnn_on_gpu": {"b": true}, "T": {"type": "DT_FLOAT"}, "TArgs": {"list": {"type": ["DT_FLOAT"]}}, "filter_format": {"s": "SFdJTw=="}, "strides": {"list": {"i": ["1", "1", "1", "1"]}}, "dilations": {"list": {"i": ["1", "1", "1", "1"]}}, "num_host_args": {"i": "0"}, "leakyrelu_alpha": {"f": 0.2}, "fused_ops": {"list": {"s": ["Qmlhc0FkZA=="]}}, "num_args": {"i": "1"}, "data_format": {"s": "TkhXQw=="}}}, {"name": "model/tf.__operators__.add_12/AddV2", "op": "AddV2", "input": ["model/tf.__operators__.add_11/AddV2", "model/batch_normalization_54/FusedBatchNormV3"], "attr": {"T": {"type": "DT_FLOAT"}}}, {"name": "model/batch_normalization_55/FusedBatchNormV3", "op": "_FusedConv2D", "input": ["model/tf.__operators__.add_12/AddV2", "model/conv2d_39/Conv2D_weights", "model/conv2d_39/Conv2D_bn_offset"], "device": "/device:CPU:0", "attr": {"strides": {"list": {"i": ["1", "1", "1", "1"]}}, "num_args": {"i": "1"}, "padding": {"s": "VkFMSUQ="}, "TArgs": {"list": {"type": ["DT_FLOAT"]}}, "fused_ops": {"list": {"s": ["Qmlhc0FkZA=="]}}, "use_cudnn_on_gpu": {"b": true}, "T": {"type": "DT_FLOAT"}, "filter_format": {"s": "SFdJTw=="}, "explicit_paddings": {"list": {}}, "data_format": {"s": "TkhXQw=="}, "leakyrelu_alpha": {"f": 0.2}, "num_host_args": {"i": "0"}, "epsilon": {"f": 0.0}, "dilations": {"list": {"i": ["1", "1", "1", "1"]}}}}, {"name": "model/tf.nn.silu_39/Sigmoid", "op": "Sigmoid", "input": ["model/batch_normalization_55/FusedBatchNormV3"], "attr": {"T": {"type": "DT_FLOAT"}}}, {"name": "model/tf.nn.silu_39/mul_1", "op": "Mul", "input": ["model/batch_normalization_55/FusedBatchNormV3", "model/tf.nn.silu_39/Sigmoid"], "attr": {"T": {"type": "DT_FLOAT"}}}, {"name": "model/zero_padding2d_19/Pad", "op": "Pad", "input": ["model/tf.nn.silu_39/mul_1", "model/zero_padding2d_19/Pad/paddings"], "attr": {"T": {"type": "DT_FLOAT"}, "Tpaddings": {"type": "DT_INT32"}}}, {"name": "model/depthwise_conv2d_18/depthwise", "op": "FusedDepthwiseConv2dNative", "input": ["model/zero_padding2d_19/Pad", "model/depthwise_conv2d_18/depthwise_weights", "model/depthwise_conv2d_18/depthwise_bn_offset"], "attr": {"num_args": {"i": "1"}, "padding": {"s": "VkFMSUQ="}, "strides": {"list": {"i": ["1", "1", "1", "1"]}}, "data_format": {"s": "TkhXQw=="}, "explicit_paddings": {"list": {}}, "T": {"type": "DT_FLOAT"}, "dilations": {"list": {"i": ["1", "1", "1", "1"]}}, "fused_ops": {"list": {"s": ["Qmlhc0FkZA=="]}}}}, {"name": "model/tf.nn.silu_40/Sigmoid", "op": "Sigmoid", "input": ["model/depthwise_conv2d_18/depthwise"], "attr": {"T": {"type": "DT_FLOAT"}}}, {"name": "model/tf.nn.silu_40/mul_1", "op": "Mul", "input": ["model/depthwise_conv2d_18/depthwise", "model/tf.nn.silu_40/Sigmoid"], "attr": {"T": {"type": "DT_FLOAT"}}}, {"name": "model/batch_normalization_57/FusedBatchNormV3", "op": "_FusedConv2D", "input": ["model/tf.nn.silu_40/mul_1", "model/conv2d_40/Conv2D_weights", "model/conv2d_40/Conv2D_bn_offset"], "device": "/device:CPU:0", "attr": {"filter_format": {"s": "SFdJTw=="}, "explicit_paddings": {"list": {}}, "use_cudnn_on_gpu": {"b": true}, "TArgs": {"list": {"type": ["DT_FLOAT"]}}, "epsilon": {"f": 0.0}, "padding": {"s": "VkFMSUQ="}, "fused_ops": {"list": {"s": ["Qmlhc0FkZA=="]}}, "dilations": {"list": {"i": ["1", "1", "1", "1"]}}, "num_args": {"i": "1"}, "num_host_args": {"i": "0"}, "leakyrelu_alpha": {"f": 0.2}, "data_format": {"s": "TkhXQw=="}, "strides": {"list": {"i": ["1", "1", "1", "1"]}}, "T": {"type": "DT_FLOAT"}}}, {"name": "model/tf.__operators__.add_13/AddV2", "op": "AddV2", "input": ["model/tf.__operators__.add_12/AddV2", "model/batch_normalization_57/FusedBatchNormV3"], "attr": {"T": {"type": "DT_FLOAT"}}}, {"name": "model/tf.image.resize_1/resize/ResizeNearestNeighbor", "op": "ResizeNearestNeighbor", "input": ["model/tf.__operators__.add_13/AddV2", "model/tf.image.resize_1/resize/size"], "attr": {"half_pixel_centers": {"b": true}, "align_corners": {"b": false}, "T": {"type": "DT_FLOAT"}}}, {"name": "model/tf.concat_2/concat", "op": "ConcatV2", "input": ["model/tf.image.resize_1/resize/ResizeNearestNeighbor", "model/tf.__operators__.add_1/AddV2", "model/tf.concat_2/concat/axis"], "attr": {"N": {"i": "2"}, "T": {"type": "DT_FLOAT"}, "Tidx": {"type": "DT_INT32"}}}, {"name": "model/zero_padding2d_20/Pad", "op": "Pad", "input": ["model/tf.concat_2/concat", "model/zero_padding2d_20/Pad/paddings"], "attr": {"T": {"type": "DT_FLOAT"}, "Tpaddings": {"type": "DT_INT32"}}}, {"name": "model/depthwise_conv2d_19/depthwise", "op": "FusedDepthwiseConv2dNative", "input": ["model/zero_padding2d_20/Pad", "model/depthwise_conv2d_19/depthwise_weights", "model/depthwise_conv2d_19/depthwise_bn_offset"], "attr": {"T": {"type": "DT_FLOAT"}, "fused_ops": {"list": {"s": ["Qmlhc0FkZA=="]}}, "num_args": {"i": "1"}, "explicit_paddings": {"list": {}}, "data_format": {"s": "TkhXQw=="}, "dilations": {"list": {"i": ["1", "1", "1", "1"]}}, "strides": {"list": {"i": ["1", "1", "1", "1"]}}, "padding": {"s": "VkFMSUQ="}}}, {"name": "model/tf.nn.silu_41/Sigmoid", "op": "Sigmoid", "input": ["model/depthwise_conv2d_19/depthwise"], "attr": {"T": {"type": "DT_FLOAT"}}}, {"name": "model/tf.nn.silu_41/mul_1", "op": "Mul", "input": ["model/depthwise_conv2d_19/depthwise", "model/tf.nn.silu_41/Sigmoid"], "attr": {"T": {"type": "DT_FLOAT"}}}, {"name": "model/batch_normalization_59/FusedBatchNormV3", "op": "_FusedConv2D", "input": ["model/tf.nn.silu_41/mul_1", "model/conv2d_41/Conv2D_weights", "model/conv2d_41/Conv2D_bn_offset"], "device": "/device:CPU:0", "attr": {"TArgs": {"list": {"type": ["DT_FLOAT"]}}, "epsilon": {"f": 0.0}, "leakyrelu_alpha": {"f": 0.2}, "filter_format": {"s": "SFdJTw=="}, "num_args": {"i": "1"}, "data_format": {"s": "TkhXQw=="}, "strides": {"list": {"i": ["1", "1", "1", "1"]}}, "explicit_paddings": {"list": {}}, "padding": {"s": "VkFMSUQ="}, "dilations": {"list": {"i": ["1", "1", "1", "1"]}}, "fused_ops": {"list": {"s": ["Qmlhc0FkZA=="]}}, "use_cudnn_on_gpu": {"b": true}, "T": {"type": "DT_FLOAT"}, "num_host_args": {"i": "0"}}}, {"name": "model/batch_normalization_60/FusedBatchNormV3", "op": "_FusedConv2D", "input": ["model/batch_normalization_59/FusedBatchNormV3", "model/conv2d_42/Conv2D_weights", "model/conv2d_42/Conv2D_bn_offset"], "device": "/device:CPU:0", "attr": {"num_args": {"i": "1"}, "fused_ops": {"list": {"s": ["Qmlhc0FkZA=="]}}, "padding": {"s": "VkFMSUQ="}, "filter_format": {"s": "SFdJTw=="}, "use_cudnn_on_gpu": {"b": true}, "T": {"type": "DT_FLOAT"}, "data_format": {"s": "TkhXQw=="}, "TArgs": {"list": {"type": ["DT_FLOAT"]}}, "dilations": {"list": {"i": ["1", "1", "1", "1"]}}, "strides": {"list": {"i": ["1", "1", "1", "1"]}}, "epsilon": {"f": 0.0}, "explicit_paddings": {"list": {}}, "num_host_args": {"i": "0"}, "leakyrelu_alpha": {"f": 0.2}}}, {"name": "model/tf.nn.silu_42/Sigmoid", "op": "Sigmoid", "input": ["model/batch_normalization_60/FusedBatchNormV3"], "attr": {"T": {"type": "DT_FLOAT"}}}, {"name": "model/tf.nn.silu_42/mul_1", "op": "Mul", "input": ["model/batch_normalization_60/FusedBatchNormV3", "model/tf.nn.silu_42/Sigmoid"], "attr": {"T": {"type": "DT_FLOAT"}}}, {"name": "model/zero_padding2d_21/Pad", "op": "Pad", "input": ["model/tf.nn.silu_42/mul_1", "model/zero_padding2d_21/Pad/paddings"], "attr": {"T": {"type": "DT_FLOAT"}, "Tpaddings": {"type": "DT_INT32"}}}, {"name": "model/depthwise_conv2d_20/depthwise", "op": "FusedDepthwiseConv2dNative", "input": ["model/zero_padding2d_21/Pad", "model/depthwise_conv2d_20/depthwise_weights", "model/depthwise_conv2d_20/depthwise_bn_offset"], "attr": {"strides": {"list": {"i": ["1", "1", "1", "1"]}}, "fused_ops": {"list": {"s": ["Qmlhc0FkZA=="]}}, "explicit_paddings": {"list": {}}, "T": {"type": "DT_FLOAT"}, "padding": {"s": "VkFMSUQ="}, "data_format": {"s": "TkhXQw=="}, "dilations": {"list": {"i": ["1", "1", "1", "1"]}}, "num_args": {"i": "1"}}}, {"name": "model/tf.nn.silu_43/Sigmoid", "op": "Sigmoid", "input": ["model/depthwise_conv2d_20/depthwise"], "attr": {"T": {"type": "DT_FLOAT"}}}, {"name": "model/tf.nn.silu_43/mul_1", "op": "Mul", "input": ["model/depthwise_conv2d_20/depthwise", "model/tf.nn.silu_43/Sigmoid"], "attr": {"T": {"type": "DT_FLOAT"}}}, {"name": "model/batch_normalization_62/FusedBatchNormV3", "op": "_FusedConv2D", "input": ["model/tf.nn.silu_43/mul_1", "model/conv2d_43/Conv2D_weights", "model/conv2d_43/Conv2D_bn_offset"], "device": "/device:CPU:0", "attr": {"leakyrelu_alpha": {"f": 0.2}, "TArgs": {"list": {"type": ["DT_FLOAT"]}}, "use_cudnn_on_gpu": {"b": true}, "dilations": {"list": {"i": ["1", "1", "1", "1"]}}, "data_format": {"s": "TkhXQw=="}, "num_args": {"i": "1"}, "explicit_paddings": {"list": {}}, "num_host_args": {"i": "0"}, "fused_ops": {"list": {"s": ["Qmlhc0FkZA=="]}}, "strides": {"list": {"i": ["1", "1", "1", "1"]}}, "epsilon": {"f": 0.0}, "filter_format": {"s": "SFdJTw=="}, "padding": {"s": "VkFMSUQ="}, "T": {"type": "DT_FLOAT"}}}, {"name": "model/tf.__operators__.add_14/AddV2", "op": "AddV2", "input": ["model/batch_normalization_59/FusedBatchNormV3", "model/batch_normalization_62/FusedBatchNormV3"], "attr": {"_has_manual_control_dependencies": {"b": true}, "T": {"type": "DT_FLOAT"}}}, {"name": "model/conv2d_66/BiasAdd", "op": "_FusedConv2D", "input": ["model/tf.__operators__.add_14/AddV2", "model/conv2d_66/Conv2D/ReadVariableOp", "model/conv2d_66/BiasAdd/ReadVariableOp"], "device": "/device:CPU:0", "attr": {"strides": {"list": {"i": ["1", "1", "1", "1"]}}, "data_format": {"s": "TkhXQw=="}, "use_cudnn_on_gpu": {"b": true}, "TArgs": {"list": {"type": ["DT_FLOAT"]}}, "filter_format": {"s": "SFdJTw=="}, "leakyrelu_alpha": {"f": 0.2}, "num_host_args": {"i": "0"}, "dilations": {"list": {"i": ["1", "1", "1", "1"]}}, "epsilon": {"f": 0.0}, "fused_ops": {"list": {"s": ["Qmlhc0FkZA=="]}}, "padding": {"s": "VkFMSUQ="}, "explicit_paddings": {"list": {}}, "num_args": {"i": "1"}, "T": {"type": "DT_FLOAT"}}}, {"name": "model/conv2d_68/BiasAdd", "op": "_FusedConv2D", "input": ["model/tf.__operators__.add_14/AddV2", "model/conv2d_68/Conv2D/ReadVariableOp", "model/conv2d_68/BiasAdd/ReadVariableOp"], "device": "/device:CPU:0", "attr": {"leakyrelu_alpha": {"f": 0.2}, "explicit_paddings": {"list": {}}, "fused_ops": {"list": {"s": ["Qmlhc0FkZA=="]}}, "num_args": {"i": "1"}, "TArgs": {"list": {"type": ["DT_FLOAT"]}}, "strides": {"list": {"i": ["1", "1", "1", "1"]}}, "padding": {"s": "VkFMSUQ="}, "num_host_args": {"i": "0"}, "use_cudnn_on_gpu": {"b": true}, "epsilon": {"f": 0.0}, "T": {"type": "DT_FLOAT"}, "filter_format": {"s": "SFdJTw=="}, "data_format": {"s": "TkhXQw=="}, "dilations": {"list": {"i": ["1", "1", "1", "1"]}}}}, {"name": "model/tf.expand_dims/ExpandDims", "op": "Const", "input": ["^model/tf.__operators__.add_14/AddV2"], "attr": {"dtype": {"type": "DT_FLOAT"}, "value": {"tensor": {"dtype": "DT_FLOAT", "tensorShape": {"dim": [{"size": "1"}, {"size": "2"}, {"size": "2835"}]}}}}}, {"name": "model/weight_layer_1/StatefulPartitionedCall/Identity", "op": "Const", "input": ["^model/tf.__operators__.add_14/AddV2"], "attr": {"dtype": {"type": "DT_FLOAT"}, "value": {"tensor": {"dtype": "DT_FLOAT", "tensorShape": {"dim": [{"size": "1"}, {"size": "2835"}]}}}}}, {"name": "model/batch_normalization_63/FusedBatchNormV3", "op": "_FusedConv2D", "input": ["model/tf.__operators__.add_14/AddV2", "model/conv2d_44/Conv2D_weights", "model/conv2d_44/Conv2D_bn_offset"], "device": "/device:CPU:0", "attr": {"T": {"type": "DT_FLOAT"}, "explicit_paddings": {"list": {}}, "filter_format": {"s": "SFdJTw=="}, "data_format": {"s": "TkhXQw=="}, "strides": {"list": {"i": ["1", "1", "1", "1"]}}, "num_host_args": {"i": "0"}, "dilations": {"list": {"i": ["1", "1", "1", "1"]}}, "leakyrelu_alpha": {"f": 0.2}, "padding": {"s": "VkFMSUQ="}, "num_args": {"i": "1"}, "epsilon": {"f": 0.0}, "TArgs": {"list": {"type": ["DT_FLOAT"]}}, "fused_ops": {"list": {"s": ["Qmlhc0FkZA=="]}}, "use_cudnn_on_gpu": {"b": true}}}, {"name": "model/tf.nn.silu_66/Sigmoid", "op": "Sigmoid", "input": ["model/conv2d_66/BiasAdd"], "attr": {"T": {"type": "DT_FLOAT"}}}, {"name": "model/tf.nn.silu_69/Sigmoid", "op": "Sigmoid", "input": ["model/conv2d_68/BiasAdd"], "attr": {"T": {"type": "DT_FLOAT"}}}, {"name": "model/tf.nn.silu_44/Sigmoid", "op": "Sigmoid", "input": ["model/batch_normalization_63/FusedBatchNormV3"], "attr": {"T": {"type": "DT_FLOAT"}}}, {"name": "model/tf.nn.silu_66/mul_1", "op": "Mul", "input": ["model/conv2d_66/BiasAdd", "model/tf.nn.silu_66/Sigmoid"], "attr": {"T": {"type": "DT_FLOAT"}}}, {"name": "model/tf.nn.silu_69/mul_1", "op": "Mul", "input": ["model/conv2d_68/BiasAdd", "model/tf.nn.silu_69/Sigmoid"], "attr": {"T": {"type": "DT_FLOAT"}}}, {"name": "model/tf.nn.silu_44/mul_1", "op": "Mul", "input": ["model/batch_normalization_63/FusedBatchNormV3", "model/tf.nn.silu_44/Sigmoid"], "attr": {"T": {"type": "DT_FLOAT"}}}, {"name": "model/zero_padding2d_34/Pad", "op": "Pad", "input": ["model/tf.nn.silu_66/mul_1", "model/zero_padding2d_34/Pad/paddings"], "attr": {"T": {"type": "DT_FLOAT"}, "Tpaddings": {"type": "DT_INT32"}}}, {"name": "model/zero_padding2d_36/Pad", "op": "Pad", "input": ["model/tf.nn.silu_69/mul_1", "model/zero_padding2d_36/Pad/paddings"], "attr": {"Tpaddings": {"type": "DT_INT32"}, "T": {"type": "DT_FLOAT"}}}, {"name": "model/zero_padding2d_22/Pad", "op": "Pad", "input": ["model/tf.nn.silu_44/mul_1", "model/zero_padding2d_22/Pad/paddings"], "attr": {"Tpaddings": {"type": "DT_INT32"}, "T": {"type": "DT_FLOAT"}}}, {"name": "model/depthwise_conv2d_31/depthwise", "op": "FusedDepthwiseConv2dNative", "input": ["model/zero_padding2d_34/Pad", "model/depthwise_conv2d_31/depthwise/ReadVariableOp", "model/depthwise_conv2d_31/BiasAdd/ReadVariableOp"], "attr": {"data_format": {"s": "TkhXQw=="}, "T": {"type": "DT_FLOAT"}, "fused_ops": {"list": {"s": ["Qmlhc0FkZA=="]}}, "strides": {"list": {"i": ["1", "1", "1", "1"]}}, "num_args": {"i": "1"}, "dilations": {"list": {"i": ["1", "1", "1", "1"]}}, "padding": {"s": "VkFMSUQ="}, "explicit_paddings": {"list": {}}}}, {"name": "model/depthwise_conv2d_33/depthwise", "op": "FusedDepthwiseConv2dNative", "input": ["model/zero_padding2d_36/Pad", "model/depthwise_conv2d_33/depthwise/ReadVariableOp", "model/depthwise_conv2d_33/BiasAdd/ReadVariableOp"], "attr": {"dilations": {"list": {"i": ["1", "1", "1", "1"]}}, "T": {"type": "DT_FLOAT"}, "padding": {"s": "VkFMSUQ="}, "fused_ops": {"list": {"s": ["Qmlhc0FkZA=="]}}, "explicit_paddings": {"list": {}}, "num_args": {"i": "1"}, "strides": {"list": {"i": ["1", "1", "1", "1"]}}, "data_format": {"s": "TkhXQw=="}}}, {"name": "model/depthwise_conv2d_21/depthwise", "op": "FusedDepthwiseConv2dNative", "input": ["model/zero_padding2d_22/Pad", "model/depthwise_conv2d_21/depthwise_weights", "model/depthwise_conv2d_21/depthwise_bn_offset"], "attr": {"padding": {"s": "VkFMSUQ="}, "explicit_paddings": {"list": {}}, "data_format": {"s": "TkhXQw=="}, "num_args": {"i": "1"}, "strides": {"list": {"i": ["1", "1", "1", "1"]}}, "T": {"type": "DT_FLOAT"}, "dilations": {"list": {"i": ["1", "1", "1", "1"]}}, "fused_ops": {"list": {"s": ["Qmlhc0FkZA=="]}}}}, {"name": "model/tf.nn.silu_67/Sigmoid", "op": "Sigmoid", "input": ["model/depthwise_conv2d_31/depthwise"], "attr": {"T": {"type": "DT_FLOAT"}}}, {"name": "model/tf.nn.silu_70/Sigmoid", "op": "Sigmoid", "input": ["model/depthwise_conv2d_33/depthwise"], "attr": {"T": {"type": "DT_FLOAT"}}}, {"name": "model/tf.nn.silu_45/Sigmoid", "op": "Sigmoid", "input": ["model/depthwise_conv2d_21/depthwise"], "attr": {"T": {"type": "DT_FLOAT"}}}, {"name": "model/tf.nn.silu_67/mul_1", "op": "Mul", "input": ["model/depthwise_conv2d_31/depthwise", "model/tf.nn.silu_67/Sigmoid"], "attr": {"T": {"type": "DT_FLOAT"}}}, {"name": "model/tf.nn.silu_70/mul_1", "op": "Mul", "input": ["model/depthwise_conv2d_33/depthwise", "model/tf.nn.silu_70/Sigmoid"], "attr": {"T": {"type": "DT_FLOAT"}}}, {"name": "model/tf.nn.silu_45/mul_1", "op": "Mul", "input": ["model/depthwise_conv2d_21/depthwise", "model/tf.nn.silu_45/Sigmoid"], "attr": {"T": {"type": "DT_FLOAT"}}}, {"name": "model/zero_padding2d_35/Pad", "op": "Pad", "input": ["model/tf.nn.silu_67/mul_1", "model/zero_padding2d_35/Pad/paddings"], "attr": {"T": {"type": "DT_FLOAT"}, "Tpaddings": {"type": "DT_INT32"}}}, {"name": "model/zero_padding2d_37/Pad", "op": "Pad", "input": ["model/tf.nn.silu_70/mul_1", "model/zero_padding2d_37/Pad/paddings"], "attr": {"Tpaddings": {"type": "DT_INT32"}, "T": {"type": "DT_FLOAT"}}}, {"name": "model/batch_normalization_65/FusedBatchNormV3", "op": "_FusedConv2D", "input": ["model/tf.nn.silu_45/mul_1", "model/conv2d_45/Conv2D_weights", "model/conv2d_45/Conv2D_bn_offset"], "device": "/device:CPU:0", "attr": {"data_format": {"s": "TkhXQw=="}, "TArgs": {"list": {"type": ["DT_FLOAT"]}}, "leakyrelu_alpha": {"f": 0.2}, "dilations": {"list": {"i": ["1", "1", "1", "1"]}}, "use_cudnn_on_gpu": {"b": true}, "strides": {"list": {"i": ["1", "1", "1", "1"]}}, "explicit_paddings": {"list": {}}, "padding": {"s": "VkFMSUQ="}, "T": {"type": "DT_FLOAT"}, "fused_ops": {"list": {"s": ["Qmlhc0FkZA=="]}}, "epsilon": {"f": 0.0}, "num_host_args": {"i": "0"}, "num_args": {"i": "1"}, "filter_format": {"s": "SFdJTw=="}}}, {"name": "model/depthwise_conv2d_32/depthwise", "op": "FusedDepthwiseConv2dNative", "input": ["model/zero_padding2d_35/Pad", "model/depthwise_conv2d_32/depthwise/ReadVariableOp", "model/depthwise_conv2d_32/BiasAdd/ReadVariableOp"], "attr": {"num_args": {"i": "1"}, "strides": {"list": {"i": ["1", "1", "1", "1"]}}, "fused_ops": {"list": {"s": ["Qmlhc0FkZA=="]}}, "T": {"type": "DT_FLOAT"}, "explicit_paddings": {"list": {}}, "data_format": {"s": "TkhXQw=="}, "padding": {"s": "VkFMSUQ="}, "dilations": {"list": {"i": ["1", "1", "1", "1"]}}}}, {"name": "model/depthwise_conv2d_34/depthwise", "op": "FusedDepthwiseConv2dNative", "input": ["model/zero_padding2d_37/Pad", "model/depthwise_conv2d_34/depthwise/ReadVariableOp", "model/depthwise_conv2d_34/BiasAdd/ReadVariableOp"], "attr": {"fused_ops": {"list": {"s": ["Qmlhc0FkZA=="]}}, "explicit_paddings": {"list": {}}, "dilations": {"list": {"i": ["1", "1", "1", "1"]}}, "strides": {"list": {"i": ["1", "1", "1", "1"]}}, "data_format": {"s": "TkhXQw=="}, "num_args": {"i": "1"}, "padding": {"s": "VkFMSUQ="}, "T": {"type": "DT_FLOAT"}}}, {"name": "model/tf.__operators__.add_15/AddV2", "op": "AddV2", "input": ["model/tf.__operators__.add_14/AddV2", "model/batch_normalization_65/FusedBatchNormV3"], "attr": {"T": {"type": "DT_FLOAT"}}}, {"name": "model/batch_normalization_66/FusedBatchNormV3", "op": "_FusedConv2D", "input": ["model/tf.__operators__.add_15/AddV2", "model/conv2d_46/Conv2D_weights", "model/conv2d_46/Conv2D_bn_offset"], "device": "/device:CPU:0", "attr": {"T": {"type": "DT_FLOAT"}, "use_cudnn_on_gpu": {"b": true}, "explicit_paddings": {"list": {}}, "data_format": {"s": "TkhXQw=="}, "TArgs": {"list": {"type": ["DT_FLOAT"]}}, "leakyrelu_alpha": {"f": 0.2}, "filter_format": {"s": "SFdJTw=="}, "dilations": {"list": {"i": ["1", "1", "1", "1"]}}, "num_host_args": {"i": "0"}, "padding": {"s": "VkFMSUQ="}, "strides": {"list": {"i": ["1", "1", "1", "1"]}}, "epsilon": {"f": 0.0}, "num_args": {"i": "1"}, "fused_ops": {"list": {"s": ["Qmlhc0FkZA=="]}}}}, {"name": "model/tf.nn.silu_68/Sigmoid", "op": "Sigmoid", "input": ["model/depthwise_conv2d_32/depthwise"], "attr": {"T": {"type": "DT_FLOAT"}}}, {"name": "model/tf.nn.silu_71/Sigmoid", "op": "Sigmoid", "input": ["model/depthwise_conv2d_34/depthwise"], "attr": {"T": {"type": "DT_FLOAT"}}}, {"name": "model/tf.nn.silu_46/Sigmoid", "op": "Sigmoid", "input": ["model/batch_normalization_66/FusedBatchNormV3"], "attr": {"T": {"type": "DT_FLOAT"}}}, {"name": "model/tf.nn.silu_68/mul_1", "op": "Mul", "input": ["model/depthwise_conv2d_32/depthwise", "model/tf.nn.silu_68/Sigmoid"], "attr": {"T": {"type": "DT_FLOAT"}}}, {"name": "model/tf.nn.silu_71/mul_1", "op": "Mul", "input": ["model/depthwise_conv2d_34/depthwise", "model/tf.nn.silu_71/Sigmoid"], "attr": {"T": {"type": "DT_FLOAT"}}}, {"name": "model/tf.nn.silu_46/mul_1", "op": "Mul", "input": ["model/batch_normalization_66/FusedBatchNormV3", "model/tf.nn.silu_46/Sigmoid"], "attr": {"T": {"type": "DT_FLOAT"}}}, {"name": "model/conv2d_67/BiasAdd", "op": "_FusedConv2D", "input": ["model/tf.nn.silu_68/mul_1", "model/conv2d_67/Conv2D/ReadVariableOp", "model/conv2d_67/BiasAdd/ReadVariableOp"], "device": "/device:CPU:0", "attr": {"epsilon": {"f": 0.0}, "fused_ops": {"list": {"s": ["Qmlhc0FkZA=="]}}, "data_format": {"s": "TkhXQw=="}, "leakyrelu_alpha": {"f": 0.2}, "dilations": {"list": {"i": ["1", "1", "1", "1"]}}, "padding": {"s": "VkFMSUQ="}, "T": {"type": "DT_FLOAT"}, "num_host_args": {"i": "0"}, "filter_format": {"s": "SFdJTw=="}, "strides": {"list": {"i": ["1", "1", "1", "1"]}}, "use_cudnn_on_gpu": {"b": true}, "explicit_paddings": {"list": {}}, "num_args": {"i": "1"}, "TArgs": {"list": {"type": ["DT_FLOAT"]}}}}, {"name": "model/conv2d_69/BiasAdd", "op": "_FusedConv2D", "input": ["model/tf.nn.silu_71/mul_1", "model/conv2d_69/Conv2D/ReadVariableOp", "model/conv2d_69/BiasAdd/ReadVariableOp"], "device": "/device:CPU:0", "attr": {"strides": {"list": {"i": ["1", "1", "1", "1"]}}, "explicit_paddings": {"list": {}}, "data_format": {"s": "TkhXQw=="}, "TArgs": {"list": {"type": ["DT_FLOAT"]}}, "leakyrelu_alpha": {"f": 0.2}, "filter_format": {"s": "SFdJTw=="}, "epsilon": {"f": 0.0}, "num_host_args": {"i": "0"}, "padding": {"s": "VkFMSUQ="}, "num_args": {"i": "1"}, "fused_ops": {"list": {"s": ["Qmlhc0FkZA=="]}}, "use_cudnn_on_gpu": {"b": true}, "T": {"type": "DT_FLOAT"}, "dilations": {"list": {"i": ["1", "1", "1", "1"]}}}}, {"name": "model/zero_padding2d_23/Pad", "op": "Pad", "input": ["model/tf.nn.silu_46/mul_1", "model/zero_padding2d_23/Pad/paddings"], "attr": {"T": {"type": "DT_FLOAT"}, "Tpaddings": {"type": "DT_INT32"}}}, {"name": "model/tf.concat_5/concat", "op": "ConcatV2", "input": ["model/conv2d_67/BiasAdd", "model/conv2d_69/BiasAdd", "model/tf.concat_5/concat/axis"], "attr": {"Tidx": {"type": "DT_INT32"}, "N": {"i": "2"}, "T": {"type": "DT_FLOAT"}}}, {"name": "model/depthwise_conv2d_22/depthwise", "op": "FusedDepthwiseConv2dNative", "input": ["model/zero_padding2d_23/Pad", "model/depthwise_conv2d_22/depthwise_weights", "model/depthwise_conv2d_22/depthwise_bn_offset"], "attr": {"explicit_paddings": {"list": {}}, "data_format": {"s": "TkhXQw=="}, "dilations": {"list": {"i": ["1", "1", "1", "1"]}}, "strides": {"list": {"i": ["1", "1", "1", "1"]}}, "padding": {"s": "VkFMSUQ="}, "num_args": {"i": "1"}, "fused_ops": {"list": {"s": ["Qmlhc0FkZA=="]}}, "T": {"type": "DT_FLOAT"}}}, {"name": "model/tf.compat.v1.transpose/transpose", "op": "Transpose", "input": ["model/tf.concat_5/concat", "model/tf.compat.v1.transpose/transpose/perm"], "attr": {"Tperm": {"type": "DT_INT32"}, "T": {"type": "DT_FLOAT"}}}, {"name": "model/tf.reshape/Reshape", "op": "Reshape", "input": ["model/tf.compat.v1.transpose/transpose", "model/tf.reshape/Reshape/shape"], "attr": {"T": {"type": "DT_FLOAT"}, "Tshape": {"type": "DT_INT32"}}}, {"name": "model/tf.nn.silu_47/Sigmoid", "op": "Sigmoid", "input": ["model/depthwise_conv2d_22/depthwise"], "attr": {"T": {"type": "DT_FLOAT"}}}, {"name": "model/tf.nn.silu_47/mul_1", "op": "Mul", "input": ["model/depthwise_conv2d_22/depthwise", "model/tf.nn.silu_47/Sigmoid"], "attr": {"T": {"type": "DT_FLOAT"}}}, {"name": "model/batch_normalization_68/FusedBatchNormV3", "op": "_FusedConv2D", "input": ["model/tf.nn.silu_47/mul_1", "model/conv2d_47/Conv2D_weights", "model/conv2d_47/Conv2D_bn_offset"], "device": "/device:CPU:0", "attr": {"epsilon": {"f": 0.0}, "leakyrelu_alpha": {"f": 0.2}, "padding": {"s": "VkFMSUQ="}, "use_cudnn_on_gpu": {"b": true}, "explicit_paddings": {"list": {}}, "TArgs": {"list": {"type": ["DT_FLOAT"]}}, "dilations": {"list": {"i": ["1", "1", "1", "1"]}}, "data_format": {"s": "TkhXQw=="}, "filter_format": {"s": "SFdJTw=="}, "num_host_args": {"i": "0"}, "strides": {"list": {"i": ["1", "1", "1", "1"]}}, "T": {"type": "DT_FLOAT"}, "num_args": {"i": "1"}, "fused_ops": {"list": {"s": ["Qmlhc0FkZA=="]}}}}, {"name": "model/zero_padding2d_24/Pad", "op": "Pad", "input": ["model/batch_normalization_68/FusedBatchNormV3", "model/zero_padding2d_24/Pad/paddings"], "attr": {"Tpaddings": {"type": "DT_INT32"}, "T": {"type": "DT_FLOAT"}}}, {"name": "model/batch_normalization_69/FusedBatchNormV3", "op": "_FusedConv2D", "input": ["model/zero_padding2d_24/Pad", "model/conv2d_48/Conv2D_weights", "model/conv2d_48/Conv2D_bn_offset"], "device": "/device:CPU:0", "attr": {"dilations": {"list": {"i": ["1", "1", "1", "1"]}}, "padding": {"s": "VkFMSUQ="}, "TArgs": {"list": {"type": ["DT_FLOAT"]}}, "T": {"type": "DT_FLOAT"}, "use_cudnn_on_gpu": {"b": true}, "filter_format": {"s": "SFdJTw=="}, "epsilon": {"f": 0.0}, "num_args": {"i": "1"}, "num_host_args": {"i": "0"}, "explicit_paddings": {"list": {}}, "leakyrelu_alpha": {"f": 0.2}, "fused_ops": {"list": {"s": ["Qmlhc0FkZA=="]}}, "data_format": {"s": "TkhXQw=="}, "strides": {"list": {"i": ["1", "2", "2", "1"]}}}}, {"name": "model/tf.nn.silu_48/Sigmoid", "op": "Sigmoid", "input": ["model/batch_normalization_69/FusedBatchNormV3"], "attr": {"T": {"type": "DT_FLOAT"}}}, {"name": "model/tf.nn.silu_48/mul_1", "op": "Mul", "input": ["model/batch_normalization_69/FusedBatchNormV3", "model/tf.nn.silu_48/Sigmoid"], "attr": {"T": {"type": "DT_FLOAT"}}}, {"name": "model/tf.concat_3/concat", "op": "ConcatV2", "input": ["model/tf.nn.silu_48/mul_1", "model/tf.__operators__.add_13/AddV2", "model/tf.concat_3/concat/axis"], "attr": {"T": {"type": "DT_FLOAT"}, "Tidx": {"type": "DT_INT32"}, "N": {"i": "2"}}}, {"name": "model/batch_normalization_70/FusedBatchNormV3", "op": "_FusedConv2D", "input": ["model/tf.concat_3/concat", "model/conv2d_49/Conv2D_weights", "model/conv2d_49/Conv2D_bn_offset"], "device": "/device:CPU:0", "attr": {"T": {"type": "DT_FLOAT"}, "fused_ops": {"list": {"s": ["Qmlhc0FkZA=="]}}, "dilations": {"list": {"i": ["1", "1", "1", "1"]}}, "explicit_paddings": {"list": {}}, "TArgs": {"list": {"type": ["DT_FLOAT"]}}, "num_host_args": {"i": "0"}, "data_format": {"s": "TkhXQw=="}, "filter_format": {"s": "SFdJTw=="}, "padding": {"s": "VkFMSUQ="}, "use_cudnn_on_gpu": {"b": true}, "leakyrelu_alpha": {"f": 0.2}, "epsilon": {"f": 0.0}, "strides": {"list": {"i": ["1", "1", "1", "1"]}}, "num_args": {"i": "1"}}}, {"name": "model/tf.nn.silu_49/Sigmoid", "op": "Sigmoid", "input": ["model/batch_normalization_70/FusedBatchNormV3"], "attr": {"T": {"type": "DT_FLOAT"}}}, {"name": "model/tf.nn.silu_49/mul_1", "op": "Mul", "input": ["model/batch_normalization_70/FusedBatchNormV3", "model/tf.nn.silu_49/Sigmoid"], "attr": {"T": {"type": "DT_FLOAT"}}}, {"name": "model/zero_padding2d_25/Pad", "op": "Pad", "input": ["model/tf.nn.silu_49/mul_1", "model/zero_padding2d_25/Pad/paddings"], "attr": {"T": {"type": "DT_FLOAT"}, "Tpaddings": {"type": "DT_INT32"}}}, {"name": "model/depthwise_conv2d_23/depthwise", "op": "FusedDepthwiseConv2dNative", "input": ["model/zero_padding2d_25/Pad", "model/depthwise_conv2d_23/depthwise_weights", "model/depthwise_conv2d_23/depthwise_bn_offset"], "attr": {"padding": {"s": "VkFMSUQ="}, "explicit_paddings": {"list": {}}, "num_args": {"i": "1"}, "data_format": {"s": "TkhXQw=="}, "fused_ops": {"list": {"s": ["Qmlhc0FkZA=="]}}, "strides": {"list": {"i": ["1", "1", "1", "1"]}}, "dilations": {"list": {"i": ["1", "1", "1"…
lu_83/mul_1", "op": "Mul", "input": ["model/depthwise_conv2d_42/depthwise", "model/tf.nn.silu_83/Sigmoid"], "attr": {"T": {"type": "DT_FLOAT"}}}, {"name": "model/conv2d_75/BiasAdd", "op": "_FusedConv2D", "input": ["model/tf.nn.silu_80/mul_1", "model/conv2d_75/Conv2D/ReadVariableOp", "model/conv2d_75/BiasAdd/ReadVariableOp"], "device": "/device:CPU:0", "attr": {"data_format": {"s": "TkhXQw=="}, "explicit_paddings": {"list": {}}, "T": {"type": "DT_FLOAT"}, "use_cudnn_on_gpu": {"b": true}, "strides": {"list": {"i": ["1", "1", "1", "1"]}}, "TArgs": {"list": {"type": ["DT_FLOAT"]}}, "num_host_args": {"i": "0"}, "leakyrelu_alpha": {"f": 0.2}, "dilations": {"list": {"i": ["1", "1", "1", "1"]}}, "epsilon": {"f": 0.0}, "num_args": {"i": "1"}, "fused_ops": {"list": {"s": ["Qmlhc0FkZA=="]}}, "padding": {"s": "VkFMSUQ="}, "filter_format": {"s": "SFdJTw=="}}}, {"name": "model/conv2d_77/BiasAdd", "op": "_FusedConv2D", "input": ["model/tf.nn.silu_83/mul_1", "model/conv2d_77/Conv2D/ReadVariableOp", "model/conv2d_77/BiasAdd/ReadVariableOp"], "device": "/device:CPU:0", "attr": {"filter_format": {"s": "SFdJTw=="}, "T": {"type": "DT_FLOAT"}, "fused_ops": {"list": {"s": ["Qmlhc0FkZA=="]}}, "dilations": {"list": {"i": ["1", "1", "1", "1"]}}, "explicit_paddings": {"list": {}}, "use_cudnn_on_gpu": {"b": true}, "num_args": {"i": "1"}, "padding": {"s": "VkFMSUQ="}, "num_host_args": {"i": "0"}, "data_format": {"s": "TkhXQw=="}, "leakyrelu_alpha": {"f": 0.2}, "epsilon": {"f": 0.0}, "strides": {"list": {"i": ["1", "1", "1", "1"]}}, "TArgs": {"list": {"type": ["DT_FLOAT"]}}}}, {"name": "model/tf.concat_7/concat", "op": "ConcatV2", "input": ["model/conv2d_75/BiasAdd", "model/conv2d_77/BiasAdd", "model/tf.concat_7/concat/axis"], "attr": {"Tidx": {"type": "DT_INT32"}, "T": {"type": "DT_FLOAT"}, "N": {"i": "2"}}}, {"name": "model/tf.compat.v1.transpose_2/transpose", "op": "Transpose", "input": ["model/tf.concat_7/concat", "model/tf.compat.v1.transpose_2/transpose/perm"], "attr": {"T": {"type": "DT_FLOAT"}, "Tperm": {"type": "DT_INT32"}}}, {"name": "model/tf.reshape_2/Reshape", "op": "Reshape", "input": ["model/tf.compat.v1.transpose_2/transpose", "model/tf.reshape_2/Reshape/shape"], "attr": {"Tshape": {"type": "DT_INT32"}, "T": {"type": "DT_FLOAT"}}}, {"name": "model/tf.concat_8/concat", "op": "ConcatV2", "input": ["model/tf.reshape/Reshape", "model/tf.reshape_1/Reshape", "model/tf.reshape_2/Reshape", "model/tf.concat_8/concat/axis"], "attr": {"N": {"i": "3"}, "T": {"type": "DT_FLOAT"}, "Tidx": {"type": "DT_INT32"}}}, {"name": "model/tf.__operators__.getitem_9/strided_slice", "op": "StridedSlice", "input": ["model/tf.concat_8/concat", "model/tf.__operators__.getitem_9/strided_slice/stack", "model/tf.__operators__.getitem_9/strided_slice/stack_1", "model/tf.__operators__.getitem_9/strided_slice/stack_2"], "attr": {"T": {"type": "DT_FLOAT"}, "Index": {"type": "DT_INT32"}, "new_axis_mask": {"i": "0"}, "begin_mask": {"i": "1"}, "shrink_axis_mask": {"i": "0"}, "end_mask": {"i": "3"}, "ellipsis_mask": {"i": "0"}}}, {"name": "model/tf.__operators__.getitem_8/strided_slice", "op": "StridedSlice", "input": ["model/tf.concat_8/concat", "model/tf.__operators__.getitem_8/strided_slice/stack", "model/tf.__operators__.getitem_8/strided_slice/stack_1", "model/tf.__operators__.getitem_8/strided_slice/stack_2"], "attr": {"Index": {"type": "DT_INT32"}, "begin_mask": {"i": "3"}, "new_axis_mask": {"i": "0"}, "shrink_axis_mask": {"i": "0"}, "T": {"type": "DT_FLOAT"}, "ellipsis_mask": {"i": "0"}, "end_mask": {"i": "1"}}}, {"name": "model/activation_3/Sigmoid", "op": "Sigmoid", "input": ["model/tf.__operators__.getitem_9/strided_slice"], "attr": {"T": {"type": "DT_FLOAT"}}}, {"name": "model/tf.reshape_3/Reshape", "op": "Reshape", "input": ["model/tf.__operators__.getitem_8/strided_slice", "model/tf.reshape_3/Reshape/shape"], "attr": {"T": {"type": "DT_FLOAT"}, "Tshape": {"type": "DT_INT32"}}}, {"name": "model/tf.compat.v1.transpose_3/transpose", "op": "Transpose", "input": ["model/tf.reshape_3/Reshape", "model/tf.compat.v1.transpose_3/transpose/perm"], "attr": {"Tperm": {"type": "DT_INT32"}, "T": {"type": "DT_FLOAT"}}}, {"name": "model/tf.nn.softmax/transpose", "op": "Transpose", "input": ["model/tf.compat.v1.transpose_3/transpose", "model/tf.nn.softmax/concat"], "attr": {"Tperm": {"type": "DT_INT32"}, "T": {"type": "DT_FLOAT"}}}, {"name": "model/tf.nn.softmax/Softmax", "op": "Softmax", "input": ["model/tf.nn.softmax/transpose"], "attr": {"T": {"type": "DT_FLOAT"}}}, {"name": "model/tf.nn.softmax/transpose_1", "op": "Transpose", "input": ["model/tf.nn.softmax/Softmax", "model/tf.nn.softmax/concat_1"], "attr": {"T": {"type": "DT_FLOAT"}, "Tperm": {"type": "DT_INT32"}}}, {"name": "model/tf.compat.v1.transpose_4/transpose", "op": "Transpose", "input": ["model/tf.nn.softmax/transpose_1", "model/tf.compat.v1.transpose_4/transpose/perm"], "attr": {"T": {"type": "DT_FLOAT"}, "Tperm": {"type": "DT_INT32"}}}, {"name": "model/conv2d_78/Conv2D", "op": "Conv2D", "input": ["model/tf.compat.v1.transpose_4/transpose", "model/conv2d_78/Conv2D/ReadVariableOp"], "device": "/device:CPU:0", "attr": {"explicit_paddings": {"list": {}}, "dilations": {"list": {"i": ["1", "1", "1", "1"]}}, "padding": {"s": "VkFMSUQ="}, "data_format": {"s": "TkhXQw=="}, "use_cudnn_on_gpu": {"b": true}, "T": {"type": "DT_FLOAT"}, "strides": {"list": {"i": ["1", "1", "1", "1"]}}}}, {"name": "model/tf.compat.v1.transpose_5/transpose", "op": "Transpose", "input": ["model/conv2d_78/Conv2D", "model/tf.compat.v1.transpose_5/transpose/perm"], "attr": {"T": {"type": "DT_FLOAT"}, "Tperm": {"type": "DT_INT32"}}}, {"name": "model/tf.reshape_4/Reshape", "op": "Reshape", "input": ["model/tf.compat.v1.transpose_5/transpose", "model/tf.reshape_4/Reshape/shape"], "attr": {"T": {"type": "DT_FLOAT"}, "Tshape": {"type": "DT_INT32"}}}, {"name": "model/tf.split/split", "op": "Split", "input": ["model/tf.split/split/split_dim", "model/tf.reshape_4/Reshape"], "attr": {"num_split": {"i": "2"}, "T": {"type": "DT_FLOAT"}}}, {"name": "model/tf.math.subtract/Sub", "op": "Sub", "input": ["model/tf.expand_dims/ExpandDims", "model/tf.split/split"], "attr": {"T": {"type": "DT_FLOAT"}}}, {"name": "model/tf.__operators__.add_21/AddV2", "op": "AddV2", "input": ["model/tf.expand_dims/ExpandDims", "model/tf.split/split:1"], "attr": {"T": {"type": "DT_FLOAT"}}}, {"name": "model/tf.__operators__.add_22/AddV2", "op": "AddV2", "input": ["model/tf.math.subtract/Sub", "model/tf.__operators__.add_21/AddV2"], "attr": {"T": {"type": "DT_FLOAT"}}}, {"name": "model/tf.math.subtract_1/Sub", "op": "Sub", "input": ["model/tf.__operators__.add_21/AddV2", "model/tf.math.subtract/Sub"], "attr": {"T": {"type": "DT_FLOAT"}}}, {"name": "model/tf.math.truediv/truediv", "op": "Mul", "input": ["model/tf.__operators__.add_22/AddV2", "ConstantFolding/model/tf.math.truediv/truediv_recip"], "attr": {"T": {"type": "DT_FLOAT"}}}, {"name": "model/tf.concat_9/concat", "op": "ConcatV2", "input": ["model/tf.math.truediv/truediv", "model/tf.math.subtract_1/Sub", "model/tf.concat_9/concat/axis"], "attr": {"T": {"type": "DT_FLOAT"}, "N": {"i": "2"}, "Tidx": {"type": "DT_INT32"}}}, {"name": "model/tf.math.multiply_4/Mul", "op": "Mul", "input": ["model/tf.concat_9/concat", "model/weight_layer_1/StatefulPartitionedCall/Identity"], "attr": {"T": {"type": "DT_FLOAT"}}}, {"name": "model/tf.concat_10/concat", "op": "ConcatV2", "input": ["model/tf.math.multiply_4/Mul", "model/activation_3/Sigmoid", "model/tf.concat_10/concat/axis"], "attr": {"N": {"i": "2"}, "Tidx": {"type": "DT_INT32"}, "T": {"type": "DT_FLOAT"}}}, {"name": "Identity", "op": "Identity", "input": ["model/tf.concat_10/concat"], "attr": {"T": {"type": "DT_FLOAT"}}}], "library": {}, "versions": {"producer": 1645}}, "weightsManifest": [{"paths": ["group1-shard1of1.bin"], "weights": [{"name": "ConstantFolding/model/tf.math.truediv/truediv_recip", "shape": [], "dtype": "float32", "quantization": {"dtype": "float16", "original_dtype": "float32"}}, {"name": "model/tf.split/split/split_dim", "shape": [], "dtype": "int32"}, {"name": "model/tf.__operators__.getitem_8/strided_slice/stack", "shape": [2], "dtype": "int32"}, {"name": "model/tf.__operators__.getitem_8/strided_slice/stack_1", "shape": [2], "dtype": "int32"}, {"name": "model/tf.__operators__.getitem_8/strided_slice/stack_2", "shape": [2], "dtype": "int32"}, {"name": "model/tf.reshape_3/Reshape/shape", "shape": [4], "dtype": "int32"}, {"name": "model/tf.compat.v1.transpose_3/transpose/perm", "shape": [4], "dtype": "int32"}, {"name": "model/tf.nn.softmax/concat", "shape": [4], "dtype": "int32"}, {"name": "model/tf.nn.softmax/concat_1", "shape": [4], "dtype": "int32"}, {"name": "model/tf.compat.v1.transpose_4/transpose/perm", "shape": [4], "dtype": "int32"}, {"name": "model/conv2d_78/Conv2D/ReadVariableOp", "shape": [1, 1, 16, 1], "dtype": "float32", "quantization": {"dtype": "float16", "original_dtype": "float32"}}, {"name": "model/tf.compat.v1.transpose_5/transpose/perm", "shape": [4], "dtype": "int32"}, {"name": "model/tf.reshape_4/Reshape/shape", "shape": [3], "dtype": "int32"}, {"name": "model/tf.concat_9/concat/axis", "shape": [], "dtype": "int32"}, {"name": "model/conv2d_66/Conv2D/ReadVariableOp", "shape": [1, 1, 48, 64], "dtype": "float32", "quantization": {"dtype": "float16", "original_dtype": "float32"}}, {"name": "model/conv2d_66/BiasAdd/ReadVariableOp", "shape": [64], "dtype": "float32", "quantization": {"dtype": "float16", "original_dtype": "float32"}}, {"name": "model/zero_padding2d_34/Pad/paddings", "shape": [4, 2], "dtype": "int32"}, {"name": "model/depthwise_conv2d_31/depthwise/ReadVariableOp", "shape": [3, 3, 64, 1], "dtype": "float32", "quantization": {"dtype": "float16", "original_dtype": "float32"}}, {"name": "model/depthwise_conv2d_31/BiasAdd/ReadVariableOp", "shape": [64], "dtype": "float32", "quantization": {"dtype": "float16", "original_dtype": "float32"}}, {"name": "model/zero_padding2d_35/Pad/paddings", "shape": [4, 2], "dtype": "int32"}, {"name": "model/depthwise_conv2d_32/depthwise/ReadVariableOp", "shape": [3, 3, 64, 1], "dtype": "float32", "quantization": {"dtype": "float16", "original_dtype": "float32"}}, {"name": "model/depthwise_conv2d_32/BiasAdd/ReadVariableOp", "shape": [64], "dtype": "float32", "quantization": {"dtype": "float16", "original_dtype": "float32"}}, {"name": "model/conv2d_67/Conv2D/ReadVariableOp", "shape": [1, 1, 64, 64], "dtype": "float32", "quantization": {"dtype": "float16", "original_dtype": "float32"}}, {"name": "model/conv2d_67/BiasAdd/ReadVariableOp", "shape": [64], "dtype": "float32", "quantization": {"dtype": "float16", "original_dtype": "float32"}}, {"name": "model/conv2d_68/Conv2D/ReadVariableOp", "shape": [1, 1, 48, 48], "dtype": "float32", "quantization": {"dtype": "float16", "original_dtype": "float32"}}, {"name": "model/conv2d_68/BiasAdd/ReadVariableOp", "shape": [48], "dtype": "float32", "quantization": {"dtype": "float16", "original_dtype": "float32"}}, {"name": "model/zero_padding2d_36/Pad/paddings", "shape": [4, 2], "dtype": "int32"}, {"name": "model/depthwise_conv2d_33/depthwise/ReadVariableOp", "shape": [3, 3, 48, 1], "dtype": "float32", "quantization": {"dtype": "float16", "original_dtype": "float32"}}, {"name": "model/depthwise_conv2d_33/BiasAdd/ReadVariableOp", "shape": [48], "dtype": "float32", "quantization": {"dtype": "float16", "original_dtype": "float32"}}, {"name": "model/zero_padding2d_37/Pad/paddings", "shape": [4, 2], "dtype": "int32"}, {"name": "model/depthwise_conv2d_34/depthwise/ReadVariableOp", "shape": [3, 3, 48, 1], "dtype": "float32", "quantization": {"dtype": "float16", "original_dtype": "float32"}}, {"name": "model/depthwise_conv2d_34/BiasAdd/ReadVariableOp", "shape": [48], "dtype": "float32", "quantization": {"dtype": "float16", "original_dtype": "float32"}}, {"name": "model/conv2d_69/Conv2D/ReadVariableOp", "shape": [1, 1, 48, 12], "dtype": "float32", "quantization": {"dtype": "float16", "original_dtype": "float32"}}, {"name": "model/conv2d_69/BiasAdd/ReadVariableOp", "shape": [12], "dtype": "float32", "quantization": {"dtype": "float16", "original_dtype": "float32"}}, {"name": "model/tf.concat_5/concat/axis", "shape": [], "dtype": "int32"}, {"name": "model/tf.compat.v1.transpose/transpose/perm", "shape": [4], "dtype": "int32"}, {"name": "model/tf.reshape/Reshape/shape", "shape": [3], "dtype": "int32"}, {"name": "model/conv2d_70/Conv2D/ReadVariableOp", "shape": [1, 1, 88, 64], "dtype": "float32", "quantization": {"dtype": "float16", "original_dtype": "float32"}}, {"name": "model/conv2d_70/BiasAdd/ReadVariableOp", "shape": [64], "dtype": "float32", "quantization": {"dtype": "float16", "original_dtype": "float32"}}, {"name": "model/zero_padding2d_38/Pad/paddings", "shape": [4, 2], "dtype": "int32"}, {"name": "model/depthwise_conv2d_35/depthwise/ReadVariableOp", "shape": [3, 3, 64, 1], "dtype": "float32", "quantization": {"dtype": "float16", "original_dtype": "float32"}}, {"name": "model/depthwise_conv2d_35/BiasAdd/ReadVariableOp", "shape": [64], "dtype": "float32", "quantization": {"dtype": "float16", "original_dtype": "float32"}}, {"name": "model/zero_padding2d_39/Pad/paddings", "shape": [4, 2], "dtype": "int32"}, {"name": "model/depthwise_conv2d_36/depthwise/ReadVariableOp", "shape": [3, 3, 64, 1], "dtype": "float32", "quantization": {"dtype": "float16", "original_dtype": "float32"}}, {"name": "model/depthwise_conv2d_36/BiasAdd/ReadVariableOp", "shape": [64], "dtype": "float32", "quantization": {"dtype": "float16", "original_dtype": "float32"}}, {"name": "model/conv2d_71/Conv2D/ReadVariableOp", "shape": [1, 1, 64, 64], "dtype": "float32", "quantization": {"dtype": "float16", "original_dtype": "float32"}}, {"name": "model/conv2d_71/BiasAdd/ReadVariableOp", "shape": [64], "dtype": "float32", "quantization": {"dtype": "float16", "original_dtype": "float32"}}, {"name": "model/conv2d_72/Conv2D/ReadVariableOp", "shape": [1, 1, 88, 48], "dtype": "float32", "quantization": {"dtype": "float16", "original_dtype": "float32"}}, {"name": "model/conv2d_72/BiasAdd/ReadVariableOp", "shape": [48], "dtype": "float32", "quantization": {"dtype": "float16", "original_dtype": "float32"}}, {"name": "model/zero_padding2d_40/Pad/paddings", "shape": [4, 2], "dtype": "int32"}, {"name": "model/depthwise_conv2d_37/depthwise/ReadVariableOp", "shape": [3, 3, 48, 1], "dtype": "float32", "quantization": {"dtype": "float16", "original_dtype": "float32"}}, {"name": "model/depthwise_conv2d_37/BiasAdd/ReadVariableOp", "shape": [48], "dtype": "float32", "quantization": {"dtype": "float16", "original_dtype": "float32"}}, {"name": "model/zero_padding2d_41/Pad/paddings", "shape": [4, 2], "dtype": "int32"}, {"name": "model/depthwise_conv2d_38/depthwise/ReadVariableOp", "shape": [3, 3, 48, 1], "dtype": "float32", "quantization": {"dtype": "float16", "original_dtype": "float32"}}, {"name": "model/depthwise_conv2d_38/BiasAdd/ReadVariableOp", "shape": [48], "dtype": "float32", "quantization": {"dtype": "float16", "original_dtype": "float32"}}, {"name": "model/conv2d_73/Conv2D/ReadVariableOp", "shape": [1, 1, 48, 12], "dtype": "float32", "quantization": {"dtype": "float16", "original_dtype": "float32"}}, {"name": "model/conv2d_73/BiasAdd/ReadVariableOp", "shape": [12], "dtype": "float32", "quantization": {"dtype": "float16", "original_dtype": "float32"}}, {"name": "model/tf.concat_6/concat/axis", "shape": [], "dtype": "int32"}, {"name": "model/tf.compat.v1.transpose_1/transpose/perm", "shape": [4], "dtype": "int32"}, {"name": "model/tf.reshape_1/Reshape/shape", "shape": [3], "dtype": "int32"}, {"name": "model/conv2d_74/Conv2D/ReadVariableOp", "shape": [1, 1, 256, 64], "dtype": "float32", "quantization": {"dtype": "float16", "original_dtype": "float32"}}, {"name": "model/conv2d_74/BiasAdd/ReadVariableOp", "shape": [64], "dtype": "float32", "quantization": {"dtype": "float16", "original_dtype": "float32"}}, {"name": "model/zero_padding2d_42/Pad/paddings", "shape": [4, 2], "dtype": "int32"}, {"name": "model/depthwise_conv2d_39/depthwise/ReadVariableOp", "shape": [3, 3, 64, 1], "dtype": "float32", "quantization": {"dtype": "float16", "original_dtype": "float32"}}, {"name": "model/depthwise_conv2d_39/BiasAdd/ReadVariableOp", "shape": [64], "dtype": "float32", "quantization": {"dtype": "float16", "original_dtype": "float32"}}, {"name": "model/zero_padding2d_43/Pad/paddings", "shape": [4, 2], "dtype": "int32"}, {"name": "model/depthwise_conv2d_40/depthwise/ReadVariableOp", "shape": [3, 3, 64, 1], "dtype": "float32", "quantization": {"dtype": "float16", "original_dtype": "float32"}}, {"name": "model/depthwise_conv2d_40/BiasAdd/ReadVariableOp", "shape": [64], "dtype": "float32", "quantization": {"dtype": "float16", "original_dtype": "float32"}}, {"name": "model/conv2d_75/Conv2D/ReadVariableOp", "shape": [1, 1, 64, 64], "dtype": "float32", "quantization": {"dtype": "float16", "original_dtype": "float32"}}, {"name": "model/conv2d_75/BiasAdd/ReadVariableOp", "shape": [64], "dtype": "float32", "quantization": {"dtype": "float16", "original_dtype": "float32"}}, {"name": "model/tf.image.resize_1/resize/size", "shape": [2], "dtype": "int32"}, {"name": "model/tf.concat_2/concat/axis", "shape": [], "dtype": "int32"}, {"name": "model/zero_padding2d_20/Pad/paddings", "shape": [4, 2], "dtype": "int32"}, {"name": "model/zero_padding2d_21/Pad/paddings", "shape": [4, 2], "dtype": "int32"}, {"name": "model/zero_padding2d_22/Pad/paddings", "shape": [4, 2], "dtype": "int32"}, {"name": "model/zero_padding2d_23/Pad/paddings", "shape": [4, 2], "dtype": "int32"}, {"name": "model/zero_padding2d_24/Pad/paddings", "shape": [4, 2], "dtype": "int32"}, {"name": "model/tf.image.resize/resize/size", "shape": [2], "dtype": "int32"}, {"name": "model/tf.concat_1/concat/axis", "shape": [], "dtype": "int32"}, {"name": "model/zero_padding2d_16/Pad/paddings", "shape": [4, 2], "dtype": "int32"}, {"name": "model/zero_padding2d_17/Pad/paddings", "shape": [4, 2], "dtype": "int32"}, {"name": "model/zero_padding2d_18/Pad/paddings", "shape": [4, 2], "dtype": "int32"}, {"name": "model/zero_padding2d_19/Pad/paddings", "shape": [4, 2], "dtype": "int32"}, {"name": "model/tf.concat_3/concat/axis", "shape": [], "dtype": "int32"}, {"name": "model/zero_padding2d_25/Pad/paddings", "shape": [4, 2], "dtype": "int32"}, {"name": "model/zero_padding2d_26/Pad/paddings", "shape": [4, 2], "dtype": "int32"}, {"name": "model/zero_padding2d_27/Pad/paddings", "shape": [4, 2], "dtype": "int32"}, {"name": "model/zero_padding2d_28/Pad/paddings", "shape": [4, 2], "dtype": "int32"}, {"name": "model/zero_padding2d_29/Pad/paddings", "shape": [4, 2], "dtype": "int32"}, {"name": "model/zero_padding2d/Pad/paddings", "shape": [4, 2], "dtype": "int32"}, {"name": "model/zero_padding2d_1/Pad/paddings", "shape": [4, 2], "dtype": "int32"}, {"name": "model/zero_padding2d_2/Pad/paddings", "shape": [4, 2], "dtype": "int32"}, {"name": "model/zero_padding2d_3/Pad/paddings", "shape": [4, 2], "dtype": "int32"}, {"name": "model/zero_padding2d_4/Pad/paddings", "shape": [4, 2], "dtype": "int32"}, {"name": "model/zero_padding2d_5/Pad/paddings", "shape": [4, 2], "dtype": "int32"}, {"name": "model/zero_padding2d_6/Pad/paddings", "shape": [4, 2], "dtype": "int32"}, {"name": "model/zero_padding2d_7/Pad/paddings", "shape": [4, 2], "dtype": "int32"}, {"name": "model/zero_padding2d_8/Pad/paddings", "shape": [4, 2], "dtype": "int32"}, {"name": "model/zero_padding2d_9/Pad/paddings", "shape": [4, 2], "dtype": "int32"}, {"name": "model/zero_padding2d_10/Pad/paddings", "shape": [4, 2], "dtype": "int32"}, {"name": "model/zero_padding2d_11/Pad/paddings", "shape": [4, 2], "dtype": "int32"}, {"name": "model/zero_padding2d_12/Pad/paddings", "shape": [4, 2], "dtype": "int32"}, {"name": "model/zero_padding2d_13/Pad/paddings", "shape": [4, 2], "dtype": "int32"}, {"name": "model/zero_padding2d_14/Pad/paddings", "shape": [4, 2], "dtype": "int32"}, {"name": "model/zero_padding2d_15/Pad/paddings", "shape": [4, 2], "dtype": "int32"}, {"name": "model/conv2d_31/Conv2D/ReadVariableOp", "shape": [1, 1, 128, 64], "dtype": "float32", "quantization": {"dtype": "float16", "original_dtype": "float32"}}, {"name": "model/conv2d_31/BiasAdd/ReadVariableOp", "shape": [64], "dtype": "float32", "quantization": {"dtype": "float16", "original_dtype": "float32"}}, {"name": "model/tf.compat.v1.pad/PadV2/paddings", "shape": [4, 2], "dtype": "int32"}, {"name": "model/tf.compat.v1.pad/PadV2/constant_values", "shape": [], "dtype": "float32", "quantization": {"dtype": "float16", "original_dtype": "float32"}}, {"name": "model/tf.compat.v1.pad_1/PadV2/paddings", "shape": [4, 2], "dtype": "int32"}, {"name": "model/tf.compat.v1.pad_1/PadV2/constant_values", "shape": [], "dtype": "float32", "quantization": {"dtype": "float16", "original_dtype": "float32"}}, {"name": "model/tf.compat.v1.pad_2/PadV2/paddings", "shape": [4, 2], "dtype": "int32"}, {"name": "model/tf.compat.v1.pad_2/PadV2/constant_values", "shape": [], "dtype": "float32", "quantization": {"dtype": "float16", "original_dtype": "float32"}}, {"name": "model/tf.concat/concat/axis", "shape": [], "dtype": "int32"}, {"name": "model/conv2d_32/Conv2D/ReadVariableOp", "shape": [1, 1, 256, 128], "dtype": "float32", "quantization": {"dtype": "float16", "original_dtype": "float32"}}, {"name": "model/conv2d_32/BiasAdd/ReadVariableOp", "shape": [128], "dtype": "float32", "quantization": {"dtype": "float16", "original_dtype": "float32"}}, {"name": "model/tf.concat_4/concat/axis", "shape": [], "dtype": "int32"}, {"name": "model/conv2d_76/Conv2D/ReadVariableOp", "shape": [1, 1, 256, 48], "dtype": "float32", "quantization": {"dtype": "float16", "original_dtype": "float32"}}, {"name": "model/conv2d_76/BiasAdd/ReadVariableOp", "shape": [48], "dtype": "float32", "quantization": {"dtype": "float16", "original_dtype": "float32"}}, {"name": "model/zero_padding2d_44/Pad/paddings", "shape": [4, 2], "dtype": "int32"}, {"name": "model/depthwise_conv2d_41/depthwise/ReadVariableOp", "shape": [3, 3, 48, 1], "dtype": "float32", "quantization": {"dtype": "float16", "original_dtype": "float32"}}, {"name": "model/depthwise_conv2d_41/BiasAdd/ReadVariableOp", "shape": [48], "dtype": "float32", "quantization": {"dtype": "float16", "original_dtype": "float32"}}, {"name": "model/zero_padding2d_45/Pad/paddings", "shape": [4, 2], "dtype": "int32"}, {"name": "model/depthwise_conv2d_42/depthwise/ReadVariableOp", "shape": [3, 3, 48, 1], "dtype": "float32", "quantization": {"dtype": "float16", "original_dtype": "float32"}}, {"name": "model/depthwise_conv2d_42/BiasAdd/ReadVariableOp", "shape": [48], "dtype": "float32", "quantization": {"dtype": "float16", "original_dtype": "float32"}}, {"name": "model/conv2d_77/Conv2D/ReadVariableOp", "shape": [1, 1, 48, 12], "dtype": "float32", "quantization": {"dtype": "float16", "original_dtype": "float32"}}, {"name": "model/conv2d_77/BiasAdd/ReadVariableOp", "shape": [12], "dtype": "float32", "quantization": {"dtype": "float16", "original_dtype": "float32"}}, {"name": "model/tf.concat_7/concat/axis", "shape": [], "dtype": "int32"}, {"name": "model/tf.compat.v1.transpose_2/transpose/perm", "shape": [4], "dtype": "int32"}, {"name": "model/tf.reshape_2/Reshape/shape", "shape": [3], "dtype": "int32"}, {"name": "model/tf.concat_8/concat/axis", "shape": [], "dtype": "int32"}, {"name": "model/tf.__operators__.getitem_9/strided_slice/stack", "shape": [2], "dtype": "int32"}, {"name": "model/tf.__operators__.getitem_9/strided_slice/stack_1", "shape": [2], "dtype": "int32"}, {"name": "model/tf.__operators__.getitem_9/strided_slice/stack_2", "shape": [2], "dtype": "int32"}, {"name": "model/tf.concat_10/concat/axis", "shape": [], "dtype": "int32"}, {"name": "model/conv2d/Conv2D_weights", "shape": [3, 3, 3, 24], "dtype": "float32", "quantization": {"dtype": "float16", "original_dtype": "float32"}}, {"name": "model/conv2d/Conv2D_bn_offset", "shape": [24], "dtype": "float32", "quantization": {"dtype": "float16", "original_dtype": "float32"}}, {"name": "model/conv2d_1/Conv2D_weights", "shape": [1, 1, 24, 24], "dtype": "float32", "quantization": {"dtype": "float16", "original_dtype": "float32"}}, {"name": "model/conv2d_56/Conv2D_bn_offset", "shape": [88], "dtype": "float32", "quantization": {"dtype": "float16", "original_dtype": "float32"}}, {"name": "model/conv2d_1/Conv2D_bn_offset", "shape": [24], "dtype": "float32", "quantization": {"dtype": "float16", "original_dtype": "float32"}}, {"name": "model/depthwise_conv2d/depthwise_weights", "shape": [3, 3, 24, 1], "dtype": "float32", "quantization": {"dtype": "float16", "original_dtype": "float32"}}, {"name": "model/depthwise_conv2d/depthwise_bn_offset", "shape": [24], "dtype": "float32", "quantization": {"dtype": "float16", "original_dtype": "float32"}}, {"name": "model/conv2d_2/Conv2D_weights", "shape": [1, 1, 24, 24], "dtype": "float32", "quantization": {"dtype": "float16", "original_dtype": "float32"}}, {"name": "model/conv2d_2/Conv2D_bn_offset", "shape": [24], "dtype": "float32", "quantization": {"dtype": "float16", "original_dtype": "float32"}}, {"name": "model/conv2d_3/Conv2D_weights", "shape": [1, 1, 24, 128], "dtype": "float32", "quantization": {"dtype": "float16", "original_dtype": "float32"}}, {"name": "model/conv2d_3/Conv2D_bn_offset", "shape": [128], "dtype": "float32", "quantization": {"dtype": "float16", "original_dtype": "float32"}}, {"name": "model/depthwise_conv2d_1/depthwise_weights", "shape": [3, 3, 128, 1], "dtype": "float32", "quantization": {"dtype": "float16", "original_dtype": "float32"}}, {"name": "model/depthwise_conv2d_1/depthwise_bn_offset", "shape": [128], "dtype": "float32", "quantization": {"dtype": "float16", "original_dtype": "float32"}}, {"name": "model/conv2d_4/Conv2D_weights", "shape": [1, 1, 128, 48], "dtype": "float32", "quantization": {"dtype": "float16", "original_dtype": "float32"}}, {"name": "model/conv2d_4/Conv2D_bn_offset", "shape": [48], "dtype": "float32", "quantization": {"dtype": "float16", "original_dtype": "float32"}}, {"name": "model/conv2d_5/Conv2D_weights", "shape": [1, 1, 48, 128], "dtype": "float32", "quantization": {"dtype": "float16", "original_dtype": "float32"}}, {"name": "model/conv2d_57/Conv2D_weights", "shape": [3, 3, 88, 128], "dtype": "float32", "quantization": {"dtype": "float16", "original_dtype": "float32"}}, {"name": "model/conv2d_5/Conv2D_bn_offset", "shape": [128], "dtype": "float32", "quantization": {"dtype": "float16", "original_dtype": "float32"}}, {"name": "model/depthwise_conv2d_2/depthwise_weights", "shape": [3, 3, 128, 1], "dtype": "float32", "quantization": {"dtype": "float16", "original_dtype": "float32"}}, {"name": "model/depthwise_conv2d_2/depthwise_bn_offset", "shape": [128], "dtype": "float32", "quantization": {"dtype": "float16", "original_dtype": "float32"}}, {"name": "model/conv2d_6/Conv2D_weights", "shape": [1, 1, 128, 48], "dtype": "float32", "quantization": {"dtype": "float16", "original_dtype": "float32"}}, {"name": "model/conv2d_6/Conv2D_bn_offset", "shape": [48], "dtype": "float32", "quantization": {"dtype": "float16", "original_dtype": "float32"}}, {"name": "model/conv2d_7/Conv2D_weights", "shape": [1, 1, 48, 128], "dtype": "float32", "quantization": {"dtype": "float16", "original_dtype": "float32"}}, {"name": "model/conv2d_57/Conv2D_bn_offset", "shape": [128], "dtype": "float32", "quantization": {"dtype": "float16", "original_dtype": "float32"}}, {"name": "model/conv2d_7/Conv2D_bn_offset", "shape": [128], "dtype": "float32", "quantization": {"dtype": "float16", "original_dtype": "float32"}}, {"name": "model/depthwise_conv2d_3/depthwise_weights", "shape": [3, 3, 128, 1], "dtype": "float32", "quantization": {"dtype": "float16", "original_dtype": "float32"}}, {"name": "model/depthwise_conv2d_3/depthwise_bn_offset", "shape": [128], "dtype": "float32", "quantization": {"dtype": "float16", "original_dtype": "float32"}}, {"name": "model/conv2d_8/Conv2D_weights", "shape": [1, 1, 128, 48], "dtype": "float32", "quantization": {"dtype": "float16", "original_dtype": "float32"}}, {"name": "model/conv2d_8/Conv2D_bn_offset", "shape": [48], "dtype": "float32", "quantization": {"dtype": "float16", "original_dtype": "float32"}}, {"name": "model/conv2d_9/Conv2D_weights", "shape": [1, 1, 48, 128], "dtype": "float32", "quantization": {"dtype": "float16", "original_dtype": "float32"}}, {"name": "model/conv2d_9/Conv2D_bn_offset", "shape": [128], "dtype": "float32", "quantization": {"dtype": "float16", "original_dtype": "float32"}}, {"name": "model/depthwise_conv2d_4/depthwise_weights", "shape": [5, 5, 128, 1], "dtype": "float32", "quantization": {"dtype": "float16", "original_dtype": "float32"}}, {"name": "model/depthwise_conv2d_4/depthwise_bn_offset", "shape": [128], "dtype": "float32", "quantization": {"dtype": "float16", "original_dtype": "float32"}}, {"name": "model/conv2d_10/Conv2D_weights", "shape": [1, 1, 128, 88], "dtype": "float32", "quantization": {"dtype": "float16", "original_dtype": "float32"}}, {"name": "model/conv2d_10/Conv2D_bn_offset", "shape": [88], "dtype": "float32", "quantization": {"dtype": "float16", "original_dtype": "float32"}}, {"name": "model/conv2d_11/Conv2D_weights", "shape": [1, 1, 88, 256], "dtype": "float32", "quantization": {"dtype": "float16", "original_dtype": "float32"}}, {"name": "model/conv2d_11/Conv2D_bn_offset", "shape": [256], "dtype": "float32", "quantization": {"dtype": "float16", "original_dtype": "float32"}}, {"name": "model/depthwise_conv2d_5/depthwise_weights", "shape": [5, 5, 256, 1], "dtype": "float32", "quantization": {"dtype": "float16", "original_dtype": "float32"}}, {"name": "model/depthwise_conv2d_5/depthwise_bn_offset", "shape": [256], "dtype": "float32", "quantization": {"dtype": "float16", "original_dtype": "float32"}}, {"name": "model/conv2d_12/Conv2D_weights", "shape": [1, 1, 256, 88], "dtype": "float32", "quantization": {"dtype": "float16", "original_dtype": "float32"}}, {"name": "model/conv2d_12/Conv2D_bn_offset", "shape": [88], "dtype": "float32", "quantization": {"dtype": "float16", "original_dtype": "float32"}}, {"name": "model/conv2d_13/Conv2D_weights", "shape": [1, 1, 88, 256], "dtype": "float32", "quantization": {"dtype": "float16", "original_dtype": "float32"}}, {"name": "model/conv2d_13/Conv2D_bn_offset", "shape": [256], "dtype": "float32", "quantization": {"dtype": "float16", "original_dtype": "float32"}}, {"name": "model/depthwise_conv2d_6/depthwise_weights", "shape": [5, 5, 256, 1], "dtype": "float32", "quantization": {"dtype": "float16", "original_dtype": "float32"}}, {"name": "model/depthwise_conv2d_6/depthwise_bn_offset", "shape": [256], "dtype": "float32", "quantization": {"dtype": "float16", "original_dtype": "float32"}}, {"name": "model/conv2d_14/Conv2D_weights", "shape": [1, 1, 256, 88], "dtype": "float32", "quantization": {"dtype": "float16", "original_dtype": "float32"}}, {"name": "model/conv2d_14/Conv2D_bn_offset", "shape": [88], "dtype": "float32", "quantization": {"dtype": "float16", "original_dtype": "float32"}}, {"name": "model/conv2d_15/Conv2D_weights", "shape": [1, 1, 88, 256], "dtype": "float32", "quantization": {"dtype": "float16", "original_dtype": "float32"}}, {"name": "model/conv2d_15/Conv2D_bn_offset", "shape": [256], "dtype": "float32", "quantization": {"dtype": "float16", "original_dtype": "float32"}}, {"name": "model/depthwise_conv2d_7/depthwise_weights", "shape": [5, 5, 256, 1], "dtype": "float32", "quantization": {"dtype": "float16", "original_dtype": "float32"}}, {"name": "model/depthwise_conv2d_7/depthwise_bn_offset", "shape": [256], "dtype": "float32", "quantization": {"dtype": "float16", "original_dtype": "float32"}}, {"name": "model/conv2d_16/Conv2D_weights", "shape": [1, 1, 256, 88], "dtype": "float32", "quantization": {"dtype": "float16", "original_dtype": "float32"}}, {"name": "model/conv2d_16/Conv2D_bn_offset", "shape": [88], "dtype": "float32", "quantization": {"dtype": "float16", "original_dtype": "float32"}}, {"name": "model/conv2d_17/Conv2D_weights", "shape": [1, 1, 88, 256], "dtype": "float32", "quantization": {"dtype": "float16", "original_dtype": "float32"}}, {"name": "model/conv2d_17/Conv2D_bn_offset", "shape": [256], "dtype": "float32", "quantization": {"dtype": "float16", "original_dtype": "float32"}}, {"name": "model/depthwise_conv2d_8/depthwise_weights", "shape": [5, 5, 256, 1], "dtype": "float32", "quantization": {"dtype": "float16", "original_dtype": "float32"}}, {"name": "model/depthwise_conv2d_8/depthwise_bn_offset", "shape": [256], "dtype": "float32", "quantization": {"dtype": "float16", "original_dtype": "float32"}}, {"name": "model/conv2d_18/Conv2D_weights", "shape": [1, 1, 256, 88], "dtype": "float32", "quantization": {"dtype": "float16", "original_dtype": "float32"}}, {"name": "model/conv2d_18/Conv2D_bn_offset", "shape": [88], "dtype": "float32", "quantization": {"dtype": "float16", "original_dtype": "float32"}}, {"name": "model/conv2d_19/Conv2D_weights", "shape": [1, 1, 88, 256], "dtype": "float32", "quantization": {"dtype": "float16", "original_dtype": "float32"}}, {"name": "model/conv2d_19/Conv2D_bn_offset", "shape": [256], "dtype": "float32", "quantization": {"dtype": "float16", "original_dtype": "float32"}}, {"name": "model/depthwise_conv2d_9/depthwise_weights", "shape": [5, 5, 256, 1], "dtype": "float32", "quantization": {"dtype": "float16", "original_dtype": "float32"}}, {"name": "model/depthwise_conv2d_9/depthwise_bn_offset", "shape": [256], "dtype": "float32", "quantization": {"dtype": "float16", "original_dtype": "float32"}}, {"name": "model/conv2d_20/Conv2D_weights", "shape": [1, 1, 256, 88], "dtype": "float32", "quantization": {"dtype": "float16", "original_dtype": "float32"}}, {"name": "model/conv2d_20/Conv2D_bn_offset", "shape": [88], "dtype": "float32", "quantization": {"dtype": "float16", "original_dtype": "float32"}}, {"name": "model/conv2d_21/Conv2D_weights", "shape": [1, 1, 88, 768], "dtype": "float32", "quantization": {"dtype": "float16", "original_dtype": "float32"}}, {"name": "model/conv2d_21/Conv2D_bn_offset", "shape": [768], "dtype": "float32", "quantization": {"dtype": "float16", "original_dtype": "float32"}}, {"name": "model/depthwise_conv2d_10/depthwise_weights", "shape": [5, 5, 768, 1], "dtype": "float32", "quantization": {"dtype": "float16", "original_dtype": "float32"}}, {"name": "model/depthwise_conv2d_10/depthwise_bn_offset", "shape": [768], "dtype": "float32", "quantization": {"dtype": "float16", "original_dtype": "float32"}}, {"name": "model/conv2d_22/Conv2D_weights", "shape": [1, 1, 768, 128], "dtype": "float32", "quantization": {"dtype": "float16", "original_dtype": "float32"}}, {"name": "model/conv2d_22/Conv2D_bn_offset", "shape": [128], "dtype": "float32", "quantization": {"dtype": "float16", "original_dtype": "float32"}}, {"name": "model/conv2d_23/Conv2D_weights", "shape": [1, 1, 128, 768], "dtype": "float32", "quantization": {"dtype": "float16", "original_dtype": "float32"}}, {"name": "model/conv2d_23/Conv2D_bn_offset", "shape": [768], "dtype": "float32", "quantization": {"dtype": "float16", "original_dtype": "float32"}}, {"name": "model/depthwise_conv2d_11/depthwise_weights", "shape": [5, 5, 768, 1], "dtype": "float32", "quantization": {"dtype": "float16", "original_dtype": "float32"}}, {"name": "model/depthwise_conv2d_11/depthwise_bn_offset", "shape": [768], "dtype": "float32", "quantization": {"dtype": "float16", "original_dtype": "float32"}}, {"name": "model/conv2d_24/Conv2D_weights", "shape": [1, 1, 768, 128], "dtype": "float32", "quantization": {"dtype": "float16", "original_dtype": "float32"}}, {"name": "model/conv2d_24/Conv2D_bn_offset", "shape": [128], "dtype": "float32", "quantization": {"dtype": "float16", "original_dtype": "float32"}}, {"name": "model/conv2d_25/Conv2D_weights", "shape": [1, 1, 128, 768], "dtype": "float32", "quantization": {"dtype": "float16", "original_dtype": "float32"}}, {"name": "model/conv2d_25/Conv2D_bn_offset", "shape": [768], "dtype": "float32", "quantization": {"dtype": "float16", "original_dtype": "float32"}}, {"name": "model/depthwise_conv2d_12/depthwise_weights", "shape": [5, 5, 768, 1], "dtype": "float32", "quantization": {"dtype": "float16", "original_dtype": "float32"}}, {"name": "model/depthwise_conv2d_12/depthwise_bn_offset", "shape": [768], "dtype": "float32", "quantization": {"dtype": "float16", "original_dtype": "float32"}}, {"name": "model/conv2d_26/Conv2D_weights", "shape": [1, 1, 768, 128], "dtype": "float32", "quantization": {"dtype": "float16", "original_dtype": "float32"}}, {"name": "model/conv2d_26/Conv2D_bn_offset", "shape": [128], "dtype": "float32", "quantization": {"dtype": "float16", "original_dtype": "float32"}}, {"name": "model/conv2d_27/Conv2D_weights", "shape": [1, 1, 128, 768], "dtype": "float32", "quantization": {"dtype": "float16", "original_dtype": "float32"}}, {"name": "model/conv2d_27/Conv2D_bn_offset", "shape": [768], "dtype": "float32", "quantization": {"dtype": "float16", "original_dtype": "float32"}}, {"name": "model/depthwise_conv2d_13/depthwise_weights", "shape": [5, 5, 768, 1], "dtype": "float32", "quantization": {"dtype": "float16", "original_dtype": "float32"}}, {"name": "model/depthwise_conv2d_13/depthwise_bn_offset", "shape": [768], "dtype": "float32", "quantization": {"dtype": "float16", "original_dtype": "float32"}}, {"name": "model/conv2d_28/Conv2D_weights", "shape": [1, 1, 768, 128], "dtype": "float32", "quantization": {"dtype": "float16", "original_dtype": "float32"}}, {"name": "model/conv2d_28/Conv2D_bn_offset", "shape": [128], "dtype": "float32", "quantization": {"dtype": "float16", "original_dtype": "float32"}}, {"name": "model/conv2d_29/Conv2D_weights", "shape": [1, 1, 128, 768], "dtype": "float32", "quantization": {"dtype": "float16", "original_dtype": "float32"}}, {"name": "model/conv2d_29/Conv2D_bn_offset", "shape": [768], "dtype": "float32", "quantization": {"dtype": "float16", "original_dtype": "float32"}}, {"name": "model/depthwise_conv2d_14/depthwise_weights", "shape": [5, 5, 768, 1], "dtype": "float32", "quantization": {"dtype": "float16", "original_dtype": "float32"}}, {"name": "model/depthwise_conv2d_14/depthwise_bn_offset", "shape": [768], "dtype": "float32", "quantization": {"dtype": "float16", "original_dtype": "float32"}}, {"name": "model/conv2d_30/Conv2D_weights", "shape": [1, 1, 768, 128], "dtype": "float32", "quantization": {"dtype": "float16", "original_dtype": "float32"}}, {"name": "model/conv2d_30/Conv2D_bn_offset", "shape": [128], "dtype": "float32", "quantization": {"dtype": "float16", "original_dtype": "float32"}}, {"name": "model/conv2d_33/Conv2D_weights", "shape": [1, 1, 216, 176], "dtype": "float32", "quantization": {"dtype": "float16", "original_dtype": "float32"}}, {"name": "model/conv2d_33/Conv2D_bn_offset", "shape": [176], "dtype": "float32", "quantization": {"dtype": "float16", "original_dtype": "float32"}}, {"name": "model/depthwise_conv2d_15/depthwise_weights", "shape": [5, 5, 176, 1], "dtype": "float32", "quantization": {"dtype": "float16", "original_dtype": "float32"}}, {"name": "model/depthwise_conv2d_15/depthwise_bn_offset", "shape": [176], "dtype": "float32", "quantization": {"dtype": "float16", "original_dtype": "float32"}}, {"name": "model/conv2d_34/Conv2D_weights", "shape": [1, 1, 176, 88], "dtype": "float32", "quantization": {"dtype": "float16", "original_dtype": "float32"}}, {"name": "model/conv2d_34/Conv2D_bn_offset", "shape": [88], "dtype": "float32", "quantization": {"dtype": "float16", "original_dtype": "float32"}}, {"name": "model/conv2d_35/Conv2D_weights", "shape": [1, 1, 88, 176], "dtype": "float32", "quantization": {"dtype": "float16", "original_dtype": "float32"}}, {"name": "model/conv2d_35/Conv2D_bn_offset", "shape": [176], "dtype": "float32", "quantization": {"dtype": "float16", "original_dtype": "float32"}}, {"name": "model/depthwise_conv2d_16/depthwise_weights", "shape": [5, 5, 176, 1], "dtype": "float32", "quantization": {"dtype": "float16", "original_dtype": "float32"}}, {"name": "model/depthwise_conv2d_16/depthwise_bn_offset", "shape": [176], "dtype": "float32", "quantization": {"dtype": "float16", "original_dtype": "float32"}}, {"name": "model/conv2d_36/Conv2D_weights", "shape": [1, 1, 176, 88], "dtype": "float32", "quantization": {"dtype": "float16", "original_dtype": "float32"}}, {"name": "model/conv2d_36/Conv2D_bn_offset", "shape": [88], "dtype": "float32", "quantization": {"dtype": "float16", "original_dtype": "float32"}}, {"name": "model/conv2d_37/Conv2D_weights", "shape": [1, 1, 88, 176], "dtype": "float32", "quantization": {"dtype": "float16", "original_dtype": "float32"}}, {"name": "model/conv2d_37/Conv2D_bn_offset", "shape": [176], "dtype": "float32", "quantization": {"dtype": "float16", "original_dtype": "float32"}}, {"name": "model/depthwise_conv2d_17/depthwise_weights", "shape": [5, 5, 176, 1], "dtype": "float32", "quantization": {"dtype": "float16", "original_dtype": "float32"}}, {"name": "model/depthwise_conv2d_17/depthwise_bn_offset", "shape": [176], "dtype": "float32", "quantization": {"dtype": "float16", "original_dtype": "float32"}}, {"name": "model/conv2d_38/Conv2D_weights", "shape": [1, 1, 176, 88], "dtype": "float32", "quantization": {"dtype": "float16", "original_dtype": "float32"}}, {"name": "model/conv2d_38/Conv2D_bn_offset", "shape": [88], "dtype": "float32", "quantization": {"dtype": "float16", "original_dtype": "float32"}}, {"name": "model/conv2d_39/Conv2D_weights", "shape": [1, 1, 88, 176], "dtype": "float32", "quantization": {"dtype": "float16", "original_dtype": "float32"}}, {"name": "model/conv2d_39/Conv2D_bn_offset", "shape": [176], "dtype": "float32", "quantization": {"dtype": "float16", "original_dtype": "float32"}}, {"name": "model/depthwise_conv2d_18/depthwise_weights", "shape": [5, 5, 176, 1], "dtype": "float32", "quantization": {"dtype": "float16", "original_dtype": "float32"}}, {"name": "model/depthwise_conv2d_18/depthwise_bn_offset", "shape": [176], "dtype": "float32", "quantization": {"dtype": "float16", "original_dtype": "float32"}}, {"name": "model/conv2d_40/Conv2D_weights", "shape": [1, 1, 176, 88], "dtype": "float32", "quantization": {"dtype": "float16", "original_dtype": "float32"}}, {"name": "model/conv2d_40/Conv2D_bn_offset", "shape": [88], "dtype": "float32", "quantization": {"dtype": "float16", "original_dtype": "float32"}}, {"name": "model/depthwise_conv2d_19/depthwise_weights", "shape": [3, 3, 136, 1], "dtype": "float32", "quantization": {"dtype": "float16", "original_dtype": "float32"}}, {"name": "model/depthwise_conv2d_19/depthwise_bn_offset", "shape": [136], "dtype": "float32", "quantization": {"dtype": "float16", "original_dtype": "float32"}}, {"name": "model/conv2d_41/Conv2D_weights", "shape": [1, 1, 136, 48], "dtype": "float32", "quantization": {"dtype": "float16", "original_dtype": "float32"}}, {"name": "model/conv2d_41/Conv2D_bn_offset", "shape": [48], "dtype": "float32", "quantization": {"dtype": "float16", "original_dtype": "float32"}}, {"name": "model/conv2d_42/Conv2D_weights", "shape": [1, 1, 48, 88], "dtype": "float32", "quantization": {"dtype": "float16", "original_dtype": "float32"}}, {"name": "model/conv2d_42/Conv2D_bn_offset", "shape": [88], "dtype": "float32", "quantization": {"dtype": "float16", "original_dtype": "float32"}}, {"name": "model/depthwise_conv2d_20/depthwise_weights", "shape": [3, 3, 88, 1], "dtype": "float32", "quantization": {"dtype": "float16", "original_dtype": "float32"}}, {"name": "model/depthwise_conv2d_20/depthwise_bn_offset", "shape": [88], "dtype": "float32", "quantization": {"dtype": "float16", "original_dtype": "float32"}}, {"name": "model/conv2d_43/Conv2D_weights", "shape": [1, 1, 88, 48], "dtype": "float32", "quantization": {"dtype": "float16", "original_dtype": "float32"}}, {"name": "model/conv2d_43/Conv2D_bn_offset", "shape": [48], "dtype": "float32", "quantization": {"dtype": "float16", "original_dtype": "float32"}}, {"name": "model/conv2d_44/Conv2D_weights", "shape": [1, 1, 48, 88], "dtype": "float32", "quantization": {"dtype": "float16", "original_dtype": "float32"}}, {"name": "model/conv2d_44/Conv2D_bn_offset", "shape": [88], "dtype": "float32", "quantization": {"dtype": "float16", "original_dtype": "float32"}}, {"name": "model/depthwise_conv2d_21/depthwise_weights", "shape": [3, 3, 88, 1], "dtype": "float32", "quantization": {"dtype": "float16", "original_dtype": "float32"}}, {"name": "model/depthwise_conv2d_21/depthwise_bn_offset", "shape": [88], "dtype": "float32", "quantization": {"dtype": "float16", "original_dtype": "float32"}}, {"name": "model/conv2d_45/Conv2D_weights", "shape": [1, 1, 88, 48], "dtype": "float32", "quantization": {"dtype": "float16", "original_dtype": "float32"}}, {"name": "model/conv2d_45/Conv2D_bn_offset", "shape": [48], "dtype": "float32", "quantization": {"dtype": "float16", "original_dtype": "float32"}}, {"name": "model/conv2d_46/Conv2D_weights", "shape": [1, 1, 48, 176], "dtype": "float32", "quantization": {"dtype": "float16", "original_dtype": "float32"}}, {"name": "model/conv2d_46/Conv2D_bn_offset", "shape": [176], "dtype": "float32", "quantization": {"dtype": "float16", "original_dtype": "float32"}}, {"name": "model/depthwise_conv2d_22/depthwise_weights", "shape": [5, 5, 176, 1], "dtype": "float32", "quantization": {"dtype": "float16", "original_dtype": "float32"}}, {"name": "model/depthwise_conv2d_22/depthwise_bn_offset", "shape": [176], "dtype": "float32", "quantization": {"dtype": "float16", "original_dtype": "float32"}}, {"name": "model/conv2d_47/Conv2D_weights", "shape": [1, 1, 176, 88], "dtype": "float32", "quantization": {"dtype": "float16", "original_dtype": "float32"}}, {"name": "model/conv2d_47/Conv2D_bn_offset", "shape": [88], "dtype": "float32", "quantization": {"dtype": "float16", "original_dtype": "float32"}}, {"name": "model/conv2d_48/Conv2D_weights", "shape": [3, 3, 88, 88], "dtype": "float32", "quantization": {"dtype": "float16", "original_dtype": "float32"}}, {"name": "model/conv2d_48/Conv2D_bn_offset", "shape": [88], "dtype": "float32", "quantization": {"dtype": "float16", "original_dtype": "float32"}}, {"name": "model/conv2d_49/Conv2D_weights", "shape": [1, 1, 176, 176], "dtype": "float32", "quantization": {"dtype": "float16", "original_dtype": "float32"}}, {"name": "model/conv2d_49/Conv2D_bn_offset", "shape": [176], "dtype": "float32", "quantization": {"dtype": "float16", "original_dtype": "float32"}}, {"name": "model/depthwise_conv2d_23/depthwise_weights", "shape": [5, 5, 176, 1], "dtype": "float32", "quantization": {"dtype": "float16", "original_dtype": "float32"}}, {"name": "model/depthwise_conv2d_23/depthwise_bn_offset", "shape": [176], "dtype": "float32", "quantization": {"dtype": "float16", "original_dtype": "float32"}}, {"name": "model/conv2d_50/Conv2D_weights", "shape": [1, 1, 176, 88], "dtype": "float32", "quantization": {"dtype": "float16", "original_dtype": "float32"}}, {"name": "model/conv2d_50/Conv2D_bn_offset", "shape": [88], "dtype": "float32", "quantization": {"dtype": "float16", "original_dtype": "float32"}}, {"name": "model/conv2d_51/Conv2D_weights", "shape": [1, 1, 88, 176], "dtype": "float32", "quantization": {"dtype": "float16", "original_dtype": "float32"}}, {"name": "model/conv2d_51/Conv2D_bn_offset", "shape": [176], "dtype": "float32", "quantization": {"dtype": "float16", "original_dtype": "float32"}}, {"name": "model/depthwise_conv2d_24/depthwise_weights", "shape": [5, 5, 176, 1], "dtype": "float32", "quantization": {"dtype": "float16", "original_dtype": "float32"}}, {"name": "model/depthwise_conv2d_24/depthwise_bn_offset", "shape": [176], "dtype": "float32", "quantization": {"dtype": "float16", "original_dtype": "float32"}}, {"name": "model/conv2d_52/Conv2D_weights", "shape": [1, 1, 176, 88], "dtype": "float32", "quantization": {"dtype": "float16", "original_dtype": "float32"}}, {"name": "model/conv2d_52/Conv2D_bn_offset", "shape": [88], "dtype": "float32", "quantization": {"dtype": "float16", "original_dtype": "float32"}}, {"name": "model/conv2d_53/Conv2D_weights", "shape": [1, 1, 88, 176], "dtype": "float32", "quantization": {"dtype": "float16", "original_dtype": "float32"}}, {"name": "model/conv2d_53/Conv2D_bn_offset", "shape": [176], "dtype": "float32", "quantization": {"dtype": "float16", "original_dtype": "float32"}}, {"name": "model/depthwise_conv2d_25/depthwise_weights", "shape": [5, 5, 176, 1], "dtype": "float32", "quantization": {"dtype": "float16", "original_dtype": "float32"}}, {"name": "model/depthwise_conv2d_25/depthwise_bn_offset", "shape": [176], "dtype": "float32", "quantization": {"dtype": "float16", "original_dtype": "float32"}}, {"name": "model/conv2d_54/Conv2D_weights", "shape": [1, 1, 176, 88], "dtype": "float32", "quantization": {"dtype": "float16", "original_dtype": "float32"}}, {"name": "model/conv2d_54/Conv2D_bn_offset", "shape": [88], "dtype": "float32", "quantization": {"dtype": "float16", "original_dtype": "float32"}}, {"name": "model/conv2d_55/Conv2D_weights", "shape": [1, 1, 88, 176], "dtype": "float32", "quantization": {"dtype": "float16", "original_dtype": "float32"}}, {"name": "model/conv2d_55/Conv2D_bn_offset", "shape": [176], "dtype": "float32", "quantization": {"dtype": "float16", "original_dtype": "float32"}}, {"name": "model/depthwise_conv2d_26/depthwise_weights", "shape": [5, 5, 176, 1], "dtype": "float32", "quantization": {"dtype": "float16", "original_dtype": "float32"}}, {"name": "model/depthwise_conv2d_26/depthwise_bn_offset", "shape": [176], "dtype": "float32", "quantization": {"dtype": "float16", "original_dtype": "float32"}}, {"name": "model/conv2d_56/Conv2D_weights", "shape": [1, 1, 176, 88], "dtype": "float32", "quantization": {"dtype": "float16", "original_dtype": "float32"}}, {"name": "model/tf.expand_dims/ExpandDims", "shape": [1, 2, 2835], "dtype": "float32", "quantization": {"dtype": "float16", "original_dtype": "float32"}}, {"name": "model/weight_layer_1/StatefulPartitionedCall/Identity", "shape": [1, 2835], "dtype": "float32", "quantization": {"dtype": "float16", "original_dtype": "float32"}}]}]}