{"format": "graph-model", "generatedBy": "2.16.1", "convertedBy": "TensorFlow.js Converter v4.19.0", "signature": {"outputs": {"Identity:0": {"name": "Identity:0"}}}, "modelTopology": {"node": [{"name": "model_4/tf.compat.v1.transpose_73/transpose/perm", "op": "Const", "attr": {"value": {"tensor": {"dtype": "DT_INT32", "tensorShape": {"dim": [{"size": "3"}]}}}, "dtype": {"type": "DT_INT32"}}}, {"name": "model_4/tf.reshape_61/Reshape/shape", "op": "Const", "attr": {"dtype": {"type": "DT_INT64"}, "value": {"tensor": {"dtype": "DT_INT64", "tensorShape": {"dim": [{"size": "2"}]}}}}}, {"name": "model_4/tf.math.cumprod_1/Cumprod", "op": "Const", "attr": {"value": {"tensor": {"dtype": "DT_INT64", "tensorShape": {"dim": [{"size": "2"}]}}}, "dtype": {"type": "DT_INT64"}}}, {"name": "model_4/tf.broadcast_to_2/BroadcastTo", "op": "Const", "attr": {"dtype": {"type": "DT_INT64"}, "value": {"tensor": {"dtype": "DT_INT64", "tensorShape": {"dim": [{"size": "1"}, {"size": "500"}]}}}}}, {"name": "model_4/tf.math.less_5/Less/y", "op": "Const", "attr": {"dtype": {"type": "DT_INT64"}, "value": {"tensor": {"dtype": "DT_INT64", "tensorShape": {}}}}}, {"name": "model_4/tf.cast_104/Cast", "op": "Const", "attr": {"dtype": {"type": "DT_INT64"}, "value": {"tensor": {"dtype": "DT_INT64", "tensorShape": {}}}}}, {"name": "ConstantFolding/model_4/tf.math.truediv_11/truediv_recip", "op": "Const", "attr": {"dtype": {"type": "DT_FLOAT"}, "value": {"tensor": {"dtype": "DT_FLOAT", "tensorShape": {}}}}}, {"name": "model_4/tf.split_109/split/split_dim", "op": "Const", "attr": {"value": {"tensor": {"dtype": "DT_INT32", "tensorShape": {}}}, "dtype": {"type": "DT_INT32"}}}, {"name": "model_4/tf.__operators__.getitem_135/strided_slice/stack", "op": "Const", "attr": {"value": {"tensor": {"dtype": "DT_INT32", "tensorShape": {"dim": [{"size": "2"}]}}}, "dtype": {"type": "DT_INT32"}}}, {"name": "model_4/tf.__operators__.getitem_135/strided_slice/stack_1", "op": "Const", "attr": {"value": {"tensor": {"dtype": "DT_INT32", "tensorShape": {"dim": [{"size": "2"}]}}}, "dtype": {"type": "DT_INT32"}}}, {"name": "model_4/tf.__operators__.getitem_135/strided_slice/stack_2", "op": "Const", "attr": {"value": {"tensor": {"dtype": "DT_INT32", "tensorShape": {"dim": [{"size": "2"}]}}}, "dtype": {"type": "DT_INT32"}}}, {"name": "model_4/tf.reshape_59/Reshape/shape", "op": "Const", "attr": {"value": {"tensor": {"dtype": "DT_INT32", "tensorShape": {"dim": [{"size": "4"}]}}}, "dtype": {"type": "DT_INT32"}}}, {"name": "model_4/tf.compat.v1.transpose_70/transpose/perm", "op": "Const", "attr": {"dtype": {"type": "DT_INT32"}, "value": {"tensor": {"dtype": "DT_INT32", "tensorShape": {"dim": [{"size": "4"}]}}}}}, {"name": "model_4/tf.nn.softmax_11/concat", "op": "Const", "attr": {"value": {"tensor": {"dtype": "DT_INT32", "tensorShape": {"dim": [{"size": "4"}]}}}, "dtype": {"type": "DT_INT32"}}}, {"name": "model_4/tf.nn.softmax_11/concat_1", "op": "Const", "attr": {"dtype": {"type": "DT_INT32"}, "value": {"tensor": {"dtype": "DT_INT32", "tensorShape": {"dim": [{"size": "4"}]}}}}}, {"name": "model_4/tf.compat.v1.transpose_71/transpose/perm", "op": "Const", "attr": {"value": {"tensor": {"dtype": "DT_INT32", "tensorShape": {"dim": [{"size": "4"}]}}}, "dtype": {"type": "DT_INT32"}}}, {"name": "model_4/conv2d_767/Conv2D/ReadVariableOp", "op": "Const", "attr": {"value": {"tensor": {"dtype": "DT_FLOAT", "tensorShape": {"dim": [{"size": "1"}, {"size": "1"}, {"size": "16"}, {"size": "1"}]}}}, "dtype": {"type": "DT_FLOAT"}}}, {"name": "model_4/tf.compat.v1.transpose_72/transpose/perm", "op": "Const", "attr": {"value": {"tensor": {"dtype": "DT_INT32", "tensorShape": {"dim": [{"size": "4"}]}}}, "dtype": {"type": "DT_INT32"}}}, {"name": "model_4/tf.reshape_60/Reshape/shape", "op": "Const", "attr": {"dtype": {"type": "DT_INT32"}, "value": {"tensor": {"dtype": "DT_INT32", "tensorShape": {"dim": [{"size": "3"}]}}}}}, {"name": "model_4/tf.concat_226/concat/axis", "op": "Const", "attr": {"dtype": {"type": "DT_INT32"}, "value": {"tensor": {"dtype": "DT_INT32", "tensorShape": {}}}}}, {"name": "model_4/zero_padding2d_456/Pad/paddings", "op": "Const", "attr": {"value": {"tensor": {"dtype": "DT_INT32", "tensorShape": {"dim": [{"size": "4"}, {"size": "2"}]}}}, "dtype": {"type": "DT_INT32"}}}, {"name": "model_4/conv2d_749/Conv2D/ReadVariableOp", "op": "Const", "attr": {"dtype": {"type": "DT_FLOAT"}, "value": {"tensor": {"dtype": "DT_FLOAT", "tensorShape": {"dim": [{"size": "3"}, {"size": "3"}, {"size": "128"}, {"size": "64"}]}}}}}, {"name": "model_4/conv2d_749/BiasAdd/ReadVariableOp", "op": "Const", "attr": {"dtype": {"type": "DT_FLOAT"}, "value": {"tensor": {"dtype": "DT_FLOAT", "tensorShape": {"dim": [{"size": "64"}]}}}}}, {"name": "model_4/zero_padding2d_457/Pad/paddings", "op": "Const", "attr": {"value": {"tensor": {"dtype": "DT_INT32", "tensorShape": {"dim": [{"size": "4"}, {"size": "2"}]}}}, "dtype": {"type": "DT_INT32"}}}, {"name": "model_4/conv2d_750/Conv2D/ReadVariableOp", "op": "Const", "attr": {"dtype": {"type": "DT_FLOAT"}, "value": {"tensor": {"dtype": "DT_FLOAT", "tensorShape": {"dim": [{"size": "3"}, {"size": "3"}, {"size": "64"}, {"size": "64"}]}}}}}, {"name": "model_4/conv2d_750/BiasAdd/ReadVariableOp", "op": "Const", "attr": {"dtype": {"type": "DT_FLOAT"}, "value": {"tensor": {"dtype": "DT_FLOAT", "tensorShape": {"dim": [{"size": "64"}]}}}}}, {"name": "model_4/conv2d_751/Conv2D/ReadVariableOp", "op": "Const", "attr": {"dtype": {"type": "DT_FLOAT"}, "value": {"tensor": {"dtype": "DT_FLOAT", "tensorShape": {"dim": [{"size": "1"}, {"size": "1"}, {"size": "64"}, {"size": "64"}]}}}}}, {"name": "model_4/conv2d_751/BiasAdd/ReadVariableOp", "op": "Const", "attr": {"value": {"tensor": {"dtype": "DT_FLOAT", "tensorShape": {"dim": [{"size": "64"}]}}}, "dtype": {"type": "DT_FLOAT"}}}, {"name": "model_4/zero_padding2d_458/Pad/paddings", "op": "Const", "attr": {"dtype": {"type": "DT_INT32"}, "value": {"tensor": {"dtype": "DT_INT32", "tensorShape": {"dim": [{"size": "4"}, {"size": "2"}]}}}}}, {"name": "model_4/conv2d_752/Conv2D/ReadVariableOp", "op": "Const", "attr": {"dtype": {"type": "DT_FLOAT"}, "value": {"tensor": {"dtype": "DT_FLOAT", "tensorShape": {"dim": [{"size": "3"}, {"size": "3"}, {"size": "128"}, {"size": "128"}]}}}}}, {"name": "model_4/conv2d_752/BiasAdd/ReadVariableOp", "op": "Const", "attr": {"value": {"tensor": {"dtype": "DT_FLOAT", "tensorShape": {"dim": [{"size": "128"}]}}}, "dtype": {"type": "DT_FLOAT"}}}, {"name": "model_4/zero_padding2d_459/Pad/paddings", "op": "Const", "attr": {"value": {"tensor": {"dtype": "DT_INT32", "tensorShape": {"dim": [{"size": "4"}, {"size": "2"}]}}}, "dtype": {"type": "DT_INT32"}}}, {"name": "model_4/conv2d_753/Conv2D/ReadVariableOp", "op": "Const", "attr": {"dtype": {"type": "DT_FLOAT"}, "value": {"tensor": {"dtype": "DT_FLOAT", "tensorShape": {"dim": [{"size": "3"}, {"size": "3"}, {"size": "128"}, {"size": "128"}]}}}}}, {"name": "model_4/conv2d_753/BiasAdd/ReadVariableOp", "op": "Const", "attr": {"dtype": {"type": "DT_FLOAT"}, "value": {"tensor": {"dtype": "DT_FLOAT", "tensorShape": {"dim": [{"size": "128"}]}}}}}, {"name": "model_4/conv2d_754/Conv2D/ReadVariableOp", "op": "Const", "attr": {"value": {"tensor": {"dtype": "DT_FLOAT", "tensorShape": {"dim": [{"size": "1"}, {"size": "1"}, {"size": "128"}, {"size": "12"}]}}}, "dtype": {"type": "DT_FLOAT"}}}, {"name": "model_4/conv2d_754/BiasAdd/ReadVariableOp", "op": "Const", "attr": {"dtype": {"type": "DT_FLOAT"}, "value": {"tensor": {"dtype": "DT_FLOAT", "tensorShape": {"dim": [{"size": "12"}]}}}}}, {"name": "model_4/tf.concat_222/concat/axis", "op": "Const", "attr": {"dtype": {"type": "DT_INT32"}, "value": {"tensor": {"dtype": "DT_INT32", "tensorShape": {}}}}}, {"name": "model_4/tf.compat.v1.transpose_67/transpose/perm", "op": "Const", "attr": {"value": {"tensor": {"dtype": "DT_INT32", "tensorShape": {"dim": [{"size": "4"}]}}}, "dtype": {"type": "DT_INT32"}}}, {"name": "model_4/tf.reshape_56/Reshape/shape", "op": "Const", "attr": {"dtype": {"type": "DT_INT32"}, "value": {"tensor": {"dtype": "DT_INT32", "tensorShape": {"dim": [{"size": "3"}]}}}}}, {"name": "model_4/zero_padding2d_460/Pad/paddings", "op": "Const", "attr": {"dtype": {"type": "DT_INT32"}, "value": {"tensor": {"dtype": "DT_INT32", "tensorShape": {"dim": [{"size": "4"}, {"size": "2"}]}}}}}, {"name": "model_4/conv2d_755/Conv2D/ReadVariableOp", "op": "Const", "attr": {"dtype": {"type": "DT_FLOAT"}, "value": {"tensor": {"dtype": "DT_FLOAT", "tensorShape": {"dim": [{"size": "3"}, {"size": "3"}, {"size": "256"}, {"size": "64"}]}}}}}, {"name": "model_4/conv2d_755/BiasAdd/ReadVariableOp", "op": "Const", "attr": {"value": {"tensor": {"dtype": "DT_FLOAT", "tensorShape": {"dim": [{"size": "64"}]}}}, "dtype": {"type": "DT_FLOAT"}}}, {"name": "model_4/zero_padding2d_461/Pad/paddings", "op": "Const", "attr": {"value": {"tensor": {"dtype": "DT_INT32", "tensorShape": {"dim": [{"size": "4"}, {"size": "2"}]}}}, "dtype": {"type": "DT_INT32"}}}, {"name": "model_4/conv2d_756/Conv2D/ReadVariableOp", "op": "Const", "attr": {"value": {"tensor": {"dtype": "DT_FLOAT", "tensorShape": {"dim": [{"size": "3"}, {"size": "3"}, {"size": "64"}, {"size": "64"}]}}}, "dtype": {"type": "DT_FLOAT"}}}, {"name": "model_4/conv2d_756/BiasAdd/ReadVariableOp", "op": "Const", "attr": {"value": {"tensor": {"dtype": "DT_FLOAT", "tensorShape": {"dim": [{"size": "64"}]}}}, "dtype": {"type": "DT_FLOAT"}}}, {"name": "model_4/conv2d_757/Conv2D/ReadVariableOp", "op": "Const", "attr": {"dtype": {"type": "DT_FLOAT"}, "value": {"tensor": {"dtype": "DT_FLOAT", "tensorShape": {"dim": [{"size": "1"}, {"size": "1"}, {"size": "64"}, {"size": "64"}]}}}}}, {"name": "model_4/conv2d_757/BiasAdd/ReadVariableOp", "op": "Const", "attr": {"dtype": {"type": "DT_FLOAT"}, "value": {"tensor": {"dtype": "DT_FLOAT", "tensorShape": {"dim": [{"size": "64"}]}}}}}, {"name": "model_4/zero_padding2d_462/Pad/paddings", "op": "Const", "attr": {"value": {"tensor": {"dtype": "DT_INT32", "tensorShape": {"dim": [{"size": "4"}, {"size": "2"}]}}}, "dtype": {"type": "DT_INT32"}}}, {"name": "model_4/conv2d_758/Conv2D/ReadVariableOp", "op": "Const", "attr": {"dtype": {"type": "DT_FLOAT"}, "value": {"tensor": {"dtype": "DT_FLOAT", "tensorShape": {"dim": [{"size": "3"}, {"size": "3"}, {"size": "256"}, {"size": "128"}]}}}}}, {"name": "model_4/conv2d_758/BiasAdd/ReadVariableOp", "op": "Const", "attr": {"dtype": {"type": "DT_FLOAT"}, "value": {"tensor": {"dtype": "DT_FLOAT", "tensorShape": {"dim": [{"size": "128"}]}}}}}, {"name": "model_4/zero_padding2d_463/Pad/paddings", "op": "Const", "attr": {"value": {"tensor": {"dtype": "DT_INT32", "tensorShape": {"dim": [{"size": "4"}, {"size": "2"}]}}}, "dtype": {"type": "DT_INT32"}}}, {"name": "model_4/conv2d_759/Conv2D/ReadVariableOp", "op": "Const", "attr": {"value": {"tensor": {"dtype": "DT_FLOAT", "tensorShape": {"dim": [{"size": "3"}, {"size": "3"}, {"size": "128"}, {"size": "128"}]}}}, "dtype": {"type": "DT_FLOAT"}}}, {"name": "model_4/conv2d_759/BiasAdd/ReadVariableOp", "op": "Const", "attr": {"value": {"tensor": {"dtype": "DT_FLOAT", "tensorShape": {"dim": [{"size": "128"}]}}}, "dtype": {"type": "DT_FLOAT"}}}, {"name": "model_4/conv2d_760/Conv2D/ReadVariableOp", "op": "Const", "attr": {"value": {"tensor": {"dtype": "DT_FLOAT", "tensorShape": {"dim": [{"size": "1"}, {"size": "1"}, {"size": "128"}, {"size": "12"}]}}}, "dtype": {"type": "DT_FLOAT"}}}, {"name": "model_4/conv2d_760/BiasAdd/ReadVariableOp", "op": "Const", "attr": {"dtype": {"type": "DT_FLOAT"}, "value": {"tensor": {"dtype": "DT_FLOAT", "tensorShape": {"dim": [{"size": "12"}]}}}}}, {"name": "model_4/tf.concat_223/concat/axis", "op": "Const", "attr": {"value": {"tensor": {"dtype": "DT_INT32", "tensorShape": {}}}, "dtype": {"type": "DT_INT32"}}}, {"name": "model_4/tf.compat.v1.transpose_68/transpose/perm", "op": "Const", "attr": {"dtype": {"type": "DT_INT32"}, "value": {"tensor": {"dtype": "DT_INT32", "tensorShape": {"dim": [{"size": "4"}]}}}}}, {"name": "model_4/tf.reshape_57/Reshape/shape", "op": "Const", "attr": {"value": {"tensor": {"dtype": "DT_INT32", "tensorShape": {"dim": [{"size": "3"}]}}}, "dtype": {"type": "DT_INT32"}}}, {"name": "model_4/zero_padding2d_464/Pad/paddings", "op": "Const", "attr": {"value": {"tensor": {"dtype": "DT_INT32", "tensorShape": {"dim": [{"size": "4"}, {"size": "2"}]}}}, "dtype": {"type": "DT_INT32"}}}, {"name": "model_4/conv2d_761/Conv2D/ReadVariableOp", "op": "Const", "attr": {"value": {"tensor": {"dtype": "DT_FLOAT", "tensorShape": {"dim": [{"size": "3"}, {"size": "3"}, {"size": "512"}, {"size": "64"}]}}}, "dtype": {"type": "DT_FLOAT"}}}, {"name": "model_4/conv2d_761/BiasAdd/ReadVariableOp", "op": "Const", "attr": {"value": {"tensor": {"dtype": "DT_FLOAT", "tensorShape": {"dim": [{"size": "64"}]}}}, "dtype": {"type": "DT_FLOAT"}}}, {"name": "model_4/zero_padding2d_465/Pad/paddings", "op": "Const", "attr": {"value": {"tensor": {"dtype": "DT_INT32", "tensorShape": {"dim": [{"size": "4"}, {"size": "2"}]}}}, "dtype": {"type": "DT_INT32"}}}, {"name": "model_4/conv2d_762/Conv2D/ReadVariableOp", "op": "Const", "attr": {"value": {"tensor": {"dtype": "DT_FLOAT", "tensorShape": {"dim": [{"size": "3"}, {"size": "3"}, {"size": "64"}, {"size": "64"}]}}}, "dtype": {"type": "DT_FLOAT"}}}, {"name": "model_4/conv2d_762/BiasAdd/ReadVariableOp", "op": "Const", "attr": {"dtype": {"type": "DT_FLOAT"}, "value": {"tensor": {"dtype": "DT_FLOAT", "tensorShape": {"dim": [{"size": "64"}]}}}}}, {"name": "model_4/conv2d_763/Conv2D/ReadVariableOp", "op": "Const", "attr": {"dtype": {"type": "DT_FLOAT"}, "value": {"tensor": {"dtype": "DT_FLOAT", "tensorShape": {"dim": [{"size": "1"}, {"size": "1"}, {"size": "64"}, {"size": "64"}]}}}}}, {"name": "model_4/conv2d_763/BiasAdd/ReadVariableOp", "op": "Const", "attr": {"dtype": {"type": "DT_FLOAT"}, "value": {"tensor": {"dtype": "DT_FLOAT", "tensorShape": {"dim": [{"size": "64"}]}}}}}, {"name": "model_4/tf.split_108/split/split_dim", "op": "Const", "attr": {"value": {"tensor": {"dtype": "DT_INT32", "tensorShape": {}}}, "dtype": {"type": "DT_INT32"}}}, {"name": "model_4/tf.split_107/split/split_dim", "op": "Const", "attr": {"value": {"tensor": {"dtype": "DT_INT32", "tensorShape": {}}}, "dtype": {"type": "DT_INT32"}}}, {"name": "model_4/tf.split_106/split/split_dim", "op": "Const", "attr": {"value": {"tensor": {"dtype": "DT_INT32", "tensorShape": {}}}, "dtype": {"type": "DT_INT32"}}}, {"name": "model_4/tf.image.resize_23/resize/size", "op": "Const", "attr": {"value": {"tensor": {"dtype": "DT_INT32", "tensorShape": {"dim": [{"size": "2"}]}}}, "dtype": {"type": "DT_INT32"}}}, {"name": "model_4/tf.concat_216/concat/axis", "op": "Const", "attr": {"dtype": {"type": "DT_INT32"}, "value": {"tensor": {"dtype": "DT_INT32", "tensorShape": {}}}}}, {"name": "model_4/conv2d_735/Conv2D/ReadVariableOp", "op": "Const", "attr": {"dtype": {"type": "DT_FLOAT"}, "value": {"tensor": {"dtype": "DT_FLOAT", "tensorShape": {"dim": [{"size": "1"}, {"size": "1"}, {"size": "384"}, {"size": "128"}]}}}}}, {"name": "model_4/conv2d_735/BiasAdd/ReadVariableOp", "op": "Const", "attr": {"value": {"tensor": {"dtype": "DT_FLOAT", "tensorShape": {"dim": [{"size": "128"}]}}}, "dtype": {"type": "DT_FLOAT"}}}, {"name": "model_4/zero_padding2d_448/Pad/paddings", "op": "Const", "attr": {"dtype": {"type": "DT_INT32"}, "value": {"tensor": {"dtype": "DT_INT32", "tensorShape": {"dim": [{"size": "4"}, {"size": "2"}]}}}}}, {"name": "model_4/conv2d_736/Conv2D/ReadVariableOp", "op": "Const", "attr": {"value": {"tensor": {"dtype": "DT_FLOAT", "tensorShape": {"dim": [{"size": "3"}, {"size": "3"}, {"size": "64"}, {"size": "64"}]}}}, "dtype": {"type": "DT_FLOAT"}}}, {"name": "model_4/conv2d_736/BiasAdd/ReadVariableOp", "op": "Const", "attr": {"value": {"tensor": {"dtype": "DT_FLOAT", "tensorShape": {"dim": [{"size": "64"}]}}}, "dtype": {"type": "DT_FLOAT"}}}, {"name": "model_4/zero_padding2d_449/Pad/paddings", "op": "Const", "attr": {"dtype": {"type": "DT_INT32"}, "value": {"tensor": {"dtype": "DT_INT32", "tensorShape": {"dim": [{"size": "4"}, {"size": "2"}]}}}}}, {"name": "model_4/conv2d_737/Conv2D/ReadVariableOp", "op": "Const", "attr": {"dtype": {"type": "DT_FLOAT"}, "value": {"tensor": {"dtype": "DT_FLOAT", "tensorShape": {"dim": [{"size": "3"}, {"size": "3"}, {"size": "64"}, {"size": "64"}]}}}}}, {"name": "model_4/conv2d_737/BiasAdd/ReadVariableOp", "op": "Const", "attr": {"value": {"tensor": {"dtype": "DT_FLOAT", "tensorShape": {"dim": [{"size": "64"}]}}}, "dtype": {"type": "DT_FLOAT"}}}, {"name": "model_4/tf.concat_217/concat/axis", "op": "Const", "attr": {"dtype": {"type": "DT_INT32"}, "value": {"tensor": {"dtype": "DT_INT32", "tensorShape": {}}}}}, {"name": "model_4/conv2d_738/Conv2D/ReadVariableOp", "op": "Const", "attr": {"value": {"tensor": {"dtype": "DT_FLOAT", "tensorShape": {"dim": [{"size": "1"}, {"size": "1"}, {"size": "192"}, {"size": "128"}]}}}, "dtype": {"type": "DT_FLOAT"}}}, {"name": "model_4/conv2d_738/BiasAdd/ReadVariableOp", "op": "Const", "attr": {"dtype": {"type": "DT_FLOAT"}, "value": {"tensor": {"dtype": "DT_FLOAT", "tensorShape": {"dim": [{"size": "128"}]}}}}}, {"name": "model_4/zero_padding2d_450/Pad/paddings", "op": "Const", "attr": {"value": {"tensor": {"dtype": "DT_INT32", "tensorShape": {"dim": [{"size": "4"}, {"size": "2"}]}}}, "dtype": {"type": "DT_INT32"}}}, {"name": "model_4/conv2d_739/Conv2D/ReadVariableOp", "op": "Const", "attr": {"value": {"tensor": {"dtype": "DT_FLOAT", "tensorShape": {"dim": [{"size": "3"}, {"size": "3"}, {"size": "128"}, {"size": "128"}]}}}, "dtype": {"type": "DT_FLOAT"}}}, {"name": "model_4/conv2d_739/BiasAdd/ReadVariableOp", "op": "Const", "attr": {"value": {"tensor": {"dtype": "DT_FLOAT", "tensorShape": {"dim": [{"size": "128"}]}}}, "dtype": {"type": "DT_FLOAT"}}}, {"name": "model_4/tf.split_105/split/split_dim", "op": "Const", "attr": {"dtype": {"type": "DT_INT32"}, "value": {"tensor": {"dtype": "DT_INT32", "tensorShape": {}}}}}, {"name": "model_4/tf.image.resize_22/resize/size", "op": "Const", "attr": {"dtype": {"type": "DT_INT32"}, "value": {"tensor": {"dtype": "DT_INT32", "tensorShape": {"dim": [{"size": "2"}]}}}}}, {"name": "model_4/tf.concat_214/concat/axis", "op": "Const", "attr": {"dtype": {"type": "DT_INT32"}, "value": {"tensor": {"dtype": "DT_INT32", "tensorShape": {}}}}}, {"name": "model_4/conv2d_731/Conv2D/ReadVariableOp", "op": "Const", "attr": {"dtype": {"type": "DT_FLOAT"}, "value": {"tensor": {"dtype": "DT_FLOAT", "tensorShape": {"dim": [{"size": "1"}, {"size": "1"}, {"size": "768"}, {"size": "256"}]}}}}}, {"name": "model_4/conv2d_731/BiasAdd/ReadVariableOp", "op": "Const", "attr": {"value": {"tensor": {"dtype": "DT_FLOAT", "tensorShape": {"dim": [{"size": "256"}]}}}, "dtype": {"type": "DT_FLOAT"}}}, {"name": "model_4/zero_padding2d_446/Pad/paddings", "op": "Const", "attr": {"dtype": {"type": "DT_INT32"}, "value": {"tensor": {"dtype": "DT_INT32", "tensorShape": {"dim": [{"size": "4"}, {"size": "2"}]}}}}}, {"name": "model_4/conv2d_732/Conv2D/ReadVariableOp", "op": "Const", "attr": {"dtype": {"type": "DT_FLOAT"}, "value": {"tensor": {"dtype": "DT_FLOAT", "tensorShape": {"dim": [{"size": "3"}, {"size": "3"}, {"size": "128"}, {"size": "128"}]}}}}}, {"name": "model_4/conv2d_732/BiasAdd/ReadVariableOp", "op": "Const", "attr": {"value": {"tensor": {"dtype": "DT_FLOAT", "tensorShape": {"dim": [{"size": "128"}]}}}, "dtype": {"type": "DT_FLOAT"}}}, {"name": "model_4/zero_padding2d_447/Pad/paddings", "op": "Const", "attr": {"value": {"tensor": {"dtype": "DT_INT32", "tensorShape": {"dim": [{"size": "4"}, {"size": "2"}]}}}, "dtype": {"type": "DT_INT32"}}}, {"name": "model_4/conv2d_733/Conv2D/ReadVariableOp", "op": "Const", "attr": {"value": {"tensor": {"dtype": "DT_FLOAT", "tensorShape": {"dim": [{"size": "3"}, {"size": "3"}, {"size": "128"}, {"size": "128"}]}}}, "dtype": {"type": "DT_FLOAT"}}}, {"name": "model_4/conv2d_733/BiasAdd/ReadVariableOp", "op": "Const", "attr": {"value": {"tensor": {"dtype": "DT_FLOAT", "tensorShape": {"dim": [{"size": "128"}]}}}, "dtype": {"type": "DT_FLOAT"}}}, {"name": "model_4/tf.concat_215/concat/axis", "op": "Const", "attr": {"dtype": {"type": "DT_INT32"}, "value": {"tensor": {"dtype": "DT_INT32", "tensorShape": {}}}}}, {"name": "model_4/conv2d_734/Conv2D/ReadVariableOp", "op": "Const", "attr": {"dtype": {"type": "DT_FLOAT"}, "value": {"tensor": {"dtype": "DT_FLOAT", "tensorShape": {"dim": [{"size": "1"}, {"size": "1"}, {"size": "384"}, {"size": "256"}]}}}}}, {"name": "model_4/conv2d_734/BiasAdd/ReadVariableOp", "op": "Const", "attr": {"dtype": {"type": "DT_FLOAT"}, "value": {"tensor": {"dtype": "DT_FLOAT", "tensorShape": {"dim": [{"size": "256"}]}}}}}, {"name": "model_4/tf.concat_218/concat/axis", "op": "Const", "attr": {"value": {"tensor": {"dtype": "DT_INT32", "tensorShape": {}}}, "dtype": {"type": "DT_INT32"}}}, {"name": "model_4/conv2d_740/Conv2D/ReadVariableOp", "op": "Const", "attr": {"value": {"tensor": {"dtype": "DT_FLOAT", "tensorShape": {"dim": [{"size": "1"}, {"size": "1"}, {"size": "384"}, {"size": "256"}]}}}, "dtype": {"type": "DT_FLOAT"}}}, {"name": "model_4/conv2d_740/BiasAdd/ReadVariableOp", "op": "Const", "attr": {"dtype": {"type": "DT_FLOAT"}, "value": {"tensor": {"dtype": "DT_FLOAT", "tensorShape": {"dim": [{"size": "256"}]}}}}}, {"name": "model_4/zero_padding2d_451/Pad/paddings", "op": "Const", "attr": {"value": {"tensor": {"dtype": "DT_INT32", "tensorShape": {"dim": [{"size": "4"}, {"size": "2"}]}}}, "dtype": {"type": "DT_INT32"}}}, {"name": "model_4/conv2d_741/Conv2D/ReadVariableOp", "op": "Const", "attr": {"value": {"tensor": {"dtype": "DT_FLOAT", "tensorShape": {"dim": [{"size": "3"}, {"size": "3"}, {"size": "128"}, {"size": "128"}]}}}, "dtype": {"type": "DT_FLOAT"}}}, {"name": "model_4/conv2d_741/BiasAdd/ReadVariableOp", "op": "Const", "attr": {"value": {"tensor": {"dtype": "DT_FLOAT", "tensorShape": {"dim": [{"size": "128"}]}}}, "dtype": {"type": "DT_FLOAT"}}}, {"name": "model_4/zero_padding2d_452/Pad/paddings", "op": "Const", "attr": {"value": {"tensor": {"dtype": "DT_INT32", "tensorShape": {"dim": [{"size": "4"}, {"size": "2"}]}}}, "dtype": {"type": "DT_INT32"}}}, {"name": "model_4/conv2d_742/Conv2D/ReadVariableOp", "op": "Const", "attr": {"dtype": {"type": "DT_FLOAT"}, "value": {"tensor": {"dtype": "DT_FLOAT", "tensorShape": {"dim": [{"size": "3"}, {"size": "3"}, {"size": "128"}, {"size": "128"}]}}}}}, {"name": "model_4/conv2d_742/BiasAdd/ReadVariableOp", "op": "Const", "attr": {"value": {"tensor": {"dtype": "DT_FLOAT", "tensorShape": {"dim": [{"size": "128"}]}}}, "dtype": {"type": "DT_FLOAT"}}}, {"name": "model_4/tf.concat_219/concat/axis", "op": "Const", "attr": {"value": {"tensor": {"dtype": "DT_INT32", "tensorShape": {}}}, "dtype": {"type": "DT_INT32"}}}, {"name": "model_4/conv2d_743/Conv2D/ReadVariableOp", "op": "Const", "attr": {"value": {"tensor": {"dtype": "DT_FLOAT", "tensorShape": {"dim": [{"size": "1"}, {"size": "1"}, {"size": "384"}, {"size": "256"}]}}}, "dtype": {"type": "DT_FLOAT"}}}, {"name": "model_4/conv2d_743/BiasAdd/ReadVariableOp", "op": "Const", "attr": {"value": {"tensor": {"dtype": "DT_FLOAT", "tensorShape": {"dim": [{"size": "256"}]}}}, "dtype": {"type": "DT_FLOAT"}}}, {"name": "model_4/zero_padding2d_453/Pad/paddings", "op": "Const", "attr": {"value": {"tensor": {"dtype": "DT_INT32", "tensorShape": {"dim": [{"size": "4"}, {"size": "2"}]}}}, "dtype": {"type": "DT_INT32"}}}, {"name": "model_4/conv2d_744/Conv2D/ReadVariableOp", "op": "Const", "attr": {"value": {"tensor": {"dtype": "DT_FLOAT", "tensorShape": {"dim": [{"size": "3"}, {"size": "3"}, {"size": "256"}, {"size": "256"}]}}}, "dtype": {"type": "DT_FLOAT"}}}, {"name": "model_4/conv2d_744/BiasAdd/ReadVariableOp", "op": "Const", "attr": {"dtype": {"type": "DT_FLOAT"}, "value": {"tensor": {"dtype": "DT_FLOAT", "tensorShape": {"dim": [{"size": "256"}]}}}}}, {"name": "model_4/tf.split_104/split/split_dim", "op": "Const", "attr": {"value": {"tensor": {"dtype": "DT_INT32", "tensorShape": {}}}, "dtype": {"type": "DT_INT32"}}}, {"name": "model_4/tf.split_103/split/split_dim", "op": "Const", "attr": {"value": {"tensor": {"dtype": "DT_INT32", "tensorShape": {}}}, "dtype": {"type": "DT_INT32"}}}, {"name": "model_4/tf.split_102/split/split_dim", "op": "Const", "attr": {"dtype": {"type": "DT_INT32"}, "value": {"tensor": {"dtype": "DT_INT32", "tensorShape": {}}}}}, {"name": "model_4/tf.split_101/split/split_dim", "op": "Const", "attr": {"dtype": {"type": "DT_INT32"}, "value": {"tensor": {"dtype": "DT_INT32", "tensorShape": {}}}}}, {"name": "model_4/zero_padding2d_429/Pad/paddings", "op": "Const", "attr": {"value": {"tensor": {"dtype": "DT_INT32", "tensorShape": {"dim": [{"size": "4"}, {"size": "2"}]}}}, "dtype": {"type": "DT_INT32"}}}, {"name": "model_4/conv2d_704/Conv2D/ReadVariableOp", "op": "Const", "attr": {"value": {"tensor": {"dtype": "DT_FLOAT", "tensorShape": {"dim": [{"size": "3"}, {"size": "3"}, {"size": "3"}, {"size": "32"}]}}}, "dtype": {"type": "DT_FLOAT"}}}, {"name": "model_4/conv2d_704/BiasAdd/ReadVariableOp", "op": "Const", "attr": {"value": {"tensor": {"dtype": "DT_FLOAT", "tensorShape": {"dim": [{"size": "32"}]}}}, "dtype": {"type": "DT_FLOAT"}}}, {"name": "model_4/zero_padding2d_430/Pad/paddings", "op": "Const", "attr": {"dtype": {"type": "DT_INT32"}, "value": {"tensor": {"dtype": "DT_INT32", "tensorShape": {"dim": [{"size": "4"}, {"size": "2"}]}}}}}, {"name": "model_4/conv2d_705/Conv2D/ReadVariableOp", "op": "Const", "attr": {"value": {"tensor": {"dtype": "DT_FLOAT", "tensorShape": {"dim": [{"size": "3"}, {"size": "3"}, {"size": "32"}, {"size": "64"}]}}}, "dtype": {"type": "DT_FLOAT"}}}, {"name": "model_4/conv2d_705/BiasAdd/ReadVariableOp", "op": "Const", "attr": {"value": {"tensor": {"dtype": "DT_FLOAT", "tensorShape": {"dim": [{"size": "64"}]}}}, "dtype": {"type": "DT_FLOAT"}}}, {"name": "model_4/conv2d_706/Conv2D/ReadVariableOp", "op": "Const", "attr": {"dtype": {"type": "DT_FLOAT"}, "value": {"tensor": {"dtype": "DT_FLOAT", "tensorShape": {"dim": [{"size": "1"}, {"size": "1"}, {"size": "64"}, {"size": "64"}]}}}}}, {"name": "model_4/conv2d_706/BiasAdd/ReadVariableOp", "op": "Const", "attr": {"value": {"tensor": {"dtype": "DT_FLOAT", "tensorShape": {"dim": [{"size": "64"}]}}}, "dtype": {"type": "DT_FLOAT"}}}, {"name": "model_4/zero_padding2d_431/Pad/paddings", "op": "Const", "attr": {"value": {"tensor": {"dtype": "DT_INT32", "tensorShape": {"dim": [{"size": "4"}, {"size": "2"}]}}}, "dtype": {"type": "DT_INT32"}}}, {"name": "model_4/conv2d_707/Conv2D/ReadVariableOp", "op": "Const", "attr": {"dtype": {"type": "DT_FLOAT"}, "value": {"tensor": {"dtype": "DT_FLOAT", "tensorShape": {"dim": [{"size": "3"}, {"size": "3"}, {"size": "32"}, {"size": "32"}]}}}}}, {"name": "model_4/conv2d_707/BiasAdd/ReadVariableOp", "op": "Const", "attr": {"value": {"tensor": {"dtype": "DT_FLOAT", "tensorShape": {"dim": [{"size": "32"}]}}}, "dtype": {"type": "DT_FLOAT"}}}, {"name": "model_4/zero_padding2d_432/Pad/paddings", "op": "Const", "attr": {"value": {"tensor": {"dtype": "DT_INT32", "tensorShape": {"dim": [{"size": "4"}, {"size": "2"}]}}}, "dtype": {"type": "DT_INT32"}}}, {"name": "model_4/conv2d_708/Conv2D/ReadVariableOp", "op": "Const", "attr": {"value": {"tensor": {"dtype": "DT_FLOAT", "tensorShape": {"dim": [{"size": "3"}, {"size": "3"}, {"size": "32"}, {"size": "32"}]}}}, "dtype": {"type": "DT_FLOAT"}}}, {"name": "model_4/conv2d_708/BiasAdd/ReadVariableOp", "op": "Const", "attr": {"dtype": {"type": "DT_FLOAT"}, "value": {"tensor": {"dtype": "DT_FLOAT", "tensorShape": {"dim": [{"size": "32"}]}}}}}, {"name": "model_4/tf.concat_209/concat/axis", "op": "Const", "attr": {"value": {"tensor": {"dtype": "DT_INT32", "tensorShape": {}}}, "dtype": {"type": "DT_INT32"}}}, {"name": "model_4/conv2d_709/Conv2D/ReadVariableOp", "op": "Const", "attr": {"dtype": {"type": "DT_FLOAT"}, "value": {"tensor": {"dtype": "DT_FLOAT", "tensorShape": {"dim": [{"size": "1"}, {"size": "1"}, {"size": "96"}, {"size": "64"}]}}}}}, {"name": "model_4/conv2d_709/BiasAdd/ReadVariableOp", "op": "Const", "attr": {"value": {"tensor": {"dtype": "DT_FLOAT", "tensorShape": {"dim": [{"size": "64"}]}}}, "dtype": {"type": "DT_FLOAT"}}}, {"name": "model_4/zero_padding2d_433/Pad/paddings", "op": "Const", "attr": {"value": {"tensor": {"dtype": "DT_INT32", "tensorShape": {"dim": [{"size": "4"}, {"size": "2"}]}}}, "dtype": {"type": "DT_INT32"}}}, {"name": "model_4/conv2d_710/Conv2D/ReadVariableOp", "op": "Const", "attr": {"dtype": {"type": "DT_FLOAT"}, "value": {"tensor": {"dtype": "DT_FLOAT", "tensorShape": {"dim": [{"size": "3"}, {"size": "3"}, {"size": "64"}, {"size": "128"}]}}}}}, {"name": "model_4/conv2d_710/BiasAdd/ReadVariableOp", "op": "Const", "attr": {"value": {"tensor": {"dtype": "DT_FLOAT", "tensorShape": {"dim": [{"size": "128"}]}}}, "dtype": {"type": "DT_FLOAT"}}}, {"name": "model_4/conv2d_711/Conv2D/ReadVariableOp", "op": "Const", "attr": {"value": {"tensor": {"dtype": "DT_FLOAT", "tensorShape": {"dim": [{"size": "1"}, {"size": "1"}, {"size": "128"}, {"size": "128"}]}}}, "dtype": {"type": "DT_FLOAT"}}}, {"name": "model_4/conv2d_711/BiasAdd/ReadVariableOp", "op": "Const", "attr": {"dtype": {"type": "DT_FLOAT"}, "value": {"tensor": {"dtype": "DT_FLOAT", "tensorShape": {"dim": [{"size": "128"}]}}}}}, {"name": "model_4/zero_padding2d_434/Pad/paddings", "op": "Const", "attr": {"dtype": {"type": "DT_INT32"}, "value": {"tensor": {"dtype": "DT_INT32", "tensorShape": {"dim": [{"size": "4"}, {"size": "2"}]}}}}}, {"name": "model_4/conv2d_712/Conv2D/ReadVariableOp", "op": "Const", "attr": {"value": {"tensor": {"dtype": "DT_FLOAT", "tensorShape": {"dim": [{"size": "3"}, {"size": "3"}, {"size": "64"}, {"size": "64"}]}}}, "dtype": {"type": "DT_FLOAT"}}}, {"name": "model_4/conv2d_712/BiasAdd/ReadVariableOp", "op": "Const", "attr": {"dtype": {"type": "DT_FLOAT"}, "value": {"tensor": {"dtype": "DT_FLOAT", "tensorShape": {"dim": [{"size": "64"}]}}}}}, {"name": "model_4/zero_padding2d_435/Pad/paddings", "op": "Const", "attr": {"dtype": {"type": "DT_INT32"}, "value": {"tensor": {"dtype": "DT_INT32", "tensorShape": {"dim": [{"size": "4"}, {"size": "2"}]}}}}}, {"name": "model_4/conv2d_713/Conv2D/ReadVariableOp", "op": "Const", "attr": {"dtype": {"type": "DT_FLOAT"}, "value": {"tensor": {"dtype": "DT_FLOAT", "tensorShape": {"dim": [{"size": "3"}, {"size": "3"}, {"size": "64"}, {"size": "64"}]}}}}}, {"name": "model_4/conv2d_713/BiasAdd/ReadVariableOp", "op": "Const", "attr": {"value": {"tensor": {"dtype": "DT_FLOAT", "tensorShape": {"dim": [{"size": "64"}]}}}, "dtype": {"type": "DT_FLOAT"}}}, {"name": "model_4/zero_padding2d_436/Pad/paddings", "op": "Const", "attr": {"dtype": {"type": "DT_INT32"}, "value": {"tensor": {"dtype": "DT_INT32", "tensorShape": {"dim": [{"size": "4"}, {"size": "2"}]}}}}}, {"name": "model_4/conv2d_714/Conv2D/ReadVariableOp", "op": "Const", "attr": {"value": {"tensor": {"dtype": "DT_FLOAT", "tensorShape": {"dim": [{"size": "3"}, {"size": "3"}, {"size": "64"}, {"size": "64"}]}}}, "dtype": {"type": "DT_FLOAT"}}}, {"name": "model_4/conv2d_714/BiasAdd/ReadVariableOp", "op": "Const", "attr": {"dtype": {"type": "DT_FLOAT"}, "value": {"tensor": {"dtype": "DT_FLOAT", "tensorShape": {"dim": [{"size": "64"}]}}}}}, {"name": "model_4/zero_padding2d_437/Pad/paddings", "op": "Const", "attr": {"value": {"tensor": {"dtype": "DT_INT32", "tensorShape": {"dim": [{"size": "4"}, {"size": "2"}]}}}, "dtype": {"type": "DT_INT32"}}}, {"name": "model_4/conv2d_715/Conv2D/ReadVariableOp", "op": "Const", "attr": {"value": {"tensor": {"dtype": "DT_FLOAT", "tensorShape": {"dim": [{"size": "3"}, {"size": "3"}, {"size": "64"}, {"size": "64"}]}}}, "dtype": {"type": "DT_FLOAT"}}}, {"name": "model_4/conv2d_715/BiasAdd/ReadVariableOp", "op": "Const", "attr": {"dtype": {"type": "DT_FLOAT"}, "value": {"tensor": {"dtype": "DT_FLOAT", "tensorShape": {"dim": [{"size": "64"}]}}}}}, {"name": "model_4/tf.concat_210/concat/axis", "op": "Const", "attr": {"value": {"tensor": {"dtype": "DT_INT32", "tensorShape": {}}}, "dtype": {"type": "DT_INT32"}}}, {"name": "model_4/conv2d_716/Conv2D/ReadVariableOp", "op": "Const", "attr": {"value": {"tensor": {"dtype": "DT_FLOAT", "tensorShape": {"dim": [{"size": "1"}, {"size": "1"}, {"size": "256"}, {"size": "128"}]}}}, "dtype": {"type": "DT_FLOAT"}}}, {"name": "model_4/conv2d_716/BiasAdd/ReadVariableOp", "op": "Const", "attr": {"dtype": {"type": "DT_FLOAT"}, "value": {"tensor": {"dtype": "DT_FLOAT", "tensorShape": {"dim": [{"size": "128"}]}}}}}, {"name": "model_4/zero_padding2d_438/Pad/paddings", "op": "Const", "attr": {"value": {"tensor": {"dtype": "DT_INT32", "tensorShape": {"dim": [{"size": "4"}, {"size": "2"}]}}}, "dtype": {"type": "DT_INT32"}}}, {"name": "model_4/conv2d_717/Conv2D/ReadVariableOp", "op": "Const", "attr": {"value": {"tensor": {"dtype": "DT_FLOAT", "tensorShape": {"dim": [{"size": "3"}, {"size": "3"}, {"size": "128"}, {"size": "256"}]}}}, "dtype": {"type": "DT_FLOAT"}}}, {"name": "model_4/conv2d_717/BiasAdd/ReadVariableOp", "op": "Const", "attr": {"dtype": {"type": "DT_FLOAT"}, "value": {"tensor": {"dtype": "DT_FLOAT", "tensorShape": {"dim": [{"size": "256"}]}}}}}, {"name": "model_4/conv2d_718/Conv2D/ReadVariableOp", "op": "Const", "attr": {"value": {"tensor": {"dtype": "DT_FLOAT", "tensorShape": {"dim": [{"size": "1"}, {"size": "1"}, {"size": "256"}, {"size": "256"}]}}}, "dtype": {"type": "DT_FLOAT"}}}, {"name": "model_4/conv2d_718/BiasAdd/ReadVariableOp", "op": "Const", "attr": {"dtype": {"type": "DT_FLOAT"}, "value": {"tensor": {"dtype": "DT_FLOAT", "tensorShape": {"dim": [{"size": "256"}]}}}}}, {"name": "model_4/zero_padding2d_439/Pad/paddings", "op": "Const", "attr": {"value": {"tensor": {"dtype": "DT_INT32", "tensorShape": {"dim": [{"size": "4"}, {"size": "2"}]}}}, "dtype": {"type": "DT_INT32"}}}, {"name": "model_4/conv2d_719/Conv2D/ReadVariableOp", "op": "Const", "attr": {"value": {"tensor": {"dtype": "DT_FLOAT", "tensorShape": {"dim": [{"size": "3"}, {"size": "3"}, {"size": "128"}, {"size": "128"}]}}}, "dtype": {"type": "DT_FLOAT"}}}, {"name": "model_4/conv2d_719/BiasAdd/ReadVariableOp", "op": "Const", "attr": {"value": {"tensor": {"dtype": "DT_FLOAT", "tensorShape": {"dim": [{"size": "128"}]}}}, "dtype": {"type": "DT_FLOAT"}}}, {"name": "model_4/zero_padding2d_440/Pad/paddings", "op": "Const", "attr": {"dtype": {"type": "DT_INT32"}, "value": {"tensor": {"dtype": "DT_INT32", "tensorShape": {"dim": [{"size": "4"}, {"size": "2"}]}}}}}, {"name": "model_4/conv2d_720/Conv2D/ReadVariableOp", "op": "Const", "attr": {"value": {"tensor": {"dtype": "DT_FLOAT", "tensorShape": {"dim": [{"size": "3"}, {"size": "3"}, {"size": "128"}, {"size": "128"}]}}}, "dtype": {"type": "DT_FLOAT"}}}, {"name": "model_4/conv2d_720/BiasAdd/ReadVariableOp", "op": "Const", "attr": {"dtype": {"type": "DT_FLOAT"}, "value": {"tensor": {"dtype": "DT_FLOAT", "tensorShape": {"dim": [{"size": "128"}]}}}}}, {"name": "model_4/zero_padding2d_441/Pad/paddings", "op": "Const", "attr": {"value": {"tensor": {"dtype": "DT_INT32", "tensorShape": {"dim": [{"size": "4"}, {"size": "2"}]}}}, "dtype": {"type": "DT_INT32"}}}, {"name": "model_4/conv2d_721/Conv2D/ReadVariableOp", "op": "Const", "attr": {"dtype": {"type": "DT_FLOAT"}, "value": {"tensor": {"dtype": "DT_FLOAT", "tensorShape": {"dim": [{"size": "3"}, {"size": "3"}, {"size": "128"}, {"size": "128"}]}}}}}, {"name": "model_4/conv2d_721/BiasAdd/ReadVariableOp", "op": "Const", "attr": {"dtype": {"type": "DT_FLOAT"}, "value": {"tensor": {"dtype": "DT_FLOAT", "tensorShape": {"dim": [{"size": "128"}]}}}}}, {"name": "model_4/zero_padding2d_442/Pad/paddings", "op": "Const", "attr": {"value": {"tensor": {"dtype": "DT_INT32", "tensorShape": {"dim": [{"size": "4"}, {"size": "2"}]}}}, "dtype": {"type": "DT_INT32"}}}, {"name": "model_4/conv2d_722/Conv2D/ReadVariableOp", "op": "Const", "attr": {"value": {"tensor": {"dtype": "DT_FLOAT", "tensorShape": {"dim": [{"size": "3"}, {"size": "3"}, {"size": "128"}, {"size": "128"}]}}}, "dtype": {"type": "DT_FLOAT"}}}, {"name": "model_4/conv2d_722/BiasAdd/ReadVariableOp", "op": "Const", "attr": {"value": {"tensor": {"dtype": "DT_FLOAT", "tensorShape": {"dim": [{"size": "128"}]}}}, "dtype": {"type": "DT_FLOAT"}}}, {"name": "model_4/tf.concat_211/concat/axis", "op": "Const", "attr": {"dtype": {"type": "DT_INT32"}, "value": {"tensor": {"dtype": "DT_INT32", "tensorShape": {}}}}}, {"name": "model_4/conv2d_723/Conv2D/ReadVariableOp", "op": "Const", "attr": {"dtype": {"type": "DT_FLOAT"}, "value": {"tensor": {"dtype": "DT_FLOAT", "tensorShape": {"dim": [{"size": "1"}, {"size": "1"}, {"size": "512"}, {"size": "256"}]}}}}}, {"name": "model_4/conv2d_723/BiasAdd/ReadVariableOp", "op": "Const", "attr": {"value": {"tensor": {"dtype": "DT_FLOAT", "tensorShape": {"dim": [{"size": "256"}]}}}, "dtype": {"type": "DT_FLOAT"}}}, {"name": "model_4/zero_padding2d_443/Pad/paddings", "op": "Const", "attr": {"dtype": {"type": "DT_INT32"}, "value": {"tensor": {"dtype": "DT_INT32", "tensorShape": {"dim": [{"size": "4"}, {"size": "2"}]}}}}}, {"name": "model_4/conv2d_724/Conv2D/ReadVariableOp", "op": "Const", "attr": {"value": {"tensor": {"dtype": "DT_FLOAT", "tensorShape": {"dim": [{"size": "3"}, {"size": "3"}, {"size": "256"}, {"size": "512"}]}}}, "dtype": {"type": "DT_FLOAT"}}}, {"name": "model_4/conv2d_724/BiasAdd/ReadVariableOp", "op": "Const", "attr": {"value": {"tensor": {"dtype": "DT_FLOAT", "tensorShape": {"dim": [{"size": "512"}]}}}, "dtype": {"type": "DT_FLOAT"}}}, {"name": "model_4/conv2d_725/Conv2D/ReadVariableOp", "op": "Const", "attr": {"value": {"tensor": {"dtype": "DT_FLOAT", "tensorShape": {"dim": [{"size": "1"}, {"size": "1"}, {"size": "512"}, {"size": "512"}]}}}, "dtype": {"type": "DT_FLOAT"}}}, {"name": "model_4/conv2d_725/BiasAdd/ReadVariableOp", "op": "Const", "attr": {"value": {"tensor": {"dtype": "DT_FLOAT", "tensorShape": {"dim": [{"size": "512"}]}}}, "dtype": {"type": "DT_FLOAT"}}}, {"name": "model_4/zero_padding2d_444/Pad/paddings", "op": "Const", "attr": {"value": {"tensor": {"dtype": "DT_INT32", "tensorShape": {"dim": [{"size": "4"}, {"size": "2"}]}}}, "dtype": {"type": "DT_INT32"}}}, {"name": "model_4/conv2d_726/Conv2D/ReadVariableOp", "op": "Const", "attr": {"value": {"tensor": {"dtype": "DT_FLOAT", "tensorShape": {"dim": [{"size": "3"}, {"size": "3"}, {"size": "256"}, {"size": "256"}]}}}, "dtype": {"type": "DT_FLOAT"}}}, {"name": "model_4/conv2d_726/BiasAdd/ReadVariableOp", "op": "Const", "attr": {"value": {"tensor": {"dtype": "DT_FLOAT", "tensorShape": {"dim": [{"size": "256"}]}}}, "dtype": {"type": "DT_FLOAT"}}}, {"name": "model_4/zero_padding2d_445/Pad/paddings", "op": "Const", "attr": {"dtype": {"type": "DT_INT32"}, "value": {"tensor": {"dtype": "DT_INT32", "tensorShape": {"dim": [{"size": "4"}, {"size": "2"}]}}}}}, {"name": "model_4/conv2d_727/Conv2D/ReadVariableOp", "op": "Const", "attr": {"dtype": {"type": "DT_FLOAT"}, "value": {"tensor": {"dtype": "DT_FLOAT", "tensorShape": {"dim": [{"size": "3"}, {"size": "3"}, {"size": "256"}, {"size": "256"}]}}}}}, {"name": "model_4/conv2d_727/BiasAdd/ReadVariableOp", "op": "Const", "attr": {"value": {"tensor": {"dtype": "DT_FLOAT", "tensorShape": {"dim": [{"size": "256"}]}}}, "dtype": {"type": "DT_FLOAT"}}}, {"name": "model_4/tf.concat_212/concat/axis", "op": "Const", "attr": {"value": {"tensor": {"dtype": "DT_INT32", "tensorShape": {}}}, "dtype": {"type": "DT_INT32"}}}, {"name": "model_4/conv2d_728/Conv2D/ReadVariableOp", "op": "Const", "attr": {"value": {"tensor": {"dtype": "DT_FLOAT", "tensorShape": {"dim": [{"size": "1"}, {"size": "1"}, {"size": "768"}, {"size": "512"}]}}}, "dtype": {"type": "DT_FLOAT"}}}, {"name": "model_4/conv2d_728/BiasAdd/ReadVariableOp", "op": "Const", "attr": {"dtype": {"type": "DT_FLOAT"}, "value": {"tensor": {"dtype": "DT_FLOAT", "tensorShape": {"dim": [{"size": "512"}]}}}}}, {"name": "model_4/conv2d_729/Conv2D/ReadVariableOp", "op": "Const", "attr": {"value": {"tensor": {"dtype": "DT_FLOAT", "tensorShape": {"dim": [{"size": "1"}, {"size": "1"}, {"size": "512"}, {"size": "256"}]}}}, "dtype": {"type": "DT_FLOAT"}}}, {"name": "model_4/conv2d_729/BiasAdd/ReadVariableOp", "op": "Const", "attr": {"value": {"tensor": {"dtype": "DT_FLOAT", "tensorShape": {"dim": [{"size": "256"}]}}}, "dtype": {"type": "DT_FLOAT"}}}, {"name": "model_4/tf.compat.v1.pad_33/PadV2/paddings", "op": "Const", "attr": {"dtype": {"type": "DT_INT32"}, "value": {"tensor": {"dtype": "DT_INT32", "tensorShape": {"dim": [{"size": "4"}, {"size": "2"}]}}}}}, {"name": "model_4/tf.compat.v1.pad_33/PadV2/constant_values", "op": "Const", "attr": {"dtype": {"type": "DT_FLOAT"}, "value": {"tensor": {"dtype": "DT_FLOAT", "tensorShape": {}}}}}, {"name": "model_4/tf.compat.v1.pad_34/PadV2/paddings", "op": "Const", "attr": {"value": {"tensor": {"dtype": "DT_INT32", "tensorShape": {"dim": [{"size": "4"}, {"size": "2"}]}}}, "dtype": {"type": "DT_INT32"}}}, {"name": "model_4/tf.compat.v1.pad_34/PadV2/constant_values", "op": "Const", "attr": {"value": {"tensor": {"dtype": "DT_FLOAT", "tensorShape": {}}}, "dtype": {"type": "DT_FLOAT"}}}, {"name": "model_4/tf.compat.v1.pad_35/PadV2/paddings", "op": "Const", "attr": {"dtype": {"type": "DT_INT32"}, "value": {"tensor": {"dtype": "DT_INT32", "tensorShape": {"dim": [{"size": "4"}, {"size": "2"}]}}}}}, {"name": "model_4/tf.compat.v1.pad_35/PadV2/constant_values", "op": "Const", "attr": {"value": {"tensor": {"dtype": "DT_FLOAT", "tensorShape": {}}}, "dtype": {"type": "DT_FLOAT"}}}, {"name": "model_4/tf.concat_213/concat/axis", "op": "Const", "attr": {"dtype": {"type": "DT_INT32"}, "value": {"tensor": {"dtype": "DT_INT32", "tensorShape": {}}}}}, {"name": "model_4/conv2d_730/Conv2D/ReadVariableOp", "op": "Const", "attr": {"value": {"tensor": {"dtype": "DT_FLOAT", "tensorShape": {"dim": [{"size": "1"}, {"size": "1"}, {"size": "1024"}, {"size": "512"}]}}}, "dtype": {"type": "DT_FLOAT"}}}, {"name": "model_4/conv2d_730/BiasAdd/ReadVariableOp", "op": "Const", "attr": {"value": {"tensor": {"dtype": "DT_FLOAT", "tensorShape": {"dim": [{"size": "512"}]}}}, "dtype": {"type": "DT_FLOAT"}}}, {"name": "model_4/tf.concat_220/concat/axis", "op": "Const", "attr": {"dtype": {"type": "DT_INT32"}, "value": {"tensor": {"dtype": "DT_INT32", "tensorShape": {}}}}}, {"name": "model_4/conv2d_745/Conv2D/ReadVariableOp", "op": "Const", "attr": {"value": {"tensor": {"dtype": "DT_FLOAT", "tensorShape": {"dim": [{"size": "1"}, {"size": "1"}, {"size": "768"}, {"size": "512"}]}}}, "dtype": {"type": "DT_FLOAT"}}}, {"name": "model_4/conv2d_745/BiasAdd/ReadVariableOp", "op": "Const", "attr": {"value": {"tensor": {"dtype": "DT_FLOAT", "tensorShape": {"dim": [{"size": "512"}]}}}, "dtype": {"type": "DT_FLOAT"}}}, {"name": "model_4/zero_padding2d_454/Pad/paddings", "op": "Const", "attr": {"dtype": {"type": "DT_INT32"}, "value": {"tensor": {"dtype": "DT_INT32", "tensorShape": {"dim": [{"size": "4"}, {"size": "2"}]}}}}}, {"name": "model_4/conv2d_746/Conv2D/ReadVariableOp", "op": "Const", "attr": {"value": {"tensor": {"dtype": "DT_FLOAT", "tensorShape": {"dim": [{"size": "3"}, {"size": "3"}, {"size": "256"}, {"size": "256"}]}}}, "dtype": {"type": "DT_FLOAT"}}}, {"name": "model_4/conv2d_746/BiasAdd/ReadVariableOp", "op": "Const", "attr": {"dtype": {"type": "DT_FLOAT"}, "value": {"tensor": {"dtype": "DT_FLOAT", "tensorShape": {"dim": [{"size": "256"}]}}}}}, {"name": "model_4/zero_padding2d_455/Pad/paddings", "op": "Const", "attr": {"value": {"tensor": {"dtype": "DT_INT32", "tensorShape": {"dim": [{"size": "4"}, {"size": "2"}]}}}, "dtype": {"type": "DT_INT32"}}}, {"name": "model_4/conv2d_747/Conv2D/ReadVariableOp", "op": "Const", "attr": {"dtype": {"type": "DT_FLOAT"}, "value": {"tensor": {"dtype": "DT_FLOAT", "tensorShape": {"dim": [{"size": "3"}, {"size": "3"}, {"size": "256"}, {"size": "256"}]}}}}}, {"name": "model_4/conv2d_747/BiasAdd/ReadVariableOp", "op": "Const", "attr": {"dtype": {"type": "DT_FLOAT"}, "value": {"tensor": {"dtype": "DT_FLOAT", "tensorShape": {"dim": [{"size": "256"}]}}}}}, {"name": "model_4/tf.concat_221/concat/axis", "op": "Const", "attr": {"value": {"tensor": {"dtype": "DT_INT32", "tensorShape": {}}}, "dtype": {"type": "DT_INT32"}}}, {"name": "model_4/conv2d_748/Conv2D/ReadVariableOp", "op": "Const", "attr": {"dtype": {"type": "DT_FLOAT"}, "value": {"tensor": {"dtype": "DT_FLOAT", "tensorShape": {"dim": [{"size": "1"}, {"size": "1"}, {"size": "768"}, {"size": "512"}]}}}}}, {"name": "model_4/conv2d_748/BiasAdd/ReadVariableOp", "op": "Const", "attr": {"value": {"tensor": {"dtype": "DT_FLOAT", "tensorShape": {"dim": [{"size": "512"}]}}}, "dtype": {"type": "DT_FLOAT"}}}, {"name": "model_4/zero_padding2d_466/Pad/paddings", "op": "Const", "attr": {"dtype": {"type": "DT_INT32"}, "value": {"tensor": {"dtype": "DT_INT32", "tensorShape": {"dim": [{"size": "4"}, {"size": "2"}]}}}}}, {"name": "model_4/conv2d_764/Conv2D/ReadVariableOp", "op": "Const", "attr": {"value": {"tensor": {"dtype": "DT_FLOAT", "tensorShape": {"dim": [{"size": "3"}, {"size": "3"}, {"size": "512"}, {"size": "128"}]}}}, "dtype": {"type": "DT_FLOAT"}}}, {"name": "model_4/conv2d_764/BiasAdd/ReadVariableOp", "op": "Const", "attr": {"value": {"tensor": {"dtype": "DT_FLOAT", "tensorShape": {"dim": [{"size": "128"}]}}}, "dtype": {"type": "DT_FLOAT"}}}, {"name": "model_4/zero_padding2d_467/Pad/paddings", "op": "Const", "attr": {"dtype": {"type": "DT_INT32"}, "value": {"tensor": {"dtype": "DT_INT32", "tensorShape": {"dim": [{"size": "4"}, {"size": "2"}]}}}}}, {"name": "model_4/conv2d_765/Conv2D/ReadVariableOp", "op": "Const", "attr": {"value": {"tensor": {"dtype": "DT_FLOAT", "tensorShape": {"dim": [{"size": "3"}, {"size": "3"}, {"size": "128"}, {"size": "128"}]}}}, "dtype": {"type": "DT_FLOAT"}}}, {"name": "model_4/conv2d_765/BiasAdd/ReadVariableOp", "op": "Const", "attr": {"value": {"tensor": {"dtype": "DT_FLOAT", "tensorShape": {"dim": [{"size": "128"}]}}}, "dtype": {"type": "DT_FLOAT"}}}, {"name": "model_4/conv2d_766/Conv2D/ReadVariableOp", "op": "Const", "attr": {"dtype": {"type": "DT_FLOAT"}, "value": {"tensor": {"dtype": "DT_FLOAT", "tensorShape": {"dim": [{"size": "1"}, {"size": "1"}, {"size": "128"}, {"size": "12"}]}}}}}, {"name": "model_4/conv2d_766/BiasAdd/ReadVariableOp", "op": "Const", "attr": {"value": {"tensor": {"dtype": "DT_FLOAT", "tensorShape": {"dim": [{"size": "12"}]}}}, "dtype": {"type": "DT_FLOAT"}}}, {"name": "model_4/tf.concat_224/concat/axis", "op": "Const", "attr": {"value": {"tensor": {"dtype": "DT_INT32", "tensorShape": {}}}, "dtype": {"type": "DT_INT32"}}}, {"name": "model_4/tf.compat.v1.transpose_69/transpose/perm", "op": "Const", "attr": {"value": {"tensor": {"dtype": "DT_INT32", "tensorShape": {"dim": [{"size": "4"}]}}}, "dtype": {"type": "DT_INT32"}}}, {"name": "model_4/tf.reshape_58/Reshape/shape", "op": "Const", "attr": {"dtype": {"type": "DT_INT32"}, "value": {"tensor": {"dtype": "DT_INT32", "tensorShape": {"dim": [{"size": "3"}]}}}}}, {"name": "model_4/tf.concat_225/concat/axis", "op": "Const", "attr": {"value": {"tensor": {"dtype": "DT_INT32", "tensorShape": {}}}, "dtype": {"type": "DT_INT32"}}}, {"name": "model_4/tf.__operators__.getitem_136/strided_slice/stack", "op": "Const", "attr": {"dtype": {"type": "DT_INT32"}, "value": {"tensor": {"dtype": "DT_INT32", "tensorShape": {"dim": [{"size": "2"}]}}}}}, {"name": "model_4/tf.__operators__.getitem_136/strided_slice/stack_1", "op": "Const", "attr": {"dtype": {"type": "DT_INT32"}, "value": {"tensor": {"dtype": "DT_INT32", "tensorShape": {"dim": [{"size": "2"}]}}}}}, {"name": "model_4/tf.__operators__.getitem_136/strided_slice/stack_2", "op": "Const", "attr": {"dtype": {"type": "DT_INT32"}, "value": {"tensor": {"dtype": "DT_INT32", "tensorShape": {"dim": [{"size": "2"}]}}}}}, {"name": "model_4/tf.concat_227/concat/axis", "op": "Const", "attr": {"dtype": {"type": "DT_INT32"}, "value": {"tensor": {"dtype": "DT_INT32", "tensorShape": {}}}}}, {"name": "model_4/tf.__operators__.getitem_137/strided_slice/stack", "op": "Const", "attr": {"value": {"tensor": {"dtype": "DT_INT32", "tensorShape": {"dim": [{"size": "3"}]}}}, "dtype": {"type": "DT_INT32"}}}, {"name": "model_4/tf.__operators__.getitem_137/strided_slice/stack_1", "op": "Const", "attr": {"value": {"tensor": {"dtype": "DT_INT32", "tensorShape": {"dim": [{"size": "3"}]}}}, "dtype": {"type": "DT_INT32"}}}, {"name": "model_4/tf.__operators__.getitem_137/strided_slice/stack_2", "op": "Const", "attr": {"dtype": {"type": "DT_INT32"}, "value": {"tensor": {"dtype": "DT_INT32", "tensorShape": {"dim": [{"size": "3"}]}}}}}, {"name": "model_4/tf.math.reduce_max_3/Max/reduction_indices", "op": "Const", "attr": {"dtype": {"type": "DT_INT32"}, "value": {"tensor": {"dtype": "DT_INT32", "tensorShape": {"dim": [{"size": "1"}]}}}}}, {"name": "model_4/tf.math.top_k_3/TopKV2/k", "op": "Const", "attr": {"value": {"tensor": {"dtype": "DT_INT32", "tensorShape": {}}}, "dtype": {"type": "DT_INT32"}}}, {"name": "model_4/tf.math.reduce_sum_1/Sum/reduction_indices", "op": "Const", "attr": {"dtype": {"type": "DT_INT32"}, "value": {"tensor": {"dtype": "DT_INT32", "tensorShape": {}}}}}, {"name": "model_4/tf.compat.v1.gather_1/GatherV2/axis", "op": "Const", "attr": {"value": {"tensor": {"dtype": "DT_INT32", "tensorShape": {}}}, "dtype": {"type": "DT_INT32"}}}, {"name": "x", "op": "Placeholder", "attr": {"shape": {"shape": {"dim": [{"size": "1"}, {"size": "288"}, {"size": "480"}, {"size": "3"}]}}, "dtype": {"type": "DT_FLOAT"}}}, {"name": "model_4/zero_padding2d_429/Pad", "op": "Pad", "input": ["x", "model_4/zero_padding2d_429/Pad/paddings"], "attr": {"T": {"type": "DT_FLOAT"}, "Tpaddings": {"type": "DT_INT32"}}}, {"name": "model_4/conv2d_704/BiasAdd", "op": "_FusedConv2D", "input": ["model_4/zero_padding2d_429/Pad", "model_4/conv2d_704/Conv2D/ReadVariableOp", "model_4/conv2d_704/BiasAdd/ReadVariableOp"], "device": "/device:CPU:0", "attr": {"num_args": {"i": "1"}, "T": {"type": "DT_FLOAT"}, "padding": {"s": "VkFMSUQ="}, "dilations": {"list": {"i": ["1", "1", "1", "1"]}}, "filter_format": {"s": "SFdJTw=="}, "data_format": {"s": "TkhXQw=="}, "strides": {"list": {"i": ["1", "2", "2", "1"]}}, "fused_ops": {"list": {"s": ["Qmlhc0FkZA=="]}}, "leakyrelu_alpha": {"f": 0.2}, "epsilon": {"f": 0.0}, "use_cudnn_on_gpu": {"b": true}, "num_host_args": {"i": "0"}, "explicit_paddings": {"list": {}}, "TArgs": {"list": {"type": ["DT_FLOAT"]}}}}, {"name": "model_4/tf.nn.silu_627/Sigmoid", "op": "Sigmoid", "input": ["model_4/conv2d_704/BiasAdd"], "attr": {"T": {"type": "DT_FLOAT"}}}, {"name": "model_4/tf.nn.silu_627/mul_1", "op": "Mul", "input": ["model_4/conv2d_704/BiasAdd", "model_4/tf.nn.silu_627/Sigmoid"], "attr": {"T": {"type": "DT_FLOAT"}}}, {"name": "model_4/zero_padding2d_430/Pad", "op": "Pad", "input": ["model_4/tf.nn.silu_627/mul_1", "model_4/zero_padding2d_430/Pad/paddings"], "attr": {"T": {"type": "DT_FLOAT"}, "Tpaddings": {"type": "DT_INT32"}}}, {"name": "model_4/conv2d_705/BiasAdd", "op": "_FusedConv2D", "input": ["model_4/zero_padding2d_430/Pad", "model_4/conv2d_705/Conv2D/ReadVariableOp", "model_4/conv2d_705/BiasAdd/ReadVariableOp"], "device": "/device:CPU:0", "attr": {"fused_ops": {"list": {"s": ["Qmlhc0FkZA=="]}}, "padding": {"s": "VkFMSUQ="}, "TArgs": {"list": {"type": ["DT_FLOAT"]}}, "num_args": {"i": "1"}, "num_host_args": {"i": "0"}, "explicit_paddings": {"list": {}}, "leakyrelu_alpha": {"f": 0.2}, "use_cudnn_on_gpu": {"b": true}, "epsilon": {"f": 0.0}, "filter_format": {"s": "SFdJTw=="}, "T": {"type": "DT_FLOAT"}, "dilations": {"list": {"i": ["1", "1", "1", "1"]}}, "data_format": {"s": "TkhXQw=="}, "strides": {"list": {"i": ["1", "2", "2", "1"]}}}}, {"name": "model_4/tf.nn.silu_628/Sigmoid", "op": "Sigmoid", "input": ["model_4/conv2d_705/BiasAdd"], "attr": {"T": {"type": "DT_FLOAT"}}}, {"name": "model_4/tf.nn.silu_628/mul_1", "op": "Mul", "input": ["model_4/conv2d_705/BiasAdd", "model_4/tf.nn.silu_628/Sigmoid"], "attr": {"T": {"type": "DT_FLOAT"}}}, {"name": "model_4/conv2d_706/BiasAdd", "op": "_FusedConv2D", "input": ["model_4/tf.nn.silu_628/mul_1", "model_4/conv2d_706/Conv2D/ReadVariableOp", "model_4/conv2d_706/BiasAdd/ReadVariableOp"], "device": "/device:CPU:0", "attr": {"num_args": {"i": "1"}, "leakyrelu_alpha": {"f": 0.2}, "use_cudnn_on_gpu": {"b": true}, "epsilon": {"f": 0.0}, "TArgs": {"list": {"type": ["DT_FLOAT"]}}, "padding": {"s": "VkFMSUQ="}, "strides": {"list": {"i": ["1", "1", "1", "1"]}}, "fused_ops": {"list": {"s": ["Qmlhc0FkZA=="]}}, "data_format": {"s": "TkhXQw=="}, "num_host_args": {"i": "0"}, "T": {"type": "DT_FLOAT"}, "explicit_paddings": {"list": {}}, "dilations": {"list": {"i": ["1", "1", "1", "1"]}}, "filter_format": {"s": "SFdJTw=="}}}, {"name": "model_4/tf.nn.silu_629/Sigmoid", "op": "Sigmoid", "input": ["model_4/conv2d_706/BiasAdd"], "attr": {"T": {"type": "DT_FLOAT"}}}, {"name": "model_4/tf.nn.silu_629/mul_1", "op": "Mul", "input": ["model_4/conv2d_706/BiasAdd", "model_4/tf.nn.silu_629/Sigmoid"], "attr": {"T": {"type": "DT_FLOAT"}}}, {"name": "model_4/tf.split_101/split", "op": "Split", "input": ["model_4/tf.split_101/split/split_dim", "model_4/tf.nn.silu_629/mul_1"], "attr": {"num_split": {"i": "2"}, "T": {"type": "DT_FLOAT"}}}, {"name": "model_4/zero_padding2d_431/Pad", "op": "Pad", "input": ["model_4/tf.split_101/split:1", "model_4/zero_padding2d_431/Pad/paddings"], "attr": {"T": {"type": "DT_FLOAT"}, "Tpaddings": {"type": "DT_INT32"}}}, {"name": "model_4/conv2d_707/BiasAdd", "op": "_FusedConv2D", "input": ["model_4/zero_padding2d_431/Pad", "model_4/conv2d_707/Conv2D/ReadVariableOp", "model_4/conv2d_707/BiasAdd/ReadVariableOp"], "device": "/device:CPU:0", "attr": {"padding": {"s": "VkFMSUQ="}, "num_args": {"i": "1"}, "filter_format": {"s": "SFdJTw=="}, "use_cudnn_on_gpu": {"b": true}, "TArgs": {"list": {"type": ["DT_FLOAT"]}}, "T": {"type": "DT_FLOAT"}, "epsilon": {"f": 0.0}, "explicit_paddings": {"list": {}}, "fused_ops": {"list": {"s": ["Qmlhc0FkZA=="]}}, "dilations": {"list": {"i": ["1", "1", "1", "1"]}}, "leakyrelu_alpha": {"f": 0.2}, "strides": {"list": {"i": ["1", "1", "1", "1"]}}, "num_host_args": {"i": "0"}, "data_format": {"s": "TkhXQw=="}}}, {"name": "model_4/tf.nn.silu_630/Sigmoid", "op": "Sigmoid", "input": ["model_4/conv2d_707/BiasAdd"], "attr": {"T": {"type": "DT_FLOAT"}}}, {"name": "model_4/tf.nn.silu_630/mul_1", "op": "Mul", "input": ["model_4/conv2d_707/BiasAdd", "model_4/tf.nn.silu_630/Sigmoid"], "attr": {"T": {"type": "DT_FLOAT"}}}, {"name": "model_4/zero_padding2d_432/Pad", "op": "Pad", "input": ["model_4/tf.nn.silu_630/mul_1", "model_4/zero_padding2d_432/Pad/paddings"], "attr": {"T": {"type": "DT_FLOAT"}, "Tpaddings": {"type": "DT_INT32"}}}, {"name": "model_4/conv2d_708/BiasAdd", "op": "_FusedConv2D", "input": ["model_4/zero_padding2d_432/Pad", "model_4/conv2d_708/Conv2D/ReadVariableOp", "model_4/conv2d_708/BiasAdd/ReadVariableOp"], "device": "/device:CPU:0", "attr": {"epsilon": {"f": 0.0}, "num_host_args": {"i": "0"}, "num_args": {"i": "1"}, "fused_ops": {"list": {"s": ["Qmlhc0FkZA=="]}}, "dilations": {"list": {"i": ["1", "1", "1", "1"]}}, "use_cudnn_on_gpu": {"b": true}, "TArgs": {"list": {"type": ["DT_FLOAT"]}}, "filter_format": {"s": "SFdJTw=="}, "padding": {"s": "VkFMSUQ="}, "leakyrelu_alpha": {"f": 0.2}, "strides": {"list": {"i": ["1", "1", "1", "1"]}}, "T": {"type": "DT_FLOAT"}, "explicit_paddings": {"list": {}}, "data_format": {"s": "TkhXQw=="}}}, {"name": "model_4/tf.nn.silu_631/Sigmoid", "op": "Sigmoid", "input": ["model_4/conv2d_708/BiasAdd"], "attr": {"T": {"type": "DT_FLOAT"}}}, {"name": "model_4/tf.nn.silu_631/mul_1", "op": "Mul", "input": ["model_4/conv2d_708/BiasAdd", "model_4/tf.nn.silu_631/Sigmoid"], "attr": {"T": {"type": "DT_FLOAT"}}}, {"name": "model_4/tf.__operators__.add_92/AddV2", "op": "AddV2", "input": ["model_4/tf.split_101/split:1", "model_4/tf.nn.silu_631/mul_1"], "attr": {"T": {"type": "DT_FLOAT"}}}, {"name": "model_4/tf.concat_209/concat", "op": "ConcatV2", "input": ["model_4/tf.split_101/split", "model_4/tf.split_101/split:1", "model_4/tf.__operators__.add_92/AddV2", "model_4/tf.concat_209/concat/axis"], "attr": {"Tidx": {"type": "DT_INT32"}, "N": {"i": "3"}, "T": {"type": "DT_FLOAT"}}}, {"name": "model_4/conv2d_709/BiasAdd", "op": "_FusedConv2D", "input": ["model_4/tf.concat_209/concat", "model_4/conv2d_709/Conv2D/ReadVariableOp", "model_4/conv2d_709/BiasAdd/ReadVariableOp"], "device": "/device:CPU:0", "attr": {"num_host_args": {"i": "0"}, "padding": {"s": "VkFMSUQ="}, "strides": {"list": {"i": ["1", "1", "1", "1"]}}, "TArgs": {"list": {"type": ["DT_FLOAT"]}}, "epsilon": {"f": 0.0}, "fused_ops": {"list": {"s": ["Qmlhc0FkZA=="]}}, "leakyrelu_alpha": {"f": 0.2}, "dilations": {"list": {"i": ["1", "1", "1", "1"]}}, "data_format": {"s": "TkhXQw=="}, "T": {"type": "DT_FLOAT"}, "filter_format": {"s": "SFdJTw=="}, "explicit_paddings": {"list": {}}, "num_args": {"i": "1"}, "use_cudnn_on_gpu": {"b": true}}}, {"name": "model_4/tf.nn.silu_632/Sigmoid", "op": "Sigmoid", "input": ["model_4/conv2d_709/BiasAdd"], "attr": {"T": {"type": "DT_FLOAT"}}}, {"name": "model_4/tf.nn.silu_632/mul_1", "op": "Mul", "input": ["model_4/conv2d_709/BiasAdd", "model_4/tf.nn.silu_632/Sigmoid"], "attr": {"T": {"type": "DT_FLOAT"}}}, {"name": "model_4/zero_padding2d_433/Pad", "op": "Pad", "input": ["model_4/tf.nn.silu_632/mul_1", "model_4/zero_padding2d_433/Pad/paddings"], "attr": {"Tpaddings": {"type": "DT_INT32"}, "T": {"type": "DT_FLOAT"}}}, {"name": "model_4/conv2d_710/BiasAdd", "op": "_FusedConv2D", "input": ["model_4/zero_padding2d_433/Pad", "model_4/conv2d_710/Conv2D/ReadVariableOp", "model_4/conv2d_710/BiasAdd/ReadVariableOp"], "device": "/device:CPU:0", "attr": {"dilations": {"list": {"i": ["1", "1", "1", "1"]}}, "num_args": {"i": "1"}, "filter_format": {"s": "SFdJTw=="}, "epsilon": {"f": 0.0}, "data_format": {"s": "TkhXQw=="}, "use_cudnn_on_gpu": {"b": true}, "T": {"type": "DT_FLOAT"}, "leakyrelu_alpha": {"f": 0.2}, "strides": {"list": {"i": ["1", "2", "2", "1"]}}, "fused_ops": {"list": {"s": ["Qmlhc0FkZA=="]}}, "num_host_args": {"i": "0"}, "padding": {"s": "VkFMSUQ="}, "TArgs": {"list": {"type": ["DT_FLOAT"]}}, "explicit_paddings": {"list": {}}}}, {"name": "model_4/tf.nn.silu_633/Sigmoid", "op": "Sigmoid", "input": ["model_4/conv2d_710/BiasAdd"], "attr": {"T": {"type": "DT_FLOAT"}}}, {"name": "model_4/tf.nn.silu_633/mul_1", "op": "Mul", "input": ["model_4/conv2d_710/BiasAdd", "model_4/tf.nn.silu_633/Sigmoid"], "attr": {"T": {"type": "DT_FLOAT"}}}, {"name": "model_4/conv2d_711/BiasAdd", "op": "_FusedConv2D", "input": ["model_4/tf.nn.silu_633/mul_1", "model_4/conv2d_711/Conv2D/ReadVariableOp", "model_4/conv2d_711/BiasAdd/ReadVariableOp"], "device": "/device:CPU:0", "attr": {"leakyrelu_alpha": {"f": 0.2}, "use_cudnn_on_gpu": {"b": true}, "TArgs": {"list": {"type": ["DT_FLOAT"]}}, "T": {"type": "DT_FLOAT"}, "strides": {"list": {"i": ["1", "1", "1", "1"]}}, "epsilon": {"f": 0.0}, "num_args": {"i": "1"}, "dilations": {"list": {"i": ["1", "1", "1", "1"]}}, "data_format": {"s": "TkhXQw=="}, "num_host_args": {"i": "0"}, "fused_ops": {"list": {"s": ["Qmlhc0FkZA=="]}}, "explicit_paddings": {"list": {}}, "filter_format": {"s": "SFdJTw=="}, "padding": {"s": "VkFMSUQ="}}}, {"name": "model_4/tf.nn.silu_634/Sigmoid", "op": "Sigmoid", "input": ["model_4/conv2d_711/BiasAdd"], "attr": {"T": {"type": "DT_FLOAT"}}}, {"name": "model_4/tf.nn.silu_634/mul_1", "op": "Mul", "input": ["model_4/conv2d_711/BiasAdd", "model_4/tf.nn.silu_634/Sigmoid"], "attr": {"T": {"type": "DT_FLOAT"}}}, {"name": "model_4/tf.split_102/split", "op": "Split", "input": ["model_4/tf.split_102/split/split_dim", "model_4/tf.nn.silu_634/mul_1"], "attr": {"T": {"type": "DT_FLOAT"}, "num_split": {"i": "2"}}}, {"name": "model_4/zero_padding2d_434/Pad", "op": "Pad", "input": ["model_4/tf.split_102/split:1", "model_4/zero_padding2d_434/Pad/paddings"], "attr": {"Tpaddings": {"type": "DT_INT32"}, "T": {"type": "DT_FLOAT"}}}, {"name": "model_4/conv2d_712/BiasAdd", "op": "_FusedConv2D", "input": ["model_4/zero_padding2d_434/Pad", "model_4/conv2d_712/Conv2D/ReadVariableOp", "model_4/conv2d_712/BiasAdd/ReadVariableOp"], "device": "/device:CPU:0", "attr": {"epsilon": {"f": 0.0}, "explicit_paddings": {"list": {}}, "num_host_args": {"i": "0"}, "strides": {"list": {"i": ["1", "1", "1", "1"]}}, "leakyrelu_alpha": {"f": 0.2}, "data_format": {"s": "TkhXQw=="}, "T": {"type": "DT_FLOAT"}, "dilations": {"list": {"i": ["1", "1", "1", "1"]}}, "fused_ops": {"list": {"s": ["Qmlhc0FkZA=="]}}, "num_args": {"i": "1"}, "padding": {"s": "VkFMSUQ="}, "TArgs": {"list": {"type": ["DT_FLOAT"]}}, "use_cudnn_on_gpu": {"b": true}, "filter_format": {"s": "SFdJTw=="}}}, {"name": "model_4/tf.nn.silu_635/Sigmoid", "op": "Sigmoid", "input": ["model_4/conv2d_712/BiasAdd"], "attr": {"T": {"type": "DT_FLOAT"}}}, {"name": "model_4/tf.nn.silu_635/mul_1", "op": "Mul", "input": ["model_4/conv2d_712/BiasAdd", "model_4/tf.nn.silu_635/Sigmoid"], "attr": {"T": {"type": "DT_FLOAT"}}}, {"name": "model_4/zero_padding2d_435/Pad", "op": "Pad", "input": ["model_4/tf.nn.silu_635/mul_1", "model_4/zero_padding2d_435/Pad/paddings"], "attr": {"T": {"type": "DT_FLOAT"}, "Tpaddings": {"type": "DT_INT32"}}}, {"name": "model_4/conv2d_713/BiasAdd", "op": "_FusedConv2D", "input": ["model_4/zero_padding2d_435/Pad", "model_4/conv2d_713/Conv2D/ReadVariableOp", "model_4/conv2d_713/BiasAdd/ReadVariableOp"], "device": "/device:CPU:0", "attr": {"data_format": {"s": "TkhXQw=="}, "strides": {"list": {"i": ["1", "1", "1", "1"]}}, "padding": {"s": "VkFMSUQ="}, "fused_ops": {"list": {"s": ["Qmlhc0FkZA=="]}}, "leakyrelu_alpha": {"f": 0.2}, "use_cudnn_on_gpu": {"b": true}, "explicit_paddings": {"list": {}}, "dilations": {"list": {"i": ["1", "1", "1", "1"]}}, "TArgs": {"list": {"type": ["DT_FLOAT"]}}, "T": {"type": "DT_FLOAT"}, "num_args": {"i": "1"}, "epsilon": {"f": 0.0}, "num_host_args": {"i": "0"}, "filter_format": {"s": "SFdJTw=="}}}, {"name": "model_4/tf.nn.silu_636/Sigmoid", "op": "Sigmoid", "input": ["model_4/conv2d_713/BiasAdd"], "attr": {"T": {"type": "DT_FLOAT"}}}, {"name": "model_4/tf.nn.silu_636/mul_1", "op": "Mul", "input": ["model_4/conv2d_713/BiasAdd", "model_4/tf.nn.silu_636/Sigmoid"], "attr": {"T": {"type": "DT_FLOAT"}}}, {"name": "model_4/tf.__operators__.add_93/AddV2", "op": "AddV2", "input": ["model_4/tf.split_102/split:1", "model_4/tf.nn.silu_636/mul_1"], "attr": {"T": {"type": "DT_FLOAT"}}}, {"name": "model_4/zero_padding2d_436/Pad", "op": "Pad", "input": ["model_4/tf.__operators__.add_93/AddV2", "model_4/zero_padding2d_436/Pad/paddings"], "attr": {"T": {"type": "DT_FLOAT"}, "Tpaddings": {"type": "DT_INT32"}}}, {"name": "model_4/conv2d_714/BiasAdd", "op": "_FusedConv2D", "input": ["model_4/zero_padding2d_436/Pad", "model_4/conv2d_714/Conv2D/ReadVariableOp", "model_4/conv2d_714/BiasAdd/ReadVariableOp"], "device": "/device:CPU:0", "attr": {"dilations": {"list": {"i": ["1", "1", "1", "1"]}}, "num_args": {"i": "1"}, "use_cudnn_on_gpu": {"b": true}, "padding": {"s": "VkFMSUQ="}, "epsilon": {"f": 0.0}, "T": {"type": "DT_FLOAT"}, "explicit_paddings": {"list": {}}, "num_host_args": {"i": "0"}, "fused_ops": {"list": {"s": ["Qmlhc0FkZA=="]}}, "leakyrelu_alpha": {"f": 0.2}, "filter_format": {"s": "SFdJTw=="}, "strides": {"list": {"i": ["1", "1", "1", "1"]}}, "TArgs": {"list": {"type": ["DT_FLOAT"]}}, "data_format": {"s": "TkhXQw=="}}}, {"name": "model_4/tf.nn.silu_637/Sigmoid", "op": "Sigmoid", "input": ["model_4/conv2d_714/BiasAdd"], "attr": {"T": {"type": "DT_FLOAT"}}}, {"name": "model_4/tf.nn.silu_637/mul_1", "op": "Mul", "input": ["model_4/conv2d_714/BiasAdd", "model_4/tf.nn.silu_637/Sigmoid"], "attr": {"T": {"type": "DT_FLOAT"}}}, {"name": "model_4/zero_padding2d_437/Pad", "op": "Pad", "input": ["model_4/tf.nn.silu_637/mul_1", "model_4/zero_padding2d_437/Pad/paddings"], "attr": {"Tpaddings": {"type": "DT_INT32"}, "T": {"type": "DT_FLOAT"}}}, {"name": "model_4/conv2d_715/BiasAdd", "op": "_FusedConv2D", "input": ["model_4/zero_padding2d_437/Pad", "model_4/conv2d_715/Conv2D/ReadVariableOp", "model_4/conv2d_715/BiasAdd/ReadVariableOp"], "device": "/device:CPU:0", "attr": {"padding": {"s": "VkFMSUQ="}, "use_cudnn_on_gpu": {"b": true}, "num_host_args": {"i": "0"}, "leakyrelu_alpha": {"f": 0.2}, "data_format": {"s": "TkhXQw=="}, "TArgs": {"list": {"type": ["DT_FLOAT"]}}, "T": {"type": "DT_FLOAT"}, "strides": {"list": {"i": ["1", "1", "1", "1"]}}, "num_args": {"i": "1"}, "fused_ops": {"list": {"s": ["Qmlhc0FkZA=="]}}, "epsilon": {"f": 0.0}, "filter_format": {"s": "SFdJTw=="}, "dilations": {"list": {"i": ["1", "1", "1", "1"]}}, "explicit_paddings": {"list": {}}}}, {"name": "model_4/tf.nn.silu_638/Sigmoid", "op": "Sigmoid", "input": ["model_4/conv2d_715/BiasAdd"], "attr": {"T": {"type": "DT_FLOAT"}}}, {"name": "model_4/tf.nn.silu_638/mul_1", "op": "Mul", "input": ["model_4/conv2d_715/BiasAdd", "model_4/tf.nn.silu_638/Sigmoid"], "attr": {"T": {"type": "DT_FLOAT"}}}, {"name": "model_4/tf.__operators__.add_94/AddV2", "op": "AddV2", "input": ["model_4/tf.__operators__.add_93/AddV2", "model_4/tf.nn.silu_638/mul_1"], "attr": {"T": {"type": "DT_FLOAT"}}}, {"name": "model_4/tf.concat_210/concat", "op": "ConcatV2", "input": ["model_4/tf.split_102/split", "model_4/tf.split_102/split:1", "model_4/tf.__operators__.add_93/AddV2", "model_4/tf.__operators__.add_94/AddV2", "model_4/tf.concat_210/concat/axis"], "attr": {"T": {"type": "DT_FLOAT"}, "Tidx": {"type": "DT_INT32"}, "N": {"i": "4"}}}, {"name": "model_4/conv2d_716/BiasAdd", "op": "_FusedConv2D", "input": ["model_4/tf.concat_210/concat", "model_4/conv2d_716/Conv2D/ReadVariableOp", "model_4/conv2d_716/BiasAdd/ReadVariableOp"], "device": "/device:CPU:0", "attr": {"dilations": {"list": {"i": ["1", "1", "1", "1"]}}, "data_format": {"s": "TkhXQw=="}, "fused_ops": {"list": {"s": ["Qmlhc0FkZA=="]}}, "use_cudnn_on_gpu": {"b": true}, "num_args": {"i": "1"}, "filter_format": {"s": "SFdJTw=="}, "epsilon": {"f": 0.0}, "T": {"type": "DT_FLOAT"}, "explicit_paddings": {"list": {}}, "padding": {"s": "VkFMSUQ="}, "leakyrelu_alpha": {"f": 0.2}, "TArgs": {"list": {"type": ["DT_FLOAT"]}}, "num_host_args": {"i": "0"}, "strides": {"list": {"i": ["1", "1", "1", "1"]}}}}, {"name": "model_4/tf.nn.silu_639/Sigmoid", "op": "Sigmoid", "input": ["model_4/conv2d_716/BiasAdd"], "attr": {"T": {"type": "DT_FLOAT"}}}, {"name": "model_4/tf.nn.silu_639/mul_1", "op": "Mul", "input": ["model_4/conv2d_716/BiasAdd", "model_4/tf.nn.silu_639/Sigmoid"], "attr": {"T": {"type": "DT_FLOAT"}}}, {"name": "model_4/zero_padding2d_438/Pad", "op": "Pad", "input": ["model_4/tf.nn.silu_639/mul_1", "model_4/zero_padding2d_438/Pad/paddings"], "attr": {"T": {"type": "DT_FLOAT"}, "Tpaddings": {"type": "DT_INT32"}}}, {"name": "model_4/conv2d_717/BiasAdd", "op": "_FusedConv2D", "input": ["model_4/zero_padding2d_438/Pad", "model_4/conv2d_717/Conv2D/ReadVariableOp", "model_4/conv2d_717/BiasAdd/ReadVariableOp"], "device": "/device:CPU:0", "attr": {"use_cudnn_on_gpu": {"b": true}, "num_host_args": {"i": "0"}, "leakyrelu_alpha": {"f": 0.2}, "data_format": {"s": "TkhXQw=="}, "epsilon": {"f": 0.0}, "fused_ops": {"list": {"s": ["Qmlhc0FkZA=="]}}, "T": {"type": "DT_FLOAT"}, "dilations": {"list": {"i": ["1", "1", "1", "1"]}}, "TArgs": {"list": {"type": ["DT_FLOAT"]}}, "num_args": {"i": "1"}, "explicit_paddings": {"list": {}}, "padding": {"s": "VkFMSUQ="}, "strides": {"list": {"i": ["1", "2", "2", "1"]}}, "filter_format": {"s": "SFdJTw=="}}}, {"name": "model_4/tf.nn.silu_640/Sigmoid", "op": "Sigmoid", "input": ["model_4/conv2d_717/BiasAdd"], "attr": {"T": {"type": "DT_FLOAT"}}}, {"name": "model_4/tf.nn.silu_640/mul_1", "op": "Mul", "input": ["model_4/conv2d_717/BiasAdd", "model_4/tf.nn.silu_640/Sigmoid"], "attr": {"T": {"type": "DT_FLOAT"}}}, {"name": "model_4/conv2d_718/BiasAdd", "op": "_FusedConv2D", "input": ["model_4/tf.nn.silu_640/mul_1", "model_4/conv2d_718/Conv2D/ReadVariableOp", "model_4/conv2d_718/BiasAdd/ReadVariableOp"], "device": "/device:CPU:0", "attr": {"padding": {"s": "VkFMSUQ="}, "data_format": {"s": "TkhXQw=="}, "num_args": {"i": "1"}, "use_cudnn_on_gpu": {"b": true}, "fused_ops": {"list": {"s": ["Qmlhc0FkZA=="]}}, "strides": {"list": {"i": ["1", "1", "1", "1"]}}, "leakyrelu_alpha": {"f": 0.2}, "num_host_args": {"i": "0"}, "epsilon": {"f": 0.0}, "TArgs": {"list": {"type": ["DT_FLOAT"]}}, "T": {"type": "DT_FLOAT"}, "dilations": {"list": {"i": ["1", "1", "1", "1"]}}, "filter_format": {"s": "SFdJTw=="}, "explicit_paddings": {"list": {}}}}, {"name": "model_4/tf.nn.silu_641/Sigmoid", "op": "Sigmoid", "input": ["model_4/conv2d_718/BiasAdd"], "attr": {"T": {"type": "DT_FLOAT"}}}, {"name": "model_4/tf.nn.silu_641/mul_1", "op": "Mul", "input": ["model_4/conv2d_718/BiasAdd", "model_4/tf.nn.silu_641/Sigmoid"], "attr": {"T": {"type": "DT_FLOAT"}}}, {"name": "model_4/tf.split_103/split", "op": "Split", "input": ["model_4/tf.split_103/split/split_dim", "model_4/tf.nn.silu_641/mul_1"], "attr": {"T": {"type": "DT_FLOAT"}, "num_split": {"i": "2"}}}, {"name": "model_4/zero_padding2d_439/Pad", "op": "Pad", "input": ["model_4/tf.split_103/split:1", "model_4/zero_padding2d_439/Pad/paddings"], "attr": {"Tpaddings": {"type": "DT_INT32"}, "T": {"type": "DT_FLOAT"}}}, {"name": "model_4/conv2d_719/BiasAdd", "op": "_FusedConv2D", "input": ["model_4/zero_padding2d_439/Pad", "model_4/conv2d_719/Conv2D/ReadVariableOp", "model_4/conv2d_719/BiasAdd/ReadVariableOp"], "device": "/device:CPU:0", "attr": {"leakyrelu_alpha": {"f": 0.2}, "num_host_args": {"i": "0"}, "data_format": {"s": "TkhXQw=="}, "strides": {"list": {"i": ["1", "1", "1", "1"]}}, "fused_ops": {"list": {"s": ["Qmlhc0FkZA=="]}}, "filter_format": {"s": "SFdJTw=="}, "TArgs": {"list": {"type": ["DT_FLOAT"]}}, "dilations": {"list": {"i": ["1", "1", "1", "1"]}}, "T": {"type": "DT_FLOAT"}, "use_cudnn_on_gpu": {"b": true}, "padding": {"s": "VkFMSUQ="}, "explicit_paddings": {"list": {}}, "epsilon": {"f": 0.0}, "num_args": {"i": "1"}}}, {"name": "model_4/tf.nn.silu_642/Sigmoid", "op": "Sigmoid", "input": ["model_4/conv2d_719/BiasAdd"], "attr": {"T": {"type": "DT_FLOAT"}}}, {"name": "model_4/tf.nn.silu_642/mul_1", "op": "Mul", "input": ["model_4/conv2d_719/BiasAdd", "model_4/tf.nn.silu_642/Sigmoid"], "attr": {"T": {"type": "DT_FLOAT"}}}, {"name": "model_4/zero_padding2d_440/Pad", "op": "Pad", "input": ["model_4/tf.nn.silu_642/mul_1", "model_4/zero_padding2d_440/Pad/paddings"], "attr": {"T": {"type": "DT_FLOAT"}, "Tpaddings": {"type": "DT_INT32"}}}, {"name": "model_4/conv2d_720/BiasAdd", "op": "_FusedConv2D", "input": ["model_4/zero_padding2d_440/Pad", "model_4/conv2d_720/Conv2D/ReadVariableOp", "model_4/conv2d_720/BiasAdd/ReadVariableOp"], "device": "/device:CPU:0", "attr": {"filter_format": {"s": "SFdJTw=="}, "fused_ops": {"list": {"s": ["Qmlhc0FkZA=="]}}, "dilations": {"list": {"i": ["1", "1", "1", "1"]}}, "num_args": {"i": "1"}, "explicit_paddings": {"list": {}}, "strides": {"list": {"i": ["1", "1", "1", "1"]}}, "T": {"type": "DT_FLOAT"}, "epsilon": {"f": 0.0}, "padding": {"s": "VkFMSUQ="}, "leakyrelu_alpha": {"f": 0.2}, "data_format": {"s": "TkhXQw=="}, "num_host_args": {"i": "0"}, "TArgs": {"list": {"type": ["DT_FLOAT"]}}, "use_cudnn_on_gpu": {"b": true}}}, {"name": "model_4/tf.nn.silu_643/Sigmoid", "op": "Sigmoid", "input": ["model_4/conv2d_720/BiasAdd"], "attr": {"T": {"type": "DT_FLOAT"}}}, {"name": "model_4/tf.nn.silu_643/mul_1", "op": "Mul", "input": ["model_4/conv2d_720/BiasAdd", "model_4/tf.nn.silu_643/Sigmoid"], "attr": {"T": {"type": "DT_FLOAT"}}}, {"name": "model_4/tf.__operators__.add_95/AddV2", "op": "AddV2", "input": ["model_4/tf.split_103/split:1", "model_4/tf.nn.silu_643/mul_1"], "attr": {"T": {"type": "DT_FLOAT"}}}, {"name": "model_4/zero_padding2d_441/Pad", "op": "Pad", "input": ["model_4/tf.__operators__.add_95/AddV2", "model_4/zero_padding2d_441/Pad/paddings"], "attr": {"Tpaddings": {"type": "DT_INT32"}, "T": {"type": "DT_FLOAT"}}}, {"name": "model_4/conv2d_721/BiasAdd", "op": "_FusedConv2D", "input": ["model_4/zero_padding2d_441/Pad", "model_4/conv2d_721/Conv2D/ReadVariableOp", "model_4/conv2d_721/BiasAdd/ReadVariableOp"], "device": "/device:CPU:0", "attr": {"explicit_paddings": {"list": {}}, "fused_ops": {"list": {"s": ["Qmlhc0FkZA=="]}}, "data_format": {"s": "TkhXQw=="}, "num_args": {"i": "1"}, "epsilon": {"f": 0.0}, "num_host_args": {"i": "0"}, "padding": {"s": "VkFMSUQ="}, "T": {"type": "DT_FLOAT"}, "dilations": {"list": {"i": ["1", "1", "1", "1"]}}, "leakyrelu_alpha": {"f": 0.2}, "filter_format": {"s": "SFdJTw=="}, "use_cudnn_on_gpu": {"b": true}, "strides": {"list": {"i": ["1", "1", "1", "1"]}}, "TArgs": {"list": {"type": ["DT_FLOAT"]}}}}, {"name": "model_4/tf.nn.silu_644/Sigmoid", "op": "Sigmoid", "input": ["model_4/conv2d_721/BiasAdd"], "attr": {"T": {"type": "DT_FLOAT"}}}, {"name": "model_4/tf.nn.silu_644/mul_1", "op": "Mul", "input": ["model_4/conv2d_721/BiasAdd", "model_4/tf.nn.silu_644/Sigmoid"], "attr": {"T": {"type": "DT_FLOAT"}}}, {"name": "model_4/zero_padding2d_442/Pad", "op": "Pad", "input": ["model_4/tf.nn.silu_644/mul_1", "model_4/zero_padding2d_442/Pad/paddings"], "attr": {"Tpaddings": {"type": "DT_INT32"}, "T": {"type": "DT_FLOAT"}}}, {"name": "model_4/conv2d_722/BiasAdd", "op": "_FusedConv2D", "input": ["model_4/zero_padding2d_442/Pad", "model_4/conv2d_722/Conv2D/ReadVariableOp", "model_4/conv2d_722/BiasAdd/ReadVariableOp"], "device": "/device:CPU:0", "attr": {"use_cudnn_on_gpu": {"b": true}, "T": {"type": "DT_FLOAT"}, "explicit_paddings": {"list": {}}, "epsilon": {"f": 0.0}, "filter_format": {"s": "SFdJTw=="}, "padding": {"s": "VkFMSUQ="}, "num_host_args": {"i": "0"}, "data_format": {"s": "TkhXQw=="}, "TArgs": {"list": {"type": ["DT_FLOAT"]}}, "num_args": {"i": "1"}, "leakyrelu_alpha": {"f": 0.2}, "dilations": {"list": {"i": ["1", "1", "1", "1"]}}, "fused_ops": {"list": {"s": ["Qmlhc0FkZA=="]}}, "strides": {"list": {"i": ["1", "1", "1", "1"]}}}}, {"name": "model_4/tf.nn.silu_645/Sigmoid", "op": "Sigmoid", "input": ["model_4/conv2d_722/BiasAdd"], "attr": {"T": {"type": "DT_FLOAT"}}}, {"name": "model_4/tf.nn.silu_645/mul_1", "op": "Mul", "input": ["model_4/conv2d_722/BiasAdd", "model_4/tf.nn.silu_645/Sigmoid"], "attr": {"T": {"type": "DT_FLOAT"}}}, {"name": "model_4/tf.__operators__.add_96/AddV2", "op": "AddV2", "input": ["model_4/tf.__operators__.add_95/AddV2", "model_4/tf.nn.silu_645/mul_1"], "attr": {"T": {"type": "DT_FLOAT"}}}, {"name": "model_4/tf.concat_211/concat", "op": "ConcatV2", "input": ["model_4/tf.split_103/split", "model_4/tf.split_103/split:1", "model_4/tf.__operators__.add_95/AddV2", "model_4/tf.__operators__.add_96/AddV2", "model_4/tf.concat_211/concat/axis"], "attr": {"T": {"type": "DT_FLOAT"}, "N": {"i": "4"}, "Tidx": {"type": "DT_INT32"}}}, {"name": "model_4/conv2d_723/BiasAdd", "op": "_FusedConv2D", "input": ["model_4/tf.concat_211/concat", "model_4/conv2d_723/Conv2D/ReadVariableOp", "model_4/conv2d_723/BiasAdd/ReadVariableOp"], "device": "/device:CPU:0", "attr": {"epsilon": {"f": 0.0}, "strides": {"list": {"i": ["1", "1", "1", "1"]}}, "dilations": {"list": {"i": ["1", "1", "1", "1"]}}, "leakyrelu_alpha": {"f": 0.2}, "use_cudnn_on_gpu": {"b": true}, "num_args": {"i": "1"}, "TArgs": {"list": {"type": ["DT_FLOAT"]}}, "explicit_paddings": {"list": {}}, "filter_format": {"s": "SFdJTw=="}, "T": {"type": "DT_FLOAT"}, "fused_ops": {"list": {"s": ["Qmlhc0FkZA=="]}}, "padding": {"s": "VkFMSUQ="}, "data_format": {"s": "TkhXQw=="}, "num_host_args": {"i": "0"}}}, {"name": "model_4/tf.nn.silu_646/Sigmoid", "op": "Sigmoid", "input": ["model_4/conv2d_723/BiasAdd"], "attr": {"T": {"type": "DT_FLOAT"}}}, {"name": "model_4/tf.nn.silu_646/mul_1", "op": "Mul", "input": ["model_4/conv2d_723/BiasAdd", "model_4/tf.nn.silu_646/Sigmoid"], "attr": {"T": {"type": "DT_FLOAT"}}}, {"name": "model_4/zero_padding2d_443/Pad", "op": "Pad", "input": ["model_4/tf.nn.silu_646/mul_1", "model_4/zero_padding2d_443/Pad/paddings"], "attr": {"T": {"type": "DT_FLOAT"}, "Tpaddings": {"type": "DT_INT32"}}}, {"name": "model_4/conv2d_724/BiasAdd", "op": "_FusedConv2D", "input": ["model_4/zero_padding2d_443/Pad", "model_4/conv2d_724/Conv2D/ReadVariableOp", "model_4/conv2d_724/BiasAdd/ReadVariableOp"], "device": "/device:CPU:0", "attr": {"fused_ops": {"list": {"s": ["Qmlhc0FkZA=="]}}, "TArgs": {"list": {"type": ["DT_FLOAT"]}}, "filter_format": {"s": "SFdJTw=="}, "dilations": {"list": {"i": ["1", "1", "1", "1"]}}, "explicit_paddings": {"list": {}}, "strides": {"list": {"i": ["1", "2", "2", "1"]}}, "leakyrelu_alpha": {"f": 0.2}, "data_format": {"s": "TkhXQw=="}, "use_cudnn_on_gpu": {"b": true}, "T": {"type": "DT_FLOAT"}, "num_args": {"i": "1"}, "epsilon": {"f": 0.0}, "padding": {"s": "VkFMSUQ="}, "num_host_args": {"i": "0"}}}, {"name": "model_4/tf.nn.silu_647/Sigmoid", "op": "Sigmoid", "input": ["model_4/conv2d_724/BiasAdd"], "attr": {"T": {"type": "DT_FLOAT"}}}, {"name": "model_4/tf.nn.silu_647/mul_1", "op": "Mul", "input": ["model_4/conv2d_724/BiasAdd", "model_4/tf.nn.silu_647/Sigmoid"], "attr": {"T": {"type": "DT_FLOAT"}}}, {"name": "model_4/conv2d_725/BiasAdd", "op": "_FusedConv2D", "input": ["model_4/tf.nn.silu_647/mul_1", "model_4/conv2d_725/Conv2D/ReadVariableOp", "model_4/conv2d_725/BiasAdd/ReadVariableOp"], "device": "/device:CPU:0", "attr": {"dilations": {"list": {"i": ["1", "1", "1", "1"]}}, "strides": {"list": {"i": ["1", "1", "1", "1"]}}, "padding": {"s": "VkFMSUQ="}, "num_args": {"i": "1"}, "explicit_paddings": {"list": {}}, "num_host_args": {"i": "0"}, "fused_ops": {"list": {"s": ["Qmlhc0FkZA=="]}}, "TArgs": {"list": {"type": ["DT_FLOAT"]}}, "use_cudnn_on_gpu": {"b": true}, "leakyrelu_alpha": {"f": 0.2}, "filter_format": {"s": "SFdJTw=="}, "epsilon": {"f": 0.0}, "T": {"type": "DT_FLOAT"}, "data_format": {"s": "TkhXQw=="}}}, {"name": "model_4/tf.nn.silu_648/Sigmoid", "op": "Sigmoid", "input": ["model_4/conv2d_725/BiasAdd"], "attr": {"T": {"type": "DT_FLOAT"}}}, {"name": "model_4/tf.nn.silu_648/mul_1", "op": "Mul", "input": ["model_4/conv2d_725/BiasAdd", "model_4/tf.nn.silu_648/Sigmoid"], "attr": {"T": {"type": "DT_FLOAT"}}}, {"name": "model_4/tf.split_104/split", "op": "Split", "input": ["model_4/tf.split_104/split/split_dim", "model_4/tf.nn.silu_648/mul_1"], "attr": {"num_split": {"i": "2"}, "T": {"type": "DT_FLOAT"}}}, {"name": "model_4/zero_padding2d_444/Pad", "op": "Pad", "input": ["model_4/tf.split_104/split:1", "model_4/zero_padding2d_444/Pad/paddings"], "attr": {"Tpaddings": {"type": "DT_INT32"}, "T": {"type": "DT_FLOAT"}}}, {"name": "model_4/conv2d_726/BiasAdd", "op": "_FusedConv2D", "input": ["model_4/zero_padding2d_444/Pad", "model_4/conv2d_726/Conv2D/ReadVariableOp", "model_4/conv2d_726/BiasAdd/ReadVariableOp"], "device": "/device:CPU:0", "attr": {"T": {"type": "DT_FLOAT"}, "leakyrelu_alpha": {"f": 0.2}, "epsilon": {"f": 0.0}, "strides": {"list": {"i": ["1", "1", "1", "1"]}}, "dilations": {"list": {"i": ["1", "1", "1", "1"]}}, "data_format": {"s": "TkhXQw=="}, "num_args": {"i": "1"}, "padding": {"s": "VkFMSUQ="}, "explicit_paddings": {"list": {}}, "TArgs": {"list": {"type": ["DT_FLOAT"]}}, "num_host_args": {"i": "0"}, "fused_ops": {"list": {"s": ["Qmlhc0FkZA=="]}}, "filter_format": {"s": "SFdJTw=="}, "use_cudnn_on_gpu": {"b": true}}}, {"name": "model_4/tf.nn.silu_649/Sigmoid", "op": "Sigmoid", "input": ["model_4/conv2d_726/BiasAdd"], "attr": {"T": {"type": "DT_FLOAT"}}}, {"name": "model_4/tf.nn.silu_649/mul_1", "op": "Mul", "input": ["model_4/conv2d_726/BiasAdd", "model_4/tf.nn.silu_649/Sigmoid"], "attr": {"T": {"type": "DT_FLOAT"}}}, {"name": "model_4/zero_padding2d_445/Pad", "op": "Pad", "input": ["model_4/tf.nn.silu_649/mul_1", "model_4/zero_padding2d_445/Pad/paddings"], "attr": {"Tpaddings": {"type": "DT_INT32"}, "T": {"type": "DT_FLOAT"}}}, {"name": "model_4/conv2d_727/BiasAdd", "op": "_FusedConv2D", "input": ["model_4/zero_padding2d_445/Pad", "model_4/conv2d_727/Conv2D/ReadVariableOp", "model_4/conv2d_727/BiasAdd/ReadVariableOp"], "device": "/device:CPU:0", "attr": {"TArgs": {"list": {"type": ["DT_FLOAT"]}}, "T": {"type": "DT_FLOAT"}, "strides": {"list": {"i": ["1", "1", "1", "1"]}}, "filter_format": {"s": "SFdJTw=="}, "num_host_args": {"i": "0"}, "dilations": {"list": {"i": ["1", "1", "1", "1"]}}, "explicit_paddings": {"list": {}}, "padding": {"s": "VkFMSUQ="}, "leakyrelu_alpha": {"f": 0.2}, "fused_ops": {"list": {"s": ["Qmlhc0FkZA=="]}}, "use_cudnn_on_gpu": {"b": true}, "data_format": {"s": "TkhXQw=="}, "epsilon": {"f": 0.0}, "num_args": {"i": "1"}}}, {"name": "model_4/tf.nn.silu_650/Sigmoid", "op": "Sigmoid", "input": ["model_4/conv2d_727/BiasAdd"], "attr": {"T": {"type": "DT_FLOAT"}}}, {"name": "model_4/tf.nn.silu_650/mul_1", "op": "Mul", "input": ["model_4/conv2d_727/BiasAdd", "model_4/tf.nn.silu_650/Sigmoid"], "attr": {"T": {"type": "DT_FLOAT"}}}, {"name": "model_4/tf.__operators__.add_97/AddV2", "op": "AddV2", "input": ["model_4/tf.split_104/split:1", "model_4/tf.nn.silu_650/mul_1"], "attr": {"T": {"type": "DT_FLOAT"}}}, {"name": "model_4/tf.concat_212/concat", "op": "ConcatV2", "input": ["model_4/tf.split_104/split", "model_4/tf.split_104/split:1", "model_4/tf.__operators__.add_97/AddV2", "model_4/tf.concat_212/concat/axis"], "attr": {"N": {"i": "3"}, "T": {"type": "DT_FLOAT"}, "Tidx": {"type": "DT_INT32"}}}, {"name": "model_4/conv2d_728/BiasAdd", "op": "_FusedConv2D", "input": ["model_4/tf.concat_212/concat", "model_4/conv2d_728/Conv2D/ReadVariableOp", "model_4/conv2d_728/BiasAdd/ReadVariableOp"], "device": "/device:CPU:0", "attr": {"num_args": {"i": "1"}, "epsilon": {"f": 0.0}, "padding": {"s": "VkFMSUQ="}, "T": {"type": "DT_FLOAT"}, "use_cudnn_on_gpu": {"b": true}, "TArgs": {"list": {"type": ["DT_FLOAT"]}}, "filter_format": {"s": "SFdJTw=="}, "data_format": {"s": "TkhXQw=="}, "strides": {"list": {"i": ["1", "1", "1", "1"]}}, "fused_ops": {"list": {"s": ["Qmlhc0FkZA=="]}}, "dilations": {"list": {"i": ["1", "1", "1", "1"]}}, "num_host_args": {"i": "0"}, "leakyrelu_alpha": {"f": 0.2}, "explicit_paddings": {"list": {}}}}, {"name": "model_4/tf.nn.silu_651/Sigmoid", "op": "Sigmoid", "input": ["model_4/conv2d_728/BiasAdd"], "attr": {"T": {"type": "DT_FLOAT"}}}, {"name": "model_4/tf.nn.silu_651/mul_1", "op": "Mul", "input": ["model_4/conv2d_728/BiasAdd", "model_4/tf.nn.silu_651/Sigmoid"], "attr": {"T": {"type": "DT_FLOAT"}}}, {"name": "model_4/conv2d_729/BiasAdd", "op": "_FusedConv2D", "input": ["model_4/tf.nn.silu_651/mul_1", "model_4/conv2d_729/Conv2D/ReadVariableOp", "model_4/conv2d_729/BiasAdd/ReadVariableOp"], "device": "/device:CPU:0", "attr": {"padding": {"s": "VkFMSUQ="}, "filter_format": {"s": "SFdJTw=="}, "epsilon": {"f": 0.0}, "num_args": {"i": "1"}, "use_cudnn_on_gpu": {"b": true}, "num_host_args": {"i": "0"}, "explicit_paddings": {"list": {}}, "fused_ops": {"list": {"s": ["Qmlhc0FkZA=="]}}, "dilations": {"list": {"i": ["1", "1", "1", "1"]}}, "TArgs": {"list": {"type": ["DT_FLOAT"]}}, "strides": {"list": {"i": ["1", "1", "1", "1"]}}, "leakyrelu_alpha": {"f": 0.2}, "T": {"type": "DT_FLOAT"}, "data_format": {"s": "TkhXQw=="}}}, {"name": "model_4/tf.nn.silu_652/Sigmoid", "op": "Sigmoid", "input": ["model_4/conv2d_729/BiasAdd"], "attr": {"T": {"type": "DT_FLOAT"}}}, {"name": "model_4/tf.nn.silu_652/mul_1", "op": "Mul", "input": ["model_4/conv2d_729/BiasAdd", "model_4/tf.nn.silu_652/Sigmoid"], "attr": {"T": {"type": "DT_FLOAT"}}}, {"name": "model_4/tf.compat.v1.pad_33/PadV2", "op": "PadV2", "input": ["model_4/tf.nn.silu_652/mul_1", "model_4/tf.compat.v1.pad_33/PadV2/paddings", "model_4/tf.compat.v1.pad_33/PadV2/constant_values"], "attr": {"T": {"type": "DT_FLOAT"}, "Tpaddings": {"type": "DT_INT32"}}}, {"name": "model_4/max_pooling2d_33/MaxPool", "op": "MaxPool", "input": ["model_4/tf.compat.v1.pad_33/PadV2"], "attr": {"ksize": {"list": {"i": ["1", "5", "5", "1"]}}, "strides": {"list": {"i": ["1", "1", "1", "1"]}}, "T": {"type": "DT_FLOAT"}, "padding": {"s": "VkFMSUQ="}, "explicit_paddings": {"list": {}}, "data_format": {"s": "TkhXQw=="}}}, {"name": "model_4/tf.compat.v1.pad_34/PadV2", "op": "PadV2", "input": ["model_4/max_pooling2d_33/MaxPool", "model_4/tf.compat.v1.pad_34/PadV2/paddings", "model_4/tf.compat.v1.pad_34/PadV2/constant_values"], "attr": {"T": {"type": "DT_FLOAT"}, "Tpaddings": {"type": "DT_INT32"}}}, {"name": "model_4/max_pooling2d_34/MaxPool", "op": "MaxPool", "input": ["model_4/tf.compat.v1.pad_34/PadV2"], "attr": {"T": {"type": "DT_FLOAT"}, "data_format": {"s": "TkhXQw=="}, "ksize": {"list": {"i": ["1", "5", "5", "1"]}}, "padding": {"s": "VkFMSUQ="}, "strides": {"list": {"i": ["1", "1", "1", "1"]}}, "explicit_paddings": {"list": {}}}}, {"name": "model_4/tf.compat.v1.pad_35/PadV2", "op": "PadV2", "input": ["model_4/max_pooling2d_34/MaxPool", "model_4/tf.compat.v1.pad_35/PadV2/paddings", "model_4/tf.compat.v1.pad_35/PadV2/constant_values"], "attr": {"Tpaddings": {"type": "DT_INT32"}, "T": {"type": "DT_FLOAT"}}}, {"name": "model_4/max_pooling2d_35/MaxPool", "op": "MaxPool", "input": ["model_4/tf.compat.v1.pad_35/PadV2"], "attr": {"data_format": {"s": "TkhXQw=="}, "explicit_paddings": {"list": {}}, "ksize": {"list": {"i": ["1", "5", "5", "1"]}}, "T": {"type": "DT_FLOAT"}, "strides": {"list": {"i": ["1", "1", "1", "1"]}}, "padding": {"s": "VkFMSUQ="}}}, {"name": "model_4/tf.concat_213/concat", "op": "ConcatV2", "input": ["model_4/tf.nn.silu_652/mul_1", "model_4/max_pooling2d_33/MaxPool", "model_4/max_pooling2d_34/MaxPool", "model_4/max_pooling2d_35/MaxPool", "model_4/tf.concat_213/concat/axis"], "attr": {"T": {"type": "DT_FLOAT"}, "N": {"i": "4"}, "Tidx": {"type": "DT_INT32"}}}, {"name": "model_4/conv2d_730/BiasAdd", "op": "_FusedConv2D", "input": ["model_4/tf.concat_213/concat", "model_4/conv2d_730/Conv2D/ReadVariableOp", "model_4/conv2d_730/BiasAdd/ReadVariableOp"], "device": "/device:CPU:0", "attr": {"dilations": {"list": {"i": ["1", "1", "1", "1"]}}, "num_args": {"i": "1"}, "epsilon": {"f": 0.0}, "leakyrelu_alpha": {"f": 0.2}, "num_host_args": {"i": "0"}, "padding": {"s": "VkFMSUQ="}, "explicit_paddings": {"list": {}}, "use_cudnn_on_gpu": {"b": true}, "TArgs": {"list": {"type": ["DT_FLOAT"]}}, "fused_ops": {"list": {"s": ["Qmlhc0FkZA=="]}}, "filter_format": {"s": "SFdJTw=="}, "strides": {"list": {"i": ["1", "1", "1", "1"]}}, "T": {"type": "DT_FLOAT"}, "data_format": {"s": "TkhXQw=="}}}, {"name": "model_4/tf.nn.silu_653/Sigmoid", "op": "Sigmoid", "input": ["model_4/conv2d_730/BiasAdd"], "attr": {"T": {"type": "DT_FLOAT"}}}, {"name": "model_4/tf.nn.silu_653/mul_1", "op": "Mul", "input": ["model_4/conv2d_730/BiasAdd", "model_4/tf.nn.silu_653/Sigmoid"], "attr": {"T": {"type": "DT_FLOAT"}}}, {"name": "model_4/tf.image.resize_22/resize/ResizeNearestNeighbor", "op": "ResizeNearestNeighbor", "input": ["model_4/tf.nn.silu_653/mul_1", "model_4/tf.image.resize_22/resize/size"], "attr": {"align_corners": {"b": false}, "T": {"type": "DT_FLOAT"}, "half_pixel_centers": {"b": true}}}, {"name": "model_4/tf.concat_214/concat", "op": "ConcatV2", "input": ["model_4/tf.image.resize_22/resize/ResizeNearestNeighbor", "model_4/tf.nn.silu_646/mul_1", "model_4/tf.concat_214/concat/axis"], "attr": {"N": {"i": "2"}, "Tidx": {"type": "DT_INT32"}, "T": {"type": "DT_FLOAT"}}}, {"name": "model_4/conv2d_731/BiasAdd", "op": "_FusedConv2D", "input": ["model_4/tf.concat_214/concat", "model_4/conv2d_731/Conv2D/ReadVariableOp", "model_4/conv2d_731/BiasAdd/ReadVariableOp"], "device": "/device:CPU:0", "attr": {"epsilon": {"f": 0.0}, "dilations": {"list": {"i": ["1", "1", "1", "1"]}}, "num_host_args": {"i": "0"}, "padding": {"s": "VkFMSUQ="}, "explicit_paddings": {"list": {}}, "strides": {"list": {"i": ["1", "1", "1", "1"]}}, "TArgs": {"list": {"type": ["DT_FLOAT"]}}, "T": {"type": "DT_FLOAT"}, "num_args": {"i": "1"}, "fused_ops": {"list": {"s": ["Qmlhc0FkZA=="]}}, "data_format": {"s": "TkhXQw=="}, "filter_format": {"s": "SFdJTw=="}, "use_cudnn_on_gpu": {"b": true}, "leakyrelu_alpha": {"f": 0.2}}}, {"name": "model_4/tf.nn.silu_654/Sigmoid", "op": "Sigmoid", "input": ["model_4/conv2d_731/BiasAdd"], "attr": {"T": {"type": "DT_FLOAT"}}}, {"name": "model_4/tf.nn.silu_654/mul_1", "op": "Mul", "input": ["model_4/conv2d_731/BiasAdd", "model_4/tf.nn.silu_654/Sigmoid"], "attr": {"T": {"type": "DT_FLOAT"}}}, {"name": "model_4/tf.split_105/split", "op": "Split", "input": ["model_4/tf.split_105/split/split_dim", "model_4/tf.nn.silu_654/mul_1"], "attr": {"T": {"type": "DT_FLOAT"}, "num_split": {"i": "2"}}}, {"name": "model_4/zero_padding2d_446/Pad", "op": "Pad", "input": ["model_4/tf.split_105/split:1", "model_4/zero_padding2d_446/Pad/paddings"], "attr": {"T": {"type": "DT_FLOAT"}, "Tpaddings": {"type": "DT_INT32"}}}, {"name": "model_4/conv2d_732/BiasAdd", "op": "_FusedConv2D", "input": ["model_4/zero_padding2d_446/Pad", "model_4/conv2d_732/Conv2D/ReadVariableOp", "model_4/conv2d_732/BiasAdd/ReadVariableOp"], "device": "/device:CPU:0", "attr": {"num_host_args": {"i": "0"}, "num_args": {"i": "1"}, "explicit_paddings": {"list": {}}, "strides": {"list": {"i": ["1", "1", "1", "1"]}}, "T": {"type": "DT_FLOAT"}, "filter_format": {"s": "SFdJTw=="}, "fused_ops": {"list": {"s": ["Qmlhc0FkZA=="]}}, "padding": {"s": "VkFMSUQ="}, "leakyrelu_alpha": {"f": 0.2}, "epsilon": {"f": 0.0}, "data_format": {"s": "TkhXQw=="}, "use_cudnn_on_gpu": {"b": true}, "TArgs": {"list": {"type": ["DT_FLOAT"]}}, "dilations": {"list": {"i": ["1", "1", "1", "1"]}}}}, {"name": "model_4/tf.nn.silu_655/Sigmoid", "op": "Sigmoid", "input": ["model_4/conv2d_732/BiasAdd"], "attr": {"T": {"type": "DT_FLOAT"}}}, {"name": "model_4/tf.nn.silu_655/mul_1", "op": "Mul", "input": ["model_4/conv2d_732/BiasAdd", "model_4/tf.nn.silu_655/Sigmoid"], "attr": {"T": {"type": "DT_FLOAT"}}}, {"name": "model_4/zero_padding2d_447/Pad", "op": "Pad", "input": ["model_4/tf.nn.silu_655/mul_1", "model_4/zero_padding2d_447/Pad/paddings"], "attr": {"T": {"type": "DT_FLOAT"}, "Tpaddings": {"type": "DT_INT32"}}}, {"name": "model_4/conv2d_733/BiasAdd", "op": "_FusedConv2D", "input": ["model_4/zero_padding2d_447/Pad", "model_4/conv2d_733/Conv2D/ReadVariableOp", "model_4/conv2d_733/BiasAdd/ReadVariableOp"], "device": "/device:CPU:0", "attr": {"leakyrelu_alpha": {"f": 0.2}, "use_cudnn_on_gpu": {"b": true}, "padding": {"s": "VkFMSUQ="}, "explicit_paddings": {"list": {}}, "epsilon": {"f": 0.0}, "dilations": {"list": {"i": ["1", "1", "1", "1"]}}, "filter_format": {"s": "SFdJTw=="}, "T": {"type": "DT_FLOAT"}, "num_args": {"i": "1"}, "num_host_args": {"i": "0"}, "strides": {"list": {"i": ["1", "1", "1", "1"]}}, "fused_ops": {"list": {"s": ["Qmlhc0FkZA=="]}}, "TArgs": {"list": {"type": ["DT_FLOAT"]}}, "data_format": {"s": "TkhXQw=="}}}, {"name": "model_4/tf.nn.silu_656/Sigmoid", "op": "Sigmoid", "input": ["model_4/conv2d_733/BiasAdd"], "attr": {"T": {"type": "DT_FLOAT"}}}, {"name": "model_4/tf.nn.silu_656/mul_1", "op": "Mul", "input": ["model_4/conv2d_733/BiasAdd", "model_4/tf.nn.silu_656/Sigmoid"], "attr": {"T": {"type": "DT_FLOAT"}}}, {"name": "model_4/tf.concat_215/concat", "op": "ConcatV2", "input": ["model_4/tf.split_105/split", "model_4/tf.split_105/split:1", "model_4/tf.nn.silu_656/mul_1", "model_4/tf.concat_215/concat/axis"], "attr": {"Tidx": {"type": "DT_INT32"}, "N": {"i": "3"}, "T": {"type": "DT_FLOAT"}}}, {"name": "model_4/conv2d_734/BiasAdd", "op": "_FusedConv2D", "input": ["model_4/tf.concat_215/concat", "model_4/conv2d_734/Conv2D/ReadVariableOp", "model_4/conv2d_734/BiasAdd/ReadVariableOp"], "device": "/device:CPU:0", "attr": {"filter_format": {"s": "SFdJTw=="}, "explicit_paddings": {"list": {}}, "fused_ops": {"list": {"s": ["Qmlhc0FkZA=="]}}, "padding": {"s": "VkFMSUQ="}, "TArgs": {"list": {"type": ["DT_FLOAT"]}}, "num_host_args": {"i": "0"}, "dilations": {"list": {"i": ["1", "1", "1", "1"]}}, "num_args": {"i": "1"}, "strides": {"list": {"i": ["1", "1", "1", "1"]}}, "leakyrelu_alpha": {"f": 0.2}, "use_cudnn_on_gpu": {"b": true}, "epsilon": {"f": 0.0}, "T": {"type": "DT_FLOAT"}, "data_format": {"s": "TkhXQw=="}}}, {"name": "model_4/tf.nn.silu_657/Sigmoid", "op": "Sigmoid", "input": ["model_4/conv2d_734/BiasAdd"], "attr": {"T": {"type": "DT_FLOAT"}}}, {"name": "model_4/tf.nn.silu_657/mul_1", "op": "Mul", "input": ["model_4/conv2d_734/BiasAdd", "model_4/tf.nn.silu_657/Sigmoid"], "attr": {"T": {"type": "DT_FLOAT"}}}, {"name": "model_4/tf.image.resize_23/resize/ResizeNearestNeighbor", "op": "ResizeNearestNeighbor", "input": ["model_4/tf.nn.silu_657/mul_1", "model_4/tf.image.resize_23/resize/size"], "attr": {"T": {"type": "DT_FLOAT"}, "align_corners": {"b": false}, "half_pixel_centers": {"b": true}}}, {"name": "model_4/tf.concat_216/concat", "op": "ConcatV2", "input": ["model_4/tf.image.resize_23/resize/ResizeNearestNeighbor", "model_4/tf.nn.silu_639/mul_1", "model_4/tf.concat_216/concat/axis"], "attr": {"T": {"type": "DT_FLOAT"}, "Tidx": {"type": "DT_INT32"}, "N": {"i": "2"}}}, {"name": "model_4/conv2d_735/BiasAdd", "op": "_FusedConv2D", "input": ["model_4/tf.concat_216/concat", "model_4/conv2d_735/Conv2D/ReadVariableOp", "model_4/conv2d_735/BiasAdd/ReadVariableOp"], "device": "/device:CPU:0", "attr": {"fused_ops": {"list": {"s": ["Qmlhc0FkZA=="]}}, "TArgs": {"list": {"type": ["DT_FLOAT"]}}, "num_args": {"i": "1"}, "explicit_paddings": {"list": {}}, "num_host_args": {"i": "0"}, "data_format": {"s": "TkhXQw=="}, "dilations": {"list": {"i": ["1", "1", "1", "1"]}}, "strides": {"list": {"i": ["1", "1", "1", "1"]}}, "use_cudnn_on_gpu": {"b": true}, "leakyrelu_alpha": {"f": 0.2}, "epsilon": {"f": 0.0}, "T": {"type": "DT_FLOAT"}, "filter_format": {"s": "SFdJTw=="}, "padding": {"s": "VkFMSUQ="}}}, {"name": "model_4/tf.nn.silu_658/Sigmoid", "op": "Sigmoid", "input": ["model_4/conv2d_735/BiasAdd"], "attr": {"T": {"type": "DT_FLOAT"}}}, {"name": "model_4/tf.nn.silu_658/mul_1", "op": "Mul", "input": ["model_4/conv2d_735/BiasAdd", "model_4/tf.nn.silu_658/Sigmoid"], "attr": {"T": {"type": "DT_FLOAT"}}}, {"name": "model_4/tf.split_106/split", "op": "Split", "input": ["model_4/tf.split_106/split/split_dim", "model_4/tf.nn.silu_658/mul_1"], "attr": {"num_split": {"i": "2"}, "T": {"type": "DT_FLOAT"}}}, {"name": "model_4/zero_padding2d_448/Pad", "op": "Pad", "input": ["model_4/tf.split_106/split:1", "model_4/zero_padding2d_448/Pad/paddings"], "attr": {"Tpaddings": {"type": "DT_INT32"}, "T": {"type": "DT_FLOAT"}}}, {"name": "model_4/conv2d_736/BiasAdd", "op": "_FusedConv2D", "input": ["model_4/zero_padding2d_448/Pad", "model_4/conv2d_736/Conv2D/ReadVariableOp", "model_4/conv2d_736/BiasAdd/ReadVariableOp"], "device": "/device:CPU:0", "attr": {"use_cudnn_on_gpu": {"b": true}, "num_args": {"i": "1"}, "dilations": {"list": {"i": ["1", "1", "1", "1"]}}, "fused_ops": {"list": {"s": ["Qmlhc0FkZA=="]}}, "explicit_paddings": {"list": {}}, "leakyrelu_alpha": {"f": 0.2}, "TArgs": {"list": {"type": ["DT_FLOAT"]}}, "data_format": {"s": "TkhXQw=="}, "filter_format": {"s": "SFdJTw=="}, "strides": {"list": {"i": ["1", "1", "1", "1"]}}, "T": {"type": "DT_FLOAT"}, "epsilon": {"f": 0.0}, "padding": {"s": "VkFMSUQ="}, "num_host_args": {"i": "0"}}}, {"name": "model_4/tf.nn.silu_659/Sigmoid", "op": "Sigmoid", "input": ["model_4/conv2d_736/BiasAdd"], "attr": {"T": {"type": "DT_FLOAT"}}}, {"name": "model_4/tf.nn.silu_659/mul_1", "op": "Mul", "input": ["model_4/conv2d_736/BiasAdd", "model_4/tf.nn.silu_659/Sigmoid"], "attr": {"T": {"type": "DT_FLOAT"}}}, {"name": "model_4/zero_padding2d_449/Pad", "op": "Pad", "input": ["model_4/tf.nn.silu_659/mul_1", "model_4/zero_padding2d_449/Pad/paddings"], "attr": {"Tpaddings": {"type": "DT_INT32"}, "T": {"type": "DT_FLOAT"}}}, {"name": "model_4/conv2d_737/BiasAdd", "op": "_FusedConv2D", "input": ["model_4/zero_padding2d_449/Pad", "model_4/conv2d_737/Conv2D/ReadVariableOp", "model_4/conv2d_737/BiasAdd/ReadVariableOp"], "device": "/device:CPU:0", "attr": {"fused_ops": {"list": {"s": ["Qmlhc0FkZA=="]}}, "use_cudnn_on_gpu": {"b": true}, "strides": {"list": {"i": ["1", "1", "1", "1"]}}, "explicit_paddings": {"list": {}}, "TArgs": {"list": {"type": ["DT_FLOAT"]}}, "epsilon": {"f": 0.0}, "padding": {"s": "VkFMSUQ="}, "T": {"type": "DT_FLOAT"}, "num_args": {"i": "1"}, "dilations": {"list": {"i": ["1", "1", "1", "1"]}}, "leakyrelu_alpha": {"f": 0.2}, "num_host_args": {"i": "0"}, "data_format": {"s": "TkhXQw=="}, "filter_format": {"s": "SFdJTw=="}}}, {"name": "model_4/tf.nn.silu_660/Sigmoid", "op": "Sigmoid", "input": ["model_4/conv2d_737/BiasAdd"], "attr": {"T": {"type": "DT_FLOAT"}}}, {"name": "model_4/tf.nn.silu_660/mul_1", "op": "Mul", "input": ["model_4/conv2d_737/BiasAdd", "model_4/tf.nn.silu_660/Sigmoid"], "attr": {"T": {"type": "DT_FLOAT"}}}, {"name": "model_4/tf.concat_217/concat", "op": "ConcatV2", "input": ["model_4/tf.split_106/split", "model_4/tf.split_106/split:1", "model_4/tf.nn.silu_660/mul_1", "model_4/tf.concat_217/concat/axis"], "attr": {"Tidx": {"type": "DT_INT32"}, "T": {"type": "DT_FLOAT"}, "N": {"i": "3"}}}, {"name": "model_4/conv2d_738/BiasAdd", "op": "_FusedConv2D", "input": ["model_4/tf.concat_217/concat", "model_4/conv2d_738/Conv2D/ReadVariableOp", "model_4/conv2d_738/BiasAdd/ReadVariableOp"], "device": "/device:CPU:0", "attr": {"TArgs": {"list": {"type": ["DT_FLOAT"]}}, "dilations": {"list": {"i": ["1", "1", "1", "1"]}}, "num_args": {"i": "1"}, "filter_format": {"s": "SFdJTw=="}, "use_cudnn_on_gpu": {"b": true}, "num_host_args": {"i": "0"}, "leakyrelu_alpha": {"f": 0.2}, "T": {"type": "DT_FLOAT"}, "explicit_paddings": {"list": {}}, "fused_ops": {"list": {"s": ["Qmlhc0FkZA=="]}}, "padding": {"s": "VkFMSUQ="}, "epsilon": {"f": 0.0}, "strides": {"list": {"i": ["1", "1", "1", "1"]}}, "data_format": {"s": "TkhXQw=="}}}, {"name": "model_4/tf.nn.silu_661/Sigmoid", "op": "Sigmoid", "input": ["model_4/conv2d_738/BiasAdd"], "attr": {"T": {"type": "DT_FLOAT"}}}, {"name": "model_4/tf.nn.silu_661/mul_1", "op": "Mul", "input": ["model_4/conv2d_738/BiasAdd", "model_4/tf.nn.silu_661/Sigmoid"], "attr": {"T": {"type": "DT_FLOAT"}}}, {"name": "model_4/zero_padding2d_456/Pad", "op": "Pad", "input": ["model_4/tf.nn.silu_661/mul_1", "model_4/zero_padding2d_456/Pad/paddings"], "attr": {"Tpaddings": {"type": "DT_INT32"}, "T": {"type": "DT_FLOAT"}}}, {"name": "model_4/zero_padding2d_458/Pad", "op": "Pad", "input": ["model_4/tf.nn.silu_661/mul_1", "model_4/zero_padding2d_458/Pad/paddings"], "attr": {"Tpaddings": {"type": "DT_INT32"}, "T": {"type": "DT_FLOAT"}}}, {"name": "model_4/zero_padding2d_450/Pad", "op": "Pad", "input": ["model_4/tf.nn.silu_661/mul_1", "model_4/zero_padding2d_450/Pad/paddings"], "attr": {"Tpaddings": {"type": "DT_INT32"}, "T": {"type": "DT_FLOAT"}}}, {"name": "model_4/tf.expand_dims_14/ExpandDims", "op": "Const", "input": ["^model_4/tf.nn.silu_661/mul_1"], "attr": {"dtype": {"type": "DT_FLOAT"}, "value": {"tensor": {"dtype": "DT_FLOAT", "tensorShape": {"dim": [{"size": "1"}, {"size": "2"}, {"size": "2835"}]}}}}}, {"name": "model_4/weight_layer_32/StatefulPartitionedCall/Identity", "op": "Const", "input": ["^model_4/tf.nn.silu_661/mul_1"], "attr": {"value": {"tensor": {"dtype": "DT_FLOAT", "tensorShape": {"dim": [{"size": "1"}, {"size": "2835"}]}}}, "dtype": {"type": "DT_FLOAT"}}}, {"name": "model_4/conv2d_749/BiasAdd", "op": "_FusedConv2D", "input": ["model_4/zero_padding2d_456/Pad", "model_4/conv2d_749/Conv2D/ReadVariableOp", "model_4/conv2d_749/BiasAdd/ReadVariableOp"], "device": "/device:CPU:0", "attr": {"strides": {"list": {"i": ["1", "1", "1", "1"]}}, "data_format": {"s": "TkhXQw=="}, "num_host_args": {"i": "0"}, "leakyrelu_alpha": {"f": 0.2}, "epsilon": {"f": 0.0}, "padding": {"s": "VkFMSUQ="}, "T": {"type": "DT_FLOAT"}, "filter_format": {"s": "SFdJTw=="}, "dilations": {"list": {"i": ["1", "1", "1", "1"]}}, "use_cudnn_on_gpu": {"b": true}, "num_args": {"i": "1"}, "TArgs": {"list": {"type": ["DT_FLOAT"]}}, "fused_ops": {"list": {"s": ["Qmlhc0FkZA=="]}}, "explicit_paddings": {"list": {}}}}, {"name": "model_4/conv2d_752/BiasAdd", "op": "_FusedConv2D", "input": ["model_4/zero_padding2d_458/Pad", "model_4/conv2d_752/Conv2D/ReadVariableOp", "model_4/conv2d_752/BiasAdd/ReadVariableOp"], "device": "/device:CPU:0", "attr": {"fused_ops": {"list": {"s": ["Qmlhc0FkZA=="]}}, "T": {"type": "DT_FLOAT"}, "strides": {"list": {"i": ["1", "1", "1", "1"]}}, "data_format": {"s": "TkhXQw=="}, "num_host_args": {"i": "0"}, "TArgs": {"list": {"type": ["DT_FLOAT"]}}, "epsilon": {"f": 0.0}, "leakyrelu_alpha": {"f": 0.2}, "filter_format": {"s": "SFdJTw=="}, "num_args": {"i": "1"}, "explicit_paddings": {"list": {}}, "use_cudnn_on_gpu": {"b": true}, "dilations": {"list": {"i": ["1", "1", "1", "1"]}}, "padding": {"s": "VkFMSUQ="}}}, {"name": "model_4/conv2d_739/BiasAdd", "op": "_FusedConv2D", "input": ["model_4/zero_padding2d_450/Pad", "model_4/conv2d_739/Conv2D/ReadVariableOp", "model_4/conv2d_739/BiasAdd/ReadVariableOp"], "device": "/device:CPU:0", "attr": {"num_host_args": {"i": "0"}, "dilations": {"list": {"i": ["1", "1", "1", "1"]}}, "fused_ops": {"list": {"s": ["Qmlhc0FkZA=="]}}, "TArgs": {"list": {"type": ["DT_FLOAT"]}}, "T": {"type": "DT_FLOAT"}, "explicit_paddings": {"list": {}}, "filter_format": {"s": "SFdJTw=="}, "use_cudnn_on_gpu": {"b": true}, "strides": {"list": {"i": ["1", "2", "2", "1"]}}, "leakyrelu_alpha": {"f": 0.2}, "data_format": {"s": "TkhXQw=="}, "num_args": {"i": "1"}, "padding": {"s": "VkFMSUQ="}, "epsilon": {"f": 0.0}}}, {"name": "model_4/tf.nn.silu_672/Sigmoid", "op": "Sigmoid", "input": ["model_4/conv2d_749/BiasAdd"], "attr": {"T": {"type": "DT_FLOAT"}}}, {"name": "model_4/tf.nn.silu_674/Sigmoid", "op": "Sigmoid", "input": ["model_4/conv2d_752/BiasAdd"], "attr": {"T": {"type": "DT_FLOAT"}}}, {"name": "model_4/tf.nn.silu_662/Sigmoid", "op": "Sigmoid", "input": ["model_4/conv2d_739/BiasAdd"], "attr": {"T": {"type": "DT_FLOAT"}}}, {"name": "model_4/tf.nn.silu_672/mul_1", "op": "Mul", "input": ["model_4/conv2d_749/BiasAdd", "model_4/tf.nn.silu_672/Sigmoid"], "attr": {"T": {"type": "DT_FLOAT"}}}, {"name": "model_4/tf.nn.silu_674/mul_1", "op": "Mul", "input": ["model_4/conv2d_752/BiasAdd", "model_4/tf.nn.silu_674/Sigmoid"], "attr": {"T": {"type": "DT_FLOAT"}}}, {"name": "model_4/tf.nn.silu_662/mul_1", "op": "Mul", "input": ["model_4/conv2d_739/BiasAdd", "model_4/tf.nn.silu_662/Sigmoid"], "attr": {"T": {"type": "DT_FLOAT"}}}, {"name": "model_4/zero_padding2d_457/Pad", "op": "Pad", "input": ["model_4/tf.nn.silu_672/mul_1", "model_4/zero_padding2d_457/Pad/paddings"], "attr": {"Tpaddings": {"type": "DT_INT32"}, "T": {"type": "DT_FLOAT"}}}, {"name": "model_4/zero_padding2d_459/Pad", "op": "Pad", "input": ["model_4/tf.nn.silu_674/mul_1", "model_4/zero_padding2d_459/Pad/paddings"], "attr": {"Tpaddings": {"type": "DT_INT32"}, "T": {"type": "DT_FLOAT"}}}, {"name": "model_4/tf.concat_218/concat", "op": "ConcatV2", "input": ["model_4/tf.nn.silu_662/mul_1", "model_4/tf.nn.silu_657/mul_1", "model_4/tf.concat_218/concat/axis"], "attr": {"Tidx": {"type": "DT_INT32"}, "N": {"i": "2"}, "T": {"type": "DT_FLOAT"}}}, {"name": "model_4/conv2d_750/BiasAdd", "op": "_FusedConv2D", "input": ["model_4/zero_padding2d_457/Pad", "model_4/conv2d_750/Conv2D/ReadVariableOp", "model_4/conv2d_750/BiasAdd/ReadVariableOp"], "device": "/device:CPU:0", "attr": {"leakyrelu_alpha": {"f": 0.2}, "padding": {"s": "VkFMSUQ="}, "num_host_args": {"i": "0"}, "explicit_paddings": {"list": {}}, "data_format": {"s": "TkhXQw=="}, "epsilon": {"f": 0.0}, "dilations": {"list": {"i": ["1", "1", "1", "1"]}}, "TArgs": {"list": {"type": ["DT_FLOAT"]}}, "filter_format": {"s": "SFdJTw=="}, "fused_ops": {"list": {"s": ["Qmlhc0FkZA=="]}}, "strides": {"list": {"i": ["1", "1", "1", "1"]}}, "num_args": {"i": "1"}, "T": {"type": "DT_FLOAT"}, "use_cudnn_on_gpu": {"b": true}}}, {"name": "model_4/conv2d_753/BiasAdd", "op": "_FusedConv2D", "input": ["model_4/zero_padding2d_459/Pad", "model_4/conv2d_753/Conv2D/ReadVariableOp", "model_4/conv2d_753/BiasAdd/ReadVariableOp"], "device": "/device:CPU:0", "attr": {"T": {"type": "DT_FLOAT"}, "fused_ops": {"list": {"s": ["Qmlhc0FkZA=="]}}, "epsilon": {"f": 0.0}, "num_args": {"i": "1"}, "TArgs": {"list": {"type": ["DT_FLOAT"]}}, "data_format": {"s": "TkhXQw=="}, "num_host_args": {"i": "0"}, "filter_format": {"s": "SFdJTw=="}, "use_cudnn_on_gpu": {"b": true}, "strides": {"list": {"i": ["1", "1", "1", "1"]}}, "explicit_paddings": {"list": {}}, "padding": {"s": "VkFMSUQ="}, "leakyrelu_alpha": {"f": 0.2}, "dilations": {"list": {"i": ["1", "1", "1", "1"]}}}}, {"name": "model_4/conv2d_740/BiasAdd", "op": "_FusedConv2D", "input": ["model_4/tf.concat_218/concat", "model_4/conv2d_740/Conv2D/ReadVariableOp", "model_4/conv2d_740/BiasAdd/ReadVariableOp"], "device": "/device:CPU:0", "attr": {"padding": {"s": "VkFMSUQ="}, "TArgs": {"list": {"type": ["DT_FLOAT"]}}, "num_args": {"i": "1"}, "num_host_args": {"i": "0"}, "filter_format": {"s": "SFdJTw=="}, "data_format": {"s": "TkhXQw=="}, "use_cudnn_on_gpu": {"b": true}, "dilations": {"list": {"i": ["1", "1", "1", "1"]}}, "epsilon": {"f": 0.0}, "strides": {"list": {"i": ["1", "1", "1", "1"]}}, "fused_ops": {"list": {"s": ["Qmlhc0FkZA=="]}}, "leakyrelu_alpha": {"f": 0.2}, "T": {"type": "DT_FLOAT"}, "explicit_paddings": {"list": {}}}}, {"name": "model_4/tf.nn.silu_673/Sigmoid", "op": "Sigmoid", "input": ["model_4/conv2d_750/BiasAdd"], "attr": {"T": {"type": "DT_FLOAT"}}}, {"name": "model_4/tf.nn.silu_675/Sigmoid", "op": "Sigmoid", "input": ["model_4/conv2d_753/BiasAdd"], "attr": {"T": {"type": "DT_FLOAT"}}}, {"name": "model_4/tf.nn.silu_663/Sigmoid", "op": "Sigmoid", "input": ["model_4/conv2d_740/BiasAdd"], "attr": {"T": {"type": "DT_FLOAT"}}}, {"name": "model_4/tf.nn.silu_673/mul_1", "op": "Mul", "input": ["model_4/conv2d_750/BiasAdd", "model_4/tf.nn.silu_673/Sigmoid"], "attr": {"T": {"type": "DT_FLOAT"}}}, {"name": "model_4/tf.nn.silu_675/mul_1", "op": "Mul", "input": ["model_4/conv2d_753/BiasAdd", "model_4/tf.nn.silu_675/Sigmoid"], "attr": {"T": {"type": "DT_FLOAT"}}}, {"name": "model_4/tf.nn.silu_663/mul_1", "op": "Mul", "input": ["model_4/conv2d_740/BiasAdd", "model_4/tf.nn.silu_663/Sigmoid"], "attr": {"T": {"type": "DT_FLOAT"}}}, {"name": "model_4/conv2d_751/BiasAdd", "op": "_FusedConv2D", "input": ["model_4/tf.nn.silu_673/mul_1", "model_4/conv2d_751/Conv2D/ReadVariableOp", "model_4/conv2d_751/BiasAdd/ReadVariableOp"], "device": "/device:CPU:0", "attr": {"dilations": {"list": {"i": ["1", "1", "1", "1"]}}, "filter_format": {"s": "SFdJTw=="}, "data_format": {"s": "TkhXQw=="}, "explicit_paddings": {"list": {}}, "epsilon": {"f": 0.0}, "padding": {"s": "VkFMSUQ="}, "use_cudnn_on_gpu": {"b": true}, "strides": {"list": {"i": ["1", "1", "1", "1"]}}, "T": {"type": "DT_FLOAT"}, "TArgs": {"list": {"type": ["DT_FLOAT"]}}, "fused_ops": {"list": {"s": ["Qmlhc0FkZA=="]}}, "leakyrelu_alpha": {"f": 0.2}, "num_args": {"i": "1"}, "num_host_args": {"i": "0"}}}, {"name": "model_4/conv2d_754/BiasAdd", "op": "_FusedConv2D", "input": ["model_4/tf.nn.silu_675/mul_1", "model_4/conv2d_754/Conv2D/ReadVariableOp", "model_4/conv2d_754/BiasAdd/ReadVariableOp"], "device": "/device:CPU:0", "attr": {"explicit_paddings": {"list": {}}, "T": {"type": "DT_FLOAT"}, "padding": {"s": "VkFMSUQ="}, "data_format": {"s": "TkhXQw=="}, "num_args": {"i": "1"}, "leakyrelu_alpha": {"f": 0.2}, "use_cudnn_on_gpu": {"b": true}, "epsilon": {"f": 0.0}, "dilations": {"list": {"i": ["1", "1", "1", "1"]}}, "fused_ops": {"list": {"s": ["Qmlhc0FkZA=="]}}, "TArgs": {"list": {"type": ["DT_FLOAT"]}}, "filter_format": {"s": "SFdJTw=="}, "strides": {"list": {"i": ["1", "1", "1", "1"]}}, "num_host_args": {"i": "0"}}}, {"name": "model_4/tf.split_107/split", "op": "Split", "input": ["model_4/tf.split_107/split/split_dim", "model_4/tf.nn.silu_663/mul_1"], "attr": {"num_split": {"i": "2"}, "T": {"type": "DT_FLOAT"}}}, {"name": "model_4/tf.concat_222/concat", "op": "ConcatV2", "input": ["model_4/conv2d_751/BiasAdd", "model_4/conv2d_754/BiasAdd", "model_4/tf.concat_222/concat/axis"], "attr": {"N": {"i": "2"}, "Tidx": {"type": "DT_INT32"}, "T": {"type": "DT_FLOAT"}}}, {"name": "model_4/zero_padding2d_451/Pad", "op": "Pad", "input": ["model_4/tf.split_107/split:1", "model_4/zero_padding2d_451/Pad/paddings"], "attr": {"T": {"type": "DT_FLOAT"}, "Tpaddings": {"type": "DT_INT32"}}}, {"name": "model_4/tf.compat.v1.transpose_67/transpose", "op": "Transpose", "input": ["model_4/tf.concat_222/concat", "model_4/tf.compat.v1.transpose_67/transpose/perm"], "attr": {"T": {"type": "DT_FLOAT"}, "Tperm": {"type": "DT_INT32"}}}, {"name": "model_4/conv2d_741/BiasAdd", "op": "_FusedConv2D", "input": ["model_4/zero_padding2d_451/Pad", "model_4/conv2d_741/Conv2D/ReadVariableOp", "model_4/conv2d_741/BiasAdd/ReadVariableOp"], "device": "/device:CPU:0", "attr": {"filter_format": {"s": "SFdJTw=="}, "explicit_paddings": {"list": {}}, "strides": {"list": {"i": ["1", "1", "1", "1"]}}, "dilations": {"list": {"i": ["1", "1", "1", "1"]}}, "TArgs": {"list": {"type": ["DT_FLOAT"]}}, "fused_ops": {"list": {"s": ["Qmlhc0FkZA=="]}}, "leakyrelu_alpha": {"f": 0.2}, "data_format": {"s": "TkhXQw=="}, "num_args": {"i": "1"}, "use_cudnn_on_gpu": {"b": true}, "num_host_args": {"i": "0"}, "epsilon": {"f": 0.0}, "T": {"type": "DT_FLOAT"}, "padding": {"s": "VkFMSUQ="}}}, {"name": "model_4/tf.reshape_56/Reshape", "op": "Reshape", "input": ["model_4/tf.compat.v1.transpose_67/transpose", "model_4/tf.reshape_56/Reshape/shape"], "attr": {"Tshape": {"type": "DT_INT32"}, "T": {"type": "DT_FLOAT"}}}, {"name": "model_4/tf.nn.silu_664/Sigmoid", "op": "Sigmoid", "input": ["model_4/conv2d_741/BiasAdd"], "attr": {"T": {"type": "DT_FLOAT"}}}, {"name": "model_4/tf.nn.silu_664/mul_1", "op": "Mul", "input": ["model_4/conv2d_741/BiasAdd", "model_4/tf.nn.silu_664/Sigmoid"], "attr": {"T": {"type": "DT_FLOAT"}}}, {"name": "model_4/zero_padding2d_452/Pad", "op": "Pad", "input": ["model_4/tf.nn.silu_664/mul_1", "model_4/zero_padding2d_452/Pad/paddings"], "attr": {"T": {"type": "DT_FLOAT"}, "Tpaddings": {"type": "DT_INT32"}}}, {"name": "model_4/conv2d_742/BiasAdd", "op": "_FusedConv2D", "input": ["model_4/zero_padding2d_452/Pad", "model_4/conv2d_742/Conv2D/ReadVariableOp", "model_4/conv2d_742/BiasAdd/ReadVariableOp"], "device": "/device:CPU:0", "attr": {"num_args": {"i": "1"}, "epsilon": {"f": 0.0}, "T": {"type": "DT_FLOAT"}, "filter_format": {"s": "SFdJTw=="}, "use_cudnn_on_gpu": {"b": true}, "TArgs": {"list": {"type": ["DT_FLOAT"]}}, "explicit_paddings": {"list": {}}, "dilations": {"list": {"i": ["1", "1", "1", "1"]}}, "data_format": {"s": "TkhXQw=="}, "num_host_args": {"i": "0"}, "strides": {"list": {"i": ["1", "1", "1", "1"]}}, "fused_ops": {"list": {"s": ["Qmlhc0FkZA=="]}}, "padding": {"s": "VkFMSUQ="}, "leakyrelu_alpha": {"f": 0.2}}}, {"name": "model_4/tf.nn.silu_665/Sigmoid", "op": "Sigmoid", "input": ["model_4/conv2d_742/BiasAdd"], "attr": {"T": {"type": "DT_FLOAT"}}}, {"name": "model_4/tf.nn.silu_665/mul_1", "op": "Mul", "input": ["model_4/conv2d_742/BiasAdd", "model_4/tf.nn.silu_665/Sigmoid"], "attr": {"T": {"type": "DT_FLOAT"}}}, {"name": "model_4/tf.concat_219/concat", "op": "ConcatV2", "input": ["model_4/tf.split_107/split", "model_4/tf.split_107/split:1", "model_4/tf.nn.silu_665/mul_1", "model_4/tf.concat_219/concat/axis"], "attr": {"Tidx": {"type": "DT_INT32"}, "N": {"i": "3"}, "T": {"type": "DT_FLOAT"}}}, {"name": "model_4/conv2d_743/BiasAdd", "op": "_FusedConv2D", "input": ["model_4/tf.concat_219/concat", "model_4/conv2d_743/Conv2D/ReadVariableOp", "model_4/conv2d_743/BiasAdd/ReadVariableOp"], "device": "/device:CPU:0", "attr": {"strides": {"list": {"i": ["1", "1", "1", "1"]}}, "num_host_args": {"i": "0"}, "data_format": {"s": "TkhXQw=="}, "fused_ops": {"list": {"s": ["Qmlhc0FkZA=="]}}, "epsilon": {"f": 0.0}, "padding": {"s": "VkFMSUQ="}, "T": {"type": "DT_FLOAT"}, "explicit_paddings": {"list": {}}, "use_cudnn_on_gpu": {"b": true}, "dilations": {"list": {"i": ["1", "1", "1", "1"]}}, "leakyrelu_alpha": {"f": 0.2}, "TArgs": {"list": {"type": ["DT_FLOAT"]}}, "filter_format": {"s": "SFdJTw=="}, "num_args": {"i": "1"}}}, {"name": "model_4/tf.nn.silu_666/Sigmoid", "op": "Sigmoid", "input": ["model_4/conv2d_743/BiasAdd"], "attr": {"T": {"type": "DT_FLOAT"}}}, {"name": "model_4/tf.nn.silu_666/mul_1", "op": "Mul", "input": ["model_4/conv2d_743/BiasAdd", "model_4/tf.nn.silu_666/Sigmoid"], "attr": {"T": {"type": "DT_FLOAT"}}}, {"name": "model_4/zero_padding2d_460/Pad", "op": "Pad", "input": ["model_4/tf.nn.silu_666/mul_1", "model_4/zero_padding2d_460/Pad/paddings"], "attr": {"Tpaddings": {"type": "DT_INT32"}, "T": {"type": "DT_FLOAT"}}}, {"name": "model_4/zero_padding2d_462/Pad", "op": "Pad", "input": ["model_4/tf.nn.silu_666/mul_1", "model_4/zero_padding2d_462/Pad/paddings"], "attr": {"Tpaddings": {"type": "DT_INT32"}, "T": {"type": "DT_FLOAT"}}}, {"name": "model_4/zero_padding2d_453/Pad", "op": "Pad", "input": ["model_4/tf.nn.silu_666/mul_1", "model_4/zero_padding2d_453/Pad/paddings"], "attr": {"Tpaddings": {"type": "DT_INT32"}, "T": {"type": "DT_FLOAT"}}}, {"name": "model_4/conv2d_755/BiasAdd", "op": "_FusedConv2D", "input": ["model_4/zero_padding2d_460/Pad", "model_4/conv2d_755/Conv2D/ReadVariableOp", "model_4/conv2d_755/BiasAdd/ReadVariableOp"], "device": "/device:CPU:0", "attr": {"strides": {"list": {"i": ["1", "1", "1", "1"]}}, "fused_ops": {"list": {"s": ["Qmlhc0FkZA=="]}}, "num_args": {"i": "1"}, "dilations": {"list": {"i": ["1", "1", "1", "1"]}}, "padding": {"s": "VkFMSUQ="}, "num_host_args": {"i": "0"}, "explicit_paddings": {"list": {}}, "data_format": {"s": "TkhXQw=="}, "leakyrelu_alpha": {"f": 0.2}, "TArgs": {"list": {"type": ["DT_FLOAT"]}}, "epsilon": {"f": 0.0}, "T": {"type": "DT_FLOAT"}, "use_cudnn_on_gpu": {"b": true}, "filter_format": {"s": "SFdJTw=="}}}, {"name": "model_4/conv2d_758/BiasAdd", "op": "_FusedConv2D", "input": ["model_4/zero_padding2d_462/Pad", "model_4/conv2d_758/Conv2D/ReadVariableOp", "model_4/conv2d_758/BiasAdd/ReadVariableOp"], "device": "/device:CPU:0", "attr": {"padding": {"s": "VkFMSUQ="}, "use_cudnn_on_gpu": {"b": true}, "dilations": {"list": {"i": ["1", "1", "1", "1"]}}, "data_format": {"s": "TkhXQw=="}, "T": {"type": "DT_FLOAT"}, "fused_ops": {"list": {"s": ["Qmlhc0FkZA=="]}}, "leakyrelu_alpha": {"f": 0.2}, "strides": {"list": {"i": ["1", "1", "1", "1"]}}, "num_args": {"i": "1"}, "TArgs": {"list": {"type": ["DT_FLOAT"]}}, "explicit_paddings": {"list": {}}, "filter_format": {"s": "SFdJTw=="}, "num_host_args": {"i": "0"}, "epsilon": {"f": 0.0}}}, {"name": "model_4/conv2d_744/BiasAdd", "op": "_FusedConv2D", "input": ["model_4/zero_padding2d_453/Pad", "model_4/conv2d_744/Conv2D/ReadVariableOp", "model_4/conv2d_744/BiasAdd/ReadVariableOp"], "device": "/device:CPU:0", "attr": {"use_cudnn_on_gpu": {"b": true}, "num_args": {"i": "1"}, "num_host_args": {"i": "0"}, "dilations": {"list": {"i": ["1", "1", "1", "1"]}}, "T": {"type": "DT_FLOAT"}, "data_format": {"s": "TkhXQw=="}, "leakyrelu_alpha": {"f": 0.2}, "fused_ops": {"list": {"s": ["Qmlhc0FkZA=="]}}, "epsilon": {"f": 0.0}, "TArgs": {"list": {"type": ["DT_FLOAT"]}}, "padding": {"s": "VkFMSUQ="}, "explicit_paddings": {"list": {}}, "strides": {"list": {"i": ["1", "2", "2", "1"]}}, "filter_format": {"s": "SFdJTw=="}}}, {"name": "model_4/tf.nn.silu_676/Sigmoid", "op": "Sigmoid", "input": ["model_4/conv2d_755/BiasAdd"], "attr": {"T": {"type": "DT_FLOAT"}}}, {"name": "model_4/tf.nn.silu_678/Sigmoid", "op": "Sigmoid", "input": ["model_4/conv2d_758/BiasAdd"], "attr": {"T": {"type": "DT_FLOAT"}}}, {"name": "model_4/tf.nn.silu_667/Sigmoid", "op": "Sigmoid", "input": ["model_4/conv2d_744/BiasAdd"], "attr": {"T": {"type": "DT_FLOAT"}}}, {"name": "model_4/tf.nn.silu_676/mul_1", "op": "Mul", "input": ["model_4/conv2d_755/BiasAdd", "model_4/tf.nn.silu_676/Sigmoid"], "attr": {"T": {"type": "DT_FLOAT"}}}, {"name": "model_4/tf.nn.silu_678/mul_1", "op": "Mul", "input": ["model_4/conv2d_758/BiasAdd", "model_4/tf.nn.silu_678/Sigmoid"], "attr": {"T": {"type": "DT_FLOAT"}}}, {"name": "model_4/tf.nn.silu_667/mul_1", "op": "Mul", "input": ["model_4/conv2d_744/BiasAdd", "model_4/tf.nn.silu_667/Sigmoid"], "attr": {"T": {"type": "DT_FLOAT"}}}, {"name": "model_4/zero_padding2d_461/Pad", "op": "Pad", "input": ["model_4/tf.nn.silu_676/mul_1", "model_4/zero_padding2d_461/Pad/paddings"], "attr": {"T": {"type": "DT_FLOAT"}, "Tpaddings": {"type": "DT_INT32"}}}, {"name": "model_4/zero_padding2d_463/Pad", "op": "Pad", "input": ["model_4/tf.nn.silu_678/mul_1", "model_4/zero_padding2d_463/Pad/paddings"], "attr": {"T": {"type": "DT_FLOAT"}, "Tpaddings": {"type": "DT_INT32"}}}, {"name": "model_4/tf.concat_220/concat", "op": "ConcatV2", "input": ["model_4/tf.nn.silu_667/mul_1", "model_4/tf.nn.silu_653/mul_1", "model_4/tf.concat_220/concat/axis"], "attr": {"N": {"i": "2"}, "T": {"type": "DT_FLOAT"}, "Tidx": {"type": "DT_INT32"}}}, {"name": "model_4/conv2d_756/BiasAdd", "op": "_FusedConv2D", "input": ["model_4/zero_padding2d_461/Pad", "model_4/conv2d_756/Conv2D/ReadVariableOp", "model_4/conv2d_756/BiasAdd/ReadVariableOp"], "device": "/device:CPU:0", "attr": {"epsilon": {"f": 0.0}, "strides": {"list": {"i": ["1", "1", "1", "1"]}}, "padding": {"s": "VkFMSUQ="}, "dilations": {"list": {"i": ["1", "1", "1", "1"]}}, "num_args": {"i": "1"}, "T": {"type": "DT_FLOAT"}, "use_cudnn_on_gpu": {"b": true}, "fused_ops": {"list": {"s": ["Qmlhc0FkZA=="]}}, "filter_format": {"s": "SFdJTw=="}, "data_format": {"s": "TkhXQw=="}, "num_host_args": {"i": "0"}, "explicit_paddings": {"list": {}}, "leakyrelu_alpha": {"f": 0.2}, "TArgs": {"list": {"type": ["DT_FLOAT"]}}}}, {"name": "model_4/conv2d_759/BiasAdd", "op": "_FusedConv2D", "input": ["model_4/zero_padding2d_463/Pad", "model_4/conv2d_759/Conv2D/ReadVariableOp", "model_4/conv2d_759/BiasAdd/ReadVariableOp"], "device": "/device:CPU:0", "attr": {"epsilon": {"f": 0.0}, "padding": {"s": "VkFMSUQ="}, "num_args": {"i": "1"}, "T": {"type": "DT_FLOAT"}, "TArgs": {"list": {"type": ["DT_FLOAT"]}}, "use_cudnn_on_gpu": {"b": true}, "num_host_args": {"i": "0"}, "fused_ops": {"list": {"s": ["Qmlhc0FkZA=="]}}, "dilations": {"list": {"i": ["1", "1", "1", "1"]}}, "data_format": {"s": "TkhXQw=="}, "strides": {"list": {"i": ["1", "1", "1", "1"]}}, "explicit_paddings": {"list": {}}, "leakyrelu_alpha": {"f": 0.2}, "filter_format": {"s": "SFdJTw=="}}}, {"name": "model_4/conv2d_745/BiasAdd", "op": "_FusedConv2D", "input": ["model_4/tf.concat_220/concat", "model_4/conv2d_745/Conv2D/ReadVariableOp", "model_4/conv2d_745/BiasAdd/ReadVariableOp"], "device": "/device:CPU:0", "attr": {"leakyrelu_alpha": {"f": 0.2}, "epsilon": {"f": 0.0}, "TArgs": {"list": {"type": ["DT_FLOAT"]}}, "strides": {"list": {"i": ["1", "1", "1", "1"]}}, "data_format": {"s": "TkhXQw=="}, "num_host_args": {"i": "0"}, "fused_ops": {"list": {"s": ["Qmlhc0FkZA=="]}}, "filter_format": {"s": "SFdJTw=="}, "padding": {"s": "VkFMSUQ="}, "explicit_paddings": {"list": {}}, "T": {"type": "DT_FLOAT"}, "num_args": {"i": "1"}, "use_cudnn_on_gpu": {"b": true}, "dilations": {"list": {"i": ["1", "1", "1", "1"]}}}}, {"name": "model_4/tf.nn.silu_677/Sigmoid", "op": "Sigmoid", "input": ["model_4/conv2d_756/BiasAdd"], "attr": {"T": {"type": "DT_FLOAT"}}}, {"name": "model_4/tf.nn.silu_679/Sigmoid", "op": "Sigmoid", "input": ["model_4/conv2d_759/BiasAdd"], "attr": {"T": {"type": "DT_FLOAT"}}}, {"name": "model_4/tf.nn.silu_668/Sigmoid", "op": "Sigmoid", "input": ["model_4/conv2d_745/BiasAdd"], "attr": {"T": {"type": "DT_FLOAT"}}}, {"name": "model_4/tf.nn.silu_677/mul_1", "op": "Mul", "input": ["model_4/conv2d_756/BiasAdd", "model_4/tf.nn.silu_677/Sigmoid"], "attr": {"T": {"type": "DT_FLOAT"}}}, {"name": "model_4/tf.nn.silu_679/mul_1", "op": "Mul", "input": ["model_4/conv2d_759/BiasAdd", "model_4/tf.nn.silu_679/Sigmoid"], "attr": {"T": {"type": "DT_FLOAT"}}}, {"name": "model_4/tf.nn.silu_668/mul_1", "op": "Mul", "input": ["model_4/conv2d_745/BiasAdd", "model_4/tf.nn.silu_668/Sigmoid"], "attr": {"T": {"type": "DT_FLOAT"}}}, {"name": "model_4/conv2d_757/BiasAdd", "op": "_FusedConv2D", "input": ["model_4/tf.nn.silu_677/mul_1", "model_4/conv2d_757/Conv2D/ReadVariableOp", "model_4/conv2d_757/BiasAdd/ReadVariableOp"], "device": "/device:CPU:0", "attr": {"T": {"type": "DT_FLOAT"}, "num_host_args": {"i": "0"}, "TArgs": {"list": {"type": ["DT_FLOAT"]}}, "use_cudnn_on_gpu": {"b": true}, "data_format": {"s": "TkhXQw=="}, "num_args": {"i": "1"}, "dilations": {"list": {"i": ["1", "1", "1", "1"]}}, "filter_format": {"s": "SFdJTw=="}, "explicit_paddings": {"list": {}}, "epsilon": {"f": 0.0}, "strides": {"list": {"i": ["1", "1", "1", "1"]}}, "padding": {"s": "VkFMSUQ="}, "fused_ops": {"list": {"s": ["Qmlhc0FkZA=="]}}, "leakyrelu_alpha": {"f": 0.2}}}, {"name": "model_4/conv2d_760/BiasAdd", "op": "_FusedConv2D", "input": ["model_4/tf.nn.silu_679/mul_1", "model_4/conv2d_760/Conv2D/ReadVariableOp", "model_4/conv2d_760/BiasAdd/ReadVariableOp"], "device": "/device:CPU:0", "attr": {"use_cudnn_on_gpu": {"b": true}, "padding": {"s": "VkFMSUQ="}, "dilations": {"list": {"i": ["1", "1", "1", "1"]}}, "num_host_args": {"i": "0"}, "strides": {"list": {"i": ["1", "1", "1", "1"]}}, "data_format": {"s": "TkhXQw=="}, "TArgs": {"list": {"type": ["DT_FLOAT"]}}, "explicit_paddings": {"list": {}}, "num_args": {"i": "1"}, "epsilon": {"f": 0.0}, "leakyrelu_alpha": {"f": 0.2}, "fused_ops": {"list": {"s": ["Qmlhc0FkZA=="]}}, "filter_format": {"s": "SFdJTw=="}, "T": {"type": "DT_FLOAT"}}}, {"name": "model_4/tf.split_108/split", "op": "Split", "input": ["model_4/tf.split_108/split/split_dim", "model_4/tf.nn.silu_668/mul_1"], "attr": {"num_split": {"i": "2"}, "T": {"type": "DT_FLOAT"}}}, {"name": "model_4/tf.concat_223/concat", "op": "ConcatV2", "input": ["model_4/conv2d_757/BiasAdd", "model_4/conv2d_760/BiasAdd", "model_4/tf.concat_223/concat/axis"], "attr": {"N": {"i": "2"}, "Tidx": {"type": "DT_INT32"}, "T": {"type": "DT_FLOAT"}}}, {"name": "model_4/zero_padding2d_454/Pad", "op": "Pad", "input": ["model_4/tf.split_108/split:1", "model_4/zero_padding2d_454/Pad/paddings"], "attr": {"Tpaddings": {"type": "DT_INT32"}, "T": {"type": "DT_FLOAT"}}}, {"name": "model_4/tf.compat.v1.transpose_68/transpose", "op": "Transpose", "input": ["model_4/tf.concat_223/concat", "model_4/tf.compat.v1.transpose_68/transpose/perm"], "attr": {"T": {"type": "DT_FLOAT"}, "Tperm": {"type": "DT_INT32"}}}, {"name": "model_4/conv2d_746/BiasAdd", "op": "_FusedConv2D", "input": ["model_4/zero_padding2d_454/Pad", "model_4/conv2d_746/Conv2D/ReadVariableOp", "model_4/conv2d_746/BiasAdd/ReadVariableOp"], "device": "/device:CPU:0", "attr": {"filter_format": {"s": "SFdJTw=="}, "leakyrelu_alpha": {"f": 0.2}, "epsilon": {"f": 0.0}, "TArgs": {"list": {"type": ["DT_FLOAT"]}}, "strides": {"list": {"i": ["1", "1", "1", "1"]}}, "data_format": {"s": "TkhXQw=="}, "use_cudnn_on_gpu": {"b": true}, "T": {"type": "DT_FLOAT"}, "fused_ops": {"list": {"s": ["Qmlhc0FkZA=="]}}, "padding": {"s": "VkFMSUQ="}, "num_host_args": {"i": "0"}, "num_args": {"i": "1"}, "explicit_paddings": {"list": {}}, "dilations": {"list": {"i": ["1", "1", "1", "1"]}}}}, {"name": "model_4/tf.reshape_57/Reshape", "op": "Reshape", "input": ["model_4/tf.compat.v1.transpose_68/transpose", "model_4/tf.reshape_57/Reshape/shape"], "attr": {"T": {"type": "DT_FLOAT"}, "Tshape": {"type": "DT_INT32"}}}, {"name": "model_4/tf.nn.silu_669/Sigmoid", "op": "Sigmoid", "input": ["model_4/conv2d_746/BiasAdd"], "attr": {"T": {"type": "DT_FLOAT"}}}, {"name": "model_4/tf.nn.silu_669/mul_1", "op": "Mul", "input": ["model_4/conv2d_746/BiasAdd", "model_4/tf.nn.silu_669/Sigmoid"], "attr": {"T": {"type": "DT_FLOAT"}}}, {"name": "model_4/zero_padding2d_455/Pad", "op": "Pad", "input": ["model_4/tf.nn.silu_669/mul_1", "model_4/zero_padding2d_455/Pad/paddings"], "attr": {"Tpaddings": {"type": "DT_INT32"}, "T": {"type": "DT_FLOAT"}}}, {"name": "model_4/conv2d_747/BiasAdd", "op": "_FusedConv2D", "input": ["model_4/zero_padding2d_455/Pad", "model_4/conv2d_747/Conv2D/ReadVariableOp", "model_4/conv2d_747/BiasAdd/ReadVariableOp"], "device": "/device:CPU:0", "attr": {"data_format": {"s": "TkhXQw=="}, "leakyrelu_alpha": {"f": 0.2}, "T": {"type": "DT_FLOAT"}, "epsilon": {"f": 0.0}, "num_host_args": {"i": "0"}, "use_cudnn_on_gpu": {"b": true}, "dilations": {"list": {"i": ["1", "1", "1", "1"]}}, "explicit_paddings": {"list": {}}, "fused_ops": {"list": {"s": ["Qmlhc0FkZA=="]}}, "padding": {"s": "VkFMSUQ="}, "filter_format": {"s": "SFdJTw=="}, "strides": {"list": {"i": ["1", "1", "1", "1"]}}, "num_args": {"i": "1"}, "TArgs": {"list": {"type": ["DT_FLOAT"]}}}}, {"name": "model_4/tf.nn.silu_670/Sigmoid", "op": "Sigmoid", "input": ["model_4/conv2d_747/BiasAdd"], "attr": {"T": {"type": "DT_FLOAT"}}}, {"name": "model_4/tf.nn.silu_670/mul_1", "op": "Mul", "input": ["model_4/conv2d_747/BiasAdd", "model_4/tf.nn.silu_670/Sigmoid"], "attr": {"T": {"type": "DT_FLOAT"}}}, {"name": "model_4/tf.concat_221/concat", "op": "ConcatV2", "input": ["model_4/tf.split_108/split", "model_4/tf.split_108/split:1", "model_4/tf.nn.silu_670/mul_1", "model_4/tf.concat_221/concat/axis"], "attr": {"N": {"i": "3"}, "Tidx": {"type": "DT_INT32"}, "T": {"type": "DT_FLOAT"}}}, {"name": "model_4/conv2d_748/BiasAdd", "op": "_FusedConv2D", "input": ["model_4/tf.concat_221/concat", "model_4/conv2d_748/Conv2D/ReadVariableOp", "model_4/conv2d_748/BiasAdd/ReadVariableOp"], "device": "/device:CPU:0", "attr": {"TArgs": {"list": {"type": ["DT_FLOAT"]}}, "num_host_args": {"i": "0"}, "explicit_paddings": {"list": {}}, "strides": {"list": {"i": ["1", "1", "1", "1"]}}, "epsilon": {"f": 0.0}, "num_args": {"i": "1"}, "padding": {"s": "VkFMSUQ="}, "dilations": {"list": {"i": ["1", "1", "1", "1"]}}, "filter_format": {"s": "SFdJTw=="}, "fused_ops": {"list": {"s": ["Qmlhc0FkZA=="]}}, "T": {"type": "DT_FLOAT"}, "use_cudnn_on_gpu": {"b": true}, "data_format": {"s": "TkhXQw=="}, "leakyrelu_alpha": {"f": 0.2}}}, {"name": "model_4/tf.nn.silu_671/Sigmoid", "op": "Sigmoid", "input": ["model_4/conv2d_748/BiasAdd"], "attr": {"T": {"type": "DT_FLOAT"}}}, {"name": "model_4/tf.nn.silu_671/mul_1", "op": "Mul", "input": ["model_4/conv2d_748/BiasAdd", "model_4/tf.nn.silu_671/Sigmoid"], "attr": {"T": {"type": "DT_FLOAT"}}}, {"name": "model_4/zero_padding2d_466/Pad", "op": "Pad", "input": ["model_4/tf.nn.silu_671/mul_1", "model_4/zero_padding2d_466/Pad/paddings"], "attr": {"T": {"type": "DT_FLOAT"}, "Tpaddings": {"type": "DT_INT32"}}}, {"name": "model_4/zero_padding2d_464/Pad", "op": "Pad", "input": ["model_4/tf.nn.silu_671/mul_1", "model_4/zero_padding2d_464/Pad/paddings"], "attr": {"Tpaddings": {"type": "DT_INT32"}, "T": {"type": "DT_FLOAT"}}}, {"name": "model_4/conv2d_764/BiasAdd", "op": "_FusedConv2D", "input": ["model_4/zero_padding2d_466/Pad", "model_4/conv2d_764/Conv2D/ReadVariableOp", "model_4/conv2d_764/BiasAdd/ReadVariableOp"], "device": "/device:CPU:0", "attr": {"T": {"type": "DT_FLOAT"}, "fused_ops": {"list": {"s": ["Qmlhc0FkZA=="]}}, "num_args": {"i": "1"}, "dilations": {"list": {"i": ["1", "1", "1", "1"]}}, "padding": {"s": "VkFMSUQ="}, "strides": {"list": {"i": ["1", "1", "1", "1"]}}, "filter_format": {"s": "SFdJTw=="}, "use_cudnn_on_gpu": {"b": true}, "epsilon": {"f": 0.0}, "TArgs": {"list": {"type": ["DT_FLOAT"]}}, "num_host_args": {"i": "0"}, "leakyrelu_alpha": {"f": 0.2}, "explicit_paddings": {"list": {}}, "data_format": {"s": "TkhXQw=="}}}, {"name": "model_4/conv2d_761/BiasAdd", "op": "_FusedConv2D", "input": ["model_4/zero_padding2d_464/Pad", "model_4/conv2d_761/Conv2D/ReadVariableOp", "model_4/conv2d_761/BiasAdd/ReadVariableOp"], "device": "/device:CPU:0", "attr": {"strides": {"list": {"i": ["1", "1", "1", "1"]}}, "use_cudnn_on_gpu": {"b": true}, "filter_format": {"s": "SFdJTw=="}, "padding": {"s": "VkFMSUQ="}, "fused_ops": {"list": {"s": ["Qmlhc0FkZA=="]}}, "num_args": {"i": "1"}, "leakyrelu_alpha": {"f": 0.2}, "T": {"type": "DT_FLOAT"}, "num_host_args": {"i": "0"}, "explicit_paddings": {"list": {}}, "epsilon": {"f": 0.0}, "dilations": {"list": {"i": ["1", "1", "1", "1"]}}, "data_format": {"s": "TkhXQw=="}, "TArgs": {"list": {"type": ["DT_FLOAT"]}}}}, {"name": "model_4/tf.nn.silu_682/Sigmoid", "op": "Sigmoid", "input": ["model_4/conv2d_764/BiasAdd"], "attr": {"T": {"type": "DT_FLOAT"}}}, {"name": "model_4/tf.nn.silu_680/Sigmoid", "op": "Sigmoid", "input": ["model_4/conv2d_761/BiasAdd"], "attr": {"T": {"type": "DT_FLOAT"}}}, {"name": "model_4/tf.nn.silu_682/mul_1", "op": "Mul", "input": ["model_4/conv2d_764/BiasAdd", "model_4/tf.nn.silu_682/Sigmoid"], "attr": {"T": {"type": "DT_FLOAT"}}}, {"name": "model_4/tf.nn.silu_680/mul_1", "op": "Mul", "input": ["model_4/conv2d_761/BiasAdd", "model_4/tf.nn.silu_680/Sigmoid"], "attr": {"T": {"type": "DT_FLOAT"}}}, {"name": "model_4/zero_padding2d_467/Pad", "op": "Pad", "input": ["model_4/tf.nn.silu_682/mul_1", "model_4/zero_padding2d_467/Pad/paddings"], "attr": {"Tpaddings": {"type": "DT_INT32"}, "T": {"type": "DT_FLOAT"}}}, {"name": "model_4/zero_padding2d_465/Pad", "op": "Pad", "input": ["model_4/tf.nn.silu_680/mul_1", "model_4/zero_padding2d_465/Pad/paddings"], "attr": {"T": {"type": "DT_FLOAT"}, "Tpaddings": {"type": "DT_INT32"}}}, {"name": "model_4/conv2d_765/BiasAdd", "op": "_FusedConv2D", "input": ["model_4/zero_padding2d_467/Pad", "model_4/conv2d_765/Conv2D/ReadVariableOp", "model_4/conv2d_765/BiasAdd/ReadVariableOp"], "device": "/device:CPU:0", "attr": {"explicit_paddings": {"list": {}}, "padding": {"s": "VkFMSUQ="}, "T": {"type": "DT_FLOAT"}, "use_cudnn_on_gpu": {"b": true}, "strides": {"list": {"i": ["1", "1", "1", "1"]}}, "TArgs": {"list": {"type": ["DT_FLOAT"]}}, "dilations": {"list": {"i": ["1", "1", "1", "1"]}}, "num_host_args": {"i": "0"}, "data_format": {"s": "TkhXQw=="}, "epsilon": {"f": 0.0}, "num_args": {"i": "1"}, "filter_format": {"s": "SFdJTw=="}, "fused_ops": {"list": {"s": ["Qmlhc0FkZA=="]}}, "leakyrelu_alpha": {"f": 0.2}}}, {"name": "model_4/conv2d_762/BiasAdd", "op": "_FusedConv2D", "input": ["model_4/zero_padding2d_465/Pad", "model_4/conv2d_762/Conv2D/ReadVariableOp", "model_4/conv2d_762/BiasAdd/ReadVariableOp"], "device": "/device:CPU:0", "attr": {"T": {"type": "DT_FLOAT"}, "filter_format": {"s": "SFdJTw=="}, "explicit_paddings": {"list": {}}, "use_cudnn_on_gpu": {"b": true}, "num_args": {"i": "1"}, "TArgs": {"list": {"type": ["DT_FLOAT"]}}, "num_host_args": {"i": "0"}, "dilations": {"list": {"i": ["1", "1", "1", "1"]}}, "data_format": {"s": "TkhXQw=="}, "padding": {"s": "VkFMSUQ="}, "leakyrelu_alpha": {"f": 0.2}, "epsilon": {"f": 0.0}, "strides": {"list": {"i": ["1", "1", "1", "1"]}}, "fused_ops": {"list": {"s": ["Qmlhc0FkZA=="]}}}}, {"name": "model_4/tf.nn.silu_683/Sigmoid", "op": "Sigmoid", "input": ["model_4/conv2d_765/BiasAdd"], "attr": {"T": {"type": "DT_FLOAT"}}}, {"name": "model_4/tf.nn.silu_681/Sigmoid", "op": "Sigmoid", "input": ["model_4/conv2d_762/BiasAdd"], "attr": {"T": {"type": "DT_FLOAT"}}}, {"name": "model_4/tf.nn.silu_683/mul_1", "op": "Mul", "input": ["model_4/conv2d_765/BiasAdd", "model_4/tf.nn.silu_683/Sigmoid"], "attr": {"T": {"type": "DT_FLOAT"}}}, {"name": "model_4/tf.nn.silu_681/mul_1", "op": "Mul", "input": ["model_4/conv2d_762/BiasAdd", "model_4/tf.nn.silu_681/Sigmoid"], "attr": {"T": {"type": "DT_FLOAT"}}}, {"name": "model_4/conv2d_766/BiasAdd", "op": "_FusedConv2D", "input": ["model_4/tf.nn.silu_683/mul_1", "model_4/conv2d_766/Conv2D/ReadVariableOp", "model_4/conv2d_766/BiasAdd/ReadVariableOp"], "device": "/device:CPU:0", "attr": {"use_cudnn_on_gpu": {"b": true}, "explicit_paddings": {"list": {}}, "filter_format": {"s": "SFdJTw=="}, "leakyrelu_alpha": {"f": 0.2}, "dilations": {"list": {"i": ["1", "1", "1", "1"]}}, "strides": {"list": {"i": ["1", "1", "1", "1"]}}, "TArgs": {"list": {"type": ["DT_FLOAT"]}}, "num_host_args": {"i": "0"}, "padding": {"s": "VkFMSUQ="}, "epsilon": {"f": 0.0}, "fused_ops": {"list": {"s": ["Qmlhc0FkZA=="]}}, "T": {"type": "DT_FLOAT"}, "data_format": {"s": "TkhXQw=="}, "num_args": {"i": "1"}}}, {"name": "model_4/conv2d_763/BiasAdd", "op": "_FusedConv2D", "input": ["model_4/tf.nn.silu_681/mul_1", "model_4/conv2d_763/Conv2D/ReadVariableOp", "model_4/conv2d_763/BiasAdd/ReadVariableOp"], "device": "/device:CPU:0", "attr": {"filter_format": {"s": "SFdJTw=="}, "explicit_paddings": {"list": {}}, "leakyrelu_alpha": {"f": 0.2}, "fused_ops": {"list": {"s": ["Qmlhc0FkZA=="]}}, "num_args": {"i": "1"}, "T": {"type": "DT_FLOAT"}, "TArgs": {"list": {"type": ["DT_FLOAT"]}}, "data_format": {"s": "TkhXQw=="}, "strides": {"list": {"i": ["1", "1", "1", "1"]}}, "dilations": {"list": {"i": ["1", "1", "1", "1"]}}, "use_cudnn_on_gpu": {"b": true}, "num_host_args": {"i": "0"}, "padding": {"s": "VkFMSUQ="}, "epsilon": {"f": 0.0}}}, {"name": "model_4/tf.concat_224/concat", "op": "ConcatV2", "input": ["model_4/conv2d_763/BiasAdd", "model_4/conv2d_766/BiasAdd", "model_4/tf.concat_224/concat/axis"], "attr": {"Tidx": {"type": "DT_INT32"}, "N": {"i": "2"}, "T": {"type": "DT_FLOAT"}}}, {"name": "model_4/tf.compat.v1.transpose_69/transpose", "op": "Transpose", "input": ["model_4/tf.concat_224/concat", "model_4/tf.compat.v1.transpose_69/transpose/perm"], "attr": {"T": {"type": "DT_FLOAT"}, "Tperm": {"type": "DT_INT32"}}}, {"name": "model_4/tf.reshape_58/Reshape", "op": "Reshape", "input": ["model_4/tf.compat.v1.transpose_69/transpose", "model_4/tf.reshape_58/Reshape/shape"], "attr": {"T": {"type": "DT_FLOAT"}, "Tshape": {"type": "DT_INT32"}}}, {"name": "model_4/tf.concat_225/concat", "op": "ConcatV2", "input": ["model_4/tf.reshape_56/Reshape", "model_4/tf.reshape_57/Reshape", "model_4/tf.reshape_58/Reshape", "model_4/tf.concat_225/concat/axis"], "attr": {"N": {"i": "3"}, "Tidx": {"type": "DT_INT32"}, "T": {"type": "DT_FLOAT"}}}, {"name": "model_4/tf.__operators__.getitem_135/strided_slice", "op": "StridedSlice", "input": ["model_4/tf.concat_225/concat", "model_4/tf.__operators__.getitem_135/strided_slice/stack", "model_4/tf.__operators__.getitem_135/strided_slice/stack_1", "model_4/tf.__operators__.getitem_135/strided_slice/stack_2"], "attr": {"end_mask": {"i": "1"}, "T": {"type": "DT_FLOAT"}, "begin_mask": {"i": "3"}, "Index": {"type": "DT_INT32"}, "shrink_axis_mask": {"i": "0"}, "new_axis_mask": {"i": "0"}, "ellipsis_mask": {"i": "0"}}}, {"name": "model_4/tf.__operators__.getitem_136/strided_slice", "op": "StridedSlice", "input": ["model_4/tf.concat_225/concat", "model_4/tf.__operators__.getitem_136/strided_slice/stack", "model_4/tf.__operators__.getitem_136/strided_slice/stack_1", "model_4/tf.__operators__.getitem_136/strided_slice/stack_2"], "attr": {"T": {"type": "DT_FLOAT"}, "Index": {"type": "DT_INT32"}, "ellipsis_mask": {"i": "0"}, "new_axis_mask": {"i": "0"}, "end_mask": {"i": "3"}, "begin_mask": {"i": "1"}, "shrink_axis_mask": {"i": "0"}}}, {"name": "model_4/tf.reshape_59/Reshape", "op": "Reshape", "input": ["model_4/tf.__operators__.getitem_135/strided_slice", "model_4/tf.reshape_59/Reshape/shape"], "attr": {"T": {"type": "DT_FLOAT"}, "Tshape": {"type": "DT_INT32"}}}, {"name": "model_4/activation_59/Sigmoid", "op": "Sigmoid", "input": ["model_4/tf.__operators__.getitem_136/strided_slice"], "attr": {"T": {"type": "DT_FLOAT"}}}, {"name": "model_4/tf.compat.v1.transpose_70/transpose", "op": "Transpose", "input": ["model_4/tf.reshape_59/Reshape", "model_4/tf.compat.v1.transpose_70/transpose/perm"], "attr": {"T": {"type": "DT_FLOAT"}, "Tperm": {"type": "DT_INT32"}}}, {"name": "model_4/tf.nn.softmax_11/transpose", "op": "Transpose", "input": ["model_4/tf.compat.v1.transpose_70/transpose", "model_4/tf.nn.softmax_11/concat"], "attr": {"Tperm": {"type": "DT_INT32"}, "T": {"type": "DT_FLOAT"}}}, {"name": "model_4/tf.nn.softmax_11/Softmax", "op": "Softmax", "input": ["model_4/tf.nn.softmax_11/transpose"], "attr": {"T": {"type": "DT_FLOAT"}}}, {"name": "model_4/tf.nn.softmax_11/transpose_1", "op": "Transpose", "input": ["model_4/tf.nn.softmax_11/Softmax", "model_4/tf.nn.softmax_11/concat_1"], "attr": {"T": {"type": "DT_FLOAT"}, "Tperm": {"type": "DT_INT32"}}}, {"name": "model_4/tf.compat.v1.transpose_71/transpose", "op": "Transpose", "input": ["model_4/tf.nn.softmax_11/transpose_1", "model_4/tf.compat.v1.transpose_71/transpose/perm"], "attr": {"T": {"type": "DT_FLOAT"}, "Tperm": {"type": "DT_INT32"}}}, {"name": "model_4/conv2d_767/Conv2D", "op": "Conv2D", "input": ["model_4/tf.compat.v1.transpose_71/transpose", "model_4/conv2d_767/Conv2D/ReadVariableOp"], "device": "/device:CPU:0", "attr": {"padding": {"s": "VkFMSUQ="}, "dilations": {"list": {"i": ["1", "1", "1", "1"]}}, "strides": {"list": {"i": ["1", "1", "1", "1"]}}, "data_format": {"s": "TkhXQw=="}, "T": {"type": "DT_FLOAT"}, "explicit_paddings": {"list": {}}, "use_cudnn_on_gpu": {"b": true}}}, {"name": "model_4/tf.compat.v1.transpose_72/transpose", "op": "Transpose", "input": ["model_4/conv2d_767/Conv2D", "model_4/tf.compat.v1.transpose_72/transpose/perm"], "attr": {"Tperm": {"type": "DT_INT32"}, "T": {"type": "DT_FLOAT"}}}, {"name": "model_4/tf.reshape_60/Reshape", "op": "Reshape", "input": ["model_4/tf.compat.v1.transpose_72/transpose", "model_4/tf.reshape_60/Reshape/shape"], "attr": {"Tshape": {"type": "DT_INT32"}, "T": {"type": "DT_FLOAT"}}}, {"name": "model_4/tf.split_109/split", "op": "Split", "input": ["model_4/tf.split_109/split/split_dim", "model_4/tf.reshape_60/Reshape"], "attr": {"num_split": {"i": "2"}, "T": {"type": "DT_FLOAT"}}}, {"name": "model_4/tf.__operators__.add_98/AddV2", "op": "AddV2", "input": ["model_4/tf.expand_dims_14/ExpandDims", "model_4/tf.split_109/split:1"], "attr": {"T": {"type": "DT_FLOAT"}}}, {"name": "model_4/tf.math.subtract_22/Sub", "op": "Sub", "input": ["model_4/tf.expand_dims_14/ExpandDims", "model_4/tf.split_109/split"], "attr": {"T": {"type": "DT_FLOAT"}}}, {"name": "model_4/tf.__operators__.add_99/AddV2", "op": "AddV2", "input": ["model_4/tf.math.subtract_22/Sub", "model_4/tf.__operators__.add_98/AddV2"], "attr": {"T": {"type": "DT_FLOAT"}}}, {"name": "model_4/tf.math.subtract_23/Sub", "op": "Sub", "input": ["model_4/tf.__operators__.add_98/AddV2", "model_4/tf.math.subtract_22/Sub"], "attr": {"T": {"type": "DT_FLOAT"}}}, {"name": "model_4/tf.math.truediv_11/truediv", "op": "Mul", "input": ["model_4/tf.__operators__.add_99/AddV2", "ConstantFolding/model_4/tf.math.truediv_11/truediv_recip"], "attr": {"T": {"type": "DT_FLOAT"}}}, {"name": "model_4/tf.concat_226/concat", "op": "ConcatV2", "input": ["model_4/tf.math.truediv_11/truediv", "model_4/tf.math.subtract_23/Sub", "model_4/tf.concat_226/concat/axis"], "attr": {"N": {"i": "2"}, "T": {"type": "DT_FLOAT"}, "Tidx": {"type": "DT_INT32"}}}, {"name": "model_4/tf.math.multiply_60/Mul", "op": "Mul", "input": ["model_4/tf.concat_226/concat", "model_4/weight_layer_32/StatefulPartitionedCall/Identity"], "attr": {"T": {"type": "DT_FLOAT"}}}, {"name": "model_4/tf.concat_227/concat", "op": "ConcatV2", "input": ["model_4/tf.math.multiply_60/Mul", "model_4/activation_59/Sigmoid", "model_4/tf.concat_227/concat/axis"], "attr": {"N": {"i": "2"}, "Tidx": {"type": "DT_INT32"}, "T": {"type": "DT_FLOAT"}}}, {"name": "model_4/tf.compat.v1.transpose_73/transpose", "op": "Transpose", "input": ["model_4/tf.concat_227/concat", "model_4/tf.compat.v1.transpose_73/transpose/perm"], "attr": {"T": {"type": "DT_FLOAT"}, "Tperm": {"type": "DT_INT32"}}}, {"name": "model_4/tf.__operators__.getitem_137/strided_slice", "op": "StridedSlice", "input": ["model_4/tf.concat_227/concat", "model_4/tf.__operators__.getitem_137/strided_slice/stack", "model_4/tf.__operators__.getitem_137/strided_slice/stack_1", "model_4/tf.__operators__.getitem_137/strided_slice/stack_2"], "attr": {"end_mask": {"i": "7"}, "new_axis_mask": {"i": "0"}, "ellipsis_mask": {"i": "0"}, "Index": {"type": "DT_INT32"}, "begin_mask": {"i": "5"}, "shrink_axis_mask": {"i": "0"}, "T": {"type": "DT_FLOAT"}}}, {"name": "model_4/tf.reshape_61/Reshape", "op": "Reshape", "input": ["model_4/tf.compat.v1.transpose_73/transpose", "model_4/tf.reshape_61/Reshape/shape"], "attr": {"T": {"type": "DT_FLOAT"}, "Tshape": {"type": "DT_INT64"}}}, {"name": "model_4/tf.math.reduce_max_3/Max", "op": "Max", "input": ["model_4/tf.__operators__.getitem_137/strided_slice", "model_4/tf.math.reduce_max_3/Max/reduction_indices"], "attr": {"keep_dims": {"b": false}, "T": {"type": "DT_FLOAT"}, "Tidx": {"type": "DT_INT32"}}}, {"name": "model_4/tf.math.top_k_3/TopKV2", "op": "TopKV2", "input": ["model_4/tf.math.reduce_max_3/Max", "model_4/tf.math.top_k_3/TopKV2/k"], "attr": {"T": {"type": "DT_FLOAT"}, "sorted": {"b": true}, "index_type": {"type": "DT_INT32"}, "Tk": {"type": "DT_INT32"}}}, {"name": "model_4/tf.cast_102/Cast", "op": "Cast", "input": ["model_4/tf.math.top_k_3/TopKV2:1"], "attr": {"DstT": {"type": "DT_INT64"}, "Truncate": {"b": false}, "SrcT": {"type": "DT_INT32"}}}, {"name": "model_4/tf.math.less_5/Less", "op": "Less", "input": ["model_4/tf.cast_102/Cast", "model_4/tf.math.less_5/Less/y"], "attr": {"T": {"type": "DT_INT64"}}}, {"name": "model_4/tf.__operators__.add_101/AddV2", "op": "AddV2", "input": ["model_4/tf.cast_104/Cast", "model_4/tf.cast_102/Cast"], "attr": {"T": {"type": "DT_INT64"}}}, {"name": "model_4/tf.where_5/SelectV2", "op": "SelectV2", "input": ["model_4/tf.math.less_5/Less", "model_4/tf.__operators__.add_101/AddV2", "model_4/tf.cast_102/Cast"], "attr": {"T": {"type": "DT_INT64"}}}, {"name": "model_4/tf.stack_3/stack", "op": "Pack", "input": ["model_4/tf.broadcast_to_2/BroadcastTo", "model_4/tf.where_5/SelectV2"], "attr": {"T": {"type": "DT_INT64"}, "axis": {"i": "-1"}, "N": {"i": "2"}}}, {"name": "model_4/tf.math.multiply_61/Mul", "op": "Mul", "input": ["model_4/tf.math.cumprod_1/Cumprod", "model_4/tf.stack_3/stack"], "attr": {"T": {"type": "DT_INT64"}}}, {"name": "model_4/tf.math.reduce_sum_1/Sum", "op": "Sum", "input": ["model_4/tf.math.multiply_61/Mul", "model_4/tf.math.reduce_sum_1/Sum/reduction_indices"], "attr": {"T": {"type": "DT_INT64"}, "keep_dims": {"b": false}, "Tidx": {"type": "DT_INT32"}}}, {"name": "model_4/tf.compat.v1.gather_1/GatherV2", "op": "GatherV2", "input": ["model_4/tf.reshape_61/Reshape", "model_4/tf.math.reduce_sum_1/Sum", "model_4/tf.compat.v1.gather_1/GatherV2/axis"], "attr": {"batch_dims": {"i": "0"}, "Taxis": {"type": "DT_INT32"}, "Tparams": {"type": "DT_FLOAT"}, "Tindices": {"type": "DT_INT64"}}}, {"name": "Identity", "op": "Identity", "input": ["model_4/tf.compat.v1.gather_1/GatherV2"], "attr": {"T": {"type": "DT_FLOAT"}}}], "library": {}, "versions": {"producer": 1645}}, "weightsManifest": [{"paths": ["group1-shard1of6.bin", "group1-shard2of6.bin", "group1-shard3of6.bin", "group1-shard4of6.bin", "group1-shard5of6.bin", "group1-shard6of6.bin"], "weights": [{"name": "model_4/tf.compat.v1.transpose_73/transpose/perm", "shape": [3], "dtype": "int32"}, {"name": "model_4/tf.reshape_61/Reshape/shape", "shape": [2], "dtype": "int32"}, {"name": "model_4/tf.math.cumprod_1/Cumprod", "shape": [2], "dtype": "int32"}, {"name": "model_4/tf.broadcast_to_2/BroadcastTo", "shape": [1, 500], "dtype": "int32"}, {"name": "model_4/tf.math.less_5/Less/y", "shape": [], "dtype": "int32"}, {"name": "model_4/tf.cast_104/Cast", "shape": [], "dtype": "int32"}, {"name": "ConstantFolding/model_4/tf.math.truediv_11/truediv_recip", "shape": [], "dtype": "float32", "quantization": {"dtype": "float16", "original_dtype": "float32"}}, {"name": "model_4/tf.split_109/split/split_dim", "shape": [], "dtype": "int32"}, {"name": "model_4/tf.__operators__.getitem_135/strided_slice/stack", "shape": [2], "dtype": "int32"}, {"name": "model_4/tf.__operators__.getitem_135/strided_slice/stack_1", "shape": [2], "dtype": "int32"}, {"name": "model_4/tf.__operators__.getitem_135/strided_slice/stack_2", "shape": [2], "dtype": "int32"}, {"name": "model_4/tf.reshape_59/Reshape/shape", "shape": [4], "dtype": "int32"}, {"name": "model_4/tf.compat.v1.transpose_70/transpose/perm", "shape": [4], "dtype": "int32"}, {"name": "model_4/tf.nn.softmax_11/concat", "shape": [4], "dtype": "int32"}, {"name": "model_4/tf.nn.softmax_11/concat_1", "shape": [4], "dtype": "int32"}, {"name": "model_4/tf.compat.v1.transpose_71/transpose/perm", "shape": [4], "dtype": "int32"}, {"name": "model_4/conv2d_767/Conv2D/ReadVariableOp", "shape": [1, 1, 16, 1], "dtype": "float32", "quantization": {"dtype": "float16", "original_dtype": "float32"}}, {"name": "model_4/tf.compat.v1.transpose_72/transpose/perm", "shape": [4], "dtype": "int32"}, {"name": "model_4/tf.reshape_60/Reshape/shape", "shape": [3], "dtype": "int32"}, {"name": "model_4/tf.concat_226/concat/axis", "shape": [], "dtype": "int32"}, {"name": "model_4/zero_padding2d_456/Pad/paddings", "shape": [4, 2], "dtype": "int32"}, {"name": "model_4/conv2d_749/Conv2D/ReadVariableOp", "shape": [3, 3, 128, 64], "dtype": "float32", "quantization": {"dtype": "float16", "original_dtype": "float32"}}, {"name": "model_4/conv2d_749/BiasAdd/ReadVariableOp", "shape": [64], "dtype": "float32", "quantization": {"dtype": "float16", "original_dtype": "float32"}}, {"name": "model_4/zero_padding2d_457/Pad/paddings", "shape": [4, 2], "dtype": "int32"}, {"name": "model_4/conv2d_750/Conv2D/ReadVariableOp", "shape": [3, 3, 64, 64], "dtype": "float32", "quantization": {"dtype": "float16", "original_dtype": "float32"}}, {"name": "model_4/conv2d_750/BiasAdd/ReadVariableOp", "shape": [64], "dtype": "float32", "quantization": {"dtype": "float16", "original_dtype": "float32"}}, {"name": "model_4/conv2d_751/Conv2D/ReadVariableOp", "shape": [1, 1, 64, 64], "dtype": "float32", "quantization": {"dtype": "float16", "original_dtype": "float32"}}, {"name": "model_4/conv2d_751/BiasAdd/ReadVariableOp", "shape": [64], "dtype": "float32", "quantization": {"dtype": "float16", "original_dtype": "float32"}}, {"name": "model_4/zero_padding2d_458/Pad/paddings", "shape": [4, 2], "dtype": "int32"}, {"name": "model_4/conv2d_752/Conv2D/ReadVariableOp", "shape": [3, 3, 128, 128], "dtype": "float32", "quantization": {"dtype": "float16", "original_dtype": "float32"}}, {"name": "model_4/conv2d_752/BiasAdd/ReadVariableOp", "shape": [128], "dtype": "float32", "quantization": {"dtype": "float16", "original_dtype": "float32"}}, {"name": "model_4/zero_padding2d_459/Pad/paddings", "shape": [4, 2], "dtype": "int32"}, {"name": "model_4/conv2d_753/Conv2D/ReadVariableOp", "shape": [3, 3, 128, 128], "dtype": "float32", "quantization": {"dtype": "float16", "original_dtype": "float32"}}, {"name": "model_4/conv2d_753/BiasAdd/ReadVariableOp", "shape": [128], "dtype": "float32", "quantization": {"dtype": "float16", "original_dtype": "float32"}}, {"name": "model_4/conv2d_754/Conv2D/ReadVariableOp", "shape": [1, 1, 128, 12], "dtype": "float32", "quantization": {"dtype": "float16", "original_dtype": "float32"}}, {"name": "model_4/conv2d_754/BiasAdd/ReadVariableOp", "shape": [12], "dtype": "float32", "quantization": {"dtype": "float16", "original_dtype": "float32"}}, {"name": "model_4/tf.concat_222/concat/axis", "shape": [], "dtype": "int32"}, {"name": "model_4/tf.compat.v1.transpose_67/transpose/perm", "shape": [4], "dtype": "int32"}, {"name": "model_4/tf.reshape_56/Reshape/shape", "shape": [3], "dtype": "int32"}, {"name": "model_4/zero_padding2d_460/Pad/paddings", "shape": [4, 2], "dtype": "int32"}, {"name": "model_4/conv2d_755/Conv2D/ReadVariableOp", "shape": [3, 3, 256, 64], "dtype": "float32", "quantization": {"dtype": "float16", "original_dtype": "float32"}}, {"name": "model_4/conv2d_755/BiasAdd/ReadVariableOp", "shape": [64], "dtype": "float32", "quantization": {"dtype": "float16", "original_dtype": "float32"}}, {"name": "model_4/zero_padding2d_461/Pad/paddings", "shape": [4, 2], "dtype": "int32"}, {"name": "model_4/conv2d_756/Conv2D/ReadVariableOp", "shape": [3, 3, 64, 64], "dtype": "float32", "quantization": {"dtype": "float16", "original_dtype": "float32"}}, {"name": "model_4/conv2d_756/BiasAdd/ReadVariableOp", "shape": [64], "dtype": "float32", "quantization": {"dtype": "float16", "original_dtype": "float32"}}, {"name": "model_4/conv2d_757/Conv2D/ReadVariableOp", "shape": [1, 1, 64, 64], "dtype": "float32", "quantization": {"dtype": "float16", "original_dtype": "float32"}}, {"name": "model_4/conv2d_757/BiasAdd/ReadVariableOp", "shape": [64], "dtype": "float32", "quantization": {"dtype": "float16", "original_dtype": "float32"}}, {"name": "model_4/zero_padding2d_462/Pad/paddings", "shape": [4, 2], "dtype": "int32"}, {"name": "model_4/conv2d_758/Conv2D/ReadVariableOp", "shape": [3, 3, 256, 128], "dtype": "float32", "quantization": {"dtype": "float16", "original_dtype": "float32"}}, {"name": "model_4/conv2d_758/BiasAdd/ReadVariableOp", "shape": [128], "dtype": "float32", "quantization": {"dtype": "float16", "original_dtype": "float32"}}, {"name": "model_4/zero_padding2d_463/Pad/paddings", "shape": [4, 2], "dtype": "int32"}, {"name": "model_4/conv2d_759/Conv2D/ReadVariableOp", "shape": [3, 3, 128, 128], "dtype": "float32", "quantization": {"dtype": "float16", "original_dtype": "float32"}}, {"name": "model_4/conv2d_759/BiasAdd/ReadVariableOp", "shape": [128], "dtype": "float32", "quantization": {"dtype": "float16", "original_dtype": "float32"}}, {"name": "model_4/conv2d_760/Conv2D/ReadVariableOp", "shape": [1, 1, 128, 12], "dtype": "float32", "quantization": {"dtype": "float16", "original_dtype": "float32"}}, {"name": "model_4/conv2d_760/BiasAdd/ReadVariableOp", "shape": [12], "dtype": "float32", "quantization": {"dtype": "float16", "original_dtype": "float32"}}, {"name": "model_4/tf.concat_223/concat/axis", "shape": [], "dtype": "int32"}, {"name": "model_4/tf.compat.v1.transpose_68/transpose/perm", "shape": [4], "dtype": "int32"}, {"name": "model_4/tf.reshape_57/Reshape/shape", "shape": [3], "dtype": "int32"}, {"name": "model_4/zero_padding2d_464/Pad/paddings", "shape": [4, 2], "dtype": "int32"}, {"name": "model_4/conv2d_761/Conv2D/ReadVariableOp", "shape": [3, 3, 512, 64], "dtype": "float32", "quantization": {"dtype": "float16", "original_dtype": "float32"}}, {"name": "model_4/conv2d_761/BiasAdd/ReadVariableOp", "shape": [64], "dtype": "float32", "quantization": {"dtype": "float16", "original_dtype": "float32"}}, {"name": "model_4/zero_padding2d_465/Pad/paddings", "shape": [4, 2], "dtype": "int32"}, {"name": "model_4/conv2d_762/Conv2D/ReadVariableOp", "shape": [3, 3, 64, 64], "dtype": "float32", "quantization": {"dtype": "float16", "original_dtype": "float32"}}, {"name": "model_4/conv2d_762/BiasAdd/ReadVariableOp", "shape": [64], "dtype": "float32", "quantization": {"dtype": "float16", "original_dtype": "float32"}}, {"name": "model_4/conv2d_763/Conv2D/ReadVariableOp", "shape": [1, 1, 64, 64], "dtype": "float32", "quantization": {"dtype": "float16", "original_dtype": "float32"}}, {"name": "model_4/conv2d_763/BiasAdd/ReadVariableOp", "shape": [64], "dtype": "float32", "quantization": {"dtype": "float16", "original_dtype": "float32"}}, {"name": "model_4/tf.split_108/split/split_dim", "shape": [], "dtype": "int32"}, {"name": "model_4/tf.split_107/split/split_dim", "shape": [], "dtype": "int32"}, {"name": "model_4/tf.split_106/split/split_dim", "shape": [], "dtype": "int32"}, {"name": "model_4/tf.image.resize_23/resize/size", "shape": [2], "dtype": "int32"}, {"name": "model_4/tf.concat_216/concat/axis", "shape": [], "dtype": "int32"}, {"name": "model_4/conv2d_735/Conv2D/ReadVariableOp", "shape": [1, 1, 384, 128], "dtype": "float32", "quantization": {"dtype": "float16", "original_dtype": "float32"}}, {"name": "model_4/conv2d_735/BiasAdd/ReadVariableOp", "shape": [128], "dtype": "float32", "quantization": {"dtype": "float16", "original_dtype": "float32"}}, {"name": "model_4/zero_padding2d_448/Pad/paddings", "shape": [4, 2], "dtype": "int32"}, {"name": "model_4/conv2d_736/Conv2D/ReadVariableOp", "shape": [3, 3, 64, 64], "dtype": "float32", "quantization": {"dtype": "float16", "original_dtype": "float32"}}, {"name": "model_4/conv2d_736/BiasAdd/ReadVariableOp", "shape": [64], "dtype": "float32", "quantization": {"dtype": "float16", "original_dtype": "float32"}}, {"name": "model_4/zero_padding2d_449/Pad/paddings", "shape": [4, 2], "dtype": "int32"}, {"name": "model_4/conv2d_737/Conv2D/ReadVariableOp", "shape": [3, 3, 64, 64], "dtype": "float32", "quantization": {"dtype": "float16", "original_dtype": "float32"}}, {"name": "model_4/conv2d_737/BiasAdd/ReadVariableOp", "shape": [64], "dtype": "float32", "quantization": {"dtype": "float16", "original_dtype": "float32"}}, {"name": "model_4/tf.concat_217/concat/axis", "shape": [], "dtype": "int32"}, {"name": "model_4/conv2d_738/Conv2D/ReadVariableOp", "shape": [1, 1, 192, 128], "dtype": "float32", "quantization": {"dtype": "float16", "original_dtype": "float32"}}, {"name": "model_4/conv2d_738/BiasAdd/ReadVariableOp", "shape": [128], "dtype": "float32", "quantization": {"dtype": "float16", "original_dtype": "float32"}}, {"name": "model_4/zero_padding2d_450/Pad/paddings", "shape": [4, 2], "dtype": "int32"}, {"name": "model_4/conv2d_739/Conv2D/ReadVariableOp", "shape": [3, 3, 128, 128], "dtype": "float32", "quantization": {"dtype": "float16", "original_dtype": "float32"}}, {"name": "model_4/conv2d_739/BiasAdd/ReadVariableOp", "shape": [128], "dtype": "float32", "quantization": {"dtype": "float16", "original_dtype": "float32"}}, {"name": "model_4/tf.split_105/split/split_dim", "shape": [], "dtype": "int32"}, {"name": "model_4/tf.image.resize_22/resize/size", "shape": [2], "dtype": "int32"}, {"name": "model_4/tf.concat_214/concat/axis", "shape": [], "dtype": "int32"}, {"name": "model_4/conv2d_731/Conv2D/ReadVariableOp", "shape": [1, 1, 768, 256], "dtype": "float32", "quantization": {"dtype": "float16", "original_dtype": "float32"}}, {"name": "model_4/conv2d_731/BiasAdd/ReadVariableOp", "shape": [256], "dtype": "float32", "quantization": {"dtype": "float16", "original_dtype": "float32"}}, {"name": "model_4/zero_padding2d_446/Pad/paddings", "shape": [4, 2], "dtype": "int32"}, {"name": "model_4/conv2d_732/Conv2D/ReadVariableOp", "shape": [3, 3, 128, 128], "dtype": "float32", "quantization": {"dtype": "float16", "original_dtype": "float32"}}, {"name": "model_4/conv2d_732/BiasAdd/ReadVariableOp", "shape": [128], "dtype": "float32", "quantization": {"dtype": "float16", "original_dtype": "float32"}}, {"name": "model_4/zero_padding2d_447/Pad/paddings", "shape": [4, 2], "dtype": "int32"}, {"name": "model_4/conv2d_733/Conv2D/ReadVariableOp", "shape": [3, 3, 128, 128], "dtype": "float32", "quantization": {"dtype": "float16", "original_dtype": "float32"}}, {"name": "model_4/conv2d_733/BiasAdd/ReadVariableOp", "shape": [128], "dtype": "float32", "quantization": {"dtype": "float16", "original_dtype": "float32"}}, {"name": "model_4/tf.concat_215/concat/axis", "shape": [], "dtype": "int32"}, {"name": "model_4/conv2d_734/Conv2D/ReadVariableOp", "shape": [1, 1, 384, 256], "dtype": "float32", "quantization": {"dtype": "float16", "original_dtype": "float32"}}, {"name": "model_4/conv2d_734/BiasAdd/ReadVariableOp", "shape": [256], "dtype": "float32", "quantization": {"dtype": "float16", "original_dtype": "float32"}}, {"name": "model_4/tf.concat_218/concat/axis", "shape": [], "dtype": "int32"}, {"name": "model_4/conv2d_740/Conv2D/ReadVariableOp", "shape": [1, 1, 384, 256], "dtype": "float32", "quantization": {"dtype": "float16", "original_dtype": "float32"}}, {"name": "model_4/conv2d_740/BiasAdd/ReadVariableOp", "shape": [256], "dtype": "float32", "quantization": {"dtype": "float16", "original_dtype": "float32"}}, {"name": "model_4/zero_padding2d_451/Pad/paddings", "shape": [4, 2], "dtype": "int32"}, {"name": "model_4/conv2d_741/Conv2D/ReadVariableOp", "shape": [3, 3, 128, 128], "dtype": "float32", "quantization": {"dtype": "float16", "original_dtype": "float32"}}, {"name": "model_4/conv2d_741/BiasAdd/ReadVariableOp", "shape": [128], "dtype": "float32", "quantization": {"dtype": "float16", "original_dtype": "float32"}}, {"name": "model_4/zero_padding2d_452/Pad/paddings", "shape": [4, 2], "dtype": "int32"}, {"name": "model_4/conv2d_742/Conv2D/ReadVariableOp", "shape": [3, 3, 128, 128], "dtype": "float32", "quantization": {"dtype": "float16", "original_dtype": "float32"}}, {"name": "model_4/conv2d_742/BiasAdd/ReadVariableOp", "shape": [128], "dtype": "float32", "quantization": {"dtype": "float16", "original_dtype": "float32"}}, {"name": "model_4/tf.concat_219/concat/axis", "shape": [], "dtype": "int32"}, {"name": "model_4/conv2d_743/Conv2D/ReadVariableOp", "shape": [1, 1, 384, 256], "dtype": "float32", "quantization": {"dtype": "float16", "original_dtype": "float32"}}, {"name": "model_4/conv2d_743/BiasAdd/ReadVariableOp", "shape": [256], "dtype": "float32", "quantization": {"dtype": "float16", "original_dtype": "float32"}}, {"name": "model_4/zero_padding2d_453/Pad/paddings", "shape": [4, 2], "dtype": "int32"}, {"name": "model_4/conv2d_744/Conv2D/ReadVariableOp", "shape": [3, 3, 256, 256], "dtype": "float32", "quantization": {"dtype": "float16", "original_dtype": "float32"}}, {"name": "model_4/conv2d_744/BiasAdd/ReadVariableOp", "shape": [256], "dtype": "float32", "quantization": {"dtype": "float16", "original_dtype": "float32"}}, {"name": "model_4/tf.split_104/split/split_dim", "shape": [], "dtype": "int32"}, {"name": "model_4/tf.split_103/split/split_dim", "shape": [], "dtype": "int32"}, {"name": "model_4/tf.split_102/split/split_dim", "shape": [], "dtype": "int32"}, {"name": "model_4/tf.split_101/split/split_dim", "shape": [], "dtype": "int32"}, {"name": "model_4/zero_padding2d_429/Pad/paddings", "shape": [4, 2], "dtype": "int32"}, {"name": "model_4/conv2d_704/Conv2D/ReadVariableOp", "shape": [3, 3, 3, 32], "dtype": "float32", "quantization": {"dtype": "float16", "original_dtype": "float32"}}, {"name": "model_4/conv2d_704/BiasAdd/ReadVariableOp", "shape": [32], "dtype": "float32", "quantization": {"dtype": "float16", "original_dtype": "float32"}}, {"name": "model_4/zero_padding2d_430/Pad/paddings", "shape": [4, 2], "dtype": "int32"}, {"name": "model_4/conv2d_705/Conv2D/ReadVariableOp", "shape": [3, 3, 32, 64], "dtype": "float32", "quantization": {"dtype": "float16", "original_dtype": "float32"}}, {"name": "model_4/conv2d_705/BiasAdd/ReadVariableOp", "shape": [64], "dtype": "float32", "quantization": {"dtype": "float16", "original_dtype": "float32"}}, {"name": "model_4/conv2d_706/Conv2D/ReadVariableOp", "shape": [1, 1, 64, 64], "dtype": "float32", "quantization": {"dtype": "float16", "original_dtype": "float32"}}, {"name": "model_4/conv2d_706/BiasAdd/ReadVariableOp", "shape": [64], "dtype": "float32", "quantization": {"dtype": "float16", "original_dtype": "float32"}}, {"name": "model_4/zero_padding2d_431/Pad/paddings", "shape": [4, 2], "dtype": "int32"}, {"name": "model_4/conv2d_707/Conv2D/ReadVariableOp", "shape": [3, 3, 32, 32], "dtype": "float32", "quantization": {"dtype": "float16", "original_dtype": "float32"}}, {"name": "model_4/conv2d_707/BiasAdd/ReadVariableOp", "shape": [32], "dtype": "float32", "quantization": {"dtype": "float16", "original_dtype": "float32"}}, {"name": "model_4/zero_padding2d_432/Pad/paddings", "shape": [4, 2], "dtype": "int32"}, {"name": "model_4/conv2d_708/Conv2D/ReadVariableOp", "shape": [3, 3, 32, 32], "dtype": "float32", "quantization": {"dtype": "float16", "original_dtype": "float32"}}, {"name": "model_4/conv2d_708/BiasAdd/ReadVariableOp", "shape": [32], "dtype": "float32", "quantization": {"dtype": "float16", "original_dtype": "float32"}}, {"name": "model_4/tf.concat_209/concat/axis", "shape": [], "dtype": "int32"}, {"name": "model_4/conv2d_709/Conv2D/ReadVariableOp", "shape": [1, 1, 96, 64], "dtype": "float32", "quantization": {"dtype": "float16", "original_dtype": "float32"}}, {"name": "model_4/conv2d_709/BiasAdd/ReadVariableOp", "shape": [64], "dtype": "float32", "quantization": {"dtype": "float16", "original_dtype": "float32"}}, {"name": "model_4/zero_padding2d_433/Pad/paddings", "shape": [4, 2], "dtype": "int32"}, {"name": "model_4/conv2d_710/Conv2D/ReadVariableOp", "shape": [3, 3, 64, 128], "dtype": "float32", "quantization": {"dtype": "float16", "original_dtype": "float32"}}, {"name": "model_4/conv2d_710/BiasAdd/ReadVariableOp", "shape": [128], "dtype": "float32", "quantization": {"dtype": "float16", "original_dtype": "float32"}}, {"name": "model_4/conv2d_711/Conv2D/ReadVariableOp", "shape": [1, 1, 128, 128], "dtype": "float32", "quantization": {"dtype": "float16", "original_dtype": "float32"}}, {"name": "model_4/conv2d_711/BiasAdd/ReadVariableOp", "shape": [128], "dtype": "float32", "quantization": {"dtype": "float16", "original_dtype": "float32"}}, {"name": "model_4/zero_padding2d_434/Pad/paddings", "shape": [4, 2], "dtype": "int32"}, {"name": "model_4/conv2d_712/Conv2D/ReadVariableOp", "shape": [3, 3, 64, 64], "dtype": "float32", "quantization": {"dtype": "float16", "original_dtype": "float32"}}, {"name": "model_4/conv2d_712/BiasAdd/ReadVariableOp", "shape": [64], "dtype": "float32", "quantization": {"dtype": "float16", "original_dtype": "float32"}}, {"name": "model_4/zero_padding2d_435/Pad/paddings", "shape": [4, 2], "dtype": "int32"}, {"name": "model_4/conv2d_713/Conv2D/ReadVariableOp", "shape": [3, 3, 64, 64], "dtype": "float32", "quantization": {"dtype": "float16", "original_dtype": "float32"}}, {"name": "model_4/conv2d_713/BiasAdd/ReadVariableOp", "shape": [64], "dtype": "float32", "quantization": {"dtype": "float16", "original_dtype": "float32"}}, {"name": "model_4/zero_padding2d_436/Pad/paddings", "shape": [4, 2], "dtype": "int32"}, {"name": "model_4/conv2d_714/Conv2D/ReadVariableOp", "shape": [3, 3, 64, 64], "dtype": "float32", "quantization": {"dtype": "float16", "original_dtype": "float32"}}, {"name": "model_4/conv2d_714/BiasAdd/ReadVariableOp", "shape": [64], "dtype": "float32", "quantization": {"dtype": "float16", "original_dtype": "float32"}}, {"name": "model_4/zero_padding2d_437/Pad/paddings", "shape": [4, 2], "dtype": "int32"}, {"name": "model_4/conv2d_715/Conv2D/ReadVariableOp", "shape": [3, 3, 64, 64], "dtype": "float32", "quantization": {"dtype": "float16", "original_dtype": "float32"}}, {"name": "model_4/conv2d_715/BiasAdd/ReadVariableOp", "shape": [64], "dtype": "float32", "quantization": {"dtype": "float16", "original_dtype": "float32"}}, {"name": "model_4/tf.concat_210/concat/axis", "shape": [], "dtype": "int32"}, {"name": "model_4/conv2d_716/Conv2D/ReadVariableOp", "shape": [1, 1, 256, 128], "dtype": "float32", "quantization": {"dtype": "float16", "original_dtype": "float32"}}, {"name": "model_4/conv2d_716/BiasAdd/ReadVariableOp", "shape": [128], "dtype": "float32", "quantization": {"dtype": "float16", "original_dtype": "float32"}}, {"name": "model_4/zero_padding2d_438/Pad/paddings", "shape": [4, 2], "dtype": "int32"}, {"name": "model_4/conv2d_717/Conv2D/ReadVariableOp", "shape": [3, 3, 128, 256], "dtype": "float32", "quantization": {"dtype": "float16", "original_dtype": "float32"}}, {"name": "model_4/conv2d_717/BiasAdd/ReadVariableOp", "shape": [256], "dtype": "float32", "quantization": {"dtype": "float16", "original_dtype": "float32"}}, {"name": "model_4/conv2d_718/Conv2D/ReadVariableOp", "shape": [1, 1, 256, 256], "dtype": "float32", "quantization": {"dtype": "float16", "original_dtype": "float32"}}, {"name": "model_4/conv2d_718/BiasAdd/ReadVariableOp", "shape": [256], "dtype": "float32", "quantization": {"dtype": "float16", "original_dtype": "float32"}}, {"name": "model_4/zero_padding2d_439/Pad/paddings", "shape": [4, 2], "dtype": "int32"}, {"name": "model_4/conv2d_719/Conv2D/ReadVariableOp", "shape": [3, 3, 128, 128], "dtype": "float32", "quantization": {"dtype": "float16", "original_dtype": "float32"}}, {"name": "model_4/conv2d_719/BiasAdd/ReadVariableOp", "shape": [128], "dtype": "float32", "quantization": {"dtype": "float16", "original_dtype": "float32"}}, {"name": "model_4/zero_padding2d_440/Pad/paddings", "shape": [4, 2], "dtype": "int32"}, {"name": "model_4/conv2d_720/Conv2D/ReadVariableOp", "shape": [3, 3, 128, 128], "dtype": "float32", "quantization": {"dtype": "float16", "original_dtype": "float32"}}, {"name": "model_4/conv2d_720/BiasAdd/ReadVariableOp", "shape": [128], "dtype": "float32", "quantization": {"dtype": "float16", "original_dtype": "float32"}}, {"name": "model_4/zero_padding2d_441/Pad/paddings", "shape": [4, 2], "dtype": "int32"}, {"name": "model_4/conv2d_721/Conv2D/ReadVariableOp", "shape": [3, 3, 128, 128], "dtype": "float32", "quantization": {"dtype": "float16", "original_dtype": "float32"}}, {"name": "model_4/conv2d_721/BiasAdd/ReadVariableOp", "shape": [128], "dtype": "float32", "quantization": {"dtype": "float16", "original_dtype": "float32"}}, {"name": "model_4/zero_padding2d_442/Pad/paddings", "shape": [4, 2], "dtype": "int32"}, {"name": "model_4/conv2d_722/Conv2D/ReadVariableOp", "shape": [3, 3, 128, 128], "dtype": "float32", "quantization": {"dtype": "float16", "original_dtype": "float32"}}, {"name": "model_4/conv2d_722/BiasAdd/ReadVariableOp", "shape": [128], "dtype": "float32", "quantization": {"dtype": "float16", "original_dtype": "float32"}}, {"name": "model_4/tf.concat_211/concat/axis", "shape": [], "dtype": "int32"}, {"name": "model_4/conv2d_723/Conv2D/ReadVariableOp", "shape": [1, 1, 512, 256], "dtype": "float32", "quantization": {"dtype": "float16", "original_dtype": "float32"}}, {"name": "model_4/conv2d_723/BiasAdd/ReadVariableOp", "shape": [256], "dtype": "float32", "quantization": {"dtype": "float16", "original_dtype": "float32"}}, {"name": "model_4/zero_padding2d_443/Pad/paddings", "shape": [4, 2], "dtype": "int32"}, {"name": "model_4/conv2d_724/Conv2D/ReadVariableOp", "shape": [3, 3, 256, 512], "dtype": "float32", "quantization": {"dtype": "float16", "original_dtype": "float32"}}, {"name": "model_4/conv2d_724/BiasAdd/ReadVariableOp", "shape": [512], "dtype": "float32", "quantization": {"dtype": "float16", "original_dtype": "float32"}}, {"name": "model_4/conv2d_725/Conv2D/ReadVariableOp", "shape": [1, 1, 512, 512], "dtype": "float32", "quantization": {"dtype": "float16", "original_dtype": "float32"}}, {"name": "model_4/conv2d_725/BiasAdd/ReadVariableOp", "shape": [512], "dtype": "float32", "quantization": {"dtype": "float16", "original_dtype": "float32"}}, {"name": "model_4/zero_padding2d_444/Pad/paddings", "shape": [4, 2], "dtype": "int32"}, {"name": "model_4/conv2d_726/Conv2D/ReadVariableOp", "shape": [3, 3, 256, 256], "dtype": "float32", "quantization": {"dtype": "float16", "original_dtype": "float32"}}, {"name": "model_4/conv2d_726/BiasAdd/ReadVariableOp", "shape": [256], "dtype": "float32", "quantization": {"dtype": "float16", "original_dtype": "float32"}}, {"name": "model_4/zero_padding2d_445/Pad/paddings", "shape": [4, 2], "dtype": "int32"}, {"name": "model_4/conv2d_727/Conv2D/ReadVariableOp", "shape": [3, 3, 256, 256], "dtype": "float32", "quantization": {"dtype": "float16", "original_dtype": "float32"}}, {"name": "model_4/conv2d_727/BiasAdd/ReadVariableOp", "shape": [256], "dtype": "float32", "quantization": {"dtype": "float16", "original_dtype": "float32"}}, {"name": "model_4/tf.concat_212/concat/axis", "shape": [], "dtype": "int32"}, {"name": "model_4/conv2d_728/Conv2D/ReadVariableOp", "shape": [1, 1, 768, 512], "dtype": "float32", "quantization": {"dtype": "float16", "original_dtype": "float32"}}, {"name": "model_4/conv2d_728/BiasAdd/ReadVariableOp", "shape": [512], "dtype": "float32", "quantization": {"dtype": "float16", "original_dtype": "float32"}}, {"name": "model_4/conv2d_729/Conv2D/ReadVariableOp", "shape": [1, 1, 512, 256], "dtype": "float32", "quantization": {"dtype": "float16", "original_dtype": "float32"}}, {"name": "model_4/conv2d_729/BiasAdd/ReadVariableOp", "shape": [256], "dtype": "float32", "quantization": {"dtype": "float16", "original_dtype": "float32"}}, {"name": "model_4/tf.compat.v1.pad_33/PadV2/paddings", "shape": [4, 2], "dtype": "int32"}, {"name": "model_4/tf.compat.v1.pad_33/PadV2/constant_values", "shape": [], "dtype": "float32", "quantization": {"dtype": "float16", "original_dtype": "float32"}}, {"name": "model_4/tf.compat.v1.pad_34/PadV2/paddings", "shape": [4, 2], "dtype": "int32"}, {"name": "model_4/tf.compat.v1.pad_34/PadV2/constant_values", "shape": [], "dtype": "float32", "quantization": {"dtype": "float16", "original_dtype": "float32"}}, {"name": "model_4/tf.compat.v1.pad_35/PadV2/paddings", "shape": [4, 2], "dtype": "int32"}, {"name": "model_4/tf.compat.v1.pad_35/PadV2/constant_values", "shape": [], "dtype": "float32", "quantization": {"dtype": "float16", "original_dtype": "float32"}}, {"name": "model_4/tf.concat_213/concat/axis", "shape": [], "dtype": "int32"}, {"name": "model_4/conv2d_730/Conv2D/ReadVariableOp", "shape": [1, 1, 1024, 512], "dtype": "float32", "quantization": {"dtype": "float16", "original_dtype": "float32"}}, {"name": "model_4/conv2d_730/BiasAdd/ReadVariableOp", "shape": [512], "dtype": "float32", "quantization": {"dtype": "float16", "original_dtype": "float32"}}, {"name": "model_4/tf.concat_220/concat/axis", "shape": [], "dtype": "int32"}, {"name": "model_4/conv2d_745/Conv2D/ReadVariableOp", "shape": [1, 1, 768, 512], "dtype": "float32", "quantization": {"dtype": "float16", "original_dtype": "float32"}}, {"name": "model_4/conv2d_745/BiasAdd/ReadVariableOp", "shape": [512], "dtype": "float32", "quantization": {"dtype": "float16", "original_dtype": "float32"}}, {"name": "model_4/zero_padding2d_454/Pad/paddings", "shape": [4, 2], "dtype": "int32"}, {"name": "model_4/conv2d_746/Conv2D/ReadVariableOp", "shape": [3, 3, 256, 256], "dtype": "float32", "quantization": {"dtype": "float16", "original_dtype": "float32"}}, {"name": "model_4/conv2d_746/BiasAdd/ReadVariableOp", "shape": [256], "dtype": "float32", "quantization": {"dtype": "float16", "original_dtype": "float32"}}, {"name": "model_4/zero_padding2d_455/Pad/paddings", "shape": [4, 2], "dtype": "int32"}, {"name": "model_4/conv2d_747/Conv2D/ReadVariableOp", "shape": [3, 3, 256, 256], "dtype": "float32", "quantization": {"dtype": "float16", "original_dtype": "float32"}}, {"name": "model_4/conv2d_747/BiasAdd/ReadVariableOp", "shape": [256], "dtype": "float32", "quantization": {"dtype": "float16", "original_dtype": "float32"}}, {"name": "model_4/tf.concat_221/concat/axis", "shape": [], "dtype": "int32"}, {"name": "model_4/conv2d_748/Conv2D/ReadVariableOp", "shape": [1, 1, 768, 512], "dtype": "float32", "quantization": {"dtype": "float16", "original_dtype": "float32"}}, {"name": "model_4/conv2d_748/BiasAdd/ReadVariableOp", "shape": [512], "dtype": "float32", "quantization": {"dtype": "float16", "original_dtype": "float32"}}, {"name": "model_4/zero_padding2d_466/Pad/paddings", "shape": [4, 2], "dtype": "int32"}, {"name": "model_4/conv2d_764/Conv2D/ReadVariableOp", "shape": [3, 3, 512, 128], "dtype": "float32", "quantization": {"dtype": "float16", "original_dtype": "float32"}}, {"name": "model_4/conv2d_764/BiasAdd/ReadVariableOp", "shape": [128], "dtype": "float32", "quantization": {"dtype": "float16", "original_dtype": "float32"}}, {"name": "model_4/zero_padding2d_467/Pad/paddings", "shape": [4, 2], "dtype": "int32"}, {"name": "model_4/conv2d_765/Conv2D/ReadVariableOp", "shape": [3, 3, 128, 128], "dtype": "float32", "quantization": {"dtype": "float16", "original_dtype": "float32"}}, {"name": "model_4/conv2d_765/BiasAdd/ReadVariableOp", "shape": [128], "dtype": "float32", "quantization": {"dtype": "float16", "original_dtype": "float32"}}, {"name": "model_4/conv2d_766/Conv2D/ReadVariableOp", "shape": [1, 1, 128, 12], "dtype": "float32", "quantization": {"dtype": "float16", "original_dtype": "float32"}}, {"name": "model_4/conv2d_766/BiasAdd/ReadVariableOp", "shape": [12], "dtype": "float32", "quantization": {"dtype": "float16", "original_dtype": "float32"}}, {"name": "model_4/tf.concat_224/concat/axis", "shape": [], "dtype": "int32"}, {"name": "model_4/tf.compat.v1.transpose_69/transpose/perm", "shape": [4], "dtype": "int32"}, {"name": "model_4/tf.reshape_58/Reshape/shape", "shape": [3], "dtype": "int32"}, {"name": "model_4/tf.concat_225/concat/axis", "shape": [], "dtype": "int32"}, {"name": "model_4/tf.__operators__.getitem_136/strided_slice/stack", "shape": [2], "dtype": "int32"}, {"name": "model_4/tf.__operators__.getitem_136/strided_slice/stack_1", "shape": [2], "dtype": "int32"}, {"name": "model_4/tf.__operators__.getitem_136/strided_slice/stack_2", "shape": [2], "dtype": "int32"}, {"name": "model_4/tf.concat_227/concat/axis", "shape": [], "dtype": "int32"}, {"name": "model_4/tf.__operators__.getitem_137/strided_slice/stack", "shape": [3], "dtype": "int32"}, {"name": "model_4/tf.__operators__.getitem_137/strided_slice/stack_1", "shape": [3], "dtype": "int32"}, {"name": "model_4/tf.__operators__.getitem_137/strided_slice/stack_2", "shape": [3], "dtype": "int32"}, {"name": "model_4/tf.math.reduce_max_3/Max/reduction_indices", "shape": [1], "dtype": "int32"}, {"name": "model_4/tf.math.top_k_3/TopKV2/k", "shape": [], "dtype": "int32"}, {"name": "model_4/tf.math.reduce_sum_1/Sum/reduction_indices", "shape": [], "dtype": "int32"}, {"name": "model_4/tf.compat.v1.gather_1/GatherV2/axis", "shape": [], "dtype": "int32"}, {"name": "model_4/tf.expand_dims_14/ExpandDims", "shape": [1, 2, 2835], "dtype": "float32", "quantization": {"dtype": "float16", "original_dtype": "float32"}}, {"name": "model_4/weight_layer_32/StatefulPartitionedCall/Identity", "shape": [1, 2835], "dtype": "float32", "quantization": {"dtype": "float16", "original_dtype": "float32"}}]}]}